IsaacLab/logs/rsl_rl/h1v2_flat/2025-03-13_15-47-53/exported/policy.onnx (onnx, 195410 bytes, 8 tensors)

actor.0.weight f4 [128, 93]
00000000: 9bc5 de3e dda6 38bf 70a9 5f3e 9d2c 133e
00000010: 69c8 8f3e 29a5 9cbd 1d85 6e3f 8547 97be
00000020: 8e93 0b3e bfc3 3c3e 3d68 5bbd b232 9b3d
00000030: 908f 253e 6b3c 543e 0eaf 2cbf 9202 b43e
00000040: ce1f b4be 46f0 83bf 2fff 753e f6a6 bb3e
00000050: 9511 30bf 05ec f8be 17e0 c13e 9502 21be
00000060: 7887 66be ebd1 f1be e525 d23d edb6 1abf
00000070: d609 c53d 0b61 073f 6785 d8bd 96ba 32be
00000080: 9235 cabe 277a 543f 09d3 abbe a778 8e3f
00000090: 4277 093d 5c95 3ebf c3e5 d9be cb12 93bb
000000a0: 7f38 113c dfd5 5abd 8e4c 143d de9f ce3c
000000b0: 2fa9 2cbb 4b00 383d 9158 3bbd 2c77 9d3d
000000c0: cf82 9bbc 51f3 f9bc 304b d2bc 90bf 22bc
000000d0: 33bb 50bc 9e83 113c bc7f 9bbd ef93 813c
000000e0: 4bcb 2abd 4a13 99bd 71ae 9a3d 6bb3 253d
000000f0: 30b9 9abd 40f3 573d b2b0 37bd 1349 8b3d
00000100: 2c66 61bd 62a2 423d a740 23bd c632 a3bd
00000110: 1abb 0bbe bdc0 3dbe 7686 b5bc 43eb 47be
00000120: 8d72 2dbd 750b aa3c 6a36 e93c ea06 3dbd
00000130: fdd2 51bd 0805 a63d ad3a 37be 1270 d43c
00000140: fe10 83bd fe72 963d f4e3 1abe 5860 543d
00000150: 2523 803d e410 303d 0d4b 1f3e b79c 173e
00000160: bc65 84bc 1f9f 563d e435 bfbd 7af7 b339
00000170: 9c63 25bd 614f 02bf 1d46 d13e 77f6 aabe
00000180: e249 083e e21c 27bc 6425 f3bd 2a31 1bbf
00000190: 4a6e a1be 3905 0b3e f81d 193e dc30 b93c
000001a0: 1013 a23e 5ff4 8e3d 1089 e83c 20d8 b3be
000001b0: 6857 e43d d995 a5be 44d9 813d 5046 273e
000001c0: b499 993c 50fa cfbe c032 d5be da4d 0cbf
000001d0: c5ba 35be ed22 0fbf 9f6e 7fbe c73a f5be
000001e0: f221 0d3e 843b 293e 7c59 dfbd 57de a6be
000001f0: 503f 9fbe 4b12 2f3b 93a3 0bbe a818 dcbe
00000200: bb02 84be ca35 84bd 0477 ad3d 9472 c53e
00000210: 586c 813c 8bc1 6dbc 8b05 f2bd 03c0 7ebc
00000220: 5b42 b33d cc93 3e3c 2057 2b3d 4345 eebc
00000230: 3ea9 b13c dc81 f5bc c97c dabd fcd9 ed3c
00000240: 9823 92bd 1482 2d3d 92ab 36ba df97 08bc
00000250: cf45 2b3e 3792 1cbc 7b84 183d 6c71 17bd
00000260: 5282 b9bc 2ffc 42bc b33b 053d 11e3 053d
00000270: 34a3 593d 065e 90bc aa67 1dbc 6667 ccbd
00000280: 81b7 19bd 3bf6 51be da9d e93d ab43 9a3d
00000290: aa6e 15bd c129 093c 69c0 48be 1954 113e
000002a0: 7406 87ba f999 553a 3c72 113c 8416 fd3c
000002b0: f129 88bc 72be 0ebd 97a0 823e 3175 50be
000002c0: 35d8 1d3e 2654 7f3d dd6f d83d b3c8 22bc
000002d0: 7d06 ee3b ce7e 94bd d399 17bd adff c8bd
000002e0: d96a b43c 4285 0d3e 3b9f 873a fcb2 47be
000002f0: fd23 83bc a937 643e 5e98 773c e2a1 c2bd
00000300: 87ce a1bd add9 d3bd 35ba 603e 41f7 c0bb
00000310: ecbc 8bbd f4c2 8e3c dac6 303e 9cae 0d3f
00000320: cdc9 f9be aab2 983e 2a61 f5be 15c5 983c
00000330: ebb6 403d 50fc 083f 76f6 453f b851 40be
00000340: a000 b1be f655 fdbd ea33 8e3d 15d2 013f
00000350: fc17 2bbe e910 863d c3c2 e03e ea4c 9e3e
00000360: f525 cd3d b4c6 95bd a4fc 4dbf 2160 ca3d
00000370: 56b4 40bd 408b b3be 71f1 e53e 8fd4 0a3e
00000380: 1fc7 843e 3193 35bd 06b4 8bbd 09cd aa3d
00000390: 9f21 d8bd 7208 553c fc89 263d e605 0abd
000003a0: 84d7 b0bd e3f4 ce3c e87d 7abd 8077 103e
000003b0: 3e26 30bd 3423 78bc 2953 c0bd 70e3 8bbc
000003c0: 2661 43bd 462b 65bd 6e01 39bd cf0f 62bd
000003d0: ffb4 38bd 6987 113e 058b 463d 1456 8f3d
000003e0: ba45 c13c 4cb8 5dbc 0f8f ff3c 0d68 4bbd
000003f0: c97f f2bd 9984 3c3e cba8 83be 9898 7bbd
0.43510136 -0.72129613 0.21841979 0.14372487 0.28082588 -0.07648689 0.93171865 -0.29546753
0.13630506 0.18434046 -0.053566206 0.07578029 0.16168046 0.20726173 -0.6745461 0.3515821
-0.35180515 -1.0307701 0.24023126 0.3665082 -0.6877683 -0.4861757 0.3786628 -0.15723641
-0.22512615 -0.47230467 0.10261134 -0.6043537 0.09621017 0.5288245 -0.105723195 -0.1745399
-0.39493996 0.8299889 -0.33559445 1.113057 0.033561 -0.74446654 -0.42558107 -0.0044883243
0.008863567 -0.05342662 0.03620582 0.025222715 -0.0026345958 0.044922154 -0.04573876 0.07688746
-0.018983273 -0.03051153 -0.025670618 -0.009933367 -0.012739944 0.008881478 -0.07592723 0.01581761
-0.04169778 -0.07474382 0.07552803 0.04045431 -0.07554853 0.052722216 -0.044846244 0.06801047
-0.05502908 0.04751814 -0.03985658 -0.07968669 -0.13645592 -0.18530555 -0.022158843 -0.19523339
-0.042345572 0.020757416 0.02846833 -0.046149172 -0.051226605 0.081064284 -0.17893477 0.025932346
-0.063997254 0.07346152 -0.1512602 0.051849693 0.06256703 0.04298486 0.15555973 0.14805876
-0.016161792 0.052397843 -0.09336451 0.00034325925 -0.040378198 -0.5090237 0.40873805 -0.33391163
0.13309434 -0.010199757 -0.11872366 -0.60621893 -0.31529456 0.13576211 0.14952838 0.022606306
0.3165517 0.06980204 0.028385669 -0.35125828 0.11149484 -0.32340887 0.06340268 0.16335416
0.01875005 -0.4062066 -0.41640282 -0.5480629 -0.17747028 -0.5591267 -0.24944542 -0.47896406
0.1378248 0.1652661 -0.1090574 -0.32591507 -0.3110299 0.0026713784 -0.13636617 -0.4298756
-0.25783333 -0.06455572 0.08469966 0.3856398 0.015798733 -0.014511476 -0.118174635 -0.015548709
0.08752891 0.011631917 0.041831136 -0.029085761 0.021687146 -0.029969148 -0.10668332 0.029034607
-0.07135695 0.04236038 -0.0006968315 -0.00833699 0.16725849 -0.009556345 0.03723572 -0.036973402
-0.02264515 -0.011900946 0.032527637 0.03268725 0.05313416 -0.017622959 -0.009607235 -0.09980659
-0.03752852 -0.20504086 0.11407061 0.07532438 -0.03648249 0.008371771 -0.19604649 0.14192237
-0.0010301606 0.0008148249 0.008877333 0.030894525 -0.016621562 -0.03484959 0.25513145 -0.20357205
0.15414508 0.06233611 0.10568211 -0.009935546 0.007263957 -0.072507486 -0.037011933 -0.09814391
0.022023605 0.13820365 0.0010347137 -0.19501871 -0.016008371 0.22286858 0.015112011 -0.09503533
-0.0790072 -0.10344253 0.21946032 -0.00588885 -0.06823143 0.017426945 0.17263356 0.5534456
-0.48786774 0.2982381 -0.47925693 0.018648664 0.047049444 0.5351 0.77329195 -0.18781173
-0.3457079 -0.123699114 0.069434956 0.50711185 -0.16708368 0.06546194 0.4389859 0.30918056
0.10017005 -0.0731329 -0.80463624 0.098816164 -0.04704698 -0.35067177 0.44910768 0.13557647
0.25933167 -0.044329826 -0.06821446 0.083398886 -0.10553288 0.013002502 0.040658936 -0.03369703
-0.08634856 0.025263255 -0.06115523 0.14108086 -0.04300522 -0.015145112 -0.093908615 -0.017076224
-0.04770007 -0.055949472 -0.04516738 -0.055190857 -0.045094486 0.14211811 0.048472423 0.0699884
0.023592819 -0.013532709 0.031196145 -0.049659777 -0.11840779 0.18409957 -0.25714716 -0.06142482

actor.0.bias f4 [128]
00000000: 46e2 e0bd 1770 d5bd 2f41 c5bd 81e8 aa3c
00000010: 8ccd 27be 2854 8a3d d16e 9dbd 826e 96bc
00000020: 1072 4fbe 51a5 91bd 018e 933d fc3b 40bc
00000030: 96c1 5abe 6a72 183d 61f7 1dbd 3cf8 99ba
00000040: ad9e ad3d 3b3c 773c d75b 693d a72c 473e
00000050: 5dab 79bd bdc8 e1bc 817a 0d3c dcb0 1ebc
00000060: 1944 12be 05c7 763e 78ca 5b3d 4b8f 823d
00000070: 03b8 863a be4f 65bd e6db 4ebe 7930 0dbe
00000080: 3431 c73d 68e2 24be a89d 4cbc 5151 da3c
00000090: 34d4 0c3e ab9c 0fbe d3bf 53bd 1cd3 003d
000000a0: 508c a23c 79c8 a0bd 1a7c 883d 9610 92bd
000000b0: 5b4e e0bd 4616 a83d ae95 7cbd 823b d83d
000000c0: 75cd 3ebe c4f2 113d 127b b5bd 4c1b 2bbc
000000d0: e570 84bd 1b2e 53bd c67d 173d d34d 24be
000000e0: f428 5ebd 5ff9 1d3c 609c 3cbe ca8d 0dbe
000000f0: 25be 92bd 6e7c 87bd 23b8 393d 8e75 bbbb
00000100: 5e82 c9bd c796 dd3a 0590 94bd 946f efbd
00000110: a49f 443d 5d7c 47bd 5705 a1bb 7883 04be
00000120: f5ac a7bd 6b4d 5d3d 672c f33d 6787 38be
00000130: 90f4 89bd 3e7f a7bd 1117 e7bd 19b0 dbbc
00000140: fb20 fbbd 77a0 06bd 9db5 993d c915 a13d
00000150: 2036 36be 6940 e6bd e2e3 953c 4728 e33d
00000160: 8db8 94be 5252 4ebd 9417 083d 348c e3bd
00000170: ff4c 0fbe 08b2 25be 8497 60bd 3062 bc3d
00000180: 3f68 46bd 52ed 2a3d c024 ddbd 6449 0bbe
00000190: e298 0fbe dfd5 293d f24b edbd 3fde 433e
000001a0: 25ad ee3d 0ce4 2ebe d570 32bd 599f 28bd
000001b0: c8b0 de3d 8165 07be fc36 fc3d 0c5a febd
000001c0: f0fa 0d3e 4ad9 0bbe 0cb3 a5bc f364 79bc
000001d0: e9f5 fcbd fa6b 0bbe efbc f4bc e5a7 dfbd
000001e0: 07c3 b33d ae4e 60bd 909a 993c 00a2 32be
000001f0: 89e5 b6bd 9bf7 553d 0f3b cebd cf5a 25be
-0.10980658 -0.1042177 -0.096315734 0.02086282 -0.16387004 0.06754333 -0.07687152 -0.018363241
-0.20258355 -0.0711161 0.072048195 -0.011733051 -0.2136291 0.03721849 -0.038565997 -0.0011746953
0.08477531 0.015090044 0.05697235 0.19450627 -0.06095444 -0.02756154 0.008635164 -0.009685721
-0.1428379 0.24099357 0.053659886 0.06374987 0.0010278228 -0.05598425 -0.20201072 -0.13788022
0.097261816 -0.16101992 -0.01248876 0.026650103 0.13752824 -0.14024608 -0.05169661 0.03145133
0.019842297 -0.07850737 0.066642955 -0.0713207 -0.10952445 0.08207373 -0.061666183 0.10558225
-0.18633063 0.03563191 -0.088613644 -0.01044352 -0.064668454 -0.05155764 0.03698518 -0.16045313
-0.054238275 0.009641974 -0.18419027 -0.1382362 -0.071651734 -0.0661553 0.045341622 -0.0057208007
-0.09839319 0.0016905897 -0.07254032 -0.11691204 0.048003808 -0.048702586 -0.0049139666 -0.12940776
-0.08187286 0.05402891 0.118737034 -0.18020402 -0.067361 -0.081785664 -0.112836964 -0.026817368
-0.1226215 -0.032867875 0.07505343 0.07865483 -0.17794085 -0.11242754 0.01829714 0.11091667
-0.2904705 -0.050371476 0.03322561 -0.11110726 -0.13994215 -0.16181195 -0.054831997 0.09198415
-0.04843926 0.041730233 -0.10798025 -0.13602215 -0.14023164 0.04146373 -0.11586751 0.19127749
0.116541184 -0.1707918 -0.043564636 -0.04116759 0.10873562 -0.13222314 0.12315175 -0.12419519
0.13865256 -0.13657108 -0.020226978 -0.015221822 -0.12351591 -0.13615409 -0.029875247 -0.10920695
0.08777433 -0.054762535 0.018750459 -0.1744461 -0.08930499 0.052238088 -0.10069858 -0.16147922

actor.2.weight f4 [128, 128]
00000000: d3f6 cb3b 885d fb3d 6545 603d 5a13 19bb
00000010: 5b26 32bd 3620 fb3b 63a8 a6bd a6d6 74bd
00000020: ef14 69ba 80f2 263d f95e c9bb 7c65 d4bd
00000030: 2036 eabd fe70 2f3d f581 afbd 3f6b c73c
00000040: 3408 6cbd fd44 cfbd 2b36 14be e9e4 0bbe
00000050: 4576 953c 0376 7abd 8f1e 01be e073 9ebd
00000060: 3a69 04be 9660 2a3c 6e15 943d d44b f1bc
00000070: c8fd 6b3c 3aee 39be 7803 41be bfe3 59be
00000080: d424 e7bd 7491 e33d ffc5 f93d 9f34 b1bc
00000090: 4b77 3cbd 3293 44bd fc9d 963d 49e4 de3c
000000a0: c13c bfbd 5a1d 95bd cb28 9cb9 6ee5 dd3d
000000b0: dc46 48bd 8116 29bd 6a9e cc3b 40dc 63bc
000000c0: 7b63 debd b7e8 6bbd cab9 283e 77de b63d
000000d0: f90c 96bd f9b6 e3bd d3f3 183d 3fc7 d63d
000000e0: 00a5 ac3d 4597 713d ee27 e9bd cacb d33d
000000f0: 58d2 193e 56c7 f2bd 2366 edbc 54b7 d73c
00000100: a082 7dbd ce86 87bd 1a28 11be 1397 68bc
00000110: 2756 893d b8b9 0bbd 8232 503c 4fce d73d
00000120: dffe 36be 5537 d8bd c5d0 e0bd a429 cdbd
00000130: f60d cdbd d94b 4a3d ba89 353d 7bd3 c5bd
00000140: 2275 2ebe ded3 b2bd 3b0b bf3c ed8d 1abe
00000150: add3 f8bc 5884 9a3d ccd1 56bd 7e99 4939
00000160: 3c46 903d d566 af3d 2f0b 95bd f0bb c53d
00000170: f492 d3bd fbaf 8bbd 4215 a33d 52fc 063e
00000180: e0d0 a7bd 2952 f8bd b144 2ebd 6dad 1fbd
00000190: 6b70 1d3d 0e01 6f3d 79fc 24bb e414 7bbd
000001a0: c154 f8bb 51df ff3c 8ee4 203d 7aea 9dba
000001b0: 3f78 bdbd 64f1 89bd 6ba7 cf3d 9244 c0bd
000001c0: f6b9 33be 3a95 de3d 3bc8 dd3d 4c5a d5bd
000001d0: 6400 0dbd 5be5 a33d 613f a53d 942e bebd
000001e0: a7b7 11be 43b9 38be 508d a73d 1f42 753e
000001f0: 1b96 e83c 7c0b 6e3d a559 443d 9a2c 17be
00000200: b2d7 993d d81f 35be 8779 93bc fa3c febd
00000210: 1419 f2bd f18c a33b 0fd0 523d 8f65 963c
00000220: 6fe4 803b 168e 49be d40c 9439 0440 65bd
00000230: aa57 333d aa7c 363c 8b13 633d 6547 2abe
00000240: c777 84bc 455a e5bc 0158 753d 20eb 15be
00000250: ae6b 023d 7173 a03c 07e8 a93d b13c 07be
00000260: 7db0 b3bd bbce b33d ad7b 9ebd faf5 2cbd
00000270: 717c cebc 214c 323d 885d de3d 1dfc 893d
00000280: afed 3f3d 78a4 40bc d520 e63d 3634 f03d
00000290: 8f22 44bb 9b33 ec3d d92e ecbd bede e2bd
000002a0: b31d d33d a583 a43d 3856 f2bc 675e 723a
000002b0: 3d31 413d 83d2 42bd ccd8 5d3d 2c53 0c3e
000002c0: f0da 40be 3309 96bd 2b0b fd3d 60a9 c53b
000002d0: 7d1f c9bd 3ebf e83d b7f4 dcbc 50dc 0dbd
000002e0: 803c 163d 2941 0a3e aebc 06be 977e bb3d
000002f0: 22eb ce3d c791 67bd 7e66 ddbd 82f5 9b3d
00000300: ccf5 19bd 9d47 b7bd 02db f0bd 510b 523e
00000310: 5002 b6bd 3f7f 42bd 71f8 d4bb c2a8 e5bd
00000320: 658a 983c 54b5 f8bd 8440 04be 1728 edbc
00000330: 1a0c c6bd 8ec6 9d3d 3b75 2b3e 6242 523c
00000340: 2ebd 02be 5548 8b3d 37c4 3ebe 1363 b73d
00000350: e13e 683c 627d 623d 2cfe 643e 7e78 553d
00000360: a5c3 3d3e dc21 b33d fc35 963c 66e6 0a3d
00000370: 8c2e 85bd cbe2 f5bc 6e18 ce3d d913 43bd
00000380: b841 723d 30cc 183d 9add d63b b865 8fbd
00000390: bf9e c7bd 9b52 143d d7c1 663d f7f9 58bd
000003a0: 4e4b 00bd 4249 a83d 401b 073e 7f00 0bbe
000003b0: eea1 053e 5288 9f3d fbc8 873d c4c9 a1bc
000003c0: b3a0 5bbd 4b28 8d3c 8698 a4bd d87e 7dbd
000003d0: 53e9 83bd 0993 ffba 18f0 993d 790c a83d
000003e0: 73fc 1fbe 58ec 20bd 869b 1d3a ae82 0cbe
000003f0: 503b e33d 7a7d 47bd c28a c7bd 2cc4 06be
0.006224492 0.12273699 0.05475368 -0.0023357482 -0.04349361 0.007663752 -0.08137586 -0.059775017
-0.0008891364 0.04075861 -0.006145355 -0.10370919 -0.11436105 0.042832367 -0.08569709 0.024343131
-0.05762501 -0.1012058 -0.14473788 -0.13661541 0.018244872 -0.0611477 -0.12609313 -0.07736945
-0.12930766 0.010399004 0.0723065 -0.029455103 0.014403768 -0.18157282 -0.1884898 -0.21278284
-0.11286321 0.11111727 0.12195968 -0.021631537 -0.046012204 -0.04799194 0.07354352 0.027208464
-0.0933776 -0.07280989 -0.00029785032 0.10834776 -0.0488957 -0.041281227 0.0062444704 -0.013907492
-0.10858818 -0.05759498 0.16477123 0.089291506 -0.07326693 -0.11118884 0.037341904 0.10487222
0.08429909 0.058982152 -0.11384569 0.10341604 0.15021646 -0.118544266 -0.028979367 0.026332535
-0.06189215 -0.06617509 -0.14175454 -0.014196175 0.067058854 -0.034112662 0.0127073545 0.10537397
-0.17870663 -0.10557429 -0.1097732 -0.10017708 -0.100124285 0.04938874 0.0443208 -0.09659477
-0.1703687 -0.08731817 0.023320785 -0.15093203 -0.030374372 0.07544774 -0.05244617 0.00019226034
0.07044646 0.085645355 -0.07277524 0.09654987 -0.103307635 -0.06820675 0.07963039 0.1318219
-0.081941366 -0.12125046 -0.042545978 -0.03898375 0.03843729 0.058350615 -0.00251749 -0.06129922
-0.007578463 0.031234415 0.039280467 -0.0012048029 -0.09251451 -0.06735495 0.10139354 -0.09388079
-0.17551407 0.108683065 0.108292066 -0.104176134 -0.0344242 0.080027305 0.08068729 -0.09286228
-0.14230214 -0.18039422 0.0818125 0.23951004 0.028391888 0.05811642 0.047937054 -0.14763108
0.07511844 -0.17687929 -0.018002285 -0.12413974 -0.118211895 0.0049911668 0.05146795 0.018358974
0.0039334814 -0.19683108 0.00028238317 -0.055969253 0.043784775 0.011138121 0.05543856 -0.16628797
-0.016170396 -0.027997145 0.05989838 -0.14640474 0.031840973 0.019586297 0.08296209 -0.13206746
-0.08773897 0.08779665 -0.07738433 -0.04222677 -0.025205823 0.043529633 0.108576834 0.0673754
0.046857532 -0.011757962 0.11236731 0.117287084 -0.0029927825 0.115332805 -0.11532373 -0.11077641
0.10308399 0.08032922 -0.029582128 0.00092456344 0.047166098 -0.04756404 0.05416183 0.13703603
-0.18833518 -0.07325973 0.12355646 0.006032154 -0.09820459 0.113646016 -0.026972158 -0.034633934
0.03667879 0.13501419 -0.13157913 0.091550045 0.10103442 -0.05653551 -0.108105645 0.07615186
-0.037587926 -0.08949206 -0.117605224 0.2051213 -0.0888716 -0.047484633 -0.006499343 -0.112138286
0.01862068 -0.121439606 -0.12915236 -0.02894978 -0.09670277 0.07703887 0.16743939 0.01283321
-0.12767479 0.068009056 -0.18629538 0.08954444 0.014175148 0.055295356 0.22362584 0.052116863
0.18531664 0.087466925 0.018336289 0.03391113 -0.06503019 -0.03001537 0.10063253 -0.04762635
0.059144706 0.037304103 0.0065571787 -0.07001823 -0.09747075 0.03621159 0.056337204 -0.05297276
-0.031321816 0.08217098 0.13193989 -0.13574408 0.13050053 0.07789673 0.06630131 -0.01974953
-0.05362005 0.017231127 -0.08036904 -0.061888546 -0.064409874 -0.0019498776 0.075164974 0.08205504
-0.15623645 -0.039287895 0.00060122495 -0.13721725 0.11095297 -0.04870365 -0.09743263 -0.13160771

actor.2.bias f4 [128]
00000000: a765 cebd 81cc 91bd 717a d3bb 4212 efbc
00000010: 0d41 02be 5720 27be 080e c9bd a4b8 49be
00000020: b260 63bd 006d 06be 2e3f 2f3c d4bd 30be
00000030: 5230 67be c413 a2bd ea3e 1ebe 860d 9cbc
00000040: 8c89 9cbd 2df2 c63d 21e7 db3d 2300 1cbe
00000050: 4bb8 94bc 9a62 b33c 20d9 57bd 7c0b 4ebe
00000060: 9220 1fbe 7e5b e1bd 43b4 e5bd a4f6 473c
00000070: 2ef3 0d3d ea60 49bc 1c8f 153c 0756 85bc
00000080: 66b9 413b e1ab 93bd bf09 3ebd c888 84bc
00000090: 04d9 40bd bd69 2abd ec17 0ebe cd46 d93d
000000a0: ba25 1ebe 0e71 06be 7c04 fd3b 3c43 a6bd
000000b0: 7a13 93be dc2e f4bd 2a63 98bd 2e8e 34bd
000000c0: ad8f c63c 35c4 98bd 6042 ccbd 8cd5 99bd
000000d0: b567 8e3d e20f 1bbe e30c dbbd 9436 42bd
000000e0: 0021 e33d 9138 debd ad3e 8abc 9148 08be
000000f0: 2262 28be 033d 09be a51a cf3b 68cd 29bd
00000100: e176 1d3d 2fec bcbc 28d1 303d d709 84bd
00000110: f618 2d3e 0181 32be ae49 89bb 98d8 393d
00000120: 78c6 5ebe c3f8 953c ad14 193d fa05 a8bd
00000130: 2d56 513d 7706 04be c896 a7bd 284d 233d
00000140: e9ca 46bd e61e 233d 4f02 1dbe 8c0f 683c
00000150: 3aae df3a 0975 b3bc a537 07bc 9ad2 a4bd
00000160: 045c 6dbe c600 253b 0c5b 09be 3b13 04bd
00000170: b352 983c ae8b 13bd 87f5 513d 099c ccbd
00000180: 98af 92be 4596 16be b007 8abe 8464 a4bd
00000190: 7290 2ebe f756 46bd c4ee 6ebe 0db0 53be
000001a0: 9fe2 bfbd 7c91 353d a3dd 44bd ab4b d1bd
000001b0: 2239 69bd 0016 9cba 455d 61bc b68e f23b
000001c0: f598 83bd 8b24 efbd d3fb ea3d 51ec 04be
000001d0: d927 5ebe adad 3dbe 9c32 eabd 3de3 f6bd
000001e0: 9ffc 5ebc 82cc 9f3d ed14 c2bc 9799 993d
000001f0: a4e0 3abe 826a 16be 68ea 96bc 6651 febd
-0.100779824 -0.07119084 -0.006453805 -0.02918351 -0.12720127 -0.1632093 -0.098171294 -0.19699341
-0.055512138 -0.13127518 0.010696216 -0.17259914 -0.22577026 -0.07913926 -0.15453687 -0.019049417
-0.076434225 0.0971416 0.10737444 -0.15234427 -0.018154284 0.021897603 -0.0526973 -0.20121568
-0.15539768 -0.11003779 -0.11216023 0.0122048 0.034655742 -0.0122911725 0.009128358 -0.016276373
0.002955997 -0.07210518 -0.046396013 -0.016178504 -0.047081962 -0.041604746 -0.13876313 0.10609207
-0.15444079 -0.13129064 0.007721482 -0.08118293 -0.28725797 -0.11923 -0.07440789 -0.044080906
0.024238432 -0.074592985 -0.099735975 -0.07511434 0.06953374 -0.15142778 -0.10695817 -0.04741533
0.110902786 -0.10850633 -0.01687559 -0.13308932 -0.16443685 -0.1340218 0.006320315 -0.041455656
0.03844345 -0.02306184 0.043168217 -0.06447189 0.16904053 -0.17432024 -0.0041896915 0.045372576
-0.21755397 0.018307095 0.037373234 -0.08204265 0.051107574 -0.12893091 -0.08183056 0.039868504
-0.048533354 0.03982439 -0.15332912 0.014163863 0.0017065473 -0.021906393 -0.008253013 -0.080479816
-0.23179632 0.0025177463 -0.13413638 -0.032244902 0.018594122 -0.03602188 0.051259544 -0.09990699
-0.28649592 -0.14705761 -0.2695899 -0.08026984 -0.17047289 -0.04842278 -0.2333327 -0.20672627
-0.093693964 0.044328198 -0.04806293 -0.10219511 -0.05693925 -0.0011908412 -0.013755147 0.0074022664
-0.064256586 -0.11676892 0.11473813 -0.12980773 -0.21694888 -0.18523283 -0.11435434 -0.12055061
-0.013610034 0.07802679 -0.023691619 0.07499998 -0.18249756 -0.14689067 -0.01842232 -0.12417869

actor.4.weight f4 [128, 128]
00000000: 95f7 82bd 4620 c4bc c013 e53d 1291 0b3d
00000010: 2956 3fba a5a4 15bc 14da ebba 5908 be3c
00000020: 1553 453d 0219 7abd c291 c33d 357a a0bc
00000030: ac67 983c 1d8b 333e 96e0 ecbc 516c e53c
00000040: a317 acbd 2ad3 82bc 741d 9b3d b194 c93d
00000050: 49c5 23bd c2a4 b5bc da78 1bbe e631 013e
00000060: 36b5 abbd 2453 93bc 6444 bcbd fcc8 62bd
00000070: 0518 773c 2320 743d c79a 6c3d 6cb8 cbbd
00000080: 3c30 35bc b907 3c3d 09c1 083d 1ea1 01bd
00000090: bdda 9c3d b0c1 ffbb e224 4d3e c223 7b3d
000000a0: ac00 903d fcfd 2ebe a36c 903d 2f54 34bc
000000b0: fce8 f0bb 39b1 b1bd 0cb5 a03c a4c9 30bd
000000c0: 67c7 a9bd 00a7 33bd 6ed9 9abd a7d6 fe3d
000000d0: bdf4 403d 8a5e c13d 5cfc 003d d600 dc3c
000000e0: 987a 8c3d 3b64 d4bd 5458 80bc 6ac0 01bd
000000f0: 8ea5 813d 4a12 2fbd c499 bc3a 626a 723d
00000100: 37df e2bc 2b1b f2bc ef2a c63d 28b6 773e
00000110: a10a a3bb 3fcd 8c3d 609f 893d 0667 ebbd
00000120: 71eb b0bc d333 073e 2eac 6d3d 73aa bcbd
00000130: 9bcf 02bd b8d2 09be ff1e 90bd 3dac 053e
00000140: cd06 353d 6878 b3bd 4355 7ebc 201d 7a3d
00000150: 7936 f43d 2da5 02bd f623 b63c 8d06 4abb
00000160: 9955 1b3d f951 0bbd 974a 183d 9f3a 70bd
00000170: 65db 263d a213 84bc 2847 a2bc 6958 093d
00000180: cb46 12bd 6923 3e3e 567d 913d fea3 85bd
00000190: d9c3 3b3e 7b5c dcbd 9d48 25bd 1c78 05bd
000001a0: 5df6 153d f094 913d 0c3e 213d bf1b 7dbd
000001b0: 1024 91bb 682e 973b aed2 54bd c1a9 413c
000001c0: fb74 ebbd 8873 163e fefa 833d d5d1 54bc
000001d0: db9e 76bc 51e6 0bbd d034 e0bd ff6c 3b3d
000001e0: 91cc 2e3e 48fd debd 5cd9 a5bd 0580 00bd
000001f0: 5545 1fbd ffdf 1e3d c797 693b c0b8 eebc
00000200: c2c1 e5bd 95d9 793d d380 3fbc c959 cf3d
00000210: e796 64bd 4efa 323d 5ea3 19bd c0e4 a73c
00000220: 1c01 04bc 8352 2b3d a1a6 94bd de73 f03c
00000230: 5f1c 8ebd 644c 64be 9025 863c 98e7 d03d
00000240: 17de 19bd 7509 8c3b 310d 44bd 17e5 ebbd
00000250: 1f90 283e 02fa eb3d 3592 623d 31f0 d33d
00000260: 9234 90bc 1aff 9f3d 4ebb b4bd b586 233d
00000270: f2b9 22be a1b7 13bd 23a0 7a37 d3c1 5a3d
00000280: 9a36 973d 6dc5 a5bd 7bd1 9dbd 45da 2dbe
00000290: 03f3 aabd 2ff8 ba3b 5743 5dbd 1572 0f3a
000002a0: 9a5d 513d 8547 033d df6f 5c3d aad9 c6bd
000002b0: e4eb e7bd c52b 71bd cb0b 843b 4ee4 003e
000002c0: 1756 e9bc 5a0a 05be 1c5a 2d3d 00a1 373d
000002d0: ccb7 5abc 4531 1f3e 8706 dbbd d206 863b
000002e0: 0c2b 403c 5791 983b 74cf a7bd f9be ddbd
000002f0: 6048 76bd 2970 21bc 3cb8 36bd 1171 82bd
00000300: 5b2e e53c 59cc 71bb cd1b 103e da2b 7b3d
00000310: ff52 5e3d c08b 9d3d 44ad d9bd 14c5 10bd
00000320: 1474 0cbe 669c dbbc 45e8 0dbc ae6e 63bd
00000330: 9533 0d3d bc16 d23d 8f09 bcbd 8973 e5bd
00000340: 2429 bf3c f01a a8bd 66e4 303e ff1a 463d
00000350: f9cf f1bd 11cc 92bc 5fc2 033e 5717 19bd
00000360: 42b8 2cbd 2b96 ccbd 483d d93c 4d73 2cbe
00000370: f6ff a3bc a12c 0cbe 19ea f53d 41c4 2ebd
00000380: f8c3 763d 9cea 083e 1cc1 c83d a0d6 aabd
00000390: e112 a03d 6a0b 31bb 1a6c 363c 8269 363b
000003a0: 21fe 9a3c 84ba eebd 5cc2 e3bb c068 5ebd
000003b0: b39c a7bc 11d5 873d 93e5 4abe 35f3 18bd
000003c0: f157 5d3e 5800 62bc c360 03be 3531 083e
000003d0: d668 72bd 7f27 153e 546a c33d 9e85 493e
000003e0: b5ff 54bc 21c8 12be 96d8 febd 0f46 0dbe
000003f0: a670 873d 6093 583c 3c7f 413d 2db2 7e3d
-0.06394879 -0.02394117 0.11185408 0.034073897 -0.00072989106 -0.009133493 -0.001799407 0.02319734
0.048174936 -0.061059006 0.095492855 -0.019589523 0.018604122 0.17533536 -0.028915685 0.02800575
-0.08402946 -0.015969831 0.07573977 0.09842814 -0.039983068 -0.02217329 -0.1518282 0.12616691
-0.083841726 -0.01798398 -0.09192732 -0.055367455 0.01508141 0.05960096 0.057764795 -0.09947285
-0.011058863 0.045905802 0.033387218 -0.031647794 0.076589085 -0.007805072 0.20033601 0.0613134
0.07031378 -0.17089075 0.07051971 -0.011006399 -0.0073519927 -0.08676381 0.01961758 -0.04316105
-0.08289986 -0.043860435 -0.07561003 0.124432854 0.0471084 0.0944186 0.03149067 0.026855867
0.068593204 -0.1037068 -0.015667118 -0.03167764 0.06330405 -0.04274205 0.0014389087 0.059183486
-0.027694328 -0.02955397 0.09676158 0.24190581 -0.0049756323 0.06875085 0.067198515 -0.114942595
-0.021596642 0.13203363 0.05802553 -0.09212198 -0.03193627 -0.13459289 -0.07037162 0.13053985
0.04419594 -0.087632 -0.015523258 0.061062932 0.11924452 -0.031895805 0.022233944 -0.0030826658
0.03792343 -0.034013722 0.03718051 -0.058649655 0.040736575 -0.016122643 -0.01980932 0.03353158
-0.035712045 0.18568195 0.07103984 -0.0652542 0.18336429 -0.10759827 -0.040352453 -0.03258525
0.036611903 0.07108486 0.039365813 -0.06179404 -0.004429348 0.0046136864 -0.051958732 0.011820258
-0.11496922 0.14692509 0.06444357 -0.012989481 -0.0150525225 -0.034155194 -0.10947573 0.045758244
0.17070223 -0.10888153 -0.08098099 -0.03137209 -0.03888448 0.038787838 0.0035643445 -0.02914083
-0.11218597 0.060998518 -0.011688429 0.10124547 -0.055807974 0.04369574 -0.037509315 0.020494819
-0.008056905 0.041826736 -0.072583444 0.029352125 -0.06939005 -0.22294766 0.016375333 0.10200423
-0.037565317 0.0042735883 -0.047864143 -0.11518305 0.16461228 0.115222946 0.055315215 0.10348547
-0.017603192 0.07812329 -0.08824788 0.03992339 -0.15891245 -0.036063794 1.4938446e-05 0.0534075
0.07383461 -0.080942966 -0.07705971 -0.16977794 -0.08347132 0.0057058553 -0.0540193 0.00054720166
0.051114656 0.03205063 0.053817626 -0.09709485 -0.113242894 -0.058879633 0.004029726 0.12587091
-0.028483434 -0.1299223 0.042322263 0.044831276 -0.013349485 0.15546139 -0.10694604 0.0040901685
0.011729013 0.0046559977 -0.081938654 -0.10827441 -0.060127616 -0.009853401 -0.044609293 -0.06369222
0.027976206 -0.0036895482 0.14073105 0.061321117 0.05427837 0.07692671 -0.10628751 -0.0353442
-0.13716155 -0.026807975 -0.008661334 -0.055525474 0.03447302 0.102582425 -0.09181511 -0.11203677
0.023335047 -0.08208263 0.17274627 0.04836559 -0.11807246 -0.017919572 0.12867115 -0.037375774
-0.04216791 -0.0998958 0.026518479 -0.16840859 -0.020019513 -0.136889 0.12007541 -0.04266763
0.060245484 0.13370746 0.09802458 -0.08341718 0.07816101 -0.002701486 0.011134172 0.0027833884
0.018920006 -0.11656669 -0.0069506597 -0.054299116 -0.020460462 0.06632436 -0.19814138 -0.037341315
0.21615578 -0.013794027 -0.1282988 0.13300021 -0.05918201 0.14565848 0.09541765 0.19679877
-0.013000418 -0.14334156 -0.12443654 -0.13796256 0.06613283 0.013218731 0.04724048 0.06218164

actor.4.bias f4 [128]
00000000: 1a89 c3bd ad83 02be 6591 7ebd 3169 ce3d
00000010: c204 90bd 456c 19be 86bc 86bd 4bf8 f3bd
00000020: 8b3d 57bc 3b20 13be e9d1 0ebd 9aba 6a3c
00000030: ba30 12be 0644 04be b6fe 003e 006a cdbb
00000040: 4e4e a8bc 5545 97bc d34e c0bb 16ff 4dbe
00000050: 7eba ccbd 2035 b6bc 0c50 973a af48 3d3d
00000060: 2d53 abbd 6519 bbbd e216 febd 9f36 1fbb
00000070: ee4e 91bd c563 99bd e38e 97bd d8f4 cabc
00000080: 6923 15be c481 33bd ece1 6e3c 9851 12be
00000090: 6b49 40bd 022b acbd bd40 91be 66d0 c1bd
000000a0: 2cbd 0bbe 57e8 033d 6a17 51bd b42c 5dbd
000000b0: f59d abbc e5e2 c0bd 90bb a83d d342 d1bd
000000c0: 484f 213d fbd7 f4bc e257 503d 9afe 563c
000000d0: f483 dabc a34e 1abe 0e81 23be b959 a2bd
000000e0: 5cd2 d2bd 0a1d 14be d545 1cbd 6c42 34be
000000f0: 29c0 e6bc b72c c7bd 1597 ddbd 6c55 c8bd
00000100: 15e2 92bd df9e 1a3c a06c f2bd d560 cd3c
00000110: f706 efbd 0e10 17be 5e58 a2bd 8848 20bd
00000120: fec8 80bd b6a6 123c a22e 47bd 7873 d0bd
00000130: 02f0 abbd 73d3 943c f84f f5bd d527 073b
00000140: 2b6d 1ebe 4a02 34be 488d 24be f59e 12bd
00000150: 3a31 0fbd d949 203d 3cb5 f6bc e240 c1bd
00000160: f125 ffbd 91c7 ef3d 6b84 e1bd 2ba6 af3c
00000170: f777 1d3d e957 733c 60cf 1cbe e639 f83b
00000180: bcbb b0bd 0939 10be 9653 17bd 94b0 d0bd
00000190: 17be e0bd c7ff 21be 1c47 4dbe 0a37 d5bb
000001a0: 4d11 29be 2a6b d7bb b55a efbc 9b43 e13c
000001b0: 4eea 1c3d 85f8 a6bd e9b2 7bbd eaef 78bd
000001c0: 639b f0bd b182 adbd 129d bebd ba42 4bbd
000001d0: f232 093d e188 19bd e195 38be 9c8e c63d
000001e0: 170a 13be ae95 7abe 3a55 87bd a038 3cbe
000001f0: 4bbd e7bd c236 17bd bc61 7d3c 93e4 86bd
-0.095476344 -0.12745543 -0.062150378 0.100786574 -0.070321575 -0.14982708 -0.06578927 -0.119125925
-0.013137232 -0.14367764 -0.034868155 0.014326716 -0.142764 -0.12916574 0.12597165 -0.0062687397
-0.020545151 -0.018465677 -0.0058687716 -0.20116839 -0.09996508 -0.022242129 0.0011544242 0.046211895
-0.08365474 -0.09135703 -0.12406708 -0.0024294031 -0.07095133 -0.07489733 -0.074003 -0.024774954
-0.14564289 -0.043824926 0.014580231 -0.14288938 -0.046945017 -0.084066406 -0.28369704 -0.09463577
-0.13646382 0.032204 -0.05104772 -0.05399771 -0.020949343 -0.09418277 0.082389 -0.10217824
0.03938225 -0.029888144 0.05086506 0.013122225 -0.026674248 -0.1506906 -0.15967199 -0.079272695
-0.10294029 -0.14464203 -0.038152535 -0.17603463 -0.028167801 -0.097253256 -0.10819832 -0.09781918
-0.07172028 0.009437292 -0.11837125 0.025070587 -0.1167125 -0.14752218 -0.07927011 -0.03913167
-0.06288336 0.00895088 -0.048628457 -0.10178274 -0.08395387 0.018167233 -0.119781435 0.0020623107
-0.15471332 -0.17578998 -0.1606952 -0.035796124 -0.034959055 0.039132927 -0.030115716 -0.094362035
-0.124584086 0.11707986 -0.11011585 0.02144154 0.038444486 0.014852502 -0.15313482 0.0075752614
-0.086295575 -0.14084257 -0.036944948 -0.101899296 -0.10973757 -0.15820228 -0.20046657 -0.0065068053
-0.16510506 -0.0065740542 -0.029218057 0.027498057 0.038309388 -0.0815287 -0.06144992 -0.060775675
-0.11748388 -0.08472193 -0.093073025 -0.049624182 0.03349585 -0.037484054 -0.18025924 0.09695169
-0.14359318 -0.24471161 -0.066080526 -0.18380976 -0.11315402 -0.036917455 0.015465196 -0.06586566

actor.6.weight f4 [27, 128]
00000000: 6315 a4bb 4da0 c33c 753a 8e3b ee3e 5dbc
00000010: 7db3 f63c 0a5f e83b 79a3 2f3b 5dfb dbbb
00000020: 2e09 253b 862e 893c b720 a9bc 6273 263c
00000030: a26a b63c 3724 673c 2877 6bba 25c3 f9ba
00000040: 17b5 023d 896e e33b 8f14 433c 9fd1 f93c
00000050: 72c0 163c 02f4 f8b9 5a65 cabc 2b2a 94bb
00000060: 88a1 3e3b 6b65 253d f327 02bd fde4 4ebc
00000070: f952 20bc 4fab cbba 8824 163c b704 dd3c
00000080: 25cf 163c 6665 35bd 3ac5 fcbc 45d5 d1ba
00000090: b9ca 8cba 0c6b d43c 946c bdbc 40ab d03a
000000a0: 1327 23bc 62cb 1a3d 7318 5fbd cbc7 193c
000000b0: 9ac9 39bd 67b9 23bc fb0b 3f3c c770 c43c
000000c0: 41bf 4fbc 4ac9 f7ba 6483 903b 7afb 3cbc
000000d0: b489 8e3c 41da 6cbb 96f9 0bb9 e963 81bc
000000e0: f6e8 2d3d 48d2 83bc 19f5 e9bc 8278 9bbc
000000f0: afc0 663b 61d3 57bb fc5e abbc cfdb 963a
00000100: 70d5 203d 7f47 b83b 2c89 e93b d1ed 83bb
00000110: 2dde 6dbb 0db1 83bc f59b 1fbd 64fc 49bc
00000120: 43e5 15bb 5ddc 193d 5380 513c f52b 33bc
00000130: 5c14 84bc 1642 98bc be8f 953c 0a9d 78bc
00000140: d7af a23b b343 913d f1c6 2ebc 7403 89bc
00000150: 7222 9cba ce48 003b 72bf c33c 8fd5 423d
00000160: cf22 e9bc 3b7b 07bc 5781 913c 4954 85bc
00000170: af0a 1bbd 1e57 b2bb 161b 9dbc ca3a aabd
00000180: 44f4 2dbc be67 673d 8c54 9fbc e91a 633d
00000190: 5474 7d3c b9f7 3f3c 78f6 5e3d 208d b8bb
000001a0: df7c 1fbb c4de 5bbd 6524 c03b 7a47 0dbd
000001b0: 253a ab3c b51e 123b 8dde 18bd 8d70 983b
000001c0: ed77 823c ec72 60bd 170b e13c db04 e2ba
000001d0: 72e3 3ebc 390a 1f3c 4c50 6ebb 93e0 36bc
000001e0: 050b 80bc 8689 ebbc b216 62bc a5b5 de3c
000001f0: 8ae7 e3bc cd06 01bd 2a37 e23a b44a a5bc
00000200: 4fc1 56bc 7aaf c63c af99 11bb ef1a 06bd
00000210: ceb9 b3bc fa42 f4bc 4878 2b3c 0c0a 2d3c
00000220: 04ca e939 6065 a8bb 8ea6 0fbd 98e1 233d
00000230: 89de 3f3c 332c bb3c 9921 bebb 3b27 033c
00000240: 6d8f ebbb f4b3 dcbc 48a4 993a 97ad b4bc
00000250: fcc8 83b9 dce0 0e3c 0cc3 a33c ad10 40bc
00000260: 1115 f6bb ae7e cfbc 9ad8 d7bb 062e a83b
00000270: 669a efba cc18 72bb ab5b a0bc 4ba7 1abc
00000280: 383b 8f3c 1fb2 7d3c 4d38 a5bc 7e50 963c
00000290: 9a10 d43a a1ad d3bc 8161 363b ffa3 a6ba
000002a0: 2182 17bd 830a 2c3d d844 703c 1118 303b
000002b0: a52a 0d3d f3bf 963c 0309 e63c 92c0 8abd
000002c0: 0203 6a3c a04b db3c 0fd0 1cbc 7d6b 7e3c
000002d0: dcec b33c 9043 fbbb 0729 8b3b 9355 09ba
000002e0: 0d28 5abc 69f2 15bd 057e 02bd b01b a2bc
000002f0: 4df4 8fbc 8af4 0a3b 0cde 893c 4d66 0d3d
00000300: e9b0 b0bd f0b2 593c f502 fab9 c977 0e3d
00000310: 247c af3c 477c b9b9 f90f 043d 4a66 85bc
00000320: 604c e33c 21b2 a0bc 5802 513c 335d 9f3b
00000330: b2e0 8f3c 5b0e 733b 40b6 f73c b89f 98bc
00000340: 730d 4fbc 78ab 25bd 56f2 83bc fbcf 64bc
00000350: 92b2 c2bb de85 c13b 55a1 833b ccc4 5fbc
00000360: 3172 9ebc 1928 ee3b c9fe 033c e886 a0bb
00000370: 0192 de3c 7c27 573c e014 25bc 9909 b83c
00000380: efee b2ba a05f 2cbc 598f 31bb cdf0 073c
00000390: 899e ce39 e360 773c 93ba c03b 92be e8bb
000003a0: 0baf dabb 40d8 0d3d 5333 663b 0cb7 9a3c
000003b0: 11a2 a83c 6356 503c 80cc b43b 3f63 573c
000003c0: 6668 293d 7869 733d cf9c 8fbc 564a 1ebd
000003d0: 10fc 55bd 1f5e 693c 1f78 823b d6b8 b1bc
000003e0: 0207 67bc 42ae 85bc 3341 953c 51d0 0439
000003f0: 6cb7 5d3c f644 063c 099b b73c 080e 8d3c
-0.0050074323 0.023880148 0.0043404647 -0.013503773 0.030114884 0.0070914077 0.0026800318 -0.0067133144
0.0025182473 0.016745817 -0.020645482 0.010159345 0.022267643 0.014107755 -0.0008982294 -0.001905535
0.031910982 0.006940667 0.011906757 0.030495463 0.009201156 -0.00047484046 -0.024706531 -0.0045216284
0.002908798 0.040379923 -0.03177638 -0.012627837 -0.009785407 -0.0015538725 0.009163983 0.026979787
0.009204661 -0.044286154 -0.030855764 -0.0016008994 -0.0010741568 0.02592995 -0.023123063 0.0015920177
-0.0099580465 0.037791617 -0.054466676 0.009386013 -0.045358278 -0.009992934 0.011660571 0.023979558
-0.012679876 -0.0018904593 0.0044101942 -0.011534566 0.017399646 -0.0036140832 -0.00013349051 -0.015794711
0.042458497 -0.01609148 -0.028559254 -0.018978361 0.0035210063 -0.0032932388 -0.020919316 0.00115096
0.03926605 0.0056237574 0.007126948 -0.0040261527 -0.0036295757 -0.016075635 -0.03896709 -0.012328241
-0.0022872246 0.03756367 0.0127869425 -0.010935773 -0.01612299 -0.0185862 0.018257018 -0.01517416
0.0049648094 0.07092991 -0.0106675485 -0.01672528 -0.0011912121 0.0019574645 0.023895 0.047566947
-0.02845898 -0.0082691265 0.01776187 -0.016275542 -0.037851986 -0.005442514 -0.019177955 -0.083119944
-0.0106173195 0.05649542 -0.019449495 0.055445585 0.015469629 0.0117167765 0.05443427 -0.005632058
-0.0024335904 -0.053679243 0.0058637136 -0.034491993 0.020901749 0.0022296135 -0.037321616 0.004652089
0.015926326 -0.054797098 0.027471108 -0.0017243879 -0.011650907 0.009707027 -0.0036363779 -0.011161941
-0.015630255 -0.0287521 -0.013799356 0.027186224 -0.027820367 -0.031500626 0.0017258872 -0.020177223
-0.013107612 0.024253596 -0.0022216847 -0.03274053 -0.021939185 -0.029817093 0.010465689 0.010561477
0.00044591737 -0.005139038 -0.03507095 0.040010065 0.011710771 0.022848224 -0.005802345 0.008004959
-0.0071887285 -0.026941277 0.0011721933 -0.02205543 -0.00025136012 0.008720603 0.019990467 -0.011722726
-0.0075098355 -0.02532896 -0.0065871 0.0051324395 -0.0018280267 -0.003694105 -0.01957496 -0.0094393
0.017484292 0.015484362 -0.020168448 0.018348929 0.0016179264 -0.025839629 0.0027829113 -0.001271367
-0.036989335 0.042002212 0.014664851 0.0026869813 0.034464497 0.018402075 0.028080469 -0.06775011
0.014282944 0.02676946 -0.009571089 0.015528557 0.02196353 -0.007667966 0.004246834 -0.0005238887
-0.013315213 -0.036608133 -0.031858463 -0.019788593 -0.017572546 0.0021202886 0.016829513 0.03452139
-0.08627493 0.013287291 -0.0004768592 0.034782205 0.0214215 -0.00035378544 0.032241795 -0.016284127
0.02774638 -0.019616188 0.012756906 0.004863405 0.017563198 0.0037087414 0.03023827 -0.018630847
-0.012637484 -0.04044673 -0.016106766 -0.013965602 -0.0059416974 0.005905851 0.004017035 -0.01365776
-0.01934156 0.0072679636 0.008056351 -0.0048988946 0.02716923 0.013131972 -0.010075778 0.022465514
-0.001365153 -0.010520846 -0.0027093499 0.0082971575 0.000394095 0.015098783 0.0058816164 -0.007102796
-0.006673699 0.03463006 0.0035125806 0.018886112 0.020585092 0.012715909 0.0055175424 0.013146221
0.041359328 0.059426755 -0.017530827 -0.03864511 -0.05224234 0.014243632 0.0039816047 -0.021694582
-0.014100792 -0.016318444 0.018219566 0.00012666105 0.013532501 0.0081951525 0.022412794 0.017218605

actor.6.bias f4 [27]
00000000: eb9e 16bd c4da 4fbc f76c 33bd 9c3f eabc
00000010: 8088 803d bb91 45bd ff76 b4bc 8f3e 3c3d
00000020: ecf6 60bd 0028 83bc a1ef 143d 824d 2dbe
00000030: 246f cebd 24a6 55bd 8dde 41bc f4fd 0a3e
00000040: 80c3 88bd 49a2 eabd 16bf a3bd 9022 e6bd
00000050: 3d5e 553e a43c 88bb 46fa d3bc a6c1 b83a
00000060: 1b9a 123d 8ee0 903d d050 393d
-0.03677265 -0.012686435 -0.04380509 -0.028594784 0.06276035 -0.048234683 -0.022029398 0.045958098
-0.054922983 -0.016010284 0.03636134 -0.16924098 -0.10079792 -0.052160397 -0.011832845 0.13573438
-0.06677914 -0.11456735 -0.07995431 -0.11237061 0.2083673 -0.0041576196 -0.025876176 0.0014095798
0.035791498 0.070740804 0.045243084
