IsaacLab/logs/rsl_rl/h1v2_flat/2025-03-06_15-12-54/exported/policy.onnx (onnx, 195410 bytes, 8 tensors)

actor.0.weight f4 [128, 93]
000000 3a 85 0c be af dc b4 bf 2c 28 45 be 04 a9 a2 3e
       -0.13722697 -1.4129847 -0.19253606 0.31769574
000010 49 7c 49 bd 2b 34 29 be 73 89 b4 bd 8c 0f b3 bf
       -0.049190793 -0.16523807 -0.08815279 -1.398912
000020 00 cf 1f 3e b3 e7 80 3e 3d 68 5b bd 03 9c 67 3e
       0.15606308 0.25176772 -0.053566206 0.22618107
000030 40 8d 59 3f 6f 1f 2f bf 71 8a b4 be a8 95 fe bd
       0.84981155 -0.6840734 -0.35261872 -0.124308884
000040 a1 09 64 be a6 be 2b 3d 63 fe 17 3f ce 8e 15 3f
       -0.22269298 0.041929863 0.5937254 0.5842103
000050 a7 75 89 be 27 9b a0 3b b1 4c 18 3d 09 c4 8f be
       -0.26847574 0.004901308 0.037182514 -0.2807925
000060 d5 3d 53 bd 5a d8 a7 3d c2 81 69 3e 3f 5f 98 be
       -0.05157264 0.08195563 0.22803405 -0.29760167
000070 cc 2f b0 3e 7e 60 19 3d 1c ce a8 3e 38 df 0f bf
       0.34411466 0.037445538 0.3296975 -0.5619998
000080 dd dd c2 be 22 51 52 be ca b4 d3 bd ee da 9c 3e
       -0.38059893 -0.20538762 -0.10337217 0.3063578
000090 f6 28 62 3c e8 fe 2c 3e d3 74 7b be da 2b b2 b9
       0.013803711 0.16894114 -0.24556284 -0.00033983478
0000a0 d3 51 e0 3c 75 d1 b8 3b 12 27 4c bd d9 e4 0e 3d
       0.027382767 0.0056402036 -0.049841948 0.034886215
0000b0 49 3d b2 3d 74 ff 80 3d 2c 34 73 3d e9 5e 9c bc
       0.087030955 0.06298724 0.059375927 -0.019088225
0000c0 e6 28 11 bd ad 80 39 bd 6d ea 49 bc 89 e2 00 bc
       -0.035439394 -0.04528873 -0.012323958 -0.00786651
0000d0 07 bc 32 bc 70 0f 93 bc 45 26 aa bc c3 5d 8e bd
       -0.010909087 -0.017951697 -0.020770201 -0.069514774
0000e0 ab 81 09 3d 6a d9 d0 bc bf 84 a1 bb a6 0b 99 bc
       0.033570927 -0.025494296 -0.0049291546 -0.018682312
0000f0 7c 52 fc 3c 47 bc 45 3b 69 ea 9e bd 1c 46 0e bd
       0.03080105 0.0030172036 -0.07759554 -0.03473483
000100 93 be ac bb 17 81 05 bd 96 15 25 be ec 06 ec bc
       -0.0052717417 -0.032593813 -0.16121516 -0.028811894
000110 dc 26 1f be 83 b7 8c be 86 a6 08 3e 7a 97 b0 bd
       -0.15542167 -0.27483758 0.13344774 -0.08622642
000120 40 50 ae bd 55 72 ef bd 71 1d 05 bd fd 55 95 bd
       -0.085114 -0.11691729 -0.03249878 -0.072917916
000130 fd 91 85 bc 11 37 b1 3d ad 0a c5 be 42 58 61 39
       -0.016304964 0.08653081 -0.38484707 0.0002149055
000140 0e 2c 41 3b cf ec b1 3d 2f be 72 3d 6e c1 00 bc
       0.0029475722 0.08687746 0.059263404 -0.007858617
000150 83 20 9a 3d 4a c4 db 3d bf ab ce bc 0b 4b 44 3a
       0.07525732 0.107307985 -0.02522838 0.0007487989
000160 ce 70 34 bd dc d6 86 3b 1d 39 1e bc 32 c8 0b 3d
       -0.04405289 0.0041149687 -0.009657172 0.034126468
000170 eb 45 38 3d 24 68 0f 3e c1 6f 31 3e 92 aa 2b 3e
       0.044988554 0.1400457 0.17327787 0.16764286
000180 1a 3e 18 3e 32 b5 33 3e cf 6e 23 3d 1a 9c ed 3e
       0.1486744 0.1754959 0.039900597 0.4640816
000190 29 d7 f9 3e 2b fe 33 3e a4 23 1a bd dc 30 b9 3c
       0.48796967 0.17577426 -0.037631646 0.022606306
0001a0 ba 12 0d bf 5e 59 b0 3f a3 99 17 3f da 8c 7f be
       -0.551067 1.3777273 0.59218806 -0.24956074
0001b0 3b 09 06 3e 6f 83 45 be db 8e 97 3e 99 82 84 be
       0.13089459 -0.19288419 0.29601178 -0.25880888
0001c0 78 4b 18 3f ee 94 1e 3f e0 f3 c0 be 0d d7 67 3e
       0.59490156 0.61946 -0.37686062 0.22640629
0001d0 b8 66 92 be 23 ee e9 be 08 86 99 bf b6 55 b6 3e
       -0.28593993 -0.45689496 -1.1994028 0.35612267
0001e0 46 c0 03 3e 74 54 04 bf 1f 03 c6 be 28 ac 35 be
       0.12866315 -0.51691365 -0.38674256 -0.17741454
0001f0 5b 07 14 3e 8c 4c cd bd 6d 00 42 3f db f8 8a bf
       0.14455931 -0.10024366 0.757819 -1.0857195
000200 eb 0d 3a bf ea fe 14 3d 87 97 18 be 89 93 8c 3f
       -0.7267749 0.036375917 -0.14901553 1.0982524
000210 e6 53 21 3d 13 0d c4 bc 97 27 b6 3c 37 ce 1f bb
       0.039386652 -0.023932016 0.022235675 -0.0024384388
000220 64 de 27 3d d7 a6 4a 3d fc 27 a5 3c 90 0d cc 3c
       0.040983573 0.049475517 0.020160668 0.02490881
000230 f3 d1 d2 bc ed e9 15 3d 8e 64 ad 3d 85 93 74 bb
       -0.025734877 0.036600042 0.08466445 -0.0037319374
000240 02 31 3d be 15 7b e0 3c 76 44 fa bb 42 79 9d 3c
       -0.18475726 0.02740244 -0.0076375557 0.01922286
000250 92 82 32 bd d4 1c 37 ba db 44 52 bd df 61 8a bd
       -0.043581553 -0.0006985192 -0.051335197 -0.06756949
000260 0d 17 ac 3c 62 2e d7 3b cc 08 5f 3c ab 33 de bc
       0.021007085 0.0065668086 0.013612937 -0.027124247
000270 d1 b8 b6 bc 14 d1 c0 3b ae 4c fb bb 67 51 b3 3e
       -0.022304924 0.005884299 -0.007669053 0.35023043
000280 62 ad c4 bb 80 e4 3e 3e b3 6e dd 3b 43 a6 2f 3d
       -0.006002114 0.18641853 0.006757581 0.04288317
000290 9c da b2 3d 81 b7 81 be 65 58 80 3d be 89 f5 bd
       0.08733103 -0.25335315 0.0626686 -0.11989163
0002a0 dd 6b 38 3c 1c b7 db bc 42 02 c9 bd 61 bc fa 3d
       0.011256185 -0.026820712 -0.09814884 0.12242962
0002b0 78 9e 72 bc d8 a7 c9 bb e4 eb aa bc d2 74 44 bd
       -0.01480829 -0.0061540417 -0.020864435 -0.04796297
0002c0 58 b9 89 3d 46 04 3e 3d 3d 69 4d bc 8a b6 b7 3b
       0.06724805 0.046390794 -0.012537298 0.005606477
0002d0 f8 79 02 bd 52 e8 dd 3b 61 3d 0b 3d ea c2 07 3d
       -0.0318546 0.0067720795 0.033994082 0.03314487
0002e0 a1 0e 52 bc 8d 98 9a 3d bf 75 90 be b4 95 12 3f
       -0.012820871 0.07548628 -0.28214833 0.5725968
0002f0 5e 52 24 3e 37 7a ab 3d d9 9f 09 3e e2 cd 64 3d
       0.16047046 0.0837292 0.13439883 0.055860408
000300 05 cf c8 be 9e 54 01 3e 30 50 94 3e 8a 32 fe bd
       -0.39220443 0.12629935 0.28967428 -0.12411983
000310 ec bc 8b bd b6 5e 72 3e 77 f9 2a be 0b ce 83 be
       -0.06823143 0.23668942 -0.16696726 -0.25743136
000320 13 84 0a bd ff a8 1b bf cf 7a ae be ef 77 10 bf
       -0.033817362 -0.6080474 -0.3407807 -0.56433004
000330 14 c9 1b 3f 90 d8 59 bf a7 0a cb 3e 71 95 9b be
       0.60853696 -0.85096073 0.39656565 -0.30387452
000340 e2 b6 e0 bd 9f 71 11 3e 29 af ab 3d 00 49 2b 3f
       -0.10972382 0.142035 0.083830185 0.66908264
000350 51 7d c3 3c 98 3f c1 3f bf 1f 1c 3e fe 64 36 bf
       0.023863466 1.5097532 0.15246485 -0.7124785
000360 f5 df c5 3e 97 66 6a 3c 42 b7 4e be bd 95 77 3d
       0.38647428 0.014306686 -0.20187095 0.060445536
000370 5b 95 0f bf a0 98 81 be bd 83 f5 bd fa 75 e2 bd
       -0.56087273 -0.25311756 -0.11988018 -0.110576585
000380 fc 5b 0a 3d f2 17 96 bc 76 d2 6c bb 0a 37 83 3d
       0.03377913 -0.018321965 -0.0036136187 0.06406982
000390 0a 20 00 be 89 00 d9 bb 9a ff d9 bb 63 3d f7 3d
       -0.12512222 -0.0066223782 -0.0066527845 0.120722555
0003a0 32 05 5b 3d 01 e8 55 3d af a1 14 3c 86 57 e2 3c
       0.05347175 0.05222321 0.0090717515 0.027629625
0003b0 c8 da 0a bd 7a de 42 3e 58 27 9c bd 4f c1 6f bd
       -0.033900052 0.1903018 -0.07624692 -0.058533963
0003c0 0c 9f da 3c 45 9d b7 bc 83 77 9c b9 80 99 e4 39
       0.026687168 -0.02241386 -0.00029843682 0.00043601915
0003d0 ad 9e fb 3c a1 9f 23 3d 92 b6 b6 3c a0 4f 23 bd
       0.030715311 0.039947156 0.022303853 -0.03987086
0003e0 71 65 e2 3c ef 19 9f 3d 86 a7 6a bc 0c 4a ec bc
       0.027636262 0.07768618 -0.014322167 -0.028843902
0003f0 1f f8 2e be 9c 58 70 be 07 0d 9a bd a9 52 6d be
       -0.17086838 -0.23471302 -0.07522016 -0.23176064

actor.0.bias f4 [128]
000000 1b 54 d3 bd 79 54 df bd 9e a1 20 be 3c 7d c1 3d
       -0.10318776 -0.10904784 -0.15686652 0.09447715
000010 7d a4 c8 bd 6c b3 0d 3e ce 92 dc 3d 2a 8a a3 bd
       -0.09796999 0.13837975 0.10770188 -0.07985337
000020 24 59 77 be 26 b8 ad 3c 69 f6 51 3e 6e e0 f3 3d
       -0.24155098 0.021205973 0.20504154 0.11908041
000030 4e 2c cd bd ad 3c 0a 3d 92 63 28 be fc 15 75 3d
       -0.10018216 0.03374927 -0.16444233 0.05983542
000040 dd 04 bc 3d 3e 0c b7 3d 21 2a 3a 3e 28 0d fe 3d
       0.09180615 0.08937882 0.18180133 0.12404853
000050 2c 4f e3 bd e9 da a9 bd da 7d e0 3d bf 60 56 bd
       -0.11099085 -0.08293707 0.10961504 -0.052338358
000060 51 c6 07 be 65 73 a2 3d 0b e1 ae 3d 6d d3 49 3d
       -0.13259245 0.07932166 0.08539017 0.049273897
000070 e3 b0 3f bd ca c0 ca bc 1f de 2d be 0c f7 82 bd
       -0.04679955 -0.024750132 -0.16979264 -0.06394777
000080 cb d2 1a bd f0 04 59 3c e2 f6 ec bd a3 ef 35 bb
       -0.037798684 0.013245806 -0.11570527 -0.0027761243
000090 98 a4 82 bd c5 14 42 be 20 11 c2 3c a9 26 9c 3d
       -0.0637905 -0.18953235 0.023689806 0.07624561
0000a0 a0 09 2f bc fc 74 12 be 4a ee 18 3e fa c6 08 bc
       -0.010683447 -0.14302438 0.1493465 -0.008348221
0000b0 8f 04 3d be 1e 8a b9 3d 3b 43 0c bd 14 48 e0 3d
       -0.1845877 0.09059547 -0.034243803 0.10951248
0000c0 8f 77 99 be 5b 50 3c bd 6e 4a f0 bd ce 54 07 be
       -0.29974028 -0.04597507 -0.11732946 -0.13215944
0000d0 a6 d5 9b 3d 19 96 c6 bd 65 6f be 3d 69 d4 72 be
       0.076091096 -0.096965976 0.092985906 -0.2371384
0000e0 f2 11 f7 bd 7f ce 46 bc 1f e9 39 be 17 91 ad bd
       -0.1206397 -0.012134193 -0.18155335 -0.08474939
0000f0 5d 6c a9 bd 81 25 88 3c ec 2d b1 bc 95 88 02 be
       -0.08272622 0.016619446 -0.021628343 -0.12747414
000100 60 5e e0 bd 28 7c 35 3d 94 84 84 bd 53 48 94 be
       -0.109555006 0.044307858 -0.064706 -0.2896143
000110 c0 0c 0f 3d 84 85 99 bd fe 6c 2f be 02 ac 09 be
       0.03492427 -0.07496169 -0.17131421 -0.13444522
000120 40 81 43 be 66 cd 06 bd c1 1d d5 3c ad 5e 18 be
       -0.19092274 -0.032910727 0.026015164 -0.14879866
000130 03 b7 6a 3d 57 1b 89 be 30 4c 1a be 52 e7 6a be
       0.05730344 -0.2677867 -0.15068126 -0.22939804
000140 17 27 88 bd f7 54 10 be 3d 73 92 3d f1 22 3f 3e
       -0.06648081 -0.14094912 0.07150886 0.18665673
000150 1d c0 80 bd 85 bb 50 bd 4e c3 94 bd d4 10 03 3e
       -0.06286643 -0.050960083 -0.07263814 0.12799388
000160 fa 59 b1 be 6c ca 1b bd 43 27 c8 bd 03 f5 70 be
       -0.3463896 -0.03803484 -0.097731136 -0.23530965
000170 40 98 a0 3a ba 0f 1a be a5 7b 62 bd 61 67 c1 3d
       0.0012252405 -0.15045062 -0.055293698 0.09443546
000180 a3 65 31 3a 8b d7 01 3d 22 e2 50 be da 8a 45 3d
       0.0006767159 0.0316997 -0.20398763 0.048228122
000190 e1 ac d6 bd 4b 4a d1 3d 58 95 80 be 7d 5f 54 3e
       -0.10482193 0.102192484 -0.2511394 0.20739551
0001a0 96 6b ba bc c0 d5 80 be c5 cb ec bd 18 6b 19 3d
       -0.02275638 -0.25163078 -0.115623035 0.03745565
0001b0 62 a2 8b 3d 8f b0 43 be f7 49 12 bd 5e ac 23 be
       0.068180814 -0.1911032 -0.03571507 -0.15983722
0001c0 ef 16 1e 3d f8 2e 47 be 09 ff 78 bd 64 3e dc 3c
       0.03859609 -0.19451511 -0.060790095 0.026885219
0001d0 e9 58 83 be ae 90 a7 3c 4d 29 25 be 8a 0c af bd
       -0.2565377 0.02045473 -0.16129036 -0.085473135
0001e0 29 1d bc 3d 04 b6 51 bd 09 21 52 3d 95 7a 15 3d
       0.09185249 -0.051198974 0.051301036 0.036493856
0001f0 20 5d 2b be 44 12 1f 3e 63 f8 66 bc fa 2c 44 bb
       -0.16734743 0.15534312 -0.014097306 -0.0029934035

actor.2.weight f4 [128, 128]
000000 06 62 78 be 04 9f 53 3e 5d 89 94 bd 72 30 7a be
       -0.24256143 0.20666128 -0.072527625 -0.24432543
000010 fb 25 ee bd 2a 86 c2 3d c8 8d 9b bd 06 fd fb bd
       -0.11628338 0.09498246 -0.07595402 -0.1230412
000020 ec f2 14 3e 07 0b 03 be e8 fa 29 3e 81 37 a1 be
       0.14545792 -0.12797175 0.1659962 -0.3148766
000030 56 09 a7 be c8 8f 98 3d 65 63 1a bd b5 b1 1c 3e
       -0.3262431 0.07449299 -0.037692446 0.15302165
000040 1d 88 d3 bd 6c 64 0a 3d 09 7d 8e be 64 32 2b be
       -0.10328696 0.033787176 -0.2782977 -0.16718441
000050 21 11 0f 3b 06 27 97 3d 01 05 dd bd a2 76 eb bc
       0.0021830278 0.0738049 -0.1079197 -0.028743092
000060 6b 01 f0 bd 30 20 40 bd 2c 09 3f 3e f0 ed d7 3d
       -0.117190205 -0.046905696 0.18655843 0.1054343
000070 60 2f e9 bd f5 95 89 be a0 73 d8 3a 27 11 75 be
       -0.11385989 -0.2687222 0.0016513951 -0.23932324
000080 9b 82 84 bd c3 a7 e0 3c 20 30 9c 3d 5c 45 01 be
       -0.064702235 0.027423745 0.076263666 -0.12624115
000090 ce dc ec bd 76 fc c8 bd f1 a6 61 3d 25 01 a5 bc
       -0.11565553 -0.09813778 0.05509085 -0.020142147
0000a0 ec 1c 69 bd d0 57 08 be 98 cb 50 be 0d 99 9d bc
       -0.056912348 -0.13314748 -0.20390165 -0.01923802
0000b0 79 22 b4 bd f9 5e ed bc 66 88 80 be d3 79 a8 bd
       -0.08795638 -0.02897595 -0.25104064 -0.08226361
0000c0 e3 92 49 bc 4d 9b 9b bd 6a 78 85 3c d5 56 db 3d
       -0.012303087 -0.07597981 0.01629277 0.10709921
0000d0 b2 2e de 3d de 21 94 3d 34 de f8 bd 45 52 5a 3e
       0.1084875 0.07233022 -0.12151757 0.21320446
0000e0 61 94 a6 3d 17 c7 b0 3c 0b c7 05 bd 5a 38 2d be
       0.0813377 0.021579308 -0.032660525 -0.16916028
0000f0 e6 b2 74 3e ff cf c1 3d 6c bf 27 be fb 4e b7 3c
       0.2389637 0.094635 -0.16381615 0.022376528
000100 d9 29 10 bd 03 7f 3c 3d bb 41 88 bd 55 12 ee 3d
       -0.03519616 0.046019565 -0.06653162 0.1162459
000110 d1 0e 17 3e 02 b7 32 be cc 34 46 bd a8 48 a8 3d
       0.14751746 -0.17452624 -0.048390195 0.08216983
000120 a0 25 5c bd d2 d4 70 3b 57 80 e1 bd f3 8d 95 3e
       -0.05374682 0.0036747945 -0.11010807 0.2920986
000130 11 3b 2a 3d d6 b5 64 bc a0 56 83 3b d2 59 45 3e
       0.041560236 -0.013959369 0.0040081292 0.19272545
000140 a4 57 8e bd 50 e9 e9 bd 01 30 74 bc 80 3e 62 be
       -0.0695031 -0.11421454 -0.014904023 -0.22094154
000150 ca e3 9b 3c 14 b5 05 3e 97 83 b1 3a 11 b0 c6 bd
       0.019029517 0.13057357 0.0013543245 -0.09701551
000160 5d d5 22 3b 35 0b d2 3c 13 fa 88 3d 9d b9 ec 3d
       0.0024846413 0.02564011 0.06688323 0.115588404
000170 89 e0 b5 bd 8c fc 9b 3c b6 56 6e be 41 5c 8a 3d
       -0.08880717 0.019041322 -0.23275265 0.06755877
000180 68 0b eb bd 03 dd d9 bd 99 5d 37 3d 64 09 22 be
       -0.11476785 -0.10637858 0.044766996 -0.15823895
000190 3f ba f4 bd d2 4a fd 3d 57 80 57 3c 61 d1 69 bc
       -0.11949586 0.123677865 0.013153157 -0.014271111
0001a0 af e4 a0 bd c8 72 3b 3e 62 0e 8c 3c c0 62 20 3e
       -0.07856118 0.18305504 0.017096702 0.1566267
0001b0 b0 9f c0 bd 7b b8 25 bd 09 5e e7 3d b2 c5 36 3c
       -0.09405458 -0.040459137 0.11297233 0.011155533
0001c0 a2 c5 14 bd a4 1a 8a bb 32 6c fe 3d b7 6a 3c be
       -0.03632129 -0.0042146016 0.1242298 -0.18400083
0001d0 64 d2 7e 3c 00 a6 49 bd 2b d6 4f 3e 2b 8f 6c be
       0.015553091 -0.049230576 0.20296542 -0.23101489
0001e0 10 5e 34 be ce 90 e5 3d 83 79 6c bd 64 e6 a7 3d
       -0.17614007 0.1120926 -0.05773307 0.081982404
0001f0 73 12 33 3c 17 8b e7 3c 27 2f 9a 3c 13 e6 0a be
       0.010929692 0.028264565 0.018821312 -0.13564329
000200 a9 ac 88 3c b5 54 77 bc 0c 62 e9 3d 34 14 a1 bc
       0.016683893 -0.015095879 0.11395654 -0.019662954
000210 4f 36 18 bd 57 29 28 3c ca a4 84 3d 82 7e 9a bb
       -0.037161168 0.010263762 0.064767435 -0.004714788
000220 bc 3e c8 3d bd d7 1f 3d 64 f9 fc bd 7e 67 19 bd
       0.09777591 0.039024103 -0.12352255 -0.037452213
000230 1d 2f 42 3e 14 39 3d 3d 43 1b 85 be 5a 00 4b be
       0.18963285 0.046197012 -0.25997362 -0.19824353
000240 26 17 ee bc 4c b6 1f bb 3f 17 28 be aa 1a 8f bd
       -0.029063772 -0.0024370132 -0.16415118 -0.06987508
000250 91 5b 16 3d 98 c9 3d 3e 6f 3e 51 3d 89 ab 1d be
       0.03670842 0.18533933 0.051084932 -0.15397467
000260 e3 d9 fe bd 5e 1a c4 3c 46 df 27 3c 26 da 7c 3c
       -0.12443902 0.023938354 0.010246104 0.01543287
000270 0c 52 85 3b 5c 0d 63 be fc d8 03 3e 98 0d d9 3d
       0.0040686186 -0.22173065 0.12875742 0.10598296
000280 8d dd 41 3d dc 95 97 3c 7a a7 86 3d 87 1d 04 3d
       0.047330428 0.018504076 0.06574912 0.032254722
000290 6c d8 ab bc 6e bb 16 3e 63 22 e5 3d b6 a1 19 3e
       -0.020977221 0.14719936 0.11188199 0.15003094
0002a0 0f ad e8 bc 38 b5 69 3d 51 e4 d5 3d f0 e6 3b 3a
       -0.028402833 0.05705759 0.104439385 0.0007167896
0002b0 56 51 1c 3d de c9 0b 3d aa 45 ae 3d 46 b8 82 3e
       0.038163505 0.034128062 0.08509381 0.25531214
0002c0 5a 99 c2 bd a5 8a 03 bb 4e 2d 46 3e e3 06 9b 3d
       -0.09501906 -0.0020071652 0.1935322 0.07569673
0002d0 e9 b4 e4 bb ca fc 17 3e e6 d5 87 bd d1 e5 48 3c
       -0.006979574 0.14842525 -0.06632595 0.012261824
0002e0 44 35 d5 bd aa 9f ad 38 4a a8 1c bd 19 bd 1a be
       -0.1041055 8.2790226e-05 -0.03824643 -0.15111198
0002f0 27 7f 0d 3e 75 74 20 be a1 5e ec bc d6 77 16 3e
       0.13818036 -0.15669425 -0.028853716 0.14694151
000300 07 57 0a 3e db 69 93 bd c8 ac a4 bc 78 ac 81 3e
       0.13509761 -0.07197925 -0.02010192 0.25326896
000310 22 29 36 3d a4 11 28 3b bd 3d bb bc 0a 5e 9f bd
       0.04447282 0.002564528 -0.022856588 -0.077816084
000320 7f 39 94 3d 4b 78 04 be 06 58 8b 3d 43 86 b8 3c
       0.07237529 -0.12936513 0.068038985 0.022524958
000330 a8 3a 8e bd ed d0 b7 3d d8 e7 16 3e 86 29 51 be
       -0.069447815 0.08975396 0.14736879 -0.20425996
000340 a8 c4 6d 3c eb a5 16 3e b9 0a de bd 2e 26 0d 3c
       0.014512219 0.1471173 -0.10841889 0.00861506
000350 f5 6e 2a bd 78 17 b1 bd 78 54 15 3e e8 86 a6 3d
       -0.041609723 -0.086470544 0.14583004 0.081312
000360 0d 92 39 3d 81 8c 67 3d 73 6a 64 3d d2 0a a7 bd
       0.0453053 0.05653048 0.05576558 -0.08156361
000370 0e c6 b3 3d e3 64 79 3d 89 38 22 3e 38 09 fd bd
       0.0877801 0.06088723 0.15841879 -0.12355274
000380 11 88 81 bc 35 4d 88 3d d4 e9 42 3d 5b 0e 8c be
       -0.015811952 0.06655351 0.047586277 -0.27354702
000390 b0 6c 23 bc be c3 bb bd 62 78 c4 3d 11 8d 42 be
       -0.009974644 -0.09168194 0.09593274 -0.18999125
0003a0 89 86 d4 3d 19 84 44 3e 91 37 0c 3d f1 1a b4 bd
       0.10377223 0.19191016 0.03423268 -0.08794201
0003b0 4d 81 35 3e 18 82 40 bd cb cb ff 3c 6c 56 a2 3d
       0.17725106 -0.046999067 0.031225106 0.0792664
0003c0 f3 49 d9 3d 55 3f c4 3c 69 02 8f bd bc 9e 18 be
       0.10609808 0.02395598 -0.069828816 -0.14904302
0003d0 34 2b 63 3d 98 19 89 3d 13 39 5d be 95 4a 64 3d
       0.055461124 0.06694335 -0.21603803 0.05573519
0003e0 5d 53 2d be 5a 6a dd 3b f5 af 77 3d 99 e8 4f be
       -0.16926332 0.006757063 0.06047054 -0.20303573
0003f0 87 b9 8e 3d b9 78 c3 3d 50 c5 3d bd c2 29 5d be
       0.0696898 0.095445104 -0.04633075 -0.2159796

actor.2.bias f4 [128]
000000 fd 2a 5b be 7c cf 08 be 13 f4 dd bd 1b f3 45 bd
       -0.21403117 -0.13360399 -0.10837569 -0.048327547
000010 00 d6 a1 bd 39 e3 32 bd 5e 0f 4b bd c9 28 33 be
       -0.079021454 -0.043673728 -0.049575202 -0.17496027
000020 72 b7 2b bb ff f0 3e be 88 20 6f bd 0b a0 4c be
       -0.0026201871 -0.1864662 -0.058380634 -0.19982927
000030 2a c6 ec bd 77 fe 5d bd 62 e6 a5 bd 38 08 93 bd
       -0.11561234 -0.054197755 -0.08100583 -0.07179302
000040 e2 86 eb bd 15 c7 88 3d f7 0e 74 3c d9 d3 b7 bd
       -0.11500336 0.06678597 0.014896146 -0.089759536
000050 e0 f5 01 be f1 8e bc bc ef 31 0b be 60 1f 3d be
       -0.1269145 -0.023017379 -0.13593267 -0.18469
000060 75 fb 22 bd f8 c8 1a be bb 8f dc bd 1e 50 13 3d
       -0.03979059 -0.15115726 -0.10769602 0.035965078
000070 00 5e 64 3d 82 d7 eb 3b d6 f5 8f 3b 8d 74 a1 bc
       0.055753708 0.0071973214 0.0043933196 -0.019708896
000080 6c 0b 89 bd 05 c3 e2 bb 7f 06 41 3d 53 6a 00 3c
       -0.06691632 -0.006920221 0.047125336 0.00783785
000090 7c e8 c1 bd 71 a8 39 be 34 04 f5 bd bd 31 b9 3d
       -0.09468171 -0.18130662 -0.11963692 0.0904269
0000a0 c3 c1 4d bd 16 80 ab bd 79 c8 67 bd 56 e9 b6 bd
       -0.050233614 -0.0837404 -0.05658767 -0.08931224
0000b0 1b 65 ae be be 3e 2b be 30 c9 fa 3d 36 c4 00 be
       -0.34061512 -0.16723153 0.12245405 -0.12574849
0000c0 36 4f 45 3a 38 f2 92 be 5c 69 62 bd 5b ca 27 be
       0.0007526757 -0.28700423 -0.05527626 -0.16385786
0000d0 24 b5 a4 bd fc ac db bd ed a4 72 be 5b 7a e3 bd
       -0.08042362 -0.107263535 -0.23695727 -0.11107322
0000e0 5e 14 5a 3d 16 03 c1 bd 50 e9 e1 3c 11 9e eb bd
       0.05324208 -0.09424417 0.027577072 -0.11504758
0000f0 b8 9a 2e be 06 b1 34 be 3f 88 88 bc fa 14 dd 3c
       -0.17051208 -0.17645654 -0.01666653 0.026987541
000100 3c 8e 6e bd 12 df 8c bd 0f 64 42 bd e1 5d 86 be
       -0.058241114 -0.06878485 -0.047458705 -0.262435
000110 a1 10 b8 3d 80 89 66 be 9a f1 50 3d 54 06 55 bd
       0.08987547 -0.2251339 0.05101166 -0.052007988
000120 c6 26 42 be 30 fe a2 3d 6a 9b 3e bd cd db cc bd
       -0.18960103 0.07958639 -0.046534933 -0.10002861
000130 f4 1a a0 3d f8 7e 24 be 80 1d 8f be ef d3 c4 bc
       0.07817641 -0.1606406 -0.27952194 -0.024026839
000140 e1 a4 cd 3b 9b 87 72 bd 9b e1 0f be d6 c6 49 bd
       0.0062757586 -0.059211355 -0.14050905 -0.04926189
000150 9e f3 ce 3d ae 10 c4 bc ee 95 12 be 08 3b ad bd
       0.1010506 -0.023933735 -0.14315006 -0.08458525
000160 26 4c 90 be d2 73 a3 bc 72 b7 68 be b6 8b 54 be
       -0.28183097 -0.019952688 -0.22726229 -0.2075642
000170 9c 76 d5 3d 17 03 1d bb ce a3 10 3e 07 5b c7 bd
       0.104230136 -0.002395814 0.14124987 -0.09734159
000180 84 e4 12 be 7a e8 69 be 9d dc 80 be e9 66 33 bd
       -0.14344984 -0.22842589 -0.25168315 -0.043799315
000190 71 96 6a be 1f 54 5f be 7c 82 b8 be a6 b2 67 be
       -0.22908951 -0.21809433 -0.36037052 -0.22626743
0001a0 70 14 db bd fa 20 f4 3c c6 91 fd bc 48 ce 24 bd
       -0.106972575 0.02980088 -0.0309533 -0.040235788
0001b0 33 9c 62 be e4 24 a7 bb 45 b0 83 bd f5 da b8 3c
       -0.22129898 -0.0051008333 -0.06430105 0.022565344
0001c0 cd 2e 84 bd 5d 61 28 be 81 9d d0 3d b9 92 ef bd
       -0.06454239 -0.16443391 0.101862915 -0.11697907
0001d0 37 2d 25 be 57 ca 5d bd ef 8c f6 bd 28 cd 69 bd
       -0.1613053 -0.054148044 -0.120386 -0.057080418
0001e0 d6 39 71 bd 43 3c 23 3e bd ee bd 3d 68 2c ad 3b
       -0.058893047 0.15940957 0.09274051 0.0052848347
0001f0 9c c4 2e be 2a 41 34 be 61 28 2a 3d 05 90 be bc
       -0.17067188 -0.17602983 0.041542415 -0.023262033

actor.4.weight f4 [128, 128]
000000 e2 e8 48 be c7 0f ed bc fc 69 20 bd 05 5a 1a 3e
       -0.19620088 -0.028938187 -0.039163575 0.15073402
000010 e1 e4 91 bd 8e 2b ae bd bd 65 b0 3d 1d bb 79 bd
       -0.07123733 -0.08504401 0.08613155 -0.06096946
000020 74 29 b8 bd e5 2e 91 3d bd 2a 10 be 95 7f 12 be
       -0.089922816 0.070890225 -0.14078803 -0.14306481
000030 df 76 95 3d 5a bd 8a 3d 12 89 fd 3d 73 a4 8a 3c
       0.072980635 0.06774397 0.1237966 0.016924119
000040 a9 c7 48 bd 2b cc 51 3d b3 39 90 3c 01 80 be 3d
       -0.049018536 0.0512201 0.017605638 0.093017586
000050 b1 53 4e 3d 37 2a 46 3c 35 30 a5 3d 75 7e 02 be
       0.050372783 0.012095026 0.080658354 -0.12743552
000060 b7 d1 d5 bc bd 25 a5 bd 26 65 3c 3d 5a 17 02 3e
       -0.026100976 -0.08063839 0.0459949 0.1270422
000070 e1 28 d8 bc 0f ab 28 be c7 6b 51 3c aa f6 33 bc
       -0.02638668 -0.16471504 0.012782044 -0.010984102
000080 3b d5 b4 3c 92 4a 96 bd ff 69 80 3a 0f f9 6a bd
       0.022074332 -0.07338442 0.0009797214 -0.057366427
000090 4f 7c a7 bd c4 25 8d bc 3d 1c 06 be 79 cc 2b 3d
       -0.08178007 -0.017229922 -0.1309671 0.041943047
0000a0 3d ab 0f be 84 83 ee bd c7 64 27 bc fe 82 ee bd
       -0.14030166 -0.11646178 -0.010216898 -0.116460785
0000b0 78 67 05 bd 31 47 e0 bd ca ec 1f 3d fd 8a 08 bd
       -0.03256938 -0.10951079 0.03904418 -0.033335675
0000c0 06 16 4c bd 7c c7 97 bd 24 82 10 bd 3e 1e b3 3c
       -0.04982569 -0.074110955 -0.03528036 0.021865007
0000d0 eb 53 29 3e 09 4b 25 3e 2f 51 96 bd 1b 37 be bd
       0.16535918 0.16141905 -0.07339703 -0.09287854
0000e0 0c 74 6f bd 79 a8 c8 ba f0 f3 42 bd 26 6b 68 3c
       -0.05846028 -0.0015308998 -0.04759592 0.014185702
0000f0 5f 1a 84 bd da 1a e3 bb 3e 48 32 bd 5c 2f fd bc
       -0.064503424 -0.006930691 -0.043525927 -0.030906372
000100 e4 d0 a8 bd 27 67 35 be 4a 8a 57 3b 09 38 9f 3d
       -0.08242968 -0.17715131 0.0032888823 0.0777436
000110 f0 68 25 bd 26 8b 8c 3d 54 f7 2d 3e ab 28 5f be
       -0.04038328 0.06862478 0.1698888 -0.21792857
000120 10 27 cd 3c c0 33 af 3d 00 a9 7b 3d a9 5e 82 bd
       0.02504304 0.085547924 0.061440468 -0.06365711
000130 fa b3 e3 bd b9 54 f3 3c 6d 30 d1 bd 9b 79 e9 3d
       -0.11118312 0.029703485 -0.102143146 0.114001475
000140 52 80 67 3c d9 21 b9 bb 21 85 d6 bd e2 a8 39 3e
       0.014129715 -0.005649787 -0.10474611 0.1813083
000150 33 93 1a 3e 6a 5e ed 3c 2a c7 89 bd 7d 2e 34 bd
       0.15095215 0.028975684 -0.06727441 -0.043989647
000160 4b fa 98 3d c8 c2 eb bd 63 2e 8f bd ac 87 96 bd
       0.074696146 -0.11511761 -0.069912694 -0.07350096
000170 14 73 00 be 7d de 99 3b 5b b7 d5 bd 25 57 10 be
       -0.12543899 0.004695712 -0.10435363 -0.14095743
000180 7b 2a 21 3d 2d f4 80 3d 25 71 e2 3d 9d 46 6b bc
       0.039347153 0.06296573 0.11056737 -0.014360097
000190 52 f4 be 3b ce 74 da bd ab 7b 2b 3d 95 74 8e 3c
       0.005827465 -0.1066681 0.041865986 0.017389575
0001a0 40 39 ab bc 9c c0 ba 3d 3d fb 50 bd a4 a3 10 bb
       -0.020901322 0.091187686 -0.05102085 -0.0022070194
0001b0 4d 11 0e be 9d 66 b8 3c 4d 2b 4f 3d b9 87 3d be
       -0.13873787 0.022509867 0.050578404 -0.18508805
0001c0 f6 fb 3f bd ee 76 7e 3d f6 3c d3 3d 7c 02 d7 bc
       -0.046871148 0.06212514 0.10314362 -0.026246302
0001d0 34 9e b8 bd 8a aa a5 bd a9 48 28 be 92 18 11 3e
       -0.0901455 -0.08089168 -0.16433968 0.14169529
0001e0 0d 9e 81 bd ee 84 13 be 32 70 e9 3c d2 0f 0d 3d
       -0.06328974 -0.14406177 0.028495882 0.034438916
0001f0 46 5f 88 3d 3b 66 e4 3d ac bd 0c 3d ca 2f e3 bc
       0.06658797 0.111523114 0.034360573 -0.027732749
000200 22 7b 75 bd 62 dd 72 bd d6 f0 7a 3d f4 62 ef 3d
       -0.05993188 -0.05929316 0.061264835 0.11688796
000210 b3 4f cd 3c 2a 8a 14 3e 6d 86 e0 3c 25 eb db 3d
       0.025062418 0.1450583 0.02740785 0.1073821
000220 2b 6d eb 3c 1e b5 06 3e fa b0 a9 3d 8a 32 93 bc
       0.028738579 0.13155028 0.08285709 -0.017968435
000230 b2 e0 25 3d e2 92 df bd 1c a0 49 3d 60 e4 e1 bc
       0.04049749 -0.109166875 0.049224958 -0.027574718
000240 62 ea 02 be 89 13 a4 bc 46 2d 05 be cb f6 99 bd
       -0.12784722 -0.020028846 -0.13005552 -0.07517775
000250 6e 0c 19 3e ea bf a9 3c 5b 9c 27 3d 64 0b e2 3d
       0.14946148 0.020721395 0.040920597 0.11037329
000260 5e 54 91 bd 02 52 05 3e 4b 4a 9e 3d d7 4b e9 3d
       -0.0709617 0.13019565 0.07729014 0.113914184
000270 fd 52 73 be d7 7a 96 bd 6e 2d a0 3c 74 d5 8c 3d
       -0.23762126 -0.073476486 0.019552913 0.068766505
000280 cb 62 82 3d da f6 e2 bb 71 cd 8f 3b be 8d b9 bd
       0.063664995 -0.0069263997 0.004388504 -0.09060238
000290 b8 f5 6a be ac 29 f7 bd 40 0b d5 bc 4f 7a c4 bd
       -0.22945297 -0.12068495 -0.026006341 -0.09593641
0002a0 a5 8d 8a bb 0e e4 4f 3d 7c c9 2e be 6e 83 e6 bd
       -0.004228311 0.0507546 -0.17069048 -0.11255537
0002b0 62 3c dd 3c 25 5a 5e bd ad 7c de bc 2d a1 42 3d
       0.027006332 -0.054285187 -0.02715906 0.04751699
0002c0 96 63 9b bd 1a f8 9d 3d 88 bc a6 3d ea 38 4b 3d
       -0.07587354 0.07713337 0.08141428 0.049614824
0002d0 a6 3d 7e 3d 85 e1 d5 3d 19 97 50 3c 3b 2b f4 3c
       0.06207051 0.10443405 0.012731337 0.02980577
0002e0 c4 b1 dd ba f1 67 ac bb b6 81 80 bd 4b 18 16 bd
       -0.001691394 -0.005261414 -0.062747404 -0.03664426
0002f0 79 4b f5 bd c3 e3 8b bc e8 d2 07 be f9 80 7e 3d
       -0.11977286 -0.017076379 -0.13264048 0.062134717
000300 3d 12 ae 3c 41 8e b7 3c 30 97 d0 3d f2 8f 9f 3d
       0.021248931 0.0224067 0.10185087 0.07791127
000310 ed 91 fc 3d d4 a4 d6 3d f6 4e 9c bd ba eb a0 3d
       0.12332521 0.10480657 -0.07632248 0.07857461
000320 53 b2 a9 bd 0e ec b6 3d 80 7c 84 bc 45 11 0f 3b
       -0.08285966 0.089317426 -0.016172647 0.0021830362
000330 db 74 aa bd c0 cd c9 bd ff eb c8 3b 54 66 99 bd
       -0.0832307 -0.09853697 0.0061316486 -0.07490221
000340 b9 f9 a8 3d f4 ad 2c be c7 e4 6e 3d 42 1e 24 3c
       0.08250756 -0.16863233 0.058323648 0.01001698
000350 c2 83 ac bd f6 53 06 3c 56 49 2f bd 51 c1 fd bc
       -0.08423568 0.008198729 -0.042794548 -0.03097597
000360 4d 3e fa bb e7 ba 5c be 88 f3 90 bd 80 01 ac bd
       -0.0076368214 -0.21555673 -0.070777 -0.083987236
000370 7f 2d be bd 1a 26 47 bc af 5f 81 3d 72 a3 9a bd
       -0.092860214 -0.01215508 0.06317078 -0.07550706
000380 81 35 77 bd 39 52 d1 3d 48 32 3f 3e 36 ff b2 bd
       -0.06035376 0.10220761 0.18671525 -0.08740084
000390 a8 ba a1 3c c0 ed 11 3e 4b 76 55 3c 2b 4d 7d 3d
       0.019742325 0.1425085 0.0130286915 0.06184117
0003a0 88 bc c1 3d f3 bc 3b bd 67 14 b7 3d 99 4f 0b bd
       0.094597876 -0.045834493 0.08939438 -0.034011457
0003b0 0e ce 15 bd f9 48 2c bd 99 8f d4 bd c0 d5 20 be
       -0.036573462 -0.04206178 -0.103789516 -0.15706539
0003c0 b1 84 e0 3d 13 2a d9 3d c9 fd 48 bd e9 61 99 3d
       0.10962809 0.10603728 -0.049070153 0.07489378
0003d0 d3 b0 40 bd 37 78 74 bc 00 40 23 bd c6 df a2 3d
       -0.047043633 -0.01492124 -0.039855957 0.07952838
0003e0 e5 95 dd 3d 0d 33 1a bd e7 c3 20 be fe 9f 44 be
       0.10819606 -0.037646342 -0.15699731 -0.19201657
0003f0 74 47 9d 3d 67 a5 89 3d 93 f2 d3 3c 23 75 be 3d
       0.07679644 0.06721001 0.025872504 0.09299686

actor.4.bias f4 [128]
000000 4e b1 dd bd b3 a2 4b be ca c7 0c be 0d 54 e2 3d
       -0.10824834 -0.19886284 -0.13748088 0.11051188
000010 84 3a c2 bd 42 dd 7e be 55 67 0e be 49 54 44 bd
       -0.09483817 -0.2488909 -0.13906606 -0.047931943
000020 cd 32 27 3c dd 35 58 be 5c b2 f0 bd 37 27 b2 bd
       0.010204983 -0.21114297 -0.11752769 -0.08698886
000030 bd 61 cf bd 1b fe d0 bd 47 79 cf 3d a3 7b 66 3d
       -0.10126064 -0.10204717 0.10130554 0.056270253
000040 dd 9a 2f bd 30 cc 03 be 29 95 3e 3d 88 20 00 be
       -0.0428723 -0.1287086 0.04652897 -0.1251241
000050 96 e1 03 be 9e af 00 bd 64 f5 89 bd ec f6 86 bc
       -0.12879023 -0.03141748 -0.06736258 -0.016475163
000060 bd 71 8b bd 24 c8 ed bd d9 cb ae bd 2d 54 92 3d
       -0.06808803 -0.116104394 -0.085349746 0.071449615
000070 3e 60 65 bd 78 aa 16 3d d6 60 bc bd 1d 43 94 3c
       -0.055999987 0.036783665 -0.091981575 0.018098408
000080 fd 3f a7 bd 78 35 2e bd 3e 93 41 3c fc db 1d be
       -0.08166502 -0.04253146 0.01181489 -0.15415949
000090 c9 e9 c3 bd 82 fc 41 bd bb 10 f5 bd d7 9b 00 be
       -0.09566075 -0.04735995 -0.11966082 -0.12559448
0000a0 80 cf 2d be 2a f4 96 3d 12 88 26 bd 70 2d a0 bd
       -0.16973686 0.07370789 -0.04065711 -0.078211665
0000b0 0a 61 d4 bc 7e b6 a3 be 26 a8 6c 3d 47 9e 66 bd
       -0.025925178 -0.31975168 0.057777546 -0.05630329
0000c0 45 df d5 3c 71 f8 5f bb 2d be 0f 3c b7 f8 53 bd
       0.02610744 -0.0034175182 0.008773369 -0.051750865
0000d0 37 38 b9 3d 63 8b 72 be bc 86 b1 be d2 e4 0a be
       0.09043925 -0.23685984 -0.34673107 -0.1356385
0000e0 40 7f 7c be a8 db ae bd a9 84 b0 3c f6 3a 36 be
       -0.24657917 -0.0853799 0.021547632 -0.1779593
0000f0 b9 78 93 bd 56 2a c5 bd 19 12 00 be b4 e5 e4 bb
       -0.072007604 -0.096272156 -0.12506904 -0.0069853906
000100 f9 d4 07 bc 0c d7 10 bd da 9b 7b be fb 98 48 bd
       -0.008290523 -0.035361335 -0.24571171 -0.04897402
000110 9f 51 43 be f3 08 5a be cd c3 93 bd 41 4b 54 3d
       -0.19074105 -0.21292476 -0.072150804 0.05182958
000120 b6 a3 89 bd af e9 38 bd c2 5a cc bd 8d 2c ed bd
       -0.067206785 -0.045144733 -0.09978248 -0.11580763
000130 81 44 40 be 62 c8 d2 3d f8 9f b6 bd c2 46 8f bc
       -0.18776132 0.10292126 -0.0891723 -0.017489795
000140 0b 03 2c be be 70 36 be 0c 0f fd bd 5b 12 b1 bd
       -0.16798036 -0.17816445 -0.123563856 -0.08646079
000150 1e c5 40 bd 97 79 51 bd 60 94 1f bc e8 35 1b be
       -0.047062986 -0.051141348 -0.009739965 -0.15157282
000160 c7 41 df bd da ac f6 3b 25 ba 93 bd bb 19 cd bc
       -0.10901218 0.0075279297 -0.072132386 -0.025036683
000170 68 7f d1 bc f5 ce b1 bd 94 b0 41 be 48 0b 3c bd
       -0.025573447 -0.08682052 -0.18915015 -0.045909196
000180 04 b4 1c be ca 26 1f be f0 fc 8f 3d 7b 6e 3b be
       -0.15303046 -0.1554214 0.07030666 -0.18303864
000190 16 13 df bd 99 5b fc bd 8e 1c 12 be 4a b6 b6 3b
       -0.10892312 -0.12322158 -0.14268705 0.00557593
0001a0 be 69 22 be d6 13 09 be 9b c1 a5 bc 5d 6a 14 3b
       -0.1586065 -0.13386473 -0.02023392 0.0022646405
0001b0 02 63 06 3d 10 8b 37 3c 86 11 1b bb 1a e7 0c be
       0.032809265 0.011202589 -0.0023661568 -0.13760033
0001c0 4e e6 1c be 96 8a d4 bd 22 0d c2 bd d2 c1 27 3d
       -0.1532223 -0.10377996 -0.09475161 0.040956326
0001d0 d8 08 1a 3c 0d bb 8e 3a ee b1 5d be 29 fc 7d 3d
       0.009401523 0.0010889486 -0.21649906 0.062008057
0001e0 e9 85 8b be b4 26 6c be 9f 36 08 bd 81 34 2a be
       -0.27250603 -0.23061639 -0.033255216 -0.16621591
0001f0 d3 90 4f be 8d cd b2 bc 6f aa 20 bc 68 c8 8b bd
       -0.2027009 -0.02182653 -0.00980626 -0.06825334

actor.6.weight f4 [27, 128]
000000 9c a7 a7 bb f5 cf 5d 3d a4 be 68 bd aa 66 83 3c
       -0.005116416 0.0541534 -0.056822434 0.016040165
000010 55 58 01 bb 04 e1 ec 3c 53 32 70 3c 9f f5 9a 39
       -0.0019736488 0.02891589 0.014660436 0.0002955617
000020 39 1c f2 bb 48 08 b7 3b 0a 3b 18 ba 2e d6 cc b9
       -0.0073886183 0.005585704 -0.00058071373 -0.00039069488
000030 28 d8 16 3c 64 43 6b bb 5a 0b 04 3a ae 88 9a ba
       0.009206809 -0.0035898322 0.0005037092 -0.0011790001
000040 c2 a6 5c bc 35 46 45 3c 7f 53 9b bb 84 1b 88 bb
       -0.013467493 0.012040664 -0.004740178 -0.0041536707
000050 b9 19 c3 3a 08 28 24 bc e0 d4 71 3c 1f f1 2d 3b
       0.0014884985 -0.01001931 0.014760226 0.0026541424
000060 b5 ea b8 3c fa 02 6f 3a 15 83 d5 3b 6a 3b c0 bb
       0.022572855 0.000911757 0.0065158703 -0.0058664577
000070 3c c8 fe bb e6 79 ba 3b bc d9 aa 3c 4e 92 16 3d
       -0.0077753346 0.005690801 0.020855777 0.03676062
000080 e3 69 f9 3b 52 34 65 bc 9d c8 ba bc 67 47 1e bc
       0.0076114996 -0.013989525 -0.022800738 -0.009660578
000090 f0 5e cd 3b 95 98 ba bb 28 b0 1a 3c d1 3b 02 bc
       0.006267421 -0.0056944587 0.009441413 -0.007948832
0000a0 ac 2c 0f 3c 2b d8 9b bb c0 4d 17 b9 9f 35 a2 3c
       0.008738678 -0.004755994 -0.00014429446 0.01980096
0000b0 7b db 76 bd 7f 33 76 3d 05 52 09 3d 21 86 24 3b
       -0.060267907 0.060107704 0.033525486 0.002510436
0000c0 1f d6 b0 bc 7e c5 74 3b 87 b6 51 3c 2c c5 05 bc
       -0.021586476 0.003734916 0.012799866 -0.008164685
0000d0 7f 08 33 bb 7f 8f c8 3c 00 60 b7 bc 9a 94 c6 bc
       -0.0027318296 0.024482487 -0.022384644 -0.02424078
0000e0 b0 2e 47 3d 17 c2 bb 39 d5 76 98 3c bf 78 3a bd
       0.04862851 0.00035812028 0.018611351 -0.04552531
0000f0 02 9b 80 3c 3b 57 d2 bc 52 43 a9 3b 13 92 f9 bc
       0.015698913 -0.02567636 0.005165496 -0.030465161
000100 8d 70 66 bc 68 20 19 bb 0d 5d 51 bc 99 a5 b0 38
       -0.01406492 -0.0023365263 -0.012778533 8.423179e-05
000110 1c da 28 3d 1c f7 2e bd bc 37 3a 3a 40 18 0c 3b
       0.04122363 -0.04271613 0.0007103642 0.0021376759
000120 e6 22 8f bc fa 80 da 3c c3 c0 1c 3c d9 71 eb bc
       -0.017472696 0.026672829 0.009567442 -0.02874081
000130 9d d0 ef bc 39 62 15 3c fd 21 2c bc 24 b8 0b 3b
       -0.02927428 0.009117656 -0.01050615 0.0021319473
000140 0e 9c 46 bd 47 69 11 3c 76 09 a1 bc 7e eb 69 bd
       -0.04848867 0.008875198 -0.019657832 -0.05710935
000150 1c 46 10 3b 8f 8b 49 bc 1a d9 80 3c 23 95 13 3d
       0.0022014445 -0.01230134 0.015728522 0.0360309
000160 80 5f 1f 3d e5 66 9c 3c 0d 06 8c 3c 6c 21 95 3b
       0.038909435 0.019092033 0.017092729 0.0045511033
000170 31 a2 aa bc 85 24 ac bd 9f a9 ae bb cb 3e 54 bd
       -0.020829292 -0.08405403 -0.005330279 -0.051817697
000180 9b 66 94 3a b4 69 b2 bc 11 fa 94 bb 44 ae 9e 3d
       0.0011322083 -0.021778919 -0.004546412 0.07748082
000190 e1 9e de 3c 61 84 3c 3d 53 4f 25 bc a4 82 07 3d
       0.027175369 0.046024684 -0.010089713 0.033083573
0001a0 49 85 d0 bc 13 56 4a bc 53 68 54 bc 90 29 9e 3b
       -0.02545418 -0.012349623 -0.012964326 0.004826732
0001b0 ac 68 89 ba ce 72 ff 3c fd c9 96 3b 0d 6b 3c 3c
       -0.0010483465 0.031182673 0.0046017156 0.011500132
0001c0 f8 dc ff bb c0 97 bd 3b 9a 6b ce 3b cb 7a 4d bb
       -0.007808324 0.0057859123 0.006299448 -0.0031353708
0001d0 36 c4 73 bc 31 70 67 bc ec f3 c6 3d 6d c6 3f 3c
       -0.014878323 -0.01412587 0.09714493 0.011705023
0001e0 73 25 02 bd 3a e3 af bc 20 24 6a bb 04 be c7 39
       -0.031773996 -0.021470655 -0.0035727099 0.0003809781
0001f0 0d d0 1e bd b1 00 d8 3b d5 1f 25 3d 9e 32 e0 3b
       -0.03877263 0.0065918793 0.04031356 0.0068419715
000200 ed 4c b5 bc 90 7e e5 3c 88 4d a8 3a 2e da bc 3c
       -0.022131408 0.028014451 0.0012840489 0.023053255
000210 8d d7 db bb 7b 8b 9e 3b d2 a8 34 3c 98 f3 53 bc
       -0.0067090453 0.0048384047 0.011026578 -0.012936495
000220 18 48 84 3a 69 3a 6a 3c 5a ae e8 b9 87 4c 7c 3c
       0.0010092286 0.014296153 -0.0004438039 0.015399105
000230 74 68 40 bd 0f 95 e6 3b 5d 08 0d bc f0 99 3c 3b
       -0.046974614 0.007036812 -0.008607951 0.0028778277
000240 00 fd 3c bc c3 8b 7d 3b 65 11 50 3c 33 e8 71 bb
       -0.011534929 0.003868804 0.01269946 -0.0036912083
000250 bd 6d ec 39 d9 a5 31 bc 26 b3 b2 bb dd 8d 77 bc
       0.0004509519 -0.010842764 -0.005453485 -0.015109506
000260 09 ec d4 bc b4 3b 89 3b 69 d3 0f 3a 5d 4d 79 39
       -0.025991457 0.0041880254 0.00054865197 0.0002377531
000270 a8 65 ac bc 94 a2 48 3c 05 95 bd ba 2c d5 c0 3c
       -0.021044567 0.012245793 -0.0014463967 0.023539148
000280 3d 95 89 bc 6d c0 5d 3d c8 3f 86 3b e3 aa f6 bb
       -0.016794795 0.05413859 0.004096959 -0.0075276955
000290 d7 80 12 bd 0c c4 50 bc 62 51 bf 3c 65 f9 f4 3c
       -0.035767402 -0.012742054 0.023354236 0.029904077
0002a0 a4 13 28 3c a9 64 dd 3c 68 ab 8e bc 94 59 44 3c
       0.010258589 0.027025538 -0.017415717 0.011984248
0002b0 f8 4e b7 3a 4e 6f a3 bd 2a 54 a5 3b 38 fd 16 bc
       0.0013985327 -0.07980214 0.0050454335 -0.0092156455
0002c0 e0 34 80 3b 93 f2 a1 bc 47 2e 8c bd a9 4c 84 3c
       0.003912553 -0.019768989 -0.06844764 0.016149836
0002d0 74 ae 22 3c b0 b8 8c bc 12 d6 97 bb 1c 9e 2f bb
       0.009929288 -0.01717791 -0.0046336735 -0.0026797121
0002e0 ea e4 ae bb 4d 81 13 bc 95 f7 ac bd 3e 8f 1a bd
       -0.0053373473 -0.009002996 -0.0844566 -0.037734263
0002f0 50 6a 96 3a b4 58 d5 3b 99 f5 16 3d 34 97 22 3d
       0.0011475775 0.0065108184 0.036855314 0.03969498
000300 7e 49 ea 3c d2 12 0a bc de aa 2d bc e1 a0 d9 3b
       0.028599497 -0.008427339 -0.01059982 0.0066414927
000310 89 77 98 bc c0 76 4b 3a 67 d6 5f 3c 98 3d 04 3c
       -0.018611686 0.00077615306 0.013661957 0.008071326
000320 6d 30 51 3c 60 b1 80 bc 33 e0 b1 3b b2 a5 4a 3d
       0.012767893 -0.015709579 0.005428338 0.049474426
000330 70 ce 12 3d b9 1c 8d bb 73 2e f0 3c 12 71 be bb
       0.035841405 -0.0043064025 0.029319024 -0.005811819
000340 3a ed 22 3d 1a cd 2f 3b 24 2a 3b bb 00 4c 68 3c
       0.039777018 0.002682513 -0.0028559053 0.014178276
000350 17 53 ad bc 43 89 33 3c a5 2e 81 bc 5c 7c 16 bb
       -0.021157784 0.010958019 -0.015769312 -0.0022962308
000360 0f eb 1d 3b 11 c7 32 bb a1 81 42 3c bc 09 ef 3c
       0.0024096405 -0.0027279297 0.011871726 0.029179446
000370 00 34 17 bd a8 9b cc bc 03 04 b7 bc d8 df 6b 3c
       -0.036914825 -0.024976566 -0.02234078 0.01439663
000380 23 61 a7 bd 45 b1 b8 bc 1d 26 cd 3a 5b 78 a7 bc
       -0.08172824 -0.022545466 0.0015651617 -0.020443132
000390 20 2a 8a 3c 5f 14 78 3c 9b 42 d9 3a 45 5c b3 bc
       0.01686579 0.015141576 0.0016575636 -0.021894583
0003a0 60 f6 43 bc 28 42 56 3d 5a a5 fd b9 74 4e 67 3d
       -0.011960596 0.052309185 -0.00048379117 0.056471303
0003b0 fd 16 b1 3b 43 37 ec bb 82 cc ff bb 31 b5 74 bc
       0.0054043517 -0.007208736 -0.0078063617 -0.0149357775
0003c0 15 76 e9 39 f7 a5 9f 3a 24 6b e7 b9 cf 8f 28 3c
       0.000445292 0.0012180199 -0.0004413958 0.010288193
0003d0 4b 54 49 bc 39 c3 4b ba 24 b5 1f 3c 12 07 98 bc
       -0.012288163 -0.0007772926 0.009747777 -0.018558059
0003e0 9a 4a 7c 3b 4a e8 8f bc c9 23 d1 bb 76 d7 92 3c
       0.0038496614 -0.017566819 -0.0063824398 0.017925005
0003f0 f4 a4 85 3d 91 8c 77 bc a5 f6 d0 bc 80 e1 69 3c
       0.06525603 -0.015109197 -0.025508234 0.014274955

actor.6.bias f4 [27]
000000 c7 f4 30 bc e2 cb aa bd 28 cb 9b 3c 40 4e 8e bd
       -0.010800547 -0.08339669 0.01901777 -0.06948519
000010 f4 4b 32 3d 06 07 df bb 76 fe 19 3d 02 80 85 3d
       0.043529466 -0.006806257 0.03759619 0.06518556
000020 6b 4e 62 bd 61 5b 0f bd a6 90 4c 3d da 1b 5c be
       -0.055250566 -0.034999255 0.049942635 -0.21495
000030 23 1a db bd 8f 7b b2 bd a6 2a 3f 3c cb 09 16 3e
       -0.106983446 -0.08714973 0.011667883 0.14652173
000040 9f 83 67 3d a3 8a 89 bd 3a f6 9b bd d4 d5 7e be
       0.056522008 -0.06715896 -0.07615323 -0.24886256
000050 0a 6d b9 3e 14 85 0a 3d 66 71 08 3d e9 68 da 3d
       0.36216003 0.03381832 0.03331127 0.10664541
000060 15 82 9d 3d 7d ee 93 3c 9a ca 84 3d
       0.07690827 0.018058056 0.06483956
