IsaacLab/logs/rsl_rl/h1v2_flat/2025-03-13_16-58-29/exported/policy.onnx (onnx, 195599 bytes, 8 tensors)

actor.0.weight f4 [128, 93]
0	0x3dde23d8	0.108466804
1	0xbeb79e3d	-0.35862914
2	0x3e480737	0.19534002
3	0x3d4a1d48	0.04934433
4	0x3e6eb68e	0.23311827
5	0xbdf84f21	-0.12124468
6	0x3e5e9a00	0.21738434
7	0x3cea4257	0.028596086
8	0x3e32b629	0.17452301
9	0x3e00f695	0.12594064
10	0xbd5b683d	-0.053566206
11	0x3dc48bbc	0.09596965
12	0x3e63f55d	0.22261567
13	0x3e8f617d	0.28004065
14	0xbec99288	-0.39369607
15	0x3e646720	0.22304964
16	0xbdf7b031	-0.12094153
17	0xbf251cd9	-0.64497143
18	0x3e1a192c	0.15048665
19	0x3ede30d4	0.43396628
20	0xbdea1610	-0.11429989
21	0xbe94650e	-0.2898335
22	0x3ecf08e5	0.40436473
23	0xbdc1116c	-0.09427151
24	0xbe3018d6	-0.17196974
25	0xbed648fe	-0.41852564
26	0xbd249f11	-0.04019076
27	0xbe9e5bbf	-0.30929372
28	0xbdbd3980	-0.09239483
29	0x3e471297	0.19440685
30	0xbe35f485	-0.17769058
31	0xbe9e390e	-0.30902904
32	0xbe9c3dfa	-0.30516034
33	0x3ec5422b	0.38527045
34	0xbe1ee8e8	-0.15518534
35	0x3ef979c4	0.48725712
36	0x3ddd1faa	0.10797055
37	0xbee60684	-0.44926846
38	0xbea7f11e	-0.32801145
39	0xbd0a15e5	-0.033712287
40	0x3c18cfdf	0.009326904
41	0xbd6c51ee	-0.05769532
42	0x3b88e86a	0.0041780965
43	0x3dc853d1	0.09781612
44	0xbd0c2f11	-0.034224574
45	0x3d3af573	0.045644235
46	0xbd22f9ee	-0.039789133
47	0x3dbd2fe5	0.09237651
48	0xbced1c84	-0.028944261
49	0x3d86b9b7	0.06578391
50	0xbc91775d	-0.017757112
51	0xbc06df42	-0.00823194
52	0xbc271f54	-0.01020034
53	0xbd40ec1c	-0.04710017
54	0xbdb4a49a	-0.08820458
55	0x3cb50bf1	0.02210042
56	0x3d2504bb	0.040287714
57	0xbdeb6bc9	-0.11495168
58	0x3d91793e	0.07103203
59	0x3d0eb92a	0.034844555
60	0xbe08e8f4	-0.13370115
61	0x3e18622a	0.14881197
62	0xbd2eca53	-0.04267342
63	0x3dc8a17e	0.09796427
64	0xbcda83b5	-0.026674131
65	0x3df6588a	0.12028606
66	0x3d58aea4	0.052900925
67	0x3ca24caa	0.019811947
68	0xbde3b1f2	-0.11117925
69	0xbe2076bb	-0.15670292
70	0xbd49d149	-0.049271856
71	0xbe862a9e	-0.2620439
72	0xbca490e7	-0.020088626
73	0x3c6bc224	0.014389548
74	0xbda10cca	-0.078637674
75	0xbd6af408	-0.057361633
76	0xbd7b2d85	-0.061322708
77	0xbc74352c	-0.014905255
78	0xbe7844a9	-0.24244942
79	0x3d20947c	0.039204106
80	0xbd8d1b39	-0.06889958
81	0x3d025e95	0.03182848
82	0xbe3dcd87	-0.18535434
83	0x3dcabe43	0.09899571
84	0x3d7a52a0	0.061113954
85	0xbcde25c4	-0.027117617
86	0x3e4c2353	0.1993535
87	0x3dddc8b3	0.10829296
88	0x3cbba580	0.022906065
89	0xbbc4924c	-0.0059988853
90	0xbdc934f0	-0.0982455
91	0xbc50af8b	-0.012737165
92	0xbc2fe80b	-0.010736476
93	0xbe97d170	-0.29651976
94	0x3ec1221d	0.3772134
95	0xbe044eaf	-0.1292064
96	0xbc6372e9	-0.013882377
97	0x3d9692dd	0.07352231
98	0xbde2a522	-0.11066653
99	0xbd71dc83	-0.059048187
100	0xbc88414c	-0.016632698
101	0x3e082497	0.13295208
102	0x3e1a8812	0.15090969
103	0x3cb930dc	0.022606306
104	0x3d110991	0.035409514
105	0x3e512c0f	0.20426963
106	0x3d8e365c	0.06943962
107	0xbdb1364a	-0.08652933
108	0x3b921213	0.004457721
109	0xbdbeacf4	-0.09310332
110	0x3dc3fbca	0.09569509
111	0x3d7b0df3	0.0612926
112	0x3e13cbd4	0.14433223
113	0xbed30e2a	-0.41221744
114	0xbd5c976e	-0.053855352
115	0xbe4510f4	-0.19244748
116	0xbe283c95	-0.1642936
117	0xbeff7a77	-0.4989812
118	0xbdce740e	-0.100807294
119	0xbea4e6c8	-0.32207322
120	0x3b7f88e1	0.0038991498
121	0x3d9b5d46	0.0758615
122	0xbcb0a270	-0.021561831
123	0xbe7a8fb7	-0.24468885
124	0xbe84cd81	-0.25938037
125	0x3e02dfc5	0.12780674
126	0x3df05b33	0.11736145
127	0xbe77f9eb	-0.2421643
128	0xbdefcdd1	-0.11709178
129	0x3d9e2c7d	0.07723329
130	0x3ea11688	0.31462502
131	0x3e63e16d	0.22253962
132	0x3d15190a	0.036400832
133	0xbc0d6ce9	-0.008631923
134	0xbcad3596	-0.021143716
135	0xbd340c3e	-0.043956988
136	0x3ce4db2b	0.027936539
137	0x3d88915b	0.06668349
138	0x3d8fcd41	0.07021571
139	0xbdbca19e	-0.092105135
140	0xbd017111	-0.03160197
141	0x3bdfc12a	0.006828447
142	0xbe25db99	-0.16197051
143	0x3cea9922	0.028637473
144	0xbd88a8cf	-0.06672823
145	0x3b55204c	0.003252047
146	0xbd613f98	-0.05499229
147	0xbbb732e4	-0.0055907834
148	0x3dc25247	0.094883494
149	0xba77889f	-0.00094426604
150	0x3d9af614	0.07566467
151	0x3cd852d4	0.026406683
152	0xbd352a80	-0.044229984
153	0xbd9bc3db	-0.07605716
154	0x3dcaf959	0.099108405
155	0x3dc6b060	0.097016096
156	0x3d9f2fb5	0.07772771
157	0xbca491fc	-0.020089142
158	0xbba129a1	-0.0049182926
159	0xbcd04423	-0.025423115
160	0x3d8db856	0.06919925
161	0xbe37eab3	-0.17960624
162	0x3e624410	0.22096276
163	0x3d712a9e	0.058878534
164	0x3b634d45	0.0034683507
165	0xbd1a88e4	-0.037728205
166	0xbd8fd2e5	-0.07022647
167	0x3de73648	0.1128965
168	0x3d524808	0.051338226
169	0xbd106d17	-0.035260286
170	0xbc92ce85	-0.017920742
171	0x3ddf1b8c	0.10893926
172	0xbd98b451	-0.074562676
173	0xbdc087f9	-0.09400935
174	0x3e61d534	0.22053987
175	0xbec40ab0	-0.38289404
176	0x3e229c16	0.15879855
177	0x3d30e278	0.043184727
178	0x3e059392	0.13044575
179	0x3bb7e83c	0.0056124013
180	0xbdb2e963	-0.08735921
181	0xbca60e22	-0.02027041
182	0x3d8725a0	0.06598973
183	0xbd319f80	-0.043365
184	0x3d55c4d0	0.05218965
185	0x3e27e76f	0.16396879
186	0xbbf1f429	-0.0073838425
187	0xbdd52117	-0.10406702
188	0xbd1cd1df	-0.038286086
189	0x3d1165e0	0.035497546
190	0x3dfead1c	0.12435362
191	0xbd96ebd7	-0.07369202
192	0x3cb2c5cc	0.021822833
193	0x3ea2a81b	0.3176888
194	0x3e76511f	0.24054383
195	0xbc3a3556	-0.011365255
196	0xbd8bbcec	-0.06823143
197	0x3ca8bab2	0.020596836
198	0xbd1c5649	-0.038168225
199	0x3ce12e8c	0.027488016
200	0xbe74d8dc	-0.2391085
201	0x3e7283d1	0.23683096
202	0xbeb46aae	-0.3523764
203	0xbd8592c1	-0.06522132
204	0xbc35e435	-0.011101772
205	0x3ecbd271	0.39808992
206	0x3f2413f2	0.64092934
207	0xbdca7a0b	-0.09886559
208	0xbd56725e	-0.052355163
209	0xbd41a9b3	-0.04728098
210	0x3e5f7f11	0.21825816
211	0x3ed3af96	0.413449
212	0xbd979dbe	-0.07403134
213	0x3d9ae0d2	0.07562412
214	0x3e91a9d6	0.28449887
215	0xbe201ae2	-0.15635255
216	0xbd094fcb	-0.033523362
217	0xbea8cc0c	-0.32968175
218	0xbf1b9065	-0.60767204
219	0x3e2785be	0.16359612
220	0xbd777e8f	-0.06042343
221	0xbd9bb8da	-0.07603617
222	0x3e91ad7d	0.28452674
223	0x3e992240	0.29908943
224	0x3e2be7eb	0.16787688
225	0xbe002b19	-0.1251644
226	0x3bd5d9b3	0.006526196
227	0x3bf47798	0.0074605457
228	0xbdc607de	-0.09669469
229	0xbd170924	-0.03687395
230	0x3d07e255	0.03317483
231	0xbd05530f	-0.032549914
232	0x3d212e07	0.039350536
233	0x3e203d02	0.15648273
234	0xbd4dce47	-0.05024555
235	0x3db58732	0.08863677
236	0xbcc659ee	-0.024212804
237	0x3c9edfa6	0.019393753
238	0xbda6283b	-0.08113142
239	0xbca735cc	-0.020411395
240	0xbcedd6eb	-0.029033145
241	0xbd85212c	-0.06500468
242	0xbcb2b3b1	-0.0218142
243	0xbc0af25b	-0.008480634
244	0xbd0b0513	-0.033940386
245	0x3de8fbe3	0.113761686
246	0x3de08fdb	0.10964938
247	0x3ce24f97	0.027625842
248	0x3df201d1	0.11816753
249	0xbd3969f7	-0.04526707
250	0x3d29939f	0.041400548
251	0xbc00bd44	-0.007857624
252	0xbe052769	-0.13003315
253	0x3e1bb406	0.15205392
254	0xbe801829	-0.25018433
255	0xbd3aa411	-0.045566622

actor.0.bias f4 [128]
0	0xbe1096be	-0.14120004
1	0xbdc25185	-0.09488205
2	0xbdf79d76	-0.1209058
3	0xbd07300f	-0.033004817
4	0xbe60db28	-0.21958601
5	0x3e0456d8	0.12923753
6	0xbdb93c7f	-0.09044742
7	0xbae9f8ee	-0.0017850676
8	0xbe2957e2	-0.16537431
9	0xbd3e58a1	-0.04647124
10	0x3d253cff	0.040341374
11	0xbd23e9bc	-0.04001783
12	0xbdfca11a	-0.12335415
13	0x3d2cbec0	0.0421741
14	0xbe07b9d1	-0.13254477
15	0xbd4a6bd5	-0.049419243
16	0x3c6eb34d	0.014569116
17	0x3cc1a016	0.023635905
18	0x3d7c8852	0.061653443
19	0x3e3ffc9b	0.18748705
20	0xbdd10676	-0.102063105
21	0xbdb5eeb3	-0.08883419
22	0x3ce7302f	0.028221218
23	0xbceeba4f	-0.029141573
24	0xbe2aba88	-0.16672719
25	0x3e1741d9	0.14771213
26	0xbd7d96f5	-0.061911542
27	0x3d69040e	0.056888632
28	0xbd4acf97	-0.04951438
29	0xbda19737	-0.0789017
30	0xbe2af47d	-0.16694827
31	0xbe199d0c	-0.15001315
32	0x3d50278f	0.050818976
33	0xbe2ff096	-0.1718162
34	0xbd4ec3ec	-0.050479814
35	0xbcb2e002	-0.02183533
36	0x3db6e23a	0.08929868
37	0xbe3397a5	-0.17538317
38	0xbd48be61	-0.049009684
39	0x3def89f6	0.11696236
40	0xbccbda90	-0.024884492
41	0xbda53b78	-0.080679834
42	0x3d6e809c	0.05822812
43	0xbe09f2a6	-0.1347147
44	0xbcfcfbd0	-0.030881792
45	0x3df4ead7	0.11958855
46	0xbd7705ba	-0.060308196
47	0x3dfc2e20	0.12313485
48	0xbe47ec4b	-0.19523732
49	0xbc672a37	-0.014109186
50	0xbe375e20	-0.17907
51	0xbde6472a	-0.11244042
52	0xbdd7bb08	-0.1053372
53	0xbdbcd6a5	-0.09220628
54	0xbc363319	-0.011120581
55	0xbe26d322	-0.16291478
56	0xbd052af4	-0.032511666
57	0xbd00bc67	-0.031429674
58	0xbe00a015	-0.12561066
59	0xbd1e2841	-0.038612608
60	0xbe26fb65	-0.16306837
61	0xbd3bdc35	-0.045864303
62	0x3c8a3da4	0.016875096
63	0xbdb0146c	-0.08597645
64	0xbe3302b1	-0.17481495
65	0xbd85a776	-0.06526081
66	0xbd91b909	-0.07115371
67	0xbdb69828	-0.0891574
68	0x3d57a133	0.052643966
69	0x3b9dbee9	0.004814018
70	0xbd698e04	-0.057020202
71	0xbe151b5b	-0.14561217
72	0xbddedafc	-0.10881612
73	0x3c2eb46f	0.010663136
74	0xbca259bd	-0.019818181
75	0xbe435f80	-0.19079399
76	0xbdc2fe6c	-0.09521183
77	0xbe0edd0e	-0.13951513
78	0xbe0ad85e	-0.135591
79	0xbdf9b504	-0.12192729
80	0xbe22f10c	-0.15912265
81	0xbdfa64dd	-0.122262694
82	0x3d2e13b7	0.04249927
83	0xbc1c83dd	-0.009552923
84	0xbe21f1a8	-0.15814841
85	0xbd4a5e70	-0.04940647
86	0xbd3cde2e	-0.046110325
87	0x3e124909	0.14285673
88	0xbe64b707	-0.22335444
89	0xbd418cdf	-0.047253486
90	0x3ced6c70	0.028982371
91	0xbe432234	-0.19056016
92	0xbdbec1fa	-0.09314342
93	0xbe17e56c	-0.14833611
94	0xbddfcce0	-0.10927749
95	0x3ddc3309	0.10751922
96	0xbd29b05c	-0.041427955
97	0x3cf1b116	0.029503386
98	0xbe27c2fd	-0.16382976
99	0xbd7f75ed	-0.062368322
100	0xbe244aa6	-0.16044101
101	0x3c1bef28	0.0095174685
102	0xbd4cafe1	-0.04997242
103	0x3e64cad3	0.22342996
104	0x3db411a3	0.087924264
105	0xbe293255	-0.16523106
106	0xbe01816d	-0.12647028
107	0xbd4b8f18	-0.04969701
108	0x3da92cc6	0.08260493
109	0xbe04ad81	-0.12956811
110	0xbd26f0a4	-0.040756837
111	0xbe2c95c4	-0.16854006
112	0x3de62709	0.11237914
113	0xbe1d8f8c	-0.1538679
114	0xbdc2bd56	-0.09508769
115	0xbb76d3c0	-0.0037662834
116	0xbe443df6	-0.19164261
117	0xbe09e98b	-0.13467996
118	0xbd98a669	-0.07453615
119	0xbd732568	-0.059361845
120	0x3da29b75	0.07939807
121	0xbd857e27	-0.06518202
122	0x3d366cd8	0.044537395
123	0xbe1d0687	-0.15334521
124	0xbe17be83	-0.14818768
125	0xba9b535f	-0.0011850408
126	0xbe06574f	-0.13119243
127	0xbe268281	-0.16260721

actor.2.weight f4 [128, 128]
0	0xbd2d97af	-0.042380985
1	0x3d148a42	0.036264665
2	0x3def7b00	0.11693382
3	0xbc3ade11	-0.011405484
4	0xbd0c43f8	-0.034244508
5	0x3d083e13	0.033262324
6	0xbdf17ccd	-0.11791382
7	0x3d2c0908	0.0420008
8	0xbc88eceb	-0.016714534
9	0x3daea0e9	0.08526785
10	0x3d9db77c	0.077010125
11	0xbd77d484	-0.060505405
12	0xbdcf4659	-0.101208396
13	0x3d79fbd2	0.06103117
14	0xbbd8e368	-0.006618906
15	0xbd14f2a1	-0.0363642
16	0x3d5767df	0.052589294
17	0xbce99844	-0.028514989
18	0xbdb4e576	-0.08832829
19	0xbdcdfc2d	-0.10057864
20	0xbb75cd83	-0.0037506528
21	0xbd75c710	-0.060004294
22	0xbdd05f2a	-0.10174401
23	0xbdb786ae	-0.08961235
24	0xbde576fc	-0.11204335
25	0xbc6097e7	-0.013708091
26	0x3d5490c0	0.051895857
27	0x3d12f42c	0.03587739
28	0x3baff5eb	0.005369892
29	0xbe0f153f	-0.13972948
30	0xbd729838	-0.0592272
31	0xbe3dc6cd	-0.18532868
32	0xbda8c992	-0.082415715
33	0x3ceebb93	0.029142177
34	0x3dcc4a22	0.09975077
35	0xbc44150d	-0.0119679095
36	0x3c676ced	0.014125091
37	0xbdd794bb	-0.10526415
38	0x3d0499c2	0.032373197
39	0xbce3937b	-0.027780285
40	0xbdf11650	-0.11771834
41	0xbdc9cd23	-0.0985358
42	0xbc8d4c1c	-0.017248206
43	0x3d9eab71	0.077475436
44	0xbd0976e3	-0.033560645
45	0xbd19508d	-0.037430335
46	0xbdc99d2f	-0.098444335
47	0xbc53edc6	-0.012935108
48	0xbd6f7059	-0.058456752
49	0xbdbc78dc	-0.092027396
50	0x3dc96a7f	0.09834766
51	0x3dbbeb69	0.0917576
52	0xb783d619	-1.5716114e-05
53	0xbd73bbd1	-0.059505288
54	0x3caa25b4	0.020769931
55	0x3db3d309	0.08780486
56	0x3d9b775e	0.07591127
57	0x3d0eab4b	0.034831326
58	0xbe110ff1	-0.14166237
59	0x3d09417b	0.033509713
60	0x3d7b28d9	0.061318252
61	0xbdceea98	-0.10103339
62	0x3d37da58	0.044885963
63	0x3a1388f7	0.00056280143
64	0xbda594be	-0.08085011
65	0x3b6f849c	0.0036547547
66	0xbdc14b5f	-0.09438204
67	0x3dab0b81	0.083518036
68	0x3d9408f0	0.07228267
69	0xbcd16be2	-0.025564138
70	0x3d747f72	0.059691854
71	0x3de1f0ad	0.110322334
72	0xbd9d761a	-0.07688542
73	0xbbb8f30a	-0.005644207
74	0xbe08fe26	-0.133782
75	0x3d1280a2	0.035767205
76	0xbc8341d1	-0.016022595
77	0x3d0c442c	0.0342447
78	0xbc621227	-0.013798273
79	0x3ca080bc	0.019592635
80	0xbe0e46d9	-0.13894214
81	0xbd9e4ac7	-0.077291064
82	0x3dc314dc	0.09525463
83	0xbdc94257	-0.098271064
84	0x3a4522d4	0.00075201434
85	0x3d88a306	0.06671719
86	0x3d0c564d	0.03426199
87	0xbcddb613	-0.027064359
88	0x3d488861	0.048958186
89	0x3d90a7d3	0.0706326
90	0xbd895541	-0.06705714
91	0x3c84f5fa	0.016230572
92	0xbde54728	-0.111952126
93	0xbcfeee2a	-0.031119425
94	0x3dc62411	0.09674848
95	0x3dc11755	0.09428278
96	0x3b398e7c	0.0028313687
97	0xbdd2836c	-0.10278973
98	0xbd86ea33	-0.06587639
99	0xbd9fedd3	-0.07809033
100	0x3d669b4f	0.056300458
101	0xbc4e371f	-0.012586384
102	0x3d89bc05	0.06725315
103	0xbc90b1f4	-0.01766298
104	0xbd50d7f5	-0.050987203
105	0x3d080755	0.033210117
106	0x3c71b35a	0.014752233
107	0x3d995679	0.074871965
108	0xbd9c34ce	-0.07627259
109	0xbdce2b33	-0.10066833
110	0x3e14b16d	0.14520808
111	0xbc6b10e4	-0.014347289
112	0xbd9c0c14	-0.07619491
113	0x3d80176b	0.062544666
114	0x3dd31ba9	0.1030801
115	0xbd0b064c	-0.033941552
116	0xbd69f306	-0.05711653
117	0x3d42577a	0.047446705
118	0x3d44672d	0.04794996
119	0xbdf7bc9c	-0.12096521
120	0xbd077f00	-0.0330801
121	0xbd1a7623	-0.03771032
122	0x3d9d122d	0.076694824
123	0x3e5122c5	0.2042342
124	0x3aa5a219	0.001263681
125	0x3d9a20fa	0.07525821
126	0x3d85d490	0.06534684
127	0xbe0bc8bc	-0.13650793
128	0x3d2f3cff	0.04278278
129	0xbe0890f5	-0.13336547
130	0xbc8cf54a	-0.017206807
131	0xbe08d694	-0.13363105
132	0xbd69a9a2	-0.05704654
133	0x3aaaadb0	0.0013021734
134	0x3cab5ae7	0.020917369
135	0xbca432a8	-0.020043686
136	0x3cadd638	0.021220312
137	0xbdbcd54d	-0.092203714
138	0xbda4e92b	-0.08052286
139	0xbddbb1f2	-0.107273
140	0x3d1ba020	0.037994504
141	0x3c30d724	0.010793481
142	0x3d68dd30	0.056851566
143	0xbdda815b	-0.10669204
144	0xbd1bacb6	-0.038006507
145	0xba8d903e	-0.0010800434
146	0xbc32b9a7	-0.010908521
147	0xbe243c15	-0.16038544
148	0x3d5a789e	0.053337686
149	0x3d4a47b1	0.049384777
150	0x3d3fad2f	0.04679602
151	0xbe28d70d	-0.16488285
152	0xbdb4da53	-0.088307045
153	0x3dac4373	0.084113024
154	0xbd602774	-0.054725125
155	0x3b30823c	0.0026933094
156	0x3b42fd7f	0.0029753146
157	0xbd07a637	-0.0331175
158	0x3df27c51	0.11840118
159	0x3d85676c	0.06513867
160	0x3d68e7aa	0.056861557
161	0x3d54a612	0.05191619
162	0x3d9aa7f0	0.07551563
163	0x3de66133	0.11249008
164	0xbb1155c7	-0.0022176371
165	0x3df0060f	0.117199056
166	0xbdf43f75	-0.11926166
167	0xbdb936b1	-0.09043635
168	0x3d23c894	0.039986208
169	0x3d4475b0	0.047963798
170	0xbd2a79fb	-0.041620236
171	0x3c26f687	0.010190613
172	0xbd1cd387	-0.038287666
173	0xbd9b9984	-0.0759764
174	0x3c6e2b95	0.014536758
175	0x3d8055c8	0.062663615
176	0xbe33fc5d	-0.17576738
177	0xbd84b260	-0.06479335
178	0x3d9d157d	0.07670114
179	0xbcc30dbe	-0.023810264
180	0x3c0fb3e6	0.0087709185
181	0x3d65a545	0.056065816
182	0xbd4af3f6	-0.049549066
183	0xbdb56d3d	-0.08858726
184	0x3d0cb9f9	0.034357045
185	0x3d5e950e	0.05434137
186	0xbe1c3b4a	-0.15256992
187	0x3af84d6d	0.0018943973
188	0x3d24b1c4	0.040208593
189	0xbd1c0e8b	-0.038099807
190	0xbccd19e2	-0.025036756
191	0x3cc9926e	0.024605956
192	0xbb953710	-0.004553683
193	0xbd4d8938	-0.05017969
194	0xbd9b93f1	-0.07596577
195	0x3e0be297	0.13660656
196	0xbdaeba7c	-0.08531663
197	0xbd842ea1	-0.06454206
198	0xbcdad270	-0.026711673
199	0xbe09eea1	-0.13469936
200	0x3dfa54c0	0.12223196
201	0xbe1d32c0	-0.15351391
202	0xbd36ce4a	-0.044630326
203	0xbd0df696	-0.03465899
204	0xbda0f61a	-0.0785944
205	0x3d1a3a3f	0.037653204
206	0x3dd10da3	0.10207679
207	0xbcf8d052	-0.030372772
208	0xbe025746	-0.12728605
209	0x3d1b3a96	0.03789767
210	0xbd9b617f	-0.07586955
211	0x3d95d1d2	0.07315411
212	0x3cb3a3d5	0.021928707
213	0x3c02702c	0.007961314
214	0x3e01c162	0.12671426
215	0x3c0069ff	0.007837771
216	0x3e0c2d42	0.1368914
217	0x3d29122c	0.041277096
218	0xbcf80f00	-0.03028059
219	0x3c9168b4	0.017750122
220	0x3d0ced3c	0.03440593
221	0x3c3aa3b7	0.011391572
222	0x3deb8880	0.11500645
223	0xbd2fe63d	-0.04294418
224	0x3d028678	0.03186652
225	0x3d35779d	0.044303525
226	0x38ac3775	8.211929e-05
227	0xbd896201	-0.06708146
228	0x3c121175	0.008915295
229	0xbb846019	-0.004039776
230	0x3d952163	0.07281759
231	0xbdd8fbee	-0.10594927
232	0xbca060c6	-0.019577395
233	0x3dd304e5	0.10303668
234	0x3d2e4bd8	0.0425528
235	0xbdfb4214	-0.12268463
236	0x3dc2f214	0.09518829
237	0x3d260f3a	0.040541865
238	0x3d3d27af	0.046180423
239	0x3ce243ed	0.02762028
240	0xbd43ebad	-0.04783218
241	0xbc38f16c	-0.011288028
242	0xbdb92c95	-0.090417065
243	0xbd8ad5c6	-0.06779055
244	0xbd48eb21	-0.04905236
245	0x3d8afbc5	0.067863025
246	0x3d83ff88	0.06445223
247	0xbb5ede6e	-0.003400709
248	0xbd8a1b23	-0.06743457
249	0x3d471f60	0.048613906
250	0xbd5dd634	-0.05415936
251	0xbe0d9694	-0.13826972
252	0x3c95bed3	0.018279469
253	0xbcbaab40	-0.022786736
254	0xbd984cc5	-0.074365176
255	0xbdc6dd62	-0.09710194

actor.2.bias f4 [128]
0	0xbda81696	-0.08207433
1	0xbd990baa	-0.07472928
2	0xbc96cb73	-0.018407559
3	0x3bacbfa0	0.005271867
4	0xbdcf06a5	-0.10108689
5	0xbddea977	-0.108721666
6	0xbddcbd13	-0.107782505
7	0xbe281ceb	-0.16417281
8	0xbd6436e3	-0.055716407
9	0xbdd6b942	-0.10484554
10	0xbc8b9da0	-0.017042935
11	0xbe267a03	-0.16257481
12	0xbe3f3fb3	-0.18676643
13	0xbd06108d	-0.032730628
14	0xbdd29231	-0.1028179
15	0x3bda9268	0.006670285
16	0xbdb7e9ed	-0.08980165
17	0x3d1ae05c	0.037811622
18	0x3d8bfec6	0.068357036
19	0xbe1ea584	-0.15492827
20	0x3bf94a59	0.00760774
21	0x3cd6e52a	0.02623232
22	0xbc3b0f31	-0.011417196
23	0xbe33b547	-0.1754962
24	0xbdb375f6	-0.08762734
25	0xbdd1cf08	-0.10244566
26	0xbd84ab95	-0.06478039
27	0x3d40ea98	0.047098726
28	0x3d55512f	0.052079376
29	0x3cc7586c	0.024334155
30	0x3bc93ac5	0.006141039
31	0xbc5df690	-0.013547555
32	0x3ca4069d	0.020022685
33	0xbd444d55	-0.047925312
34	0xbd63a213	-0.055574488
35	0x3cb0ee9d	0.021598155
36	0xbd5c1b5e	-0.053737037
37	0xbd95b98c	-0.07310781
38	0xbe15b0c5	-0.14618213
39	0x3d9a66c0	0.07539129
40	0xbde9f170	-0.11423004
41	0xbdb63a3b	-0.08897825
42	0xbc93e64f	-0.018054156
43	0xbdbe9c45	-0.0930715
44	0xbe6be2f3	-0.23035793
45	0xbdd070d8	-0.10177773
46	0xbd726263	-0.05917586
47	0xbdb1efd4	-0.08688322
48	0xbc60b5c8	-0.013715215
49	0xbd8a34e2	-0.06748368
50	0xbda9490e	-0.08265887
51	0xbe09335b	-0.13398497
52	0xba71dc66	-0.00092262623
53	0xbe0bb7fa	-0.136444
54	0xbdff7848	-0.12474114
55	0xbd7be6bc	-0.061499342
56	0x3d238c3c	0.03992866
57	0xbd6672c0	-0.056261778
58	0xbd0ce7ce	-0.034400754
59	0xbd86c06c	-0.0657967
60	0xbe317d13	-0.17332868
61	0xbdb52dc3	-0.08846619
62	0xbb74ad21	-0.0037334638
63	0xbbd2316b	-0.0064145825
64	0x3c7713b7	0.015080384
65	0xbd5a292b	-0.053261917
66	0x3d13293f	0.035928007
67	0xbd1b0432	-0.037845798
68	0x3e1521fc	0.14563745
69	0xbe1fb6f8	-0.15597141
70	0x3d3cd6f3	0.04610343
71	0x3d3a2295	0.045443136
72	0xbe0392b3	-0.1284893
73	0xbc0542ad	-0.0081335725
74	0x3cfc3769	0.03078814
75	0xbd67a748	-0.056556016
76	0x3d47ff8d	0.048827697
77	0xbe0298e9	-0.12753643
78	0xbdb685ac	-0.08912215
79	0x3d37337b	0.04472683
80	0xbca92575	-0.020647744
81	0x3d8afc92	0.06786455
82	0xbdd60a42	-0.10451175
83	0xbc2dd4d2	-0.010609822
84	0x3c2ce227	0.010551966
85	0xbd4176c5	-0.047232408
86	0xbd889c22	-0.06670405
87	0xbd8ee3dc	-0.069770545
88	0xbe43a809	-0.19107069
89	0xbc36ccb9	-0.011157208
90	0xbdfc8ddd	-0.12331746
91	0xbbba0341	-0.0056766574
92	0x3bab85d5	0.00523446
93	0xbcd95279	-0.026528584
94	0x3d5a645a	0.05331836
95	0xbda2c40a	-0.07947548
96	0xbe8a01e5	-0.2695457
97	0xbe168d97	-0.1470245
98	0xbe849cca	-0.2590087
99	0xbd4f9c2b	-0.050686043
100	0xbe091fec	-0.13391083
101	0xbdb2f82f	-0.087387435
102	0xbe2c2d62	-0.16814187
103	0xbe306315	-0.17225297
104	0xbd0375cf	-0.032094773
105	0xbc85d30e	-0.01633599
106	0xbd296c17	-0.041362848
107	0xbd9ab9d6	-0.07554977
108	0xbc5d67ba	-0.0135135
109	0x3be0b342	0.0068573067
110	0x3cb303a9	0.021852331
111	0x3c11a53f	0.008889495
112	0xbc67805e	-0.014129726
113	0xbdc5899b	-0.09645387
114	0x3d7893af	0.060687717
115	0xbdecaafa	-0.11556049
116	0xbe3360d0	-0.175174
117	0xbe1c5012	-0.1526492
118	0xbdf65ffb	-0.120300256
119	0xbdc67f04	-0.09692195
120	0xbcde5efd	-0.027144903
121	0x3dd1b351	0.1023928
122	0xbadc7abc	-0.0016821246
123	0x3d677e72	0.056517072
124	0xbe31fc6c	-0.17381448
125	0xbe15d011	-0.14630152
126	0xbb989159	-0.0046559987
127	0xbdddc7ac	-0.108291

actor.4.weight f4 [128, 128]
0	0xbdc53eb5	-0.09631101
1	0xbd73adb1	-0.059491817
2	0x3c92c3ac	0.01791557
3	0x3c4c3008	0.012462623
4	0xbd1ca4d0	-0.038243115
5	0x3c930e3e	0.017951127
6	0x3db19ea9	0.0867284
7	0xbd3a3b95	-0.045466978
8	0x3c6648dd	0.014055458
9	0xbce10104	-0.027466305
10	0xbd00d4eb	-0.031453054
11	0xbdd4123a	-0.10355039
12	0x3dc1a012	0.09454359
13	0x3d4b193c	0.049584612
14	0xbabbfa8a	-0.0014341634
15	0x3d8703d0	0.06592524
16	0xbd90d9ea	-0.07072814
17	0x3d07466e	0.03302615
18	0x3d81e40e	0.06342326
19	0x3daa4e14	0.083156735
20	0x3c26b657	0.010175309
21	0xbd237cc3	-0.039913904
22	0xbdc2e7fa	-0.09516902
23	0x3cfd0615	0.03088669
24	0xbd982710	-0.074293256
25	0xbcdf9284	-0.027291544
26	0xbcdc06fe	-0.026858803
27	0xbc620833	-0.0137959
28	0xbaa4656e	-0.0012542435
29	0xbc8af7f9	-0.016963946
30	0x3d6b2199	0.057405088
31	0x3c491ceb	0.012274961
32	0xbd338568	-0.043828398
33	0x3d86bf22	0.065794244
34	0x3d07eabd	0.03318285
35	0xbc430523	-0.01190308
36	0x3c1a763b	0.009427602
37	0xbb2214b2	-0.0024731574
38	0x3daaa64a	0.08332498
39	0x3d843035	0.06454507
40	0x3cb6ebf7	0.022329314
41	0xbdebc0dd	-0.11511395
42	0x3dad0134	0.08447495
43	0xbcaa54ea	-0.020792443
44	0x3bf76afe	0.0075505963
45	0xbd6491fb	-0.05580328
46	0x3d65e71a	0.0561286
47	0xbcbeedf0	-0.023306817
48	0xbd6bc314	-0.057559088
49	0xbd209d65	-0.039212603
50	0xbdef6488	-0.11689097
51	0x3d8bc6fc	0.06825063
52	0x3dde0795	0.1084129
53	0x3dcf718b	0.101290785
54	0x3ccee5cf	0.025256066
55	0xbac9315f	-0.0015349797
56	0x3cbc3f8b	0.022979518
57	0xbd8a0243	-0.06738713
58	0xbd3bdb20	-0.04586327
59	0xbd00e9ed	-0.03147309
60	0xbbc87ea6	-0.0061186133
61	0xbd218688	-0.03943494
62	0xbcb282d7	-0.021790905
63	0x3de43d3f	0.11144494
64	0xbcd32e23	-0.025778836
65	0x3c412afc	0.011790033
66	0x3d90072a	0.070326164
67	0x3e061854	0.13095218
68	0xbd3cf204	-0.04612924
69	0x3dbbe269	0.09174044
70	0x3da03c3c	0.07823989
71	0xbe00eb2c	-0.12589711
72	0xbd173b34	-0.036921695
73	0x3d4498b5	0.047997195
74	0x3d9a2d02	0.07528116
75	0xbd830871	-0.063980944
76	0xbd2518f2	-0.040306993
77	0xbd221c64	-0.039577857
78	0xbdb2071f	-0.086927645
79	0x3c96eef6	0.018424492
80	0x3d1b6771	0.037940446
81	0xbdab2ca9	-0.083581276
82	0x3c4c8eed	0.012485248
83	0xbc25db12	-0.010123031
84	0x3d89bc7d	0.067254044
85	0x3ccfe2cc	0.0253767
86	0xbc52d7c7	-0.012868828
87	0xbd4bdf68	-0.049773604
88	0x3d13ce1e	0.03608524
89	0xbd0e9d27	-0.03481784
90	0x3d4ae259	0.04953227
91	0x3bfe2941	0.0077563827
92	0xbd0b7ffe	-0.03405761
93	0x3ce2998b	0.027661106
94	0xbdd8a288	-0.105778754
95	0x3cf9161d	0.030406052
96	0xbc806591	-0.01567343
97	0x3d5a3744	0.05327536
98	0x3d97df12	0.07415594
99	0xbc79dfbc	-0.015251096
100	0x3dab1c0d	0.0835496
101	0xbde85b57	-0.11345547
102	0x3b07d3c8	0.0020725597
103	0xbd8b3b24	-0.067983896
104	0x3d687e2c	0.056760952
105	0x3d871eee	0.06597696
106	0xbcbcb621	-0.023036065
107	0x3d515d3a	0.0511143
108	0xbd46a97a	-0.04850147
109	0x3d89cb8c	0.067282766
110	0xbc96cbe7	-0.018407775
111	0xbc983ea2	-0.018584553
112	0x3d0a765f	0.033804294
113	0x3e196464	0.14979702
114	0x3d136629	0.0359861
115	0xbc46c022	-0.012130769
116	0xbd1e02a4	-0.038576737
117	0xbd71573f	-0.058921095
118	0xbdf8063e	-0.121105656
119	0x3d5c038a	0.053714313
120	0x3e0310e7	0.12799416
121	0xbda3a94d	-0.07991276
122	0xbcc39474	-0.023874499
123	0x3d47b98a	0.04876093
124	0xbbe64510	-0.007027276
125	0x3d966510	0.07343495
126	0xbd44df77	-0.048064675
127	0xbd2e5ceb	-0.042569082
128	0xbdc80c29	-0.09767944
129	0x3d166e70	0.036726415
130	0x3c7a3114	0.01527049
131	0x3d8ed093	0.06973376
132	0x3d8c2185	0.06842331
133	0x3dbe0302	0.092779174
134	0x3c6f0208	0.014587887
135	0xbccc5806	-0.024944317
136	0x3ce1d02b	0.027565083
137	0x3d993d09	0.07482345
138	0xbd6dd7a3	-0.058066975
139	0x3d973dc4	0.07384828
140	0xbd945b40	-0.07243967
141	0xbe1acf75	-0.15118201
142	0xbac79a3f	-0.0015228464
143	0x3cc956eb	0.024577579
144	0x3d10c6eb	0.035345953
145	0x3cd198f6	0.025585633
146	0xbdbfb586	-0.09360795
147	0xbda82897	-0.08210867
148	0x3e25f2b4	0.16205865
149	0x3d6ed717	0.058310594
150	0x3d8a0bd7	0.067405395
151	0x3d7ff015	0.06248482
152	0xbd790f32	-0.060805507
153	0x3d15775c	0.036490783
154	0x3c99be04	0.018767364
155	0x3ce05fbe	0.027389403
156	0xbdebb11e	-0.11508392
157	0xbda3eaad	-0.08003745
158	0x3d8dfd8d	0.069331266
159	0x3ca26987	0.01982571
160	0x3c8f1320	0.017465174
161	0xbbcecf16	-0.0063113077
162	0x3bc0ada1	0.005880073
163	0xbde1755e	-0.11008714
164	0xbd704dff	-0.058668133
165	0xbdcead55	-0.10091654
166	0x3c872f8d	0.016502166
167	0x3d1a97b3	0.037742328
168	0x3d48a2fb	0.048983555
169	0xbb3a091b	-0.0028386775
170	0x3d6d90fe	0.057999603
171	0xbe1bde8e	-0.15221617
172	0xbdc2e41a	-0.09516163
173	0xbd84ce09	-0.064846106
174	0x3d33a65e	0.043859832
175	0x3d51ad28	0.051190525
176	0x3d169ee5	0.036772627
177	0xbd7ce315	-0.06174
178	0x3d470b7c	0.048594937
179	0x3da0e1bf	0.07855558
180	0x3d9ab0aa	0.07553227
181	0x3dc2b09a	0.0950634
182	0xbd81752b	-0.06321176
183	0x3a517580	0.0007990226
184	0x3d82fd76	0.06396
185	0x3ab3a6e7	0.0013706357
186	0xbdcfa2d1	-0.10138477
187	0xbe0571ad	-0.13031645
188	0xbdbfacf7	-0.09359162
189	0xbdb06f15	-0.08614937
190	0xbd8e1ea7	-0.0693944
191	0x3c46adba	0.012126381
192	0x3d7db212	0.0619374
193	0xbd17fefa	-0.0371084
194	0x3dbe9e57	0.09307545
195	0x3d103042	0.035202272
196	0x3ce11d9d	0.027479941
197	0x3dcac171	0.09900177
198	0xbdd9fed7	-0.1064431
199	0xbd546491	-0.05185372
200	0xbdf3c520	-0.11902833
201	0xbc5dae51	-0.01353033
202	0x3c2a42c9	0.010391899
203	0xbd957b3e	-0.07298897
204	0xbda209f5	-0.079120554
205	0x3c16adfe	0.009196756
206	0x3b4807fb	0.0030522335
207	0xbd8f83e8	-0.07007581
208	0x3d54d16e	0.05195754
209	0xbd382309	-0.044955287
210	0x3e06c598	0.13161314
211	0xbd47f6b4	-0.04881926
212	0xbc857315	-0.016290227
213	0x3c9b6683	0.01896978
214	0x3c87b497	0.016565604
215	0xbdb1099c	-0.08644411
216	0xb8735ae1	-5.8020352e-05
217	0xbca2f0c4	-0.019890197
218	0xbbe5c347	-0.0070118043
219	0xbe2d2790	-0.16909623
220	0x3cfda45b	0.03096216
221	0xbd92b257	-0.07162922
222	0x3d963dff	0.073360436
223	0xbaa723d1	-0.0012751763
224	0x3d7579e8	0.059930712
225	0x3dfb5a87	0.12273126
226	0x3de14b00	0.11000633
227	0xbdb5c342	-0.08875133
228	0x3d86a49f	0.06574368
229	0x3d942a9f	0.07234692
230	0xbd9fc3ab	-0.078009926
231	0xbc608be8	-0.013705231
232	0x3d3e9ed6	0.046538197
233	0xbdcb376f	-0.099226825
234	0xbd11a47b	-0.03555725
235	0xbcb2d6b4	-0.021830894
236	0xbd319ec7	-0.043364312
237	0x3c8f7777	0.01751302
238	0xbddec04e	-0.10876523
239	0xbd43369d	-0.047659505
240	0x3e12cd13	0.14336042
241	0x3d40d860	0.04708135
242	0xbd20c90b	-0.03925423
243	0x3dc732ac	0.09726462
244	0xbd5b4ed7	-0.053541984
245	0x3d91a50a	0.07111557
246	0x3da2a4d4	0.07941595
247	0x3dc86527	0.09784918
248	0x3db0ccae	0.086327896
249	0xbe0effd1	-0.13964774
250	0xbdaf1a34	-0.0854992
251	0xbd98ba9f	-0.0745747
252	0xbce246db	-0.027621677
253	0x3dd9f71b	0.10642835
254	0xbc762cfc	-0.015025374
255	0x3da252e8	0.07925969

actor.4.bias f4 [128]
0	0xbdcafad6	-0.099111244
1	0xbe0a2d3a	-0.13493815
2	0xbd030f5b	-0.031997066
3	0x3dff7f51	0.124754556
4	0xbd2ed862	-0.042686827
5	0xbdff6543	-0.12470486
6	0xbd6e65e1	-0.058202628
7	0xbdd657c8	-0.10465962
8	0xbcb88530	-0.022524446
9	0xbdfcd80f	-0.123458974
10	0xbd725ebf	-0.05917239
11	0x3d00efae	0.031478576
12	0xbddccd12	-0.107813016
13	0xbd8b85a9	-0.06812603
14	0x3db78ada	0.08962031
15	0xbb9c6b86	-0.00477356
16	0xbce1c3aa	-0.02755912
17	0xbd529a2e	-0.05141657
18	0x3cdc04f8	0.026857838
19	0xbe1e22a5	-0.15442903
20	0xbdb78f43	-0.08962872
21	0xbc5a7293	-0.013332981
22	0x3c888be1	0.016668262
23	0x3d54d1da	0.051957943
24	0xbd9dd0df	-0.077058546
25	0xbd8ea1ad	-0.06964431
26	0xbdaa494f	-0.08314764
27	0x3c07478c	0.008256804
28	0xbda096fc	-0.07841298
29	0xbcd52969	-0.026020722
30	0xbd7b7911	-0.061394755
31	0x3c4abc42	0.012373986
32	0xbe1bb969	-0.15207447
33	0xbcb5c342	-0.022187833
34	0x3cc202ce	0.023682978
35	0xbdf385d9	-0.11890764
36	0xbcf29b27	-0.029614998
37	0xbd44a47c	-0.048008427
38	0xbe2cfb0c	-0.16892642
39	0xbdd56949	-0.10420472
40	0xbe024b96	-0.12724146
41	0x3d2d688e	0.04233604
42	0x3c5c7f93	0.01345815
43	0xbd451729	-0.04811779
44	0x3c99eea0	0.018790543
45	0xbd9f4447	-0.07776695
46	0x3d95a82f	0.07307469
47	0xbcc6ae08	-0.024252906
48	0x3d3348c6	0.043770574
49	0xbc4a243b	-0.01233774
50	0x3da2bdd4	0.07946363
51	0x3be35931	0.0069381227
52	0x3b576361	0.003286563
53	0xbe09764c	-0.13424033
54	0xbe04df04	-0.12975699
55	0xbd3f783b	-0.04674552
56	0xbd8243fc	-0.06360623
57	0xbde20f17	-0.110380344
58	0xba9a8be8	-0.0011790963
59	0xbe209131	-0.15680386
60	0xbcc509b1	-0.024052473
61	0xbddd0ff8	-0.107940614
62	0xbde1c9d7	-0.11024826
63	0xbda4e8fb	-0.0805225
64	0xbd1b26f3	-0.03787894
65	0x3d3c06a9	0.04590479
66	0xbe06326f	-0.13105176
67	0x3d67d48f	0.056599196
68	0xbd9ebf15	-0.0775129
69	0xbe05e080	-0.13073921
70	0xbda08a20	-0.07838845
71	0xbc690805	-0.014223103
72	0xbd37887a	-0.04480789
73	0x3c9498a1	0.018139185
74	0xbcfeeaf3	-0.031117892
75	0xbd883952	-0.06651558
76	0xbda59ba5	-0.080863275
77	0x3da584f7	0.08082002
78	0xbdd44a16	-0.10365693
79	0xbbab154d	-0.005221045
80	0xbe1a1e54	-0.15050632
81	0xbe3bd2d6	-0.18342146
82	0xbe109fb3	-0.1412342
83	0x3bedab61	0.007253096
84	0xbd301736	-0.042990886
85	0x3d2e509b	0.04255734
86	0x3bf1e6da	0.007382256
87	0xbda12e85	-0.07870201
88	0xbdded1a4	-0.108798295
89	0x3d93a700	0.07209587
90	0xbda981f7	-0.08276742
91	0x3c9a1edb	0.018813541
92	0x3d912789	0.07087619
93	0x3ce79b5d	0.028272325
94	0xbe10da5c	-0.14145797
95	0x3cf75a02	0.030194286
96	0xbdd09b0f	-0.10185825
97	0xbdbcc5f1	-0.09217442
98	0x3a0d2d38	0.0005385461
99	0xbdd233b4	-0.10263768
100	0xbdc3a1ac	-0.09552321
101	0xbdf1b230	-0.11801565
102	0xbe30516a	-0.17218557
103	0x3cb44a1a	0.02200799
104	0xbe1a97d6	-0.15096983
105	0x3b944556	0.004524867
106	0x3cffb390	0.031213552
107	0x3d88b13e	0.06674431
108	0x3d57d625	0.05269446
109	0xbd3e533d	-0.0464661
110	0xbd3e2282	-0.046419628
111	0xbd97ea6a	-0.07417758
112	0xbdb35a25	-0.08757428
113	0xbd9a804d	-0.07544003
114	0xbdb98f73	-0.09060564
115	0xbd04fd5e	-0.032468192
116	0x3d365eb9	0.04452393
117	0x3cb680c9	0.022278206
118	0xbe3d53a4	-0.18488938
119	0x3dd5d2c3	0.1044059
120	0xbe1b83f5	-0.15187056
121	0xbe3fc430	-0.18727183
122	0xbc16bf74	-0.009200919
123	0xbe16b644	-0.14717966
124	0xbdbd554a	-0.09244783
125	0xbd502073	-0.050812196
126	0x3d547f66	0.05187931
127	0xbd97295a	-0.07380934

actor.6.weight f4 [27, 128]
0	0xbc53843e	-0.012909947
1	0x3dd0488f	0.101700895
2	0xbcf3bab2	-0.02975211
3	0xbcae3e3f	-0.021269916
4	0x3d4d0b8f	0.05005985
5	0x3cda8e2d	0.026679123
6	0xbd379643	-0.044821035
7	0xbd06021d	-0.03271686
8	0x3af96135	0.0019026162
9	0x3cb07589	0.02154042
10	0x3ba35a17	0.004985105
11	0xbcd8809b	-0.026428511
12	0x3afd02c7	0.0019303196
13	0xbbba8923	-0.0056926175
14	0x3c6570c1	0.014003933
15	0xbc43a4a6	-0.011941111
16	0x3c5856a3	0.01320425
17	0x39fb9839	0.00047987865
18	0x3d5c91d6	0.053850017
19	0x3cfa2e3f	0.03053963
20	0x3cff7e20	0.03118807
21	0xbcd45e38	-0.025923833
22	0xbc1da7ec	-0.009622555
23	0x3c8de97c	0.017323248
24	0xbd098fb9	-0.03358433
25	0x3d59f87a	0.05321548
26	0xbd948a3e	-0.0725293
27	0xbcd45b6c	-0.0259225
28	0xbb1d5400	-0.0024006367
29	0xbd24fa7c	-0.040277943
30	0x3c7c509b	0.015400077
31	0x3c523372	0.012829648
32	0x3d50c659	0.05097041
33	0xbcfe2d18	-0.031027362
34	0xbce061a7	-0.027390314
35	0x3cbae23e	0.022812959
36	0xbcb9162e	-0.022593584
37	0x3ca786d0	0.020450026
38	0xbbdb8f90	-0.0067004636
39	0x3c8d7e0d	0.01727202
40	0xbd5a98e3	-0.05336846
41	0x3d2eceaf	0.042677578
42	0xbcaf4e82	-0.02139974
43	0x3c11672b	0.008874695
44	0xbc5b7950	-0.013395622
45	0xbc618802	-0.013765337
46	0xbc20bab6	-0.00981014
47	0xbcff8ab8	-0.031194076
48	0x3c6b6cc9	0.014369198
49	0xbc13d52e	-0.009022994
50	0x3d1b87cc	0.037971303
51	0xbc067abf	-0.008207976
52	0xbd0e464a	-0.034735
53	0xbc0f7dbb	-0.008758004
54	0xbd4a4606	-0.049383186
55	0xbcc07a66	-0.023495864
56	0x3d531c3a	0.05154059
57	0xbc3f8cb8	-0.011691265
58	0xbd0b0558	-0.033940643
59	0xbd8369aa	-0.06416638
60	0x3b9ba927	0.004750389
61	0xbce6beb0	-0.028167099
62	0xbd55f962	-0.052239783
63	0xbcf643d4	-0.03006164
64	0xbc5ccc42	-0.013476433
65	0x3d2574aa	0.040394463
66	0x3ca8f3b3	0.020624017
67	0x3b77b81a	0.0037798942
68	0xbcaffc5f	-0.021482645
69	0xbc81e78d	-0.015857482
70	0xbd66b9bc	-0.056329474
71	0x3ca246ea	0.019809205
72	0xbcf10bf4	-0.029424645
73	0x3d47f999	0.04882202
74	0x3cb6a75b	0.022296598
75	0xbcc35c73	-0.023847794
76	0xb8ee66fb	-0.00011367906
77	0xbba5052f	-0.0050360183
78	0xbc07decc	-0.008292865
79	0xbd6ba64d	-0.057531644
80	0x3c6d9160	0.014499992
81	0x3d7d8ad6	0.061899982
82	0xbc8d3349	-0.017236369
83	0xbcdee3a3	-0.027208155
84	0x3c1558f4	0.009115446
85	0xbc7f5dc6	-0.015586322
86	0x3be7286a	0.0070543783
87	0x3cbc5f9d	0.02299481
88	0xbdcf6f7c	-0.10128686
89	0xbc1e6628	-0.009667911
90	0xbbb4c9da	-0.0055172266
91	0xbbbe6f09	-0.0058115763
92	0xbc2dd5ad	-0.010610026
93	0xbc73e1b6	-0.014885357
94	0xbcbb379a	-0.022853661
95	0xbc646a24	-0.0139413215
96	0xbcd506e6	-0.026004266
97	0x3c8f1492	0.017465863
98	0xbcaac755	-0.020847002
99	0x3cbfc0f6	0.02340744
100	0x3d983003	0.074310325
101	0x3d7caf6b	0.06169073
102	0x3d810fdf	0.06301855
103	0xbc9bb2f1	-0.019006224
104	0x3b9fe9eb	0.00488018
105	0xbd29875b	-0.04138885
106	0x3c653c85	0.01399148
107	0x3c11280e	0.008859647
108	0xbc9a731b	-0.018853715
109	0x3a15fae8	0.0005721287
110	0xbce295de	-0.027659353
111	0xbb77feec	-0.0037841154
112	0xbc5c5b6b	-0.01344953
113	0xbd00ef5c	-0.03147827
114	0x3d1f8648	0.03894642
115	0xbcf86de2	-0.030325834
116	0xbd405222	-0.046953328
117	0xbd96fb71	-0.073721774
118	0xbd14607d	-0.03622483
119	0xbcb864eb	-0.022509059
120	0xbcf9a2f1	-0.030473204
121	0xba9667dc	-0.0011475044
122	0xbd5ccd9f	-0.053907033
123	0x3d039229	0.03212181
124	0xbc3eae61	-0.011638255
125	0xbc872cd9	-0.016500877
126	0x3d1217ac	0.035667107
127	0xbce27974	-0.027645804
128	0xbd27460d	-0.04083829
129	0x3d27abaf	0.040935215
130	0xbc2b0062	-0.010437103
131	0xbcce7ca8	-0.025205925
132	0x3b0f3007	0.0021848695
133	0xbd51b826	-0.05120101
134	0x3bad022b	0.0052797995
135	0x3c86908c	0.016426347
136	0xbb93d022	-0.0045108953
137	0xbd078f8a	-0.033095874
138	0xbc054384	-0.008133773
139	0x3d01e830	0.031715572
140	0xbbe9366c	-0.0071170833
141	0xbc855772	-0.016277049
142	0xbbf6f42f	-0.007536433
143	0xbcf50fe5	-0.029914806
144	0xbc8c664c	-0.017138623
145	0x3c9c22c7	0.019059552
146	0x3c1d7175	0.00960957
147	0xbce5cc36	-0.028051477
148	0x3d30bc4f	0.043148335
149	0xbcb558c9	-0.022137063
150	0x3c7359cb	0.014852951
151	0xbd4b51c7	-0.049638536
152	0x3c4280f3	0.011871564
153	0xbd88c2ba	-0.06677766
154	0xbc4e35bd	-0.012586054
155	0x3ccf8cf4	0.025335766
156	0xbd0f1fe8	-0.034942538
157	0xbc4e3534	-0.012585927
158	0xbc50f8d0	-0.012754634
159	0xbc940cf8	-0.01807259
160	0x3c68ca5c	0.0142084025
161	0x3cc757ab	0.024333796
162	0x3d0b60d0	0.034027874
163	0x3d4f1471	0.050556604
164	0xbcef2556	-0.029192608
165	0xbcee1d7b	-0.029066792
166	0x3d06cd92	0.03291089
167	0xbd6f7cd8	-0.05846867
168	0xbc158426	-0.009125745
169	0x3d9569f2	0.07295598
170	0x3aa76746	0.0012771867
171	0xba337582	-0.0006845818
172	0x3d314f0b	0.043288272
173	0xbc3bfddc	-0.011474099
174	0x3ca48081	0.020080807
175	0xbd813703	-0.06309321
176	0xbc535875	-0.012899508
177	0xbbb40807	-0.005494121
178	0x3c4adf69	0.012382367
179	0x3d1291cd	0.035783578
180	0x3b02b7b4	0.0019945921
181	0xbd4ada4d	-0.049524594
182	0xbce11d58	-0.027479813
183	0x3cae2cef	0.02126166
184	0x3b1e788b	0.0024180736
185	0xbcca9126	-0.024727415
186	0xbca7ccb9	-0.020483362
187	0xbd7c3b45	-0.06157996
188	0xbb478aaf	-0.0030447652
189	0x3cafc270	0.02145502
190	0x3db55e41	0.08855868
191	0x3cfb30de	0.03066295
192	0x3b2892c0	0.0025722235
193	0x3c869b7b	0.01643156
194	0xbceb6fb6	-0.028739791
195	0x3c0de626	0.008660829
196	0x3d88cef1	0.06680096
197	0x3d4f83f7	0.05066296
198	0x3d702b33	0.058634948
199	0x3d0af5e4	0.033925906
200	0x3d86747a	0.06565185
201	0x3d0eb639	0.03484175
202	0x3cc9baea	0.02462526
203	0xbd5e5f78	-0.054290265
204	0x3d6c95d2	0.057760067
205	0xbb906e81	-0.0044077043
206	0x3d0b4c54	0.03400834
207	0xbbb774d1	-0.0055986424
208	0xbccfffd1	-0.025390537
209	0xbcf67b90	-0.030088216
210	0x3b456585	0.0030120325
211	0x3c53585c	0.0128994845
212	0xbc47db43	-0.012198272
213	0x3d3460e7	0.044037726
214	0x3cc155df	0.023600517
215	0xbcd804f0	-0.026369542
216	0x3b9bca3b	0.0047543324
217	0x3cd04dba	0.025427688
218	0x3bd01453	0.006350079
219	0x3bfc4f55	0.007699887
220	0x3d2661df	0.04062068
221	0xbc710dd1	-0.014712767
222	0xbcf0b473	-0.02938292
223	0x3cb067d3	0.021533882
224	0xbc2497e7	-0.010045982
225	0xbd4b01e9	-0.04956237
226	0xbc46ac92	-0.012126105
227	0x3d23b2dc	0.039965495
228	0x3c46dfab	0.012138288
229	0xbcdef9d0	-0.02721873
230	0x3d494bd4	0.04914458
231	0xbd414986	-0.047189258
232	0x3cbbe205	0.022934923
233	0x3c222112	0.00989558
234	0xbc82ac0f	-0.015951185
235	0x3d56e8ac	0.052467987
236	0x3c8a94a4	0.01691658
237	0x3c49aecb	0.01230974
238	0xbd2ab2fd	-0.041674603
239	0x3d5d49b8	0.05402538
240	0x3cca6c86	0.024709951
241	0x3d25fadb	0.040522438
242	0xbcbeb74b	-0.02328076
243	0xbcebcf5e	-0.028785404
244	0xbd191251	-0.037370984
245	0xbc547223	-0.012966665
246	0xbd1e5359	-0.038653705
247	0xbc2817e2	-0.0102596
248	0xbadc0f11	-0.0016789158
249	0xbb3e9d2b	-0.0029085379
250	0xba7269c6	-0.0009247329
251	0x3ba00e91	0.004884549
252	0x3c70c594	0.014695544
253	0x3c0e3673	0.008679974
254	0x3d124afb	0.03571604
255	0x3d14ce3b	0.03632949

actor.6.bias f4 [27]
0	0xbcc0917d	-0.023506874
1	0xbce5bad6	-0.028043192
2	0xbd182db8	-0.037152976
3	0xbcf8ed00	-0.030386448
4	0x3da709bd	0.08156154
5	0xbd9b3a99	-0.07579536
6	0xbcb80a85	-0.022465954
7	0x3d01d60d	0.031698275
8	0xbc99e3b2	-0.018785331
9	0x3b10c5e4	0.0022090608
10	0x3d4fffed	0.05078118
11	0xbe50dc0d	-0.20396443
12	0xbdddf1be	-0.10837124
13	0xbd08d463	-0.033405673
14	0xbbff3188	-0.007787887
15	0x3d99b897	0.07505911
16	0xbcc0b9bc	-0.023526065
17	0xbdc50777	-0.096205644
18	0xbd8f9a28	-0.07011825
19	0x3c602114	0.013679761
20	0x3988a63b	0.00026063793
21	0x3d0764e4	0.0330552
22	0xbd7e3ae8	-0.062067896
23	0x3c802e65	0.015647123
24	0x3cd273bf	0.025689958
25	0x3d6e01a8	0.05810705
26	0x3d1e68bb	0.038674098
