IsaacLab/logs/rsl_rl/h1v2_flat/2025-03-06_10-04-09/exported/policy.onnx (onnx, 195410 bytes, 8 tensors)

actor.0.weight f4 [128, 93]
0.3844443 0.38242906 -0.019801715 -0.23657286 -0.015473453 0.032758247 0.53217417 0.9181076
0.26702815 0.2182551 -0.053566206 -0.2594501 0.07290475 -0.10346434 -0.53309643 0.24457705
0.11819791 0.051976006 -0.0035327172 -0.38607663 -0.05343778 0.70389444 0.23758087 0.0136926435
-0.14435278 -0.33096287 -0.20891248 -0.98058885 0.33081505 -0.4321602 -0.29517597 0.5678349
-0.20127186 0.63293624 0.19917865 0.30301648 -0.18537433 0.42152774 0.08911454 -0.045182902
-0.023442132 0.052467242 0.05285812 0.09574921 0.054032482 0.0067383605 -0.04379364 0.00080285256
0.035419222 0.001489929 -0.104085214 0.058186386 0.014589734 0.009063804 0.034396205 -0.017057303
-0.0070631495 0.012729715 -0.016139494 0.0064643766 -0.013847774 0.023417499 0.05860053 -0.0026473315
-0.076774 -0.036071084 -0.00034733323 -0.2310868 -0.17605466 -0.034630653 0.14581649 -0.092261046
-0.027970204 -0.13634498 -0.07936097 -0.08195216 -0.09877155 0.43637502 -0.1355597 -0.053140424
0.03993329 0.13786256 -0.097315796 0.06749258 -0.0061639748 0.022921124 0.060190093 0.054190315
-0.08089928 -0.11154983 0.0012273458 0.15196773 -0.012598644 0.17524184 0.25907487 -0.011913576
0.3132836 0.20028293 -0.015771 0.5981259 -0.09960092 0.04562416 -0.13236484 0.022606306
0.025206476 0.1139102 -0.53962976 -0.21017136 -0.3441577 0.52538663 0.037454 0.0070729335
-0.18890454 0.21039844 0.14988008 0.73870075 0.38302308 -0.5734269 0.09507046 0.70633864
-0.17133926 -0.2478023 0.012624118 -0.16791108 -0.13262263 0.024220329 0.46960917 -0.19692749
0.81114775 0.18290897 -0.2600498 0.7585244 0.046391517 -0.03428177 0.017643487 0.057904746
0.16688743 0.014696688 0.0317566 -0.07848087 -0.034342945 -0.002702551 -0.02719761 -0.00019927273
-0.06874915 0.010189877 -0.05582975 -0.017783733 -0.022243813 -0.0062248562 0.009510711 0.028039854
-0.0015827935 -0.006726428 -0.00372352 -0.015843298 -0.0039040877 -0.06474688 -0.06537363 0.11954264
-0.30415097 -0.51238716 -0.010812603 0.053257123 0.007836515 -0.024163092 0.3196116 0.23854688
0.08367764 -0.02772197 -0.19960457 0.048772596 0.0025312013 0.032660972 0.14772975 -0.02934386
-0.032444276 0.0057171853 -0.056974903 -0.09261819 0.0244611 0.0019570573 -0.047948517 0.001814017
0.11983617 0.0398935 -0.046368673 -0.19596796 0.012590219 0.247693 0.24560113 -0.02196679
-0.09823122 -0.12799439 0.21154587 -0.26430982 -0.06823143 -0.5103969 0.35364842 0.9142424
-0.06397027 0.019651301 -0.29745585 0.109463006 -0.028582685 -0.69549567 0.003503433 0.23665757
-0.805833 0.14969182 -0.026354495 0.08552524 1.1070122 0.1857027 0.59393775 -0.9271001
-0.44384718 0.05206039 -0.012156389 0.15941451 0.6806573 -0.13053337 -0.09065861 0.34586498
-0.5810661 -0.0060640597 -0.10924659 0.09298085 -0.119957544 0.015928907 0.023650646 -0.0076683853
0.022210736 -0.02164598 -0.04695914 0.12572409 -0.029076876 0.05540925 -0.09496164 -0.057255015
0.05067345 -0.02290195 0.022552693 -0.036039807 -0.022028668 -0.018122068 -0.05747733 0.036804855
0.009262425 -0.009430804 0.03713036 -0.050939243 0.18592203 0.021483103 0.15522556 -0.074514516
00000000: e2d5 c43e becd c33e 3537 a2bc 2840 72be
00000010: 5e84 7dbc 832d 063d 913c 083f 1a09 6b3f
00000020: eab7 883e 447e 5f3e 3d68 5bbd a5d6 84be
00000030: 164f 953d 1de5 d3bd 0279 08bf 6872 7a3e
00000040: bf11 f23d cbe4 543d 2985 67bb d6ab c5be
00000050: 93e1 5abd 6d32 343f 6648 733e 1c57 603c
00000060: 37d1 13be f773 a9be 27ed 55be df07 7bbf
00000070: 9760 a93e 1a44 ddbe 4e21 97be a15d 113f
00000080: 361a 4ebe 1c08 223f 7df5 4b3e fa24 9b3e
00000090: c5d2 3dbe 7cd2 d73e af81 b63d b511 39bd
000000a0: b709 c0bc e4e7 563d c281 583d 2918 c43d
000000b0: 2a51 5d3d 77cd dc3b f660 33bd 8676 523a
000000c0: bf13 113d b949 c33a a12a d5bd d954 6e3d
000000d0: c809 6f3c 5980 143c 09e3 0c3d c2bb 8bbc
000000e0: fe71 e7bb 4b90 503c f936 84bc 1fd3 d33b
000000f0: c6e1 62bc 0ed6 bf3c 1c07 703d da7e 2dbb
00000100: b03b 9dbd 46bf 13bd 471a b6b9 05a2 6cbe
00000110: ac47 34be dfd8 0dbd eb50 153e 5cf3 bcbd
00000120: c521 e5bc 059e 0bbe 0188 a2bd 89d6 a7bd
00000130: bd48 cabd 8c6c df3e 29d0 0abe c6a9 59bd
00000140: 1791 233d d82b 0d3e 814d c7bd 8d39 8a3d
00000150: 2bfb c9bb 15c5 bb3c e389 763d aaf6 5d3d
00000160: 86ae a5bd 3d74 e4bd e4de a03a 6e9d 1b3e
00000170: 8b6a 4ebc 9972 333e 76a5 843e 2931 43bc
00000180: b566 a03e f816 4d3e 2f32 81bc c71e 193f
00000190: 91fb cbbd 66e0 3a3d a68a 07be dc30 b93c
000001a0: d07d ce3c c049 e93d 2d25 0abf 2937 57be
000001b0: 7035 b0be bd7f 063f 5e69 193d 11c4 e73b
000001c0: 3170 41be b072 573e 2a7a 193e 7e1b 3d3f
000001d0: 9a1b c43e 1bcc 12bf 4db4 c23d 9cd2 343f
000001e0: 8f73 2fbe e3bf 7dbe 63d5 4e3c e2f0 2bbe
000001f0: 3ace 07be b669 c63c 9d70 f03e 5ca7 49be
00000200: 61a7 4f3f 7d4c 3b3e 3f25 85be a82e 423f
00000210: 0805 3e3d 0b6b 0cbd 1389 903c 872d 6d3d
00000220: 8ae4 2a3e 61ca 703c 3513 023d 94ba a0bd
00000230: 30ab 0cbd 481d 31bb 86cd debc def3 50b9
00000240: 5bcc 8cbd 71f3 263c bcad 64bd 31af 91bc
00000250: a838 b6bc e1f9 cbbb d0d2 1b3c d6b3 e53c
00000260: bd75 cfba 5e69 dcbb 4d06 74bb cec9 81bc
00000270: b9db 7fbb 039a 84bd 9ce2 85bd c6d2 f43d
00000280: adb9 9bbe ce2b 03bf 5827 31bc 2424 5a3d
00000290: ba64 003c adf1 c5bc 22a4 a33e a245 743e
000002a0: 2f5f ab3d 2f19 e3bc 2465 4cbe c6c5 473d
000002b0: 83e2 253b 83c7 053d 7846 173e 8962 f0bc
000002c0: 4ae4 04bd 3a57 bb3b 845e 69bd 9bae bdbd
000002d0: a562 c83c f941 003b aa65 44bd 4fc4 ed3a
000002e0: aa6c f53d 5e67 233d 14ed 3dbd d3ab 48be
000002f0: 3547 4e3c 3ca3 7d3e dd7e 7b3e b3f3 b3bc
00000300: 732d c9bd f610 03be 7b9f 583e 9e53 87be
00000310: ecbc 8bbd 5fa9 02bf 6811 b53e ca0b 6a3f
00000320: d802 83bd c4fb a03c 224c 98be 242e e03d
00000330: 3c26 eabc 010c 32bf da99 653b 5d56 723e
00000340: 124b 4ebf d048 193e 62e5 d7bc db27 af3d
00000350: 93b2 8d3f d928 3e3e 4e0c 183f 6f56 6dbf
00000360: f03f e3be 473d 553d 972b 47bc 8f3d 233e
00000370: 8f3f 2e3f 8aaa 05be 39ab b9bd 3715 b13e
00000380: bfc0 14bf 05b5 c6bb adbc dfbd be6c be3d
00000390: 4dac f5bd 577d 823c 00bf c13c 1447 fbbb
000003a0: 4af3 b53c e952 b1bc 3a58 40bd d1bd 003e
000003b0: a132 eebc cff4 623d 407b c2bd 3c84 6abd
000003c0: f78e 4f3d df9c bbbc 6dc0 b83c 7a9e 13bd
000003d0: 7775 b4bc bb74 94bc 596d 6bbd b0c0 163d
000003e0: 6dc1 173c a983 1abc 0116 183d aba5 50bd
000003f0: 5862 3e3e 55fd af3c 73f3 1e3e 119b 98bd

actor.0.bias f4 [128]
-0.089060925 -0.0053322227 -0.07996065 0.0048411083 -0.01311917 0.05769347 -0.100665 -0.11732333
-0.1214826 -0.046165753 -0.0010966873 0.113951765 -0.13664326 0.12076729 0.030451747 -0.008473741
0.035672143 0.07315576 0.04618179 0.090229474 -0.05131613 0.0005749891 -0.01924566 0.044688605
-0.051817883 0.14070983 0.029941792 -0.030250661 0.047713645 -0.031509817 -0.068439655 -0.16378942
-0.034138303 -0.042422466 0.006352917 0.017536275 0.00094936416 -0.149551 -0.22460712 -0.038881093
-0.05257221 -0.016789982 0.009252064 0.016646136 -0.012628921 0.049669627 -0.09507961 0.122918606
-0.06778299 0.0036697104 -0.26618832 -0.10207382 -0.14518462 -0.10950005 0.03168284 -0.19480559
-0.08804147 0.1249046 -0.004566908 -0.01985431 -0.056111943 0.15665115 0.018256104 -0.079459436
-0.1330016 -0.07012971 0.024019845 0.006122738 0.0030499143 0.004805492 -0.12920363 -0.119065076
-0.10999362 -0.03681291 0.028533645 -0.09755905 -0.013067354 -0.084575415 -0.08864902 -0.031114887
-0.07581958 -0.052037213 0.13665405 0.14116146 -0.035190385 0.106484585 -0.042318255 0.12652941
-0.20651594 0.011823515 -0.044433113 -0.18563522 -0.05708474 -0.123355895 -0.08964171 0.019747116
-0.1217575 -0.018569788 -0.099302515 0.0058629285 -0.112464495 0.078682385 -0.1788244 0.09506913
0.005021589 -0.08796575 -0.03707808 -0.1299453 0.1459191 -0.044335835 -0.08107191 -0.21815476
0.11418012 0.0582695 -0.052666053 -0.046014722 -0.24798113 -0.023438971 -0.14593835 -0.05395997
0.091262 -0.024447924 0.012502035 -0.04631937 -0.12160226 -0.14314446 0.062290464 -0.1334928
00000000: 9365 b6bd edb9 aebb 69c2 a3bd 29a2 9e3b
00000010: caf1 56bc fd4f 6c3d 7429 cebd 3747 f0bd
00000020: dfcb f8bd 4d18 3dbd b8be 8fba 8b5f e93d
00000030: 36ec 0bbe d754 f73d f175 f93c 72d5 0abc
00000040: f41c 123d b0d2 953d 1e29 3d3d 3bca b83d
00000050: dd30 52bd deba 163a 13a9 9dbc 660b 373d
00000060: fd3e 54bd 3d16 103e 7d48 f53c 3cd0 f7bc
00000070: 626f 433d 7010 01bd 172a 8cbd 6ab8 27be
00000080: 9bd4 0bbd 2ec3 2dbd 212c d03b 3ca8 8f3c
00000090: c0de 783a e623 19be 69ff 65be c841 1fbd
000000a0: f555 57bd 258b 89bc f895 173c 7a5d 883c
000000b0: 89e9 4ebc 6172 4b3d 19b9 c2bd c0bc fb3d
000000c0: cfd1 8abd 867f 703b d649 88be 140c d1bd
000000d0: 47ab 14be 9041 e0bd dec5 013d 1e7b 47be
000000e0: 164f b4bd fccd ff3d 00a6 95bb 82a5 a2bc
000000f0: a3d5 65bd 2969 203e d38d 953c a1bb a2bd
00000100: 9231 08be 2aa0 8fbd 44c5 c43c 40a1 c83b
00000110: 12e1 473b 6377 9d3b f54d 04be 64d8 f3bd
00000120: 5644 e1bd 22c9 16bd 64bf e93c 0acd c7bd
00000130: 7518 56bc e035 adbd 9e8d b5bd a6e4 febc
00000140: 4c47 9bbd f924 55bd 0aef 0b3e a18c 103e
00000150: cb23 10bd 9714 da3d e855 2dbd ed90 013e
00000160: ea78 53be 6bb7 413c 7fff 35bd 2917 3ebe
00000170: b0d1 69bd 04a2 fcbd 1396 b7bd b4c4 a13c
00000180: ff5b f9bd ab1f 98bc 1e5f cbbd cf1d c03b
00000190: c953 e6bd 3b24 a13d be1d 37be 9bb3 c23d
000001a0: 248c a43b 6327 b4bd 2fdf 17bd 6110 05be
000001b0: d16b 153e 7e99 35bd 0809 a6bd f663 5fbe
000001c0: 44d7 e93d 00ac 6e3d 5cb8 57bd ef79 3cbd
000001d0: c4ee 7dbe 1603 c0bc dd70 15be 2105 5dbd
000001e0: 92e7 ba3d 0347 c8bc 56d5 4c3c 61b9 3dbd
000001f0: 9b0a f9bd 7694 12be 4924 7f3d 56b2 08be

actor.2.weight f4 [128, 128]
0.06809327 -0.010788909 0.05347864 -0.105406195 -0.01464447 0.050159294 -0.016863732 0.111883506
-0.043005183 -0.15479551 0.102014974 -0.07964577 -0.2369852 -0.023652017 -0.02234638 0.006663195
0.06210046 -0.06873056 -0.07837355 -0.16292188 -0.013386038 -0.042422034 -0.053290553 -0.043403152
0.0015005707 0.036567274 0.06966069 -0.000670777 -0.117330015 -0.25473073 0.039733324 -0.04025836
0.006266556 0.10521092 0.037559163 0.001133009 0.0919593 -0.01346636 0.19191107 0.06850982
-0.025476 -0.08942994 -0.07247474 0.0007654749 -0.061895892 -0.07062493 -0.23127231 -0.06048561
0.006069264 0.030367602 -0.013240433 -0.055441182 -0.10842657 0.0843072 0.0016199205 0.064598985
0.07649947 0.09734412 -0.06278592 -0.015198797 0.099521145 -0.08626993 -0.0363845 0.13470815
-0.15315695 0.01812295 -0.02321822 -0.100131616 0.120256595 -0.3442427 -0.026890658 0.09701763
-0.055705518 -0.082804106 -0.10129663 0.10454144 0.13202314 -0.09915504 -0.018016292 0.033922955
-0.11254092 -0.112645246 0.043801837 -0.055024914 -0.0036729083 -0.035714697 0.0340213 0.03430262
-0.0045457664 0.0121688135 -0.11849745 0.056100905 -0.13175307 0.0041845846 -0.115488075 -0.010847981
0.024808355 0.0195658 0.013542011 -0.10921785 0.05628893 0.07966099 0.08736535 -0.12242131
0.031421904 -0.100450434 0.06513212 -0.020253498 -0.07491555 -0.05925361 0.0052663116 -0.08562395
-0.102819845 -0.003538458 0.13714847 -0.06538039 -0.07796325 0.118989 0.014321142 -0.03212193
0.03249272 0.012168877 0.079353124 0.090863764 -0.09282943 0.09671619 -0.056718055 -0.20883833
-0.0076104333 -0.15024276 -0.12161641 -0.026167389 -0.041673005 -0.098725505 0.031442996 -0.078766115
0.040538467 -0.18869457 -0.031368267 -0.24932308 -0.052318387 -0.08257058 0.05726563 -0.10061337
-0.0063389274 -0.089932 0.06023674 -0.068419 0.04593797 -0.09546938 0.12445277 -0.2932107
-0.09486156 -0.037311513 -0.011867287 0.036275756 -0.17371197 -0.077382475 -0.039867062 -0.06814006
0.02872495 0.071262024 -0.02308855 0.11199268 0.11430513 0.14264284 0.06323117 0.010101926
-0.0122297965 -0.22766757 -0.07032162 -0.017242137 -0.12785026 -0.19904469 -0.058242418 0.18081729
-0.08898829 -0.005364972 0.032987796 0.09239213 0.026817722 -0.064047344 -0.110549636 -0.045482665
0.17383505 0.15128385 -0.23886263 -0.10732286 0.050171107 0.025279507 0.030047126 -0.062545694
0.005042416 -0.010093528 -0.110067 0.02630613 0.02625897 0.029270917 -0.060108665 -0.14808314
0.05394856 -0.009075595 0.10237896 -0.030615784 -0.22007594 0.020475267 0.01564569 -0.01947337
-0.15401916 0.12979397 0.04017909 -0.011982509 0.18248396 0.023583978 0.09428512 0.065843105
0.039335255 -0.039135404 -0.15264717 0.070190646 0.057975464 -0.08988409 0.1315412 -0.13986121
0.049513433 0.10389572 0.009155592 -0.038235016 0.08789709 0.019672692 0.012175528 0.029896647
0.07506242 0.09529053 0.19654123 -0.0958898 0.0298476 0.07701661 -0.0733699 0.09092084
0.054688297 -0.17237607 -0.11997007 -0.106978685 -0.12529163 -0.034003355 -0.073699415 -0.054300264
-0.12343462 0.014804248 0.025381356 -0.05718025 0.019637505 -0.10332251 -0.1109784 -0.12808606
00000000: 7c74 8b3d f7c3 30bc 6b0c 5b3d 34df d7bd
00000010: 5cef 6fbc d573 4d3d cf25 8abc 2e23 e53d
00000020: 3426 30bd b782 1ebe 3aed d03d 521d a3bd
00000030: 40ac 72be e0c1 c1bc c10f b7bc ee56 da3b
00000040: 0d5d 7e3d 9cc2 8cbd 5082 a0bd fed4 26be
00000050: 1d51 5bbc bac2 2dbd 3247 5abd 81c7 31bd
00000060: ccae c43a 91c7 153d 44aa 8e3d 15d7 2fba
00000070: b84a f0bd 116c 82be 69bf 223d f3e5 24bd
00000080: af57 cd3b d378 d73d a3d7 193d 7981 943a
00000090: 2855 bc3d 02a2 5cbc 5684 443e e04e 8c3d
000000a0: 0bb3 d0bc 0b27 b7bd a36d 94bd 27aa 483a
000000b0: 8c86 7dbd cea3 90bd a6d2 6cbe c2bf 77bd
000000c0: ade0 c63b 7ac5 f83c 67ee 58bc 4b16 63bd
000000d0: c00e debd 41a9 ac3d 8353 d43a 794c 843d
000000e0: c1ab 9c3d 5b5c c73d e895 80bd 6004 79bc
000000f0: bed1 cb3d 4aae b0bd ea07 15bd eff0 093e
00000100: 2dd5 1cbe 9576 943c 2334 bebc ce11 cdbd
00000110: 1749 f63d 9440 b0be cc49 dcbc 2eb1 c63d
00000120: 782b 64bd 3395 a9bd 9c74 cfbd d319 d63d
00000130: 1331 073e cc11 cbbd e796 93bc ccf2 0a3d
00000140: db7b e6bd 8db2 e6bd 8e69 333d ce61 61bd
00000150: 2db5 70bb 9349 12bd eb59 0b3d e780 0c3d
00000160: a7f4 94bb b45f 473c cbae f2bd 10ca 653d
00000170: 47ea 06be d71e 893b 0385 ecbd bbbb 31bc
00000180: e43a cb3c 7548 a03c 50df 5d3c 9cad dfbd
00000190: 398f 663d 4d25 a33d 9bec b23d 06b8 fabd
000001a0: 41b4 003d f5b8 cdbd fd63 853d aaea a5bc
000001b0: 536d 99bd eab3 72bd 0691 ac3b 9c5b afbd
000001c0: 3693 d2bd 79e5 67bb a670 0c3e 27e6 85bd
000001d0: 32ab 9fbd 81b0 f33d 39a3 6a3c 4992 03bd
000001e0: 1617 053d f85f 473c e483 a23d c816 ba3d
000001f0: 5b1d bebd 2313 c63d 3151 68bd b7d9 55be
00000200: f160 f9bb 3dd9 19be 0612 f9bd fe5c d6bc
00000210: 50b1 2abd 9930 cabd 5fca 003d 2150 a1bd
00000220: aa0b 263d 2639 41be 037c 00bd 8d4e 7fbe
00000230: ce4b 56bd c41a a9bd 5e8f 6a3d 620e cebd
00000240: c7b6 cfbb 452e b8bd cdba 763d 431f 8cbd
00000250: 7429 3c3d 7385 c3bd 18e1 fe3d b61f 96be
00000260: c746 c2bd f5d3 18bd 026f 42bc e395 143d
00000270: 8de1 31be b47a 9ebd a54b 23bd 048d 8bbd
00000280: 9650 eb3c d3f1 913d 3324 bdbc 6b5c e53d
00000290: cf18 ea3d f710 123e 587f 813d 8c82 253c
000002a0: 7c5f 48bc b021 69be c804 90bd 623f 8dbc
000002b0: 2eeb 02be 5fd2 4bbe 9a8f 6ebd 2b28 393e
000002c0: 7e3f b6bd a6cc afbb 361e 073d 1638 bd3d
000002d0: d7b0 db3c 412b 83bd d967 e2bd 084c 3abd
000002e0: d101 323e 27ea 1a3e 6898 74be 16cc dbbd
000002f0: 3880 4d3d f816 cf3c 6425 f63c f517 80bd
00000300: da3a a53b 535f 25bc cf6a e1bd f47f d73c
00000310: 0d1d d73c 90c9 ef3c 8134 76bd 1ba3 17be
00000320: 2af9 5c3d ceb1 14bc 0fac d13d f4cd fabc
00000330: 965b 61be bfbb a73c 642b 803c 9e86 9fbc
00000340: 33b7 1dbe b6e8 043e d492 243d 4952 44bc
00000350: 13dd 3a3e 3033 c13c 8f18 c13d c0d8 863d
00000360: 011e 213d 724c 20bd 8a4f 1cbe 1dc0 8f3d
00000370: ae77 6d3d 2615 b8bd bdb2 063e c737 0fbe
00000380: 99ce 4a3d 47c7 d43d 5601 163c 529c 1cbd
00000390: 6403 b43d a028 a13c de7b 473c d0e9 f43c
000003a0: 53ba 993d ae27 c33d 1b42 493e df61 c4bd
000003b0: f482 f43c e2ba 9d3d f542 96bd b534 ba3d
000003c0: d600 603d 5a83 30be deb2 f5bd a417 dbbd
000003d0: 734c 00be 1a47 0bbd b8ef 96bd f469 5ebd
000003e0: 4acb fcbd 848d 723c 90ec cf3c d635 6abd
000003f0: d5de a03c c19a d3bd a548 e3bd fe28 03be

actor.2.bias f4 [128]
-0.126539 -0.12461348 -0.0599248 -0.04444284 -0.10803311 0.03295424 -0.00048898003 -0.22972271
-0.027146505 -0.19692104 0.0638405 -0.07677597 -0.20892142 0.015386711 -0.13776103 0.029299451
0.03276867 -0.065433286 0.06679467 -0.16139306 -0.02624188 -0.010363466 -0.08958331 -0.09315551
-0.11081932 -0.05847927 -0.04705362 0.041524693 0.05746427 -0.0228915 -0.031034725 -0.022729343
0.08007593 -0.03776401 -0.015820252 0.079030655 -0.023921534 -0.022998564 -0.0681452 0.057696834
-0.14619061 -0.025970973 -0.055112176 -0.10977622 -0.15073866 -0.03150262 -0.046027333 -0.073674634
-0.061328046 -0.15450734 -0.0893543 -0.12579075 -0.045461778 -0.13242748 -0.16645637 -0.16054611
-0.003012557 -0.034636218 -0.1004707 0.0047824467 -0.209143 -0.21419261 -0.050751794 -0.013991316
-0.032216866 -0.03268448 -0.084742405 -0.15213673 0.11605979 -0.17814495 -0.013838885 0.10287065
-0.18479528 0.032886714 -0.043938767 -0.04299074 0.08728118 -0.075007446 -0.20168023 0.03188844
-0.07295214 7.756342e-05 -0.07193951 0.034289915 -0.0786066 -0.017069941 -0.2107622 -0.050238684
-0.1645768 -0.07282571 -0.15336975 -0.005477374 0.00650764 -0.019602735 0.020859674 -0.1552883
-0.059188344 -0.24205877 -0.09554024 -0.045758184 -0.104883514 -0.15900402 -0.22465864 -0.30192003
0.065087266 0.03663501 -0.078332305 -0.09964334 -0.21763663 -0.11281452 -0.12658411 -0.029899046
0.017595448 -0.14456879 0.05996327 -0.11993391 -0.11951914 -0.06533394 -0.12558267 -0.15336674
-0.089398295 0.12344421 0.04018649 -0.011379905 -0.1564386 -0.15465733 0.07304599 -0.1297524
00000000: 7193 01be 5a35 ffbd b573 75bd b209 36bd
00000010: 7740 ddbd 06fb 063d e52e 00ba 6e3c 6bbe
00000020: 5962 debc aba5 49be cfbe 823d b83c 9dbd
00000030: 7fef 55be 8b18 7c3c 3a11 0dbe 6705 f03c
00000040: 7138 063d e301 86bd a5cb 883d 3944 25be
00000050: 36f9 d6bc 87cb 29bc 7477 b7bd 51c8 bebd
00000060: 3df5 e2bd f687 6fbd 4cbb 40bd cc15 2a3d
00000070: a85f 6b3d f486 bbbc 893c febc e332 babc
00000080: d9fe a33d 6fae 1abd 7999 81bc d3da a13d
00000090: 18f7 c3bc 7c67 bcbc b68f 8bbd 8453 6c3d
000000a0: feb2 15be 14c1 d4bc 4ebd 61bd 5bd2 e0bd
000000b0: 3c5b 1abe e408 01bd 2887 3cbd bae2 96bd
000000c0: 1e33 7bbd 2c37 1ebe 63ff b6bd 4acf 00be
000000d0: 2136 3abd 129b 07be 8a73 2abe 3366 24be
000000e0: 526e 45bb b5de 0dbd 95c3 cdbd 12b6 9c3b
000000f0: 9529 56be 4f55 5bbe 1de1 4fbd d53b 65bc
00000100: d5f5 03bd 29e0 05bd 6d8d adbd bbc9 1bbe
00000110: c1b0 ed3d a16b 36be 7ebc 62bc d9ad d23d
00000120: f93a 3dbe 38b4 063d 23f9 33bd 0f17 30bd
00000130: 7ac0 b23d 819d 99bd 4385 4ebe 749d 023d
00000140: ee67 95bd 8ba9 a238 0655 93bd 9573 0c3d
00000150: 7ffc a0bd 43d6 8bbc 0cd2 57be 14c7 4dbd
00000160: d286 28be a525 95bd f60c 1dbe 8b7b b3bb
00000170: 0a3e d53b ea95 a0bc e8e1 aa3c e503 1fbe
00000180: 7a6f 72bd 41de 77be 9aaa c3bd ef6c 3bbd
00000190: 2bcd d6bd f3d1 22be ea0c 66be 4395 9abe
000001a0: 794c 853d 980e 163d b06c a0bd cf11 ccbd
000001b0: 23dc 5ebe 4d0b e7bd 449f 01be d8ee f4bc
000001c0: 5424 903c d709 14be 0c9c 753d e99f f5bd
000001d0: 73c6 f4bd cdcd 85bd be98 00be 2c0c 1dbe
000001e0: 7416 b7bd 51d0 fc3d 979a 243d c872 3abc
000001f0: 7131 20be 7e5e 1ebe 2399 953d d0dd 04be

actor.4.weight f4 [128, 128]
-0.08186808 -0.113057956 0.06312471 0.04750937 -0.10863494 -0.058893368 0.15561259 0.053122014
0.0665197 -0.054021418 -0.12356852 -0.16183122 0.12773821 -0.0076620704 0.0650342 0.037555683
-0.044619355 0.015882485 0.06876266 0.15744859 0.052671235 0.08301539 -0.15165833 -0.0017719187
-0.12124506 -0.070108645 0.042465847 0.10485843 -0.016399538 -0.027258327 -0.031810988 0.016864516
-0.10605374 0.08773604 0.06991329 0.026845017 0.10220125 -0.027450047 0.09184296 0.08714684
0.037640173 -0.07259218 0.07409186 -0.1400347 -0.017382134 -0.054792844 0.03278912 -0.07740377
-0.021904785 0.03608397 -0.11294844 0.18393789 0.09525262 0.11074817 -0.056392815 -0.029018147
0.091405764 -0.09325905 -0.066164054 -0.029644988 -0.016533727 -0.054839373 -0.019379158 -0.00787006
0.0024432007 0.031153299 0.017498553 0.115302004 0.028896945 0.038332503 0.054718524 0.017913204
-0.08773206 0.119501516 0.08045888 -0.17666075 0.021291014 -0.08623906 -0.08067877 -0.030750638
0.15922503 -0.17371887 -0.10179976 0.021141944 0.05383316 0.04331133 -0.0018612379 0.02868221
-0.029738137 -0.07218544 0.11972825 -0.0027638203 0.0048898486 0.08816611 -0.09573519 -0.15454651
-0.010006168 0.050191328 0.11490607 -0.0048456197 0.04142004 -0.02623352 0.09612326 -0.10054212
0.09342898 0.03950044 0.016937893 0.045578945 0.035259403 0.10096564 -0.16160917 0.06258693
-0.020434996 0.13288616 0.007256065 -0.02126942 -0.06486792 -0.105170295 0.07219191 0.046755668
0.028530316 -0.04659324 -0.05849662 0.092626095 0.040608834 0.051245254 -0.05840699 0.129925
-0.1236603 0.01965217 0.0014997916 0.11546843 0.07864947 0.12787242 0.0071848794 -0.08372187
0.123799555 -0.045003474 -0.07374954 0.09641369 -0.076393925 -0.14670497 -0.067500174 0.05930998
-0.039841387 0.092401244 0.01363781 0.046274845 0.00912713 0.108190246 -0.03476445 0.15653346
-0.13915753 -0.022086747 0.051761176 0.09175472 -0.10112036 -0.09233754 -0.02320547 0.045494076
0.10093199 0.0036232083 -0.07145916 -0.118472844 -0.01712209 -0.050455656 -0.053376984 -0.13748427
-0.034559548 -0.08313596 0.083497085 -0.07742375 -0.12407462 -0.06079897 -0.016127188 0.13372594
-0.093788065 -0.033129018 -0.006159786 0.04692563 0.0019578228 0.0751697 -0.025780266 0.020627553
0.005781762 0.021507695 -0.066779725 -0.016383607 -0.04639487 -0.06357554 -0.0061204126 -0.017649438
-0.05020663 -0.0062105353 0.03068685 -0.010716274 0.03735634 -0.01378468 -0.002243881 -0.019321589
-0.110298164 -0.047653243 -0.112088315 -0.0841632 0.046576876 0.003953291 0.0074873706 -0.052162964
0.087828316 -0.12935178 0.060956605 -0.0041730874 -0.08596974 0.0297909 -0.059625965 -0.10664608
-0.03205682 -0.06104547 -0.033478055 -0.02608342 -0.040931735 -0.090812616 0.057093862 -0.077966854
0.07274499 0.060468294 0.045766562 -0.029596884 -0.021809813 0.01421272 -0.11183118 -0.0059138862
0.015641985 -0.04302217 -0.039422862 -0.011605914 -0.14591908 0.0663966 -0.1463939 -0.039386626
0.13628845 0.039790906 -0.07680559 0.07730075 -0.15847716 0.06981785 0.11852227 0.047398426
0.11245803 -0.10310325 -0.013511006 -0.115848005 -0.06210697 0.06729165 0.037332855 0.027475962
00000000: 74aa a7bd ee8a e7bd 8747 813d 2f99 423d
00000010: ff7b debd 2c3a 71bd e858 1f3e 7896 593d
00000020: 7b3b 883d 9045 5dbd 7e11 fdbd 15b7 25be
00000030: cecd 023e 1b12 fbbb a730 853d fdd3 193d
00000040: c9c2 36bd fc1b 823c 70d3 8c3d 343a 213e
00000050: cbbd 573d f903 aa3d 524c 1bbe ba3f e8ba
00000060: 544f f8bd 1f95 8fbd abf0 2d3d 04c0 d63d
00000070: 5358 86bc db4c dfbc 3d4c 02bd 7427 8a3c
00000080: b432 d9bd f4ae b33d b32e 8f3d 15ea db3c
00000090: e44e d13d ecde e0bc 2918 bc3d 0b7a b23d
000000a0: 952c 1a3d 35ab 94bd 79bd 973d 4265 0fbe
000000b0: fa64 8ebc 766e 60bd e24d 063d de85 9ebd
000000c0: aa71 b3bc c9cc 133d 8351 e7bd 375a 3c3e
000000d0: ce13 c33d f0cf e23d 27fc 66bd 77b7 edbc
000000e0: f232 bb3d 9afe bebd 0581 87bd 0cda f2bc
000000f0: bd71 87bc 409f 60bd 0ac1 9ebc 6df1 00bc
00000100: 1b1e 203b 3435 ff3c 2059 8f3c 7523 ec3d
00000110: 49b9 ec3c 8b02 1d3d 8820 603d b6be 923c
00000120: deac b3bd 36bd f43d a0c7 a43d 8ee6 34be
00000130: 7e6a ae3c 1b9e b0bd e93a a5bd c3e8 fbbc
00000140: e30b 233e 5ce3 31be 647c d0bd df31 ad3c
00000150: 2980 5c3d 3967 313d c8f4 f3ba f4f6 ea3c
00000160: 659d f3bc f6d5 93bd 1634 f53d 3621 35bb
00000170: 063b a03b 6f90 b43d d010 c4bd 7141 1ebe
00000180: e9f0 23bc 6c95 4d3d e053 eb3d 01c8 9ebb
00000190: 0fa8 293d aee7 d6bc 46dc c43d 07e9 cdbd
000001a0: b157 bf3d 37cb 213d 56c1 8a3c fdb0 3a3d
000001b0: 2a6c 103d 13c7 ce3d e07c 25be 942d 803d
000001c0: 4b67 a7bc 4f13 083e 49c4 ed3b 353d aebc
000001d0: 79d9 84bd 8663 d7bd 5ad9 933d df82 3f3d
000001e0: 69b8 e93c 8ed8 3ebd 279a 6fbd c0b2 bd3d
000001f0: 7355 263d 8be6 513d 2b3c 6fbd 0f0b 053e
00000200: 9d41 fdbd 96fd a03c a894 c43a b67a ec3d
00000210: f912 a13d fdf0 023e 236f eb3b 5f76 abbd
00000220: 9f8a fd3d 9055 38bd 000a 97bd 8a74 c53d
00000230: 6b74 9cbd d439 16be 883d 8abd 06ef 723d
00000240: b930 23bd dd3c bd3d 1f71 5f3c b18a 3d3d
00000250: f589 153c d992 dd3d 2b65 0ebd 4f4a 203e
00000260: 507f 0ebe 44ef b4bc 8703 543d e6e9 bb3d
00000270: 3118 cfbd 771b bdbd 6619 bebc ff57 3a3d
00000280: 6eb5 ce3d 5973 6d3b 2e59 92bd e4a1 f2bd
00000290: a043 8cbc 97aa 4ebd d3a1 5abd adc8 0cbe
000002a0: 508e 0dbd 3043 aabd 8500 ab3d 5890 9ebd
000002b0: d61a febd 5708 79bd 2a1d 84bc 74ef 083e
000002c0: f513 c0bd 4bb2 07bd 08d8 c9bb 1735 403d
000002d0: d14e 003b 92f2 993d 2331 d3bc 1dfb a83c
000002e0: ef74 bd3b e830 b03c cfc3 88bd ea36 86bc
000002f0: 8c08 3ebd e533 82bd be8d c8bb 8e95 90bc
00000300: 78a5 4dbd bf81 cbbb fd62 fb3c 5093 2fbc
00000310: f602 193d 23d9 61bc 140e 13bb 4f48 9ebc
00000320: 01e4 e1bd 0c30 43bd 8f8e e5bd c15d acbd
00000330: 65c7 3e3d 9c8a 813b 9e58 f53b d5a8 55bd
00000340: 55df b33d cb74 04be a2ad 793d 65be 88bb
00000350: e710 b0bd 0c0c f43c 5b3a 74bd 4369 dabd
00000360: 034e 03bd d10a 7abd 4920 09bd e5ac d5bc
00000370: 09a8 27bd f7fb b9bd 41db 693d 16ad 9fbd
00000380: 53fb 943d 9aad 773d b875 3b3d 2a75 f2bc
00000390: 7eaa b2bc 78dc 683c bf07 e5bd 46c9 c1bb
000003a0: 9f23 803c 0438 30bd de79 21bd bb26 3ebc
000003b0: d06b 15be f1fa 873d 48e8 15be df53 21bd
000003c0: 338f 0b3e cafb 223d 404c 9dbd db4f 9e3d
000003d0: d647 22be a9fc 8e3d cebb f23d da24 423d
000003e0: 6550 e63d cc27 d3bd 445d 5dbc b841 edbd
000003f0: e163 7ebd 34d0 893d 56ea 183d 4515 e13c

actor.4.bias f4 [128]
-0.15351473 -0.12856072 -0.06129337 0.06523578 -0.07710645 -0.16452263 -0.057876345 -0.17879246
0.01688921 -0.18352738 -0.05911645 0.02575026 -0.18192112 -0.096474655 0.06162901 0.033938006
-0.046019197 -0.074891426 -0.024022786 -0.19172293 -0.10057104 -0.046017863 -0.005163888 0.05772867
0.0062299315 -0.15317813 -0.1504039 -0.029673042 -0.1257278 -0.013533023 -0.117874004 -0.031464517
-0.23584086 0.027951598 -0.030610511 -0.18011457 -0.077933684 -0.06323841 -0.30595288 -0.07208585
-0.098314494 0.0878974 -0.006184674 -0.09760794 -0.0047430377 0.01583712 0.040276755 -0.019631078
0.06679092 -0.075800024 0.064473756 0.030151235 0.033469982 -0.15479246 -0.1612649 -0.04816753
-0.09943276 -0.07239455 0.024809638 -0.18757665 -0.038696416 -0.14584793 -0.076657236 -0.036066063
-0.082406096 0.005544972 -0.15407962 0.021666395 -0.10170163 -0.15433334 -0.115916 -0.00018730634
-0.026963102 0.01656502 -0.10053463 -0.14362386 -0.12438466 0.026848989 -0.09875799 -0.014705348
-0.19634114 -0.1846684 -0.09780859 -0.019232698 -0.042287786 -0.0075004334 -0.041261777 -0.10310554
-0.13226317 0.07456455 -0.15453799 -0.035713196 0.13428745 0.030883627 -0.21051869 0.04136375
-0.17818168 -0.043256395 0.067456625 -0.074710235 -0.07026705 -0.13425311 -0.17010261 0.015256374
-0.13738485 -0.031591102 0.044297148 0.02753719 0.018707313 -0.09965848 -0.0615631 0.0020815756
-0.10080135 -0.10550805 -0.07226295 -0.16582662 -0.038527574 -0.009189016 -0.22878328 0.06641155
-0.1616823 -0.13125518 -0.07021568 -0.1172453 -0.21215254 -0.054208837 0.05040918 -0.024159055
00000000: f732 1dbe 6ca5 03be c20e 7bbd 569a 853d
00000010: fde9 9dbd 9f78 28be bf0f 6dbd 5f15 37be
00000020: 3e5b 8a3c 9aee 3bbe 1724 72bd 36f2 d23c
00000030: 8849 3abe 8194 c5bd b36e 7c3d 9402 0b3d
00000040: a07e 3cbd ad60 99bd 6fcb c4bc 0453 44be
00000050: 30f8 cdbd 3a7d 3cbd d535 a9bb e674 6c3d
00000060: 7424 cc3b bada 1cbe 7b03 1abe e114 f3bc
00000070: cabe 00be 9db9 5dbc ed67 f1bd f0e0 00bd
00000080: 4480 71be c0fa e43c e5c2 fabc f46f 38be
00000090: b29b 9fbd 2483 81bd dba5 9cbe bfa1 93bd
000000a0: 1c59 c9bd 8d03 b43d cea8 cabb ace6 c7bd
000000b0: 7c6b 9bbb d9bc 813c 3df9 243d 5bd1 a0bc
000000c0: aec9 883d 0b3d 9bbd d10a 843d b9ff f63c
000000d0: d217 093d ea81 1ebe a022 25be 514b 45bd
000000e0: 67a3 cbbd 9843 94bd 953d cb3c 1814 40be
000000f0: 2280 1ebd 2959 15be 78fe 9cbd 02ba 13bd
00000100: 87c4 a8bd 99b2 b53b 0cc7 1dbe b97d b13c
00000110: f248 d0bd 8f09 1ebe 5e65 edbd aa67 44b9
00000120: b9e1 dcbc 5db3 873c 1ae5 cdbd 2212 13be
00000130: 62bd febd 69f2 db3c a141 cabd b3ee 70bc
00000140: a70d 49be b719 3dbe df4f c8bd e48d 9dbc
00000150: f535 2dbd 32c6 f5bb 1c02 29bd ff28 d3bd
00000160: ff6f 07be 4cb5 983d 353f 1ebe 0048 12bd
00000170: a682 093e a9ff fc3c 3692 57be 096d 293d
00000180: 4275 36be 9e2d 31bd b326 8a3d ae01 99bd
00000190: 2ce8 8fbd a679 09be 612f 2ebe dff5 793c
000001a0: 9dae 0cbe ac65 01bd ed70 353d ac95 e13c
000001b0: 1440 993c bf19 ccbd 9729 7cbd 0b6b 083b
000001c0: f070 cebd 9b14 d8bd 99fe 93bd 74ce 29be
000001d0: 17cf 1dbd 878d 16bc 2a46 6abe c702 883d
000001e0: 0b90 25be c267 06be 3dcd 8fbd 4e1e f0bd
000001f0: 843e 59be 160a 5ebd db79 4e3d 36e9 c5bc

actor.6.weight f4 [27, 128]
0.016575767 0.010565211 0.0006603487 -0.04200322 0.024049321 0.0011492037 -0.001048852 -0.002959716
-0.002538815 0.010854071 -0.04919457 -0.004374546 0.008314362 0.004154708 0.003069529 0.025422752
0.0432987 -0.0011650248 0.017021222 0.017753294 0.036485057 -0.025097795 0.010411941 -0.00070411916
0.00041925913 -0.008281343 -0.037953433 0.02577936 0.031951554 0.004332924 -0.0025035744 -0.009323983
0.03876675 0.0023561013 0.0063522086 0.0512552 0.00596913 0.027468309 -0.019612119 0.008619458
-0.024741195 0.0023431152 -0.0062495447 0.01415783 -0.022298893 -0.0037094061 0.0134581635 -0.013770612
-0.010233646 0.0061187153 0.01714593 -0.002737708 -0.01347477 0.0036573247 -0.00044419925 0.0021149216
0.036786903 0.011326852 -0.045162305 0.0066013094 0.0013223082 -0.016507825 0.009135931 0.012488631
-0.029271333 -0.06077633 0.014266211 0.034817755 -0.010509403 0.030879315 -0.03902407 0.0012714731
-0.021970741 -0.010937673 0.0042000483 -0.016293878 -0.019997656 0.02134475 0.006896118 -0.0016010363
-0.041690286 0.035958648 -0.011773503 0.016440509 0.030777339 -0.0076916334 0.0073687197 -0.0048857625
-0.0074783554 0.0035373005 0.011240136 0.0017882723 -0.010769667 -0.014214685 0.0026071284 0.030315239
-0.0347215 0.0050273538 -0.006076877 0.022904431 -0.004613592 -0.01622131 -0.005482838 0.013616747
-0.003958875 0.0021545584 0.01279092 0.024079768 0.008993661 0.007955289 0.007585054 -0.0109009445
0.0011848668 0.0007438021 -0.029573739 -0.015976515 -0.029496096 -0.013867935 0.004199823 0.01591559
0.0062640808 -0.056104716 0.032134898 0.0021675483 0.0021071758 -0.011175855 -0.00461323 -0.014578896
-0.0293867 0.011617512 -0.01173429 -0.01918256 -0.010425555 -0.024020078 -0.0022107875 -0.003932409
-0.0050666984 -0.0022505021 -0.014011688 -0.003291529 0.0018188271 0.0124037 0.008948649 0.0050737485
-0.04310722 -0.00931146 0.036444824 -0.020586615 0.033027444 0.022385696 0.01126855 -0.021331286
-0.030012412 -0.03161232 -0.0051511503 -0.016737066 -0.040363826 -0.026251823 -0.027868105 0.00552319
-0.009042282 -0.008023412 0.032347266 -0.00725731 -0.031912446 -0.022916615 -0.03313788 -0.0025999963
-0.0032740657 0.035669032 -0.003361639 -0.03276978 0.0058489987 0.025051964 0.018283833 0.012435069
0.018742613 -0.016371341 0.014704871 0.039516266 0.02553716 0.0098832585 -0.0033752162 -0.007242427
-0.00018639369 -0.001176173 0.008564466 -0.014088189 -0.008931974 -0.008731209 0.014578336 0.03397137
0.03144356 0.011848042 -0.002314627 -0.028534096 -0.0067676115 0.03424032 0.05093237 0.0053742677
0.00926055 0.008155316 -0.012380072 0.0013263124 -0.0006670494 0.0003530985 0.0008965719 -0.0019355562
0.037970454 -0.017338201 -0.010811806 0.012337021 -0.0005560645 -0.0057105585 -0.0016772017 0.021843895
-0.036884885 -0.0025650242 -0.03688919 -0.010748473 0.027880136 0.018663619 0.001060159 -0.04663307
0.025727963 0.011717774 0.018954432 -0.0043621156 0.0013098124 0.01219812 -0.011727452 -0.009399539
-0.0027527388 -0.014268371 -0.038462605 -0.0033730257 0.003347571 0.011311149 -0.0007758594 0.0013833626
-0.008281547 0.04989574 0.0026087693 0.002338975 -0.02651738 0.024697062 0.015470664 0.0029490928
-0.0109496815 0.022794856 -0.0300911 -0.0066089896 0.011082099 0.014577716 0.027775442 0.012395255
00000000: e7c9 873c b519 2d3c 401b 2d3a 920b 2cbd
00000010: 1503 c53c e1a0 963a a279 89ba cbf7 41bb
00000020: 3f62 26bb 46d5 313c 3f80 49bd 5a58 8fbb
00000030: f638 083c 3724 883b 272a 493b 6043 d03c
00000040: fa59 313d bfb3 98ba 1770 8b3c 5b6f 913c
00000050: 5b71 153d e499 cdbc d996 2a3c a394 38ba
00000060: 02d0 db39 78ae 07bc 0f75 1bbd 3d2f d33c
00000070: a2df 023d 33fb 8d3b 0213 24bb 9fc3 18bc
00000080: e2c9 1e3d d268 1a3b 3026 d03b f9f0 513d
00000090: b198 c33b 3805 e13c 98a9 a0bc a138 0d3c
000000a0: 0cae cabc f38e 193b fbc8 ccbb 3ef6 673c
000000b0: 2bac b6bc 8219 73bb a17f 5c3c 229e 61bc
000000c0: 06ab 27bc 817f c83b 9f75 8c3c 1e6b 33bb
000000d0: 48c5 5cbc baaf 6f3b 6ae3 e8b9 7f9a 0a3b
000000e0: ddad 163d 4394 393c 1cfc 38bd cc4f d83b
000000f0: 4d51 ad3a 6b3b 87bc dfae 153c 1d9d 4c3c
00000100: 6fca efbc 9af0 78bd d3bc 693c 109d 0e3d
00000110: a22f 2cbc 9ef6 fc3c b4d7 1fbd 8fa7 a63a
00000120: fcfb b3bc ed33 33bc 8fa0 893b bd7a 85bc
00000130: 20d2 a3bc 2fdb ae3c d5f8 e13b ddd9 d1ba
00000140: 6fc3 2abd 6049 133d a7e5 40bc 3fae 863c
00000150: c220 fc3c 190a fcbb 4d75 f13b bf18 a0bb
00000160: fe0c f5bb 0ed2 673b 8c28 383c 7664 ea3a
00000170: 4273 30bc b6e4 68bc 5bdc 2a3b aa57 f83c
00000180: 2238 0ebd 80bc a43b 8a20 c7bb 13a2 bb3c
00000190: 9d2d 97bb 8de2 84bc 61a9 b3bb c718 5f3c
000001a0: 73b9 81bb 7e33 0d3b 0291 513c ef42 c53c
000001b0: 265a 133c e756 023c 0b8c f83b e099 32bc
000001c0: 884d 9b3a b7fb 423a a044 f2bc 2ee1 82bc
000001d0: cca1 f1bc 5636 63bc ab9e 893b 6961 823c
000001e0: eb42 cd3b 0fce 65bd e29f 033d 6d0d 0e3b
000001f0: 8b18 0a3b ef1a 37bc 942a 97bb 52dc 6ebc
00000200: 60bc f0bc 6157 3e3c 2e41 40bc be24 9dbc
00000210: f2cf 2abc c1c5 c4bc dce2 10bb 70db 80bb
00000220: 8c06 a6bb 297d 13bb 4791 65bc b1b6 57bb
00000230: b665 ee3a e338 4b3c 5b9d 123c b041 a63b
00000240: 3291 30bd 188f 18bc 2b47 153d 43a5 a8bc
00000250: c947 073d 3562 b73c b99f 383c f3be aebc
00000260: 97dc f5bc ec7b 01bd fbca a8bb 2c1c 89bc
00000270: 8a54 25bd 100e d7bc a74b e4bc e0fb b43b
00000280: 1426 14bc a174 03bc 917e 043d bbce edbb
00000290: a0b6 02bd a0bb bbbc 96bb 07bd b364 2abb
000002a0: b591 56bb b119 123d f24e 5cbb 9b39 06bd
000002b0: f5a8 bf3b c739 cd3c fac7 953c 76bc 4b3c
000002c0: 1c8a 993c 311d 86bc b3ec 703c cfdb 213d
000002d0: 4e33 d13c 64ed 213c bb32 5dbb e251 edbb
000002e0: ad72 43b9 d129 9aba f951 0c3c 26d2 66bc
000002f0: 6a57 12bc 580d 0fbc f9d9 6e3c 9025 0b3d
00000300: f6ca 003d 4a1e 423c ffb0 17bb 56c0 e9bc
00000310: d7c2 ddbb 943f 0c3d 769e 503d a01a b03b
00000320: 90b9 173c e09d 053c c9d5 4abc a9d7 ad3a
00000330: eddc 2eba 1420 b939 ec07 6b3a 7db2 fdba
00000340: e886 1b3d d808 8ebc 0024 31bc 3721 4a3c
00000350: dbc4 11ba a31f bbbb 8dd5 dbba f8f1 b23c
00000360: 9b14 17bd f719 28bb 1f19 17bd 5d1a 30bc
00000370: e264 e43c 72e4 983c 08f5 8a3a 5102 3fbd
00000380: 73c3 d23c e8fb 3f3c 5346 9b3c 14f0 8ebb
00000390: 03ae ab3a a0da 473c 8024 40bc 8600 1abc
000003a0: 4b67 34bb e3c5 69bc f78a 1dbd fb0d 5dbb
000003b0: ec62 5b3b 6652 393c 0b63 4bba f251 b53a
000003c0: 53af 07bc 7a5f 4c3d e3f7 2a3b 7d49 193b
000003d0: fa3a d9bc 7e51 ca3c ab78 7d3c 9145 413b
000003e0: 4b66 33bc 47bc ba3c 9c81 f6bc 3990 d8bb
000003f0: b191 353c 5fd7 6e3c 5389 e33c 7815 4b3c

actor.6.bias f4 [27]
-0.013305857 0.016215963 -0.026370559 -0.059748635 0.054373004 -0.012156307 -0.0363108 0.064912125
-0.05415955 -0.028864404 0.035516467 -0.23152652 -0.08499908 0.023924477 0.034495197 0.109477
0.0045012 -0.10657327 -0.08992297 -0.093568444 0.22930838 -0.0076564373 -0.050152376 -0.0036440534
0.05625354 0.04185132 0.064270385
00000000: cf00 5abc 57d7 843c 1207 d8bc fcba 74bd
00000010: 3ab6 5e3d 3f2b 47bc a2ba 14bd a6f0 843d
00000020: 68d6 5dbd 0b75 ecbc b779 113d 4a15 6dbe
00000030: ff13 aebd 44fd c33c d64a 0d3d 7a35 e03d
00000040: cd7e 933b 1643 dabd 8929 b8bd d0a0 bfbd
00000050: d1cf 6a3e dae2 fabb 946c 4dbd 12d1 6ebb
00000060: 1d6a 663d 4a6c 2b3d 31a0 833d
