IsaacLab/logs/rsl_rl/h1v2_flat/2025-03-05_10-27-30/exported/policy.onnx (onnx, 195410 bytes, 8 tensors)

actor.0.weight f4 [128, 93]
00000000: b0df 99be 6971 2cbf 26b8 853e d20e a23d
00000010: 77b9 ac3d 6b88 79be efe1 fcbe 2ee0 26bf
00000020: ecc5 5f3e d4e6 e63d 3d68 5bbd 7e12 28bd
00000030: e4f2 f6bd 396c b23e bc8b d43e a8bb 9fbe
00000040: 2b8e c03e de58 503f 0146 133e 7f0f 2a3c
00000050: 33ee 183f d498 27bb 871d 03bf 2eb4 5a3d
00000060: c12d 583e be08 a8bd 2399 a4bd 8588 db3e
00000070: 4977 58bf bcc4 ecbe f886 92be 922d a8be
00000080: e7cb 6dbf 9936 dcbd 0236 19bf a6fc 71be
00000090: d059 d73e b791 f5bc 4e0e d9be cdfb c5bc
000000a0: 9030 873d 7eab 10bd 3968 b53d e6dc 993d
000000b0: 84d1 9d3d 490c 6dbd 4a68 1bbd e22d 9ab9
000000c0: 6c85 233d 3aea c23d 2bcc 30bc cf6c 4bbd
000000d0: 0c04 4abb 9294 2b3c 4ab5 14be cf9e 4a3d
000000e0: cc63 a53d 7da6 03bb 5b30 483d 5158 42bd
000000f0: 6758 ddbc e8ae 0b3d 9bb3 5d3d 22ff c4bc
00000100: af35 4abc 9dd2 343d f686 463d 382c 9e3d
00000110: 8bbf 2fbd cc8c bebd 65b0 99bd 19f8 dfbd
00000120: fb7d 84bd ff2a 7a3d e69c f6bd 8927 86bd
00000130: 172d 1fbe fe6f 073e 7622 24be 8eac 913b
00000140: ed0a 06bd 1dbc e93c 494f 4abd a1f9 4f3c
00000150: 4da0 ad3d c798 913c 3b2e 34bd aaf7 ba3d
00000160: 506e 4abd 3e5f abbd 1a14 813c d61f f13d
00000170: 6160 753c 2bdd 8e3d 87cf bb3e afbb 813e
00000180: 8175 d6bc 9d84 3b3e e61e 06be 87c7 c73e
00000190: ad36 cd3e 5c9e 863d a9c0 943e dc30 b93c
000001a0: 9b85 babe 7eae 183f 018c 223e 38fb 6e3e
000001b0: fb6c e33d 4d13 22be 501c ae3e 3c23 06be
000001c0: 6302 953d 4407 20be d1d7 17be cc2f 713f
000001d0: 2929 cabe bcd9 54bf 2199 2dbd 9c4f 323f
000001e0: af9a e4be f970 c93e d599 5ebf 8074 aa3d
000001f0: c75a 9abd aabb 93be 8c05 3e3e 0d1d 50bf
00000200: 24a1 d03d f068 1e3f f20f 3a3f 8515 ec3e
00000210: ebc2 8e3c 5cf6 0fbc 64b8 f6bd 20fc cdbc
00000220: 1b27 283d 9c67 7c3c 25e4 7c3d d435 983c
00000230: 37d5 46bd 432f ee3d 10f2 ac3d 7c09 543b
00000240: 5d16 143d 9c24 ed3c 1bd3 93bd 3406 17bd
00000250: 9719 ac3d 1b98 663d b0e2 ddbd 3055 61bc
00000260: bb21 5f3d ff65 31bd 232d 533d b4b9 16bc
00000270: 8a8e f63c acd6 27bd cb87 17bd 4b61 493e
00000280: 0082 f33d 2719 4abe cd42 073e ee07 b73d
00000290: 6bf6 9ebc 144a a43c 2f1f 623e 68c0 063d
000002a0: 2639 8e3c 6f99 5ebe 43c7 04be cdfe cc3d
000002b0: 50ad 0abd 8870 afbc 2fb0 ba3c ed37 57bc
000002c0: b7dd 54bb a9e8 1b3c 7ab1 d7bd 210f 2b3c
000002d0: c1ef 8e3d 5b20 1fbd d97a 2cbd 3c1a 66bd
000002e0: 81ac 073d 1845 a33d c0fe 9d3e 1d60 e4be
000002f0: 1850 e5bd a85a 333d 7f18 693e 8501 2cbe
00000300: 6e97 3c3f 3033 acbe df15 183d b084 a7bd
00000310: ecbc 8bbd 7214 06be 5e47 bb3e 6905 293f
00000320: 08fb b6bd 37fc 963e 9541 65bc 574b e9bd
00000330: 4268 0bbe e063 a9be a6cc f13e 0562 74bf
00000340: 644b 963e 8ff6 d7bd 4c03 5abd 75b2 823e
00000350: bc25 db3e 5b3c 95be 9dfc 91be 9db5 733d
00000360: 69ee 15bd 6939 d1bd 0997 27bf 50b7 923e
00000370: d030 05bf 82a7 83bb 1e63 b53f 5b14 fbbd
00000380: 73a3 09be ce72 89bd b61e 05bd 7e15 243d
00000390: 894a a7bc 6f3a 0d3a dac4 f4bc 0d76 813d
000003a0: b300 85bd fb8d b53d 4f97 26bd 44c1 94bc
000003b0: b640 bebc 2d24 853d be94 9fbd 534c cfbc
000003c0: 63a6 663e 1898 7e3c 63a0 41bd 5be8 7e3d
000003d0: 77af c63d f062 0e3b a467 c1bc 8191 873d
000003e0: f1b6 6fbd dae4 7dbd 8b34 9e39 d52d c2bd
000003f0: 78df 593d 3025 273e 6fe3 8b3d b6a1 b63b
-0.30053473 -0.6736055 0.26117057 0.07912983 0.08433812 -0.24368446 -0.49391124 -0.6518582
0.21852845 0.11274496 -0.053566206 -0.04103326 -0.120580465 0.34848192 0.4151286 -0.31197858
0.37608466 0.813856 0.14382173 0.010379671 0.59738463 -0.002557327 -0.5121693 0.05339449
0.21111204 -0.082047924 -0.08037021 0.42877594 -0.84557015 -0.46243846 -0.28618598 -0.32847267
-0.92889255 -0.10752601 -0.59848034 -0.23631534 0.4206071 -0.029976709 -0.42393726 -0.02416792
0.066010594 -0.035319798 0.088577695 0.07512836 0.077059776 -0.057873044 -0.037941255 -0.00029407354
0.039922163 0.095173314 -0.010790865 -0.049664315 -0.0030825166 0.010472434 -0.14522281 0.049467858
0.08075675 -0.0020088248 0.04887424 -0.047447506 -0.027019693 0.03410235 0.054126363 -0.024047438
-0.012341901 0.04414617 0.048468553 0.07723278 -0.04290728 -0.093041986 -0.07504348 -0.10935993
-0.06469341 0.06107616 -0.12041645 -0.065505095 -0.15544544 0.13226315 -0.16028771 0.004445619
-0.032725263 0.028532082 -0.04939202 0.0126937935 0.084778406 0.017773045 -0.0439894 0.091292694
-0.04942161 -0.083677754 0.015756655 0.1177365 0.014976592 0.06975778 0.36681768 0.25338504
-0.026179077 0.18312307 -0.13097724 0.39019415 0.40080777 0.065731734 0.29053238 0.022606306
-0.36430058 0.59641254 0.1587372 0.2333802 0.11104771 -0.15827675 0.34005976 -0.13099378
0.07275846 -0.15627772 -0.14828421 0.9421356 -0.39484528 -0.83144736 -0.042382363 0.69652724
-0.44649264 0.39344004 -0.8695348 0.08323002 -0.07536846 -0.28854114 0.18556803 -0.8129433
0.10186985 0.6187887 0.7268058 0.46110168 0.017426929 -0.008786764 -0.120468885 -0.025144637
0.04105292 0.015405562 0.061741013 0.018580355 -0.04854318 0.11630108 0.08444607 0.0032354286
0.03615414 0.02894812 -0.072179995 -0.03687115 0.084033184 0.056297403 -0.10834253 -0.01375322
0.054475527 -0.04331016 0.051556718 -0.0091995485 0.030097265 -0.04097621 -0.036994737 0.1966602
0.1189003 -0.19736157 0.13209076 0.08937059 -0.01940461 0.020054854 0.22082208 0.032898337
0.017361235 -0.21738218 -0.12966637 0.10009537 -0.03385669 -0.021415964 0.022789089 -0.013135892
-0.0032480785 0.00951592 -0.10531898 0.010440619 0.06979323 -0.038849216 -0.042109344 -0.056177363
0.033123497 0.07972163 0.3085842 -0.4460458 -0.11196917 0.04378763 0.22763251 -0.16797455
0.73668563 -0.33632803 0.037130233 -0.08179605 -0.06823143 -0.13093737 0.36577886 0.6602388
-0.08934599 0.294893 -0.013992687 -0.11391323 -0.1361399 -0.3308401 0.47226447 -0.95462066
0.29354393 -0.10545074 -0.0532258 0.25526777 0.42802227 -0.2914761 -0.2851304 0.05949937
-0.03660432 -0.10216028 -0.65464836 0.2865548 -0.52027607 -0.004017771 1.4170873 -0.12259742
-0.13441257 -0.067113504 -0.03249999 0.04005956 -0.020421283 0.00053874304 -0.029879022 0.063213445
-0.06494274 0.08864971 -0.040671643 -0.018158562 -0.023224216 0.065010406 -0.07792042 -0.025304949
0.22524409 0.015539192 -0.047272097 0.06223331 0.09701436 0.0021726452 -0.02360899 0.066195495
-0.058524076 -0.061985828 0.00030175256 -0.09481398 0.053191632 0.1632278 0.06830489 0.0055734767

actor.0.bias f4 [128]
00000000: 4dd6 14be 7fba 68bd 6d89 8fbc b7d0 573b
00000010: 7a27 7cbd 301f 1f3e 417d acbd e5f4 fbbd
00000020: 3cdc b0bd 8fb4 84bc 6cc9 e43d 50b7 d33d
00000030: 5b8c 46be 3a25 e83c 889b 08bd e2d5 41bd
00000040: 6c8b 7d3c 03aa 483d c451 af3d c20d e23d
00000050: 8c66 e3bc 43fe 2cbb 60fd c03c 2c3d 6d3d
00000060: 318a 80be 72b1 cc3d 3f76 f8bd 7361 18bd
00000070: b368 c638 7a2e b83b 311f abbd eea5 0dbe
00000080: 9671 e5bc 386a c0bd 950c fbbc d661 033e
00000090: d022 d83c 96e9 35be 7f36 ac3c eb4f ac3c
000000a0: 2077 c83d e1df 8dbd dbfa 013e deef 00bd
000000b0: a725 c6bd 811d 283e 529a 29be fefb 1b3e
000000c0: ea80 52bd ddd3 afbc c4c2 45bd 1177 cabc
000000d0: 0c79 5dbe 0b1a a2bc d20c f73d 649c a5bc
000000e0: 7a89 27be 5e40 223e 8193 09be ba83 a4bd
000000f0: 7683 21bd 9fc4 0bbd a24c 57bd 0808 debc
00000100: 5a2a 05be 86b6 bc3d e200 91bd 5e8b 523d
00000110: 7ad3 543c 9b05 1d3d fc13 9a3c aae4 f1bd
00000120: c211 d5bd bbe0 353d 52ac fd3d 6eee 6abe
00000130: bf2b b5bd 1239 c9bd 64d5 f5bc 6cda 2bbe
00000140: fbf9 853c a913 303c 73cf e03c 78ad 0b3e
00000150: fc0b 0b3e 283a f4bb 2e7f 59be 9a45 a23c
00000160: 8be2 56be 08a8 2bbe 2fac 5bbd bc46 bfbd
00000170: c8ba 87bd 5128 58be 82da 52be e5e3 183d
00000180: 572f 2bbe da40 893d c0cf 4ebd b3fa d2bd
00000190: b66a 91bd 3caa a33d 4a80 2bbe 4a72 403e
000001a0: 8614 513c 2e65 c2bb eeba bfbd 4a15 6abe
000001b0: ca8b dd3d f149 d9bd 05bb 2fbc ff9e e4bd
000001c0: 63af e83d 6fca afbd 4227 003e e722 3ebd
000001d0: 0c10 8dbe 4dfd 5fbc a83e 743d 4a3e c3bd
000001e0: 58d4 fc3c cb6f 27bd e1e6 b63d 9327 03be
000001f0: 1224 33be cbe8 933d ec9f d2bd 988e 863d
-0.14534874 -0.05681848 -0.017521584 0.00329308 -0.061561085 0.15539241 -0.08422328 -0.12302569
-0.086357564 -0.016199378 0.11171231 0.103376985 -0.19389479 0.028338064 -0.03335145 -0.047323115
0.015475135 0.04899026 0.085605174 0.1103778 -0.02775886 -0.002639667 0.023558319 0.057919666
-0.25105432 0.099947825 -0.12131929 -0.03720231 9.4608775e-05 0.005620775 -0.08355559 -0.13832828
-0.028008264 -0.093952596 -0.030645648 0.1283029 0.026383787 -0.17764887 0.02102208 0.021034202
0.09788346 -0.06927467 0.1269335 -0.031478755 -0.0967515 0.16417505 -0.16562775 0.15232846
-0.051392473 -0.021463329 -0.048281446 -0.024714978 -0.21628207 -0.019787809 0.12062992 -0.020216174
-0.16361037 0.15844867 -0.13435175 -0.08032937 -0.03943201 -0.03412306 -0.052563317 -0.027103439
-0.13004437 0.09214501 -0.070802465 0.051402442 0.012989873 0.038335424 0.018808357 -0.11811192
-0.10403778 0.044403773 0.12386383 -0.22942516 -0.088462345 -0.098253384 -0.03000898 -0.1678254
0.016354552 0.010746875 0.02744267 0.13640392 0.1357879 -0.007453222 -0.21239921 0.01980858
-0.20984857 -0.16763318 -0.053631004 -0.093396634 -0.066274226 -0.2110913 -0.20591167 0.037326712
-0.16717277 0.067018226 -0.050491095 -0.10301723 -0.071004316 0.07991454 -0.16748157 0.18793598
0.012761241 -0.0059324717 -0.09361826 -0.22859684 0.10817678 -0.10609806 -0.010725741 -0.111631386
0.11361577 -0.08583533 0.12514976 -0.046420004 -0.27551305 -0.013671231 0.059630066 -0.09533365
0.030862972 -0.0408781 0.089307554 -0.12808065 -0.17494228 0.07222136 -0.10284409 0.06570166

actor.2.weight f4 [128, 128]
00000000: 4bfe a3bc 9824 a83d db4a 5fbc 053e 2dbe
00000010: 8edc c8bd 2585 403d 5b4f 6cbd 7420 83bd
00000020: fe45 35bd 29b9 ea3d ef1a 5bbc c486 2fbe
00000030: df69 15be c629 f8bc b6c0 be3d 9a4e bebd
00000040: 49ed ae3c 8d87 50bd 165a 65be 045d 1ebe
00000050: 24ea 5ebc 6e3a b0bd 5986 4abe 6dda 16bd
00000060: 7c5a 5bbe 7c59 b53d 3cb2 02bc 5450 2bbd
00000070: 2acd 713e d09c 93be 3fdd 36bd 6189 31bd
00000080: 1b38 06be f3cf a03d 0a70 b5bd b14d 25be
00000090: fda0 f0bd 05d5 0fbe b76b 873d f239 973c
000000a0: ec26 5dbe 1226 8bbd 0121 52be e50b c8bd
000000b0: f939 15be fcc7 fdbb 67ae 8ebe e434 95bd
000000c0: 7dd5 263e 2195 a23d e4c5 0dbd 8572 6a3d
000000d0: 7b86 15b8 94f7 e43d 5acb 9d3d 6f7b 333e
000000e0: 7053 e13d 1ff7 2dbe 6241 0cbe e2cd 23be
000000f0: 6ca5 04bc 02cf c1ba b426 01be ed4e 2cbc
00000100: 036b 533c f2d0 423d 56bd 69bd 3444 823c
00000110: 88f3 143e 4099 87be eff2 093d 61a8 9ab8
00000120: 433c b7bc 46ab babd 6146 aebe 13b8 513c
00000130: b6e0 2f3c 5bea 9dbd 62c8 003b 518b d13d
00000140: 699a 82bd dd2d 08be 119e 81bd dc20 6bbe
00000150: 9eb9 273d e83a f03c 37b3 3e3c 1552 553c
00000160: fa73 04be 754b 05be 3601 36bd e480 51bd
00000170: d557 00be 0b0c c0bd d481 5cbd 5135 943d
00000180: 4461 28bd 1b98 b2bd df8b a53c 1fea 98bb
00000190: 7f92 233c eaac b13b d2a7 d2bc a681 4abe
000001a0: d575 3dbe 906d 2cbd ac2f 46bd f0f9 743d
000001b0: 75e6 2bbe 8adf 83bd cbdb de3d 25ea 193d
000001c0: 7d23 c3bd 0dc7 883d ba7a aa3d 56b1 75be
000001d0: 74fd 1abe 46fd 8f3d 9fb4 95bd 28d1 5ebe
000001e0: 04b4 2dbe bb95 0b3e cc54 5abc 1b1c df3d
000001f0: 56aa 1d3e eb95 c43c 0adc d13b d11d 6cbe
00000200: 1501 a2bd 024e 49be 315a ffba 9bb8 cdbd
00000210: 8031 84bb d8aa a4bd acf0 0f3e 59c4 c3bc
00000220: 6136 d93d 9785 8dbc e936 3dbd 54a5 fdbc
00000230: 8cf5 4fbd 32d4 18be e21f 1e3d b8c0 803d
00000240: 1aa5 06be 8303 c9bc 9e54 a4bb da21 6fbe
00000250: 691d 823e 0c0f 99bc 5ba0 8a3c 2ec6 ce3c
00000260: b807 94bc 875b cbbc 2222 52bc c162 963b
00000270: 0fb5 cbbd 0718 dbbd eb6d b83d 7470 e03c
00000280: 8fa8 a9ba 07e4 503d 6619 fc3c e9fe e83c
00000290: 10b9 06bc 50a4 ef3d dc5b 21be dfe4 8f3b
000002a0: 112c a43d cd34 c2bd 199f a53b dc7b 983c
000002b0: 64e7 993d d2cc 1fbd d46f 18be 5de6 2c3e
000002c0: 7da4 e23d ff48 78bd a234 183e 3d12 b53d
000002d0: 5cb0 c93c 4654 05be bb2d 89bd 4403 84bd
000002e0: 6d29 553e ce59 0dbd 30f2 9abd 6377 733c
000002f0: 98a7 6c3d e933 cfbd 55b7 b2bc 39bc 293e
00000300: e208 123e 6326 443d 04b4 02be acda b63d
00000310: 8cd2 243e 9e9f 41be c801 10bb c936 9dbd
00000320: f16c 93bd 53e8 a4bd 6fe6 6a3d 696a 00bd
00000330: a332 d7bd df4a 1a3e aecd 443c 1854 d43d
00000340: bf06 82bd a45e a83d 2f1b 87be a742 1ebd
00000350: 2266 8dbd a4b1 a8bd 5efb 73bd b5ea cb3d
00000360: c78b fbbc c4e0 d9bc d8c2 8b3c 531c ac39
00000370: 9aef 833d f9ba 433d c58f 753d 3225 353d
00000380: 350b ba3d 9862 90bd 2d1b 7d3d ab79 30be
00000390: 71db c1bc d634 a9bc 17dc 753d e2a1 7dbe
000003a0: 6444 efbb 0299 4a3b 2c4a 093e 8669 68bd
000003b0: 93f3 333e 4b7e 623d 7912 48bc 1bb2 fabb
000003c0: 462b ec3d e816 43bd 6575 2e3d b4b9 0fbe
000003d0: 7497 9c3c d79e fabd 74d4 c5bd baef ea3c
000003e0: f503 3cbd 5526 44be 2c54 e43c 202b eebd
000003f0: fddf 043e a510 d3bd 0e53 f6bb 607f f6bd
-0.020018717 0.08210105 -0.013628687 -0.1691819 -0.098076925 0.047001977 -0.057692867 -0.06402674
-0.044256203 0.11461098 -0.013373121 -0.17141253 -0.14591168 -0.030293357 0.093141004 -0.09292336
0.02135338 -0.05091052 -0.22397646 -0.1546517 -0.013605628 -0.086048946 -0.19777812 -0.0368294
-0.21421236 0.088549584 -0.007977065 -0.041824654 0.2361342 -0.28830576 -0.04464459 -0.043343905
-0.1310734 0.07852163 -0.088592604 -0.16142918 -0.11749456 -0.14046104 0.06612342 0.018460248
-0.21596879 -0.06794371 -0.20520402 -0.09767894 -0.14572896 -0.0077447873 -0.27867433 -0.07285479
0.16292377 0.079386 -0.03461255 0.05723812 -3.5649613e-05 0.11180034 0.07704802 0.17527555
0.110022426 -0.169888 -0.13696817 -0.15996507 -0.00809608 -0.0014786425 -0.1261242 -0.010516864
0.012903932 0.047562547 -0.05706533 0.015901662 0.14546025 -0.26484108 0.033678945 -7.374655e-05
-0.022367602 -0.09114699 -0.3403807 0.012800234 0.010734728 -0.077107154 0.0019650687 0.102316506
-0.06377108 -0.13298745 -0.06328977 -0.22961754 0.040948503 0.029324964 0.011639408 0.013020058
-0.12934867 -0.13017066 -0.04443475 -0.05114831 -0.12533505 -0.09377297 -0.05383475 0.07236732
-0.041108385 -0.08720418 0.020208297 -0.0046665813 0.009983658 0.0054222243 -0.025714789 -0.1977602
-0.1850198 -0.042096674 -0.048385307 0.05980867 -0.16787131 -0.06439121 0.10881766 0.037576813
-0.09528253 0.06678591 0.083241895 -0.2399343 -0.15135747 0.0703073 -0.07309841 -0.21759474
-0.16963202 0.13631336 -0.013325881 0.108940326 0.15397009 0.023997268 0.0064044045 -0.23058249
-0.07910363 -0.19658664 -0.0019481835 -0.10044976 -0.004034221 -0.08040398 0.14056653 -0.023897337
0.10606075 -0.017275615 -0.046194945 -0.030962624 -0.05077128 -0.14924696 0.038604625 0.06286758
-0.13148919 -0.024537807 -0.00501497 -0.23352757 0.25413063 -0.018683933 0.016922167 0.025240984
-0.018070087 -0.024823917 -0.012825521 0.004589409 -0.099466436 -0.10697942 0.0900534 0.027397372
-0.0012943911 0.050998714 0.03077383 0.028441863 -0.008222833 0.11701262 -0.15757698 0.004391297
0.080162175 -0.09482727 0.0050543663 0.018613748 0.075148374 -0.03901369 -0.14886409 0.16884752
0.1106653 -0.06061649 0.14863828 0.08841369 0.024620228 -0.13020429 -0.066981755 -0.06445935
0.20816584 -0.034509473 -0.07565725 0.014860007 0.057777017 -0.10117323 -0.021815935 0.16575707
0.14261201 0.04788817 -0.12763983 0.08928427 0.16095942 -0.18908545 -0.0021973718 -0.07676465
-0.07198513 -0.08052125 0.057348665 -0.03135148 -0.10507705 0.15067624 0.0120119285 0.10367602
-0.06348943 0.08221176 -0.26387927 -0.038637783 -0.06904246 -0.08237007 -0.059565894 0.09956876
-0.0307063 -0.026596434 0.017060682 0.000328275 0.06442185 0.047785733 0.059951562 0.044224925
0.09084169 -0.07050055 0.061793495 -0.17233913 -0.023664208 -0.020655077 0.060024347 -0.24768785
-0.007301854 0.0030913954 0.134072 -0.05674126 0.17573385 0.055296224 -0.0122114355 -0.0076506264
0.11531691 -0.047629267 0.042592425 -0.14035684 0.019115187 -0.122373275 -0.09659663 0.028678764
-0.04590221 -0.19155248 0.027872168 -0.11629319 0.1297607 -0.10305909 -0.007517225 -0.120360136

actor.2.bias f4 [128]
00000000: 5c71 9ebd a6f1 efbd 59b3 633c 763e 9fbc
00000010: 0653 fdbd a61e b3bd c4a9 95bd 1b3f 74be
00000020: 56f0 b33d d55b 16be 27dc 1abd f1d5 25be
00000030: b0f3 32be 5192 27bd 2461 87bd bb06 c5bd
00000040: 4fbc ccbd 96e7 13bd 5493 163d a1fd 44be
00000050: 648d ff3c 2177 2abd b019 bebc c03c febd
00000060: 87b7 6ebe 54be 99bd 8a6c 41bd 3bb1 bb3d
00000070: cea7 5d3c bd65 e3bc 73d0 0a3c 5fed 39bd
00000080: 9634 40bd f99b 15be 7609 e1bd 71b8 c8bd
00000090: cbc6 09bd 17de b9bc fe13 b9bd afdd f1bc
000000a0: 6016 66bd aaa0 77bd 775b a4bd 5727 87bd
000000b0: e557 a7bd f1ce 05bd e475 173c aa17 fcbd
000000c0: 7502 31bc 5371 01bd ed73 8fbd 611a 18be
000000d0: ce22 49bd 4f19 16be dc98 6ebe 9503 cdbd
000000e0: 578c ed3c 11cf 61bd 434d 193d 7246 cabd
000000f0: ad41 24be 0364 fdbd 6227 bbbd dc65 7ebd
00000100: b5fe e73c 6437 81bd 46d5 55bd 9a49 1ebe
00000110: 4546 d43d 0f32 09be bd19 893c 2f3a d2ba
00000120: 5500 00be ed3f bb3b b217 7a3d 02a9 ebbd
00000130: fda6 333d 548d 02be 3146 3fbe 779e 73bd
00000140: 6e04 14be c7f9 c3bc 34ec 00be a82f 30bb
00000150: 6735 9a3d e8b6 c8bd a108 ddbd 65bd 06be
00000160: 8205 fcbd 11ea f4bc c121 41be 0618 1fbe
00000170: c63d df3d 172f e4bc 42e9 5f3d b10e 40be
00000180: 556a 20be c58c 76be b0aa 7bbe 8f81 5abd
00000190: a068 37be f2a7 a4bd 13ff 5ebe 0591 a4be
000001a0: 7895 463b f699 a33c 6dcd 8fbd c933 09be
000001b0: acc3 56bd 3e66 31bd c91c c73b 2bfa 423c
000001c0: 7847 4d3d cf34 00be ec88 9c3d 009b b7bd
000001d0: ec8a bfbd 8d3b 27be 8199 bdbd e4eb 16be
000001e0: df38 e9bd e23c d438 b464 7f3d a03a f9bd
000001f0: f765 59bd 52f1 2abe f36f 8d3d 6868 80bd
-0.07736465 -0.11716013 0.01389774 -0.019438963 -0.12369351 -0.0874608 -0.07307771 -0.23852198
0.08786075 -0.14683469 -0.03780761 -0.16194893 -0.17475772 -0.040911023 -0.06610325 -0.09620424
-0.099968545 -0.03610953 0.036761597 -0.19237377 0.03119535 -0.041617516 -0.023205608 -0.12413931
-0.23312198 -0.07507005 -0.04722265 0.091646634 0.013528777 -0.027758474 0.00847255 -0.04539239
-0.04692515 -0.1461028 -0.10988133 -0.098008044 -0.03363685 -0.022688909 -0.09037016 -0.029524652
-0.056173682 -0.060455956 -0.08025258 -0.065993 -0.081710614 -0.032668058 0.009244416 -0.12309201
-0.010803808 -0.031602215 -0.07004533 -0.14853813 -0.049105458 -0.14658092 -0.23300499 -0.10010449
0.028997583 -0.055129115 0.0374272 -0.098767176 -0.16040678 -0.12372591 -0.09138371 -0.06210886
0.028319696 -0.06309393 -0.052205347 -0.15457764 0.10364965 -0.13398002 0.016735906 -0.0016039069
-0.12500127 0.0057144077 0.061057754 -0.11506845 0.043860424 -0.12749225 -0.1867912 -0.059477296
-0.14454815 -0.023922814 -0.12590104 -0.0026883874 0.07529717 -0.098005116 -0.107926615 -0.13158186
-0.12305738 -0.029896768 -0.18860532 -0.15536508 0.10900454 -0.027854485 0.05466581 -0.18755604
-0.15665562 -0.24077137 -0.24576831 -0.053346213 -0.17911005 -0.080398455 -0.2177699 -0.3214189
0.0030301493 0.019970875 -0.07021604 -0.1339866 -0.0524327 -0.043310396 0.0060764295 0.011900465
0.050116986 -0.12520145 0.07643303 -0.08965111 -0.09352669 -0.1633131 -0.09257794 -0.14738423
-0.113878004 0.00010120288 0.062351897 -0.12169385 -0.053075757 -0.16693619 0.06906118 -0.06269914

actor.4.weight f4 [128, 128]
00000000: afcd 3d3c a2ef d4bd 123b 10bd 9861 6bbc
00000010: aa97 f3bd 4849 4b3d 0e16 28bc 2567 4bbd
00000020: 300b b8bc deea 5a3d 43f8 a3bd 488f 0dbe
00000030: 1f98 e73d 9969 363e a3d8 88bd 7ae1 cd3c
00000040: fdc7 22bc 5840 d63d 3d57 6a3d 1dd6 fd3d
00000050: 7f4b 9c3d cb64 043d 36d4 42bd f6a5 80bd
00000060: b0b3 623d 5c73 ecbd 1a3c 5e3c ed9c 9d3b
00000070: 7222 943c 25c3 07bc 9032 81bb 7fb7 03bd
00000080: 864d 053c 7061 f83c 797e 1a3d 09f8 02be
00000090: 3024 b43d bd51 903d 9a95 003d 7116 0fbd
000000a0: 0050 0b3e 92d5 3fbe ba0f d23d 286e 0ebe
000000b0: 8858 94bd 6404 5ebd ee30 e33c 1074 4dbd
000000c0: 8b36 d6bd 7ad8 6ebc c356 f6bd 3b46 8d3c
000000d0: 7022 61bd f073 de3c 9167 cc3c 363a 113d
000000e0: 7e22 cc3c 1a58 0a3d f574 bc3c 2fda f63c
000000f0: b53a 833b bc38 d9bb 45ee 09ba d9a0 db3c
00000100: 3591 08be 90dc 94bb fe4f f43d 0523 123e
00000110: 416f 86bd 3690 d13d 21a9 b23d d99b 083d
00000120: 5bbe 8bbd c3da d43d d29d b83d 1c57 44bd
00000130: 12c5 31bd d23d 583d c127 d0bc 672d 013d
00000140: 15a5 323e 264d 943c f7dd 81bd e809 773d
00000150: 6077 943d d937 c13c 667e 96bd 7420 0bbe
00000160: 0ae1 303c e307 18be 8cb7 2cbc 83a1 633d
00000170: dc35 b43b 4210 a8bd 57d8 53be 79e8 12bd
00000180: 59c1 c5bc df9a 143e d37b aa3d c9b1 1a3d
00000190: 31fa 6fbd 80c4 dfbd 8fdf 043d 479d b4bd
000001a0: d67d 5fbd 257f 97ba c7e0 b8bb de76 503c
000001b0: bbff a0bd 8eb8 433d 04e8 13bd 4c34 6c3d
000001c0: a32c 843d c4cf f73c 69e8 48bb 0251 60bd
000001d0: cedb 883d 8b2e c3bd 96fc 8dbd 168e df3d
000001e0: de03 233e 7de5 9fbc c6bd 67bc 6e88 6f3d
000001f0: 3b24 a73c 5c5e 3fbd 2f99 d8bc dabc dd3c
00000200: c176 5abc bea2 193d 883a 0abe f96b 9a3d
00000210: 71ee 4f3d 6880 8c3d 3237 793d b630 7cbc
00000220: 3b5a cd3d 381a c7bc 7e49 2cbc 6f8a 84bc
00000230: 62fc a0bd 8aa7 38bd 59bc 613d 0b04 453d
00000240: 79ef 963c 295f f4bb 9542 b9bd 4a2a 7abd
00000250: 71a1 ee3d 8d19 b7bc f554 883c 26f3 333d
00000260: ce60 283b 7b34 e53c 52dd aa3d 9a44 143d
00000270: c2bb ddbd 3c4a 2fbd 01ea 8c3c 84cc 623d
00000280: 39cc 8c3d 6a44 d4bd 7692 b2bc 56f7 813c
00000290: 78cb 92bd cff5 d4bd b5ae 09bb c4a6 9dbc
000002a0: 334f 07bd 005b 45bc 393c 9d3d d87d 8a3b
000002b0: 7d47 d4bd 4455 a2bd fc11 233d 785a e63c
000002c0: 5c3b 1d3d 7ac7 12bc b445 203d 046e 453d
000002d0: 8cb9 dd3d 9c51 043d 9830 563c 8208 afbc
000002e0: abc4 00be 43a8 e13d 0fb1 edbd 0ee1 adbd
000002f0: cbf9 bebd c00d 163d add5 a5bd 2df6 78bc
00000300: 677f a33d 3fea a23d f946 afbd d7fd d63c
00000310: 23e0 b5bd 191a 6cbb 76a9 a6bd 4e70 f63d
00000320: 9f4c 1cbe 6c1f 71bc b8fc 61bd 1ebe a0bd
00000330: bc2b bcbd 48ee 403d ee9d 903c 76a5 94bd
00000340: 3a47 2c3d e21f 8fbc da9a 893d 9887 c9bc
00000350: 0b5d 98bc bbca 09bc 82db ccbd 3b1a b5bd
00000360: f2d9 abbd b7be 98bc b531 9fbd c323 b0bd
00000370: e29e 323c 55a6 70bd 9194 f93d a029 e1bc
00000380: 65d9 203a a356 4c3d 1651 073e 0cb1 0b3d
00000390: 27fb 223c 97ed c3bc bed1 e3bc cca5 103e
000003a0: d160 4dbc 0e98 08be 0bc4 6b3c 08ae dbbd
000003b0: 7333 0bbe 0a2a 4e3e 5d8b b2bd 3e55 f5b9
000003c0: 11ad 743d 1340 af3d bfe5 05be 74cc cd3c
000003d0: 8f62 12bc b0f4 a63d cd8a c13d 803a 3f3d
000003e0: 7989 cabc 2390 74be 369e ecbd 318f 0dbe
000003f0: a6f4 e03d ef41 393d 515e 953c d4e2 a0bc
0.011584683 -0.10397269 -0.035212584 -0.01436653 -0.11894162 0.049630433 -0.0102591645 -0.049658913
-0.022466272 0.053446643 -0.080063365 -0.13824189 0.11308312 0.1781372 -0.06681945 0.02513193
-0.009935376 0.10461491 0.057212103 0.123943545 0.07631587 0.032322686 -0.04756566 -0.062816545
0.055347145 -0.115454406 0.013564134 0.004809967 0.018082831 -0.008286272 -0.003942795 -0.032157417
0.008136159 0.0303199 0.03771827 -0.1278993 0.08795965 0.0704684 0.03139267 -0.03493351
0.13604736 -0.18733814 0.10256906 -0.13909209 -0.072434485 -0.054203406 0.027733292 -0.050159514
-0.10459622 -0.014577979 -0.12028267 0.017245403 -0.054964483 0.027154893 0.024951728 0.035455905
0.02491879 0.033775426 0.023004988 0.030133335 0.004004801 -0.0066290777 -0.000526164 0.026810097
-0.13336642 -0.0045428947 0.1192932 0.14271171 -0.06564189 0.10232584 0.08723665 0.033351753
-0.06823417 0.10393288 0.09014477 -0.047934636 -0.04340083 0.05279333 -0.025409581 0.03153744
0.17445786 0.018103193 -0.063411646 0.06031218 0.072493315 0.0235862 -0.07348327 -0.13586599
0.010795841 -0.14846759 -0.010541808 0.05557395 0.0054995846 -0.08206226 -0.20687996 -0.035866234
-0.024140047 0.14512204 0.08324399 0.037767205 -0.05858821 -0.10926151 0.032439765 -0.08819061
-0.054563366 -0.0011558278 -0.00564203 0.012723653 -0.07861277 0.047783427 -0.03610994 0.05766706
0.06453826 0.030250438 -0.0030656105 -0.054764755 0.066825494 -0.09530362 -0.069329426 0.109157726
0.15919444 -0.019518608 -0.014144367 0.05847972 0.020403018 -0.046720847 -0.026440231 0.02706759
-0.013333977 0.03750872 -0.1349889 0.075401254 0.050764505 0.06860429 0.060843654 -0.015392473
0.10026976 -0.024304494 -0.010515569 -0.016179292 -0.07860638 -0.045081653 0.055111263 0.04809956
0.018424736 -0.007457633 -0.09045903 -0.061075486 0.11651886 -0.02235105 0.016642073 0.043933056
0.0025692466 0.027979126 0.08342995 0.036198236 -0.108268276 -0.042795405 0.017201426 0.055370823
0.0687489 -0.103646114 -0.021798354 0.01586501 -0.07167715 -0.10398447 -0.0021008675 -0.01924456
-0.033034515 -0.012045622 0.07677502 0.0042264275 -0.10365198 -0.079264194 0.039812073 0.02811931
0.038386688 -0.008958692 0.039128974 0.048200622 0.10826406 0.03230439 0.013073109 -0.021366362
-0.12575023 0.110184215 -0.11606037 -0.084901914 -0.09324988 0.036634207 -0.08097396 -0.015195412
0.079832844 0.07954835 -0.08558459 0.026244087 -0.08880641 -0.0036026298 -0.08137791 0.12033139
-0.15263604 -0.014716964 -0.055172652 -0.07848762 -0.09188029 0.047102243 0.017653432 -0.07258122
0.042060114 -0.017471258 0.06718989 -0.024600789 -0.018599054 -0.008410151 -0.10002805 -0.08842894
-0.08391179 -0.018645627 -0.07773153 -0.08600571 0.010902138 -0.058752377 0.1218654 -0.027485669
0.000613591 0.04988731 0.13214526 0.034104392 0.009947575 -0.023917003 -0.027809974 0.14125746
-0.01253529 -0.13339254 0.014390002 -0.10726553 -0.13593845 0.20133224 -0.08717988 -0.00046793552
0.05973536 0.08557143 -0.13075922 0.025121905 -0.008934631 0.08152139 0.09450302 0.04668665
-0.024723755 -0.23883109 -0.11553614 -0.13824154 0.10984163 0.045228895 0.01823345 -0.01963941

actor.4.bias f4 [128]
00000000: a80e 1abe 30cb 1fbe 9f3a 1ebd 59ed bd3d
00000010: 3a29 44bd 5f16 44be 255a 0abe 686a d1bd
00000020: 9fff 693a 5a23 10be d0ab 8bbd af8e 4e3c
00000030: 6865 cdbd 0be4 f4bd 2a94 3d3d c0b2 c93c
00000040: 0999 923b 91ec c4bd 5906 5cbb f073 0bbe
00000050: 9871 00be c19a b5bc 5bfe 0abd 7f11 b7bc
00000060: 8f9e 9fbd 9be6 23be 3990 d2bd b4eb 4fbc
00000070: e615 8cbd 3758 84bd d8fb 9ebd f323 163d
00000080: 6962 eabd bf7d f6bc ccb7 54bd 42c0 29be
00000090: 0653 98bd 952f b6bc cc9a 59be f7f4 c5bd
000000a0: 3f24 8bbd 9205 643d 8a7e 3cbd c325 bcbb
000000b0: a033 c8bc 6045 3ebd e90c b43d e8e3 2b3c
000000c0: e40f 93bc 1076 c6bd 4ee7 3b3d cf0a 3f3c
000000d0: ed47 84bc c167 30be 2d4b 5cbe a425 40bd
000000e0: 6c20 5dbd b112 a0bd cad0 13bd f418 1bbe
000000f0: 7edd 9e3c 393b e6bd 36d9 cfbd bcb0 b8bd
00000100: a670 96bd c951 2e3d 71a3 05be 087c 1a3c
00000110: 78f8 00be c473 46be 994d fdbc e748 de3b
00000120: a6ab 04bd dee8 1dbd 94db dabd bff7 90bd
00000130: 0553 6ebd 0c83 f53c 1e82 b9bd 5380 f3bc
00000140: 34fe 35be c6fc 06be 61ed e3bd 5220 eabc
00000150: 4636 35bd 5e35 0f3d f053 74bd 8dd4 ebbd
00000160: 647a e8bd 729e 06bd 531b d5bd be36 d0bc
00000170: 1055 f23c 1c31 2bbd 7baa 52be c57d e13c
00000180: 4cf1 31be 431c f6bd 6e54 643b a052 23be
00000190: 58a7 09be 6807 bfbd cf25 08be d5a1 49bd
000001a0: b08f 2dbe 7c8d 10bd 1121 5dbc 83cd 05bc
000001b0: 82df 613d 1490 6b3a dba5 c23c 76f1 80bd
000001c0: 60d1 36be 9450 babd e276 fabd 7553 abbd
000001d0: 7850 853d 1966 87bc f433 50be cddb 083e
000001e0: 6dce b5bd 53bc 0bbe f140 12bd 0714 19be
000001f0: a5c3 debd a58a d5bd 6c6a e53c 0760 4ebc
-0.15044653 -0.15604854 -0.038630124 0.09273786 -0.04789088 -0.19149159 -0.1351095 -0.102253735
0.0008926335 -0.14075986 -0.0681988 0.012607261 -0.10029107 -0.11957558 0.04628388 0.024621367
0.0044738096 -0.09615434 -0.003357312 -0.13618445 -0.12543333 -0.022168519 -0.03393398 -0.02234721
-0.077939145 -0.16005938 -0.102814145 -0.012690473 -0.06840114 -0.06462138 -0.07762879 0.036655378
-0.114445515 -0.030089257 -0.051933095 -0.16577247 -0.074377105 -0.022239486 -0.21250457 -0.09665864
-0.06794023 0.055669375 -0.046019115 -0.0057418062 -0.02443868 -0.04645288 0.08791525 0.010491349
-0.017951913 -0.096904874 0.045874886 0.011660292 -0.016147578 -0.17227079 -0.21513052 -0.046910897
-0.053985998 -0.07816065 -0.03608779 -0.15146238 0.019392725 -0.112417646 -0.101488516 -0.090180844
-0.07345705 0.042558465 -0.13050629 0.009428985 -0.12594783 -0.19380099 -0.03092079 0.006783593
-0.03239026 -0.038552158 -0.106864125 -0.07078504 -0.058184642 0.029969715 -0.09058021 -0.029724276
-0.17772752 -0.13182363 -0.11129261 -0.028579865 -0.044241212 0.034963004 -0.05965036 -0.1151515
-0.11351469 -0.03286595 -0.10405602 -0.025416728 0.029581577 -0.04179488 -0.20572846 0.027525792
-0.17377204 -0.12017109 0.0034840363 -0.15949488 -0.13442743 -0.093275845 -0.13295673 -0.0492266
-0.16949344 -0.03529118 -0.013496653 -0.008166674 0.055144794 0.0008986008 0.023760727 -0.06296055
-0.17853308 -0.090974 -0.12229706 -0.083655275 0.06509489 -0.016528176 -0.20332319 0.13365097
-0.08877263 -0.13646059 -0.035706464 -0.14949046 -0.1087716 -0.10426835 0.028004847 -0.012596137

actor.6.weight f4 [27, 128]
00000000: 96e6 893b fd60 ea3c 9800 9f3c 294a b7bb
00000010: 699d c23b bdb1 62bc dfa6 47bd ba37 2bbc
00000020: 4cb1 fe3c d855 5338 62c0 2e3c ab65 093c
00000030: cef4 cfbb 38ef 1f3c 33a8 beba dc5a fdbc
00000040: d939 e0bb 0870 293c a5be 7c3c cc29 f2bb
00000050: 77f6 a03c a704 ab3c 42e4 b9bc db50 26bc
00000060: 2ad0 4dbb 20cd 983b 1802 57bc 6c3e 9bbc
00000070: 6ced 19bd 34d2 56bc 6fe4 8abc ed66 c4bb
00000080: d932 2d3d b003 0cbc 98b5 21bb e865 393c
00000090: a13a 2ebc f5fd a93c 5913 fcbb 5f3b 283d
000000a0: cc16 18bc e1a6 163d fc70 35bd 8df5 7b3c
000000b0: f2a8 eebb e721 a83c a01d 5c3d 82ec 053c
000000c0: f8ed 343c a50c 403d 8005 593b 07ed 28bc
000000d0: caa6 b9bb 0ba2 103c 8666 acbc c182 823c
000000e0: b486 77bc 1b41 a0bb 1589 7abc affc a2bc
000000f0: 8f98 92b8 d047 0fbc 43f5 5dbd 47de 743c
00000100: 4d5a 32bc 89d1 ebbc a892 1dbc 04cb 033d
00000110: af9b 8cbc 36d3 f53b ca31 a6bc 61c2 1cbb
00000120: ccbc 17bd 8c96 8b3c c8c8 183d 8694 16bd
00000130: ac14 b43c d845 94ba 1297 b9bb 7c1a e23b
00000140: d2e3 613c 2025 d73b 7fa3 aa3a 1aaa bebc
00000150: 3b93 213a bfaa 86bc eb6b 26bc 7b7e 863c
00000160: 6ba4 12bd ad3e 64bb 3511 983c 96b0 05bd
00000170: 7c28 02bc 5c91 25bc 0182 6abc 95ad 57bd
00000180: a549 74bc a7ff 903b ee49 483c c059 3f3b
00000190: d5af 4f3d a1d7 9fba 28e6 d83b 3186 af3c
000001a0: 93f6 18bc 4c09 3ebd 05eb a03a bbf1 823a
000001b0: 7911 44bc aa40 9e3b edb9 17bc cc5e ae3b
000001c0: f224 57ba 2108 5cbc 3f87 3ebc 1f44 b13c
000001d0: 38e5 9cbc 3b50 0a3c 1ed0 9ebb b2de 0abc
000001e0: 5a0d 8b3c 5c52 d5bc c502 17bc a540 f83b
000001f0: d8fb babc 038c 71bd a9d5 233d ae42 b73c
00000200: 3e29 bcbb 9da8 cbbb dbc1 96bb 3526 b3bc
00000210: fe8d 703b 8f1c 67bc b1f3 f73c 3cac 2ebc
00000220: f5af 33bc 9d74 91bc 94aa 653b 6fd1 5dbc
00000230: 9d62 413c c280 d4ba 236d d8bb 1a5d cd38
00000240: a4c4 41bb eeeb 03bd 0a54 5f3b 60e3 863c
00000250: 9dce 053d 7292 62bc 01b2 13bc 470a bc3b
00000260: 942a 853b a76f 36bd c3e2 0a3c 51e5 143d
00000270: a018 5dbc ff46 f63b e44c 8cbc 6cad 9bbc
00000280: eb9a d4bc bf49 ce3c 9410 4a3c af49 33bc
00000290: 5e65 dabc bfdc 8fbb a665 2bbb 3f03 30bd
000002a0: 9ff1 1fbc f37c 873c e6da 743c bf33 553c
000002b0: 961e fc3b fb0a e6bc 185d a63b 72b6 12bc
000002c0: 3b62 3dbc 946a 2cbd 2d25 73bb 2c2d 10bc
000002d0: 6dbb 4dbc e191 83bc 98d5 88bd 7886 883b
000002e0: d09b 3f3d f7ab b6bc c186 613a 6e3c 8ebc
000002f0: b186 4b3c 2b79 5c3b 04f2 b93c aa4f 7b3c
00000300: dc50 493d 4bf0 1dbc 6deb 543c a67c 6fbc
00000310: 8594 c43c 6466 293c a554 843c 8ede c93c
00000320: 546d 133c e756 953c 3fcb 7a3b 5945 bbbc
00000330: 79e8 4a3d ecf1 e3bc ee38 403c c60a e6bc
00000340: 9ccf aabc b06b cbbc 077c a83b 5f4b 553c
00000350: dc66 40bc ff71 c03b 20db 3c3d 0ac5 6fbc
00000360: a31e 863a c325 97bc c519 353c bd1d 78bc
00000370: 9e6f 4abc 69ab ec3b 17fe 803c 80cd 503c
00000380: 1b8b a73d 867d aabc 8b7e 35bc 1de5 693c
00000390: a10f a7bc 4ffa 2dbb 5b82 af3c 5ad5 68bd
000003a0: 4148 93bb 0d4b 113d efc5 b8bc ffe4 0e3c
000003b0: 91af e13c 67d6 293d c17b cf3b 551f d5bc
000003c0: f899 43bc 4705 4d3b 2ac9 4abc be88 663c
000003d0: 060e 36bb e954 dcbb 747c 5cbb 54cf c33b
000003e0: 6ebd 58bc 7184 93bb 4ff4 7ebc a831 593b
000003f0: d365 3a3c 8b46 873c 6d51 7c3b a55f 083c
0.004208396 0.0286107 0.019409463 -0.0055935574 0.005939175 -0.013836321 -0.048743125 -0.010450298
0.031090401 5.038627e-05 0.010665985 0.008386056 -0.0063463217 0.009761624 -0.0014545977 -0.030927114
-0.0068428335 0.010341652 0.015426313 -0.0073902365 0.019648774 0.020876242 -0.02269185 -0.010151113
-0.0031404593 0.0046631247 -0.013123058 -0.018950664 -0.03757994 -0.01311164 -0.016954629 -0.005993715
0.04228482 -0.008545801 -0.0024674889 0.0113158 -0.010634095 0.020750979 -0.007692736 0.041072246
-0.009282779 0.036780242 -0.044297203 0.015378368 -0.0072833234 0.020523978 0.05373919 0.008174064
0.011043064 0.04688706 0.003311485 -0.010310418 -0.0056656348 0.008827697 -0.02104498 0.015931489
-0.015107799 -0.0048905737 -0.015291472 -0.01989588 -6.990239e-05 -0.008745149 -0.054188978 0.014945573
-0.010885787 -0.028786438 -0.009617485 0.032176033 -0.01716408 0.007501985 -0.020287413 -0.002391957
-0.037045285 0.01703956 0.037300855 -0.036762737 0.021982513 -0.0011312319 -0.005663761 0.00690013
0.013787227 0.006565705 0.0013018696 -0.02327447 0.00061636016 -0.01643884 -0.010157566 0.016417732
-0.035801332 -0.0034827397 0.018562892 -0.03263911 -0.007944223 -0.010105457 -0.014313222 -0.052655775
-0.014910136 0.0044250074 0.012224657 0.0029197782 0.050704796 -0.0012195 0.0066192336 0.021426292
-0.009336132 -0.046395585 0.0012277073 0.0009990254 -0.011967056 0.004829486 -0.009260637 0.0053213593
-0.00082071044 -0.013429672 -0.011628925 0.021638928 -0.019152269 0.00844198 -0.004846587 -0.008475946
0.01697414 -0.026040249 -0.009216969 0.0075760656 -0.022825167 -0.058971416 0.039998684 0.022370663
-0.005742221 -0.0062151686 -0.004600746 -0.021868804 0.0036705728 -0.01410593 0.030267568 -0.010661181
-0.010967244 -0.0177558 0.00350443 -0.013538702 0.011803296 -0.0016212689 -0.006604807 9.792503e-05
-0.002956667 -0.032207422 0.003407719 0.016465843 0.032667745 -0.013828861 -0.009014607 0.00573853
0.0040639136 -0.044540074 0.008476916 0.036351506 -0.013494641 0.0075157876 -0.017126508 -0.019003592
-0.025952777 0.02518165 0.012333054 -0.0109428605 -0.026659664 -0.0043903287 -0.0026153116 -0.042971846
-0.009762197 0.016539073 0.014944768 0.0130128255 0.007694076 -0.028081408 0.0050770156 -0.008954631
-0.0115590645 -0.04209383 -0.0037101016 -0.008799832 -0.012556893 -0.016060771 -0.06681365 0.0041664205
0.046779454 -0.022298796 0.0008603149 -0.0173628 0.01242225 0.0033641558 0.02269841 0.015338818
0.04914938 -0.00963981 0.012995583 -0.014617121 0.0239966 0.010339353 0.016153643 0.024642255
0.008998234 0.018229915 0.0038268117 -0.022860216 0.04953811 -0.027825318 0.011732323 -0.028081309
-0.020850949 -0.024831623 0.0051417383 0.013018458 -0.011743274 0.0058729644 0.04610741 -0.01463438
0.0010232519 -0.018450623 0.011053507 -0.015143809 -0.012355713 0.007222582 0.01574616 0.0127443075
0.08180829 -0.020811807 -0.0110775335 0.014275816 -0.020393195 -0.00265469 0.021424463 -0.056844093
-0.0044946973 0.035471965 -0.02255532 0.008721589 0.027549537 0.041464236 0.0063318913 -0.026015917
-0.0119385645 0.0031283663 -0.012377063 0.014070688 -0.0027779355 -0.0067239893 -0.0033643516 0.005975643
-0.013228757 -0.004501872 -0.015561177 0.003314117 0.011376816 0.01651313 0.0038500682 0.008323585

actor.6.bias f4 [27]
00000000: 962d 60bc 9d3b a6bc 9000 1bbc 0057 b2bd
00000010: 195c 183d b01d 00bd 79a4 503d 6949 753d
00000020: 1420 09bd 7ae0 ee3c b0d1 e43d 0560 1dbe
00000030: cbeb 2abd 0897 69bd 7b4d df3c 3677 963d
00000040: 7ee7 37bd ffc2 11be 309a f7bd 26d6 34bd
00000050: a82b 363e b4a6 823d d2a3 e9bc 41b8 bd3c
00000060: 1f05 103b 31ef fa3c aed8 f73b
-0.013682744 -0.020292098 -0.009460583 -0.08708 0.037197206 -0.031278312 0.050938103 0.059884463
-0.033477858 0.029159773 0.11172807 -0.1536866 -0.041728776 -0.0570288 0.027258625 0.073469564
-0.044898503 -0.14234541 -0.12089956 -0.04414954 0.17790091 0.06379452 -0.028520498 0.023159148
0.0021975709 0.030631633 0.007563672
