IsaacLab/logs/rsl_rl/h1v2_flat/2025-03-04_10-46-03/exported/policy.onnx (onnx, 195410 bytes, 8 tensors)

actor.0.weight f4 [128, 93]
000000 2d fe 29 3d b2 bf 83 bf 92 dd 5d bd 5d 0c b7 3c
       0.041502167 -1.0292876 -0.054166384 0.022344762
000010 bf 3a 30 3e 29 9b 97 3c f3 48 12 3f b5 ae 1f bf
       0.1720991 0.018506603 0.5714256 -0.62375957
000020 e4 3e 49 3e a3 46 8b 3c 3d 68 5b bd 02 d8 9e 3d
       0.19652897 0.017001456 -0.053566206 0.07756044
000030 72 b9 f5 bd 84 2e 06 bf c5 a4 86 be e3 96 06 3c
       -0.119982615 -0.5241473 -0.26297584 0.008214685
000040 0b a9 73 be cd 54 a0 be e1 4e ac 3c 77 02 1e bf
       -0.23794954 -0.31314698 0.021033706 -0.6172251
000050 8e b4 2a 3f 4e e1 3c bb eb 75 a9 be 05 49 96 be
       0.66681755 -0.0028820815 -0.33097777 -0.29352584
000060 08 c5 13 3e a2 36 26 3f 0f 10 c5 3e 25 4d dc 3d
       0.1443063 0.64927113 0.38488814 0.10756902
000070 06 6f b1 3e 7f 71 37 3e 83 56 19 bf 6a 75 ca be
       0.34655017 0.17914389 -0.5989763 -0.39542705
000080 ca 13 63 bf b3 bf 32 be 43 82 b9 be 26 93 a7 3c
       -0.8870207 -0.1745594 -0.36232194 0.020455908
000090 51 ac a8 3d c8 15 b9 3d 36 aa 60 bf 28 6f 53 bd
       0.08235992 0.090373576 -0.8775972 -0.05161968
0000a0 20 61 5f 3d 34 81 5d 3c b9 7f 4d bc 5f 76 88 3d
       0.054535985 0.013519574 -0.0125426585 0.066632025
0000b0 1e 4b 2e 3d a5 78 06 3e 8d c0 8d 3c 88 14 fd 3d
       0.042552106 0.1313196 0.01730373 0.12357432
0000c0 80 c5 79 bd 16 58 41 3d 2a 06 87 bd 7f 3e 32 3d
       -0.060979366 0.047203146 -0.065929726 0.043516632
0000d0 92 44 9f bb e3 4f 09 3d 66 bb 89 bc 6a c1 9e 3d
       -0.004860469 0.03352345 -0.016812991 0.077517346
0000e0 c6 55 11 3c 6c 1e fd bc 2c f1 87 ba af 7e 4c bd
       0.008870548 -0.030898295 -0.0010371557 -0.049925502
0000f0 81 41 01 3d 31 50 86 3d 22 66 b8 3c 77 3d 3f 3c
       0.03155661 0.06558264 0.022509638 0.011672369
000100 c8 37 4f bd d1 1e 4f 3d e5 dd 8d be 57 5b 9a be
       -0.050590307 0.0505665 -0.27708355 -0.30147812
000110 20 d1 3f bd 5f 2a c6 bd 8f b8 2e 3d e8 b8 97 3d
       -0.046830297 -0.096760504 0.042656478 0.07408315
000120 fc fa 50 bd 7c 0a 7d 3c ff 3b ce bb b2 96 6d bb
       -0.051020607 0.015444394 -0.006293773 -0.0036253151
000130 9b 9a ce bd eb 44 18 3e e1 28 1f bc 89 74 df 3c
       -0.100880824 0.1487004 -0.009714336 0.027277248
000140 db 6a 5b bd e0 40 64 bd 31 f3 1b be a1 8d 5f 3d
       -0.053568702 -0.055725932 -0.15229489 0.054578427
000150 c9 e5 98 3d 1e 33 ec bd bc 62 d5 3d d0 10 ee 3c
       0.07465703 -0.11533187 0.10419223 0.029060751
000160 9d 54 33 bc 7f 0e 5e 3a a1 46 3b 3c 08 45 16 3d
       -0.010945466 0.0008470788 0.011430413 0.036686927
000170 48 67 95 bc 5c a2 50 3e 70 b5 ac 3e be 7d e0 bc
       -0.018237725 0.20374435 0.33732176 -0.027403709
000180 99 2e bc 3e d0 2a bd 3e a9 c8 32 be b6 e4 09 3f
       0.367543 0.36946726 -0.17459358 0.5386461
000190 c4 99 a9 3d e0 e9 00 3e 1f e3 35 3e dc 30 b9 3c
       0.082812816 0.12589216 0.17762421 0.022606306
0001a0 ae f5 64 be 38 8c ee 3e 12 0e 7d 3c 0d 60 0f bf
       -0.22359344 0.46591353 0.015445249 -0.56005937
0001b0 bc 01 53 3e 30 8c 51 be b1 a9 96 bd c8 16 3f 3d
       0.2060613 -0.20463634 -0.07356585 0.046652585
0001c0 55 40 22 3f ff e3 25 bf 88 7e b2 be b3 5d 2c 3e
       0.6337941 -0.6480102 -0.3486216 0.16832618
0001d0 f7 3e 3a be a9 58 2b bf d7 51 37 be b2 d7 16 be
       -0.18188082 -0.6693216 -0.17902313 -0.14730719
0001e0 cf 8f ce be b7 5e 99 3e c4 12 be be 9c b7 66 bd
       -0.40344092 0.29955074 -0.37123692 -0.056327447
0001f0 0d 6b 55 3c 25 d9 c6 3e 69 4b b5 be 8d 6f 87 bf
       0.013026011 0.38837543 -0.35409096 -1.0580918
000200 b5 30 e3 be 8e 28 34 bf c4 98 7e bd 80 8e 48 3e
       -0.44373098 -0.7037438 -0.062157407 0.1958561
000210 12 4c ee 3d ee f7 49 bc 06 a2 c9 bd bb 8a a1 3c
       0.11635603 -0.012327177 -0.09845357 0.019719472
000220 6d 2a 90 3d 0c 96 ed 3c 40 e1 02 3e ec 1e 45 bd
       0.07039342 0.029002212 0.12781239 -0.048125193
000230 77 b0 3b bd a1 a1 9c 3b 21 25 11 bd d0 b5 ca 3c
       -0.045822587 0.00478001 -0.0354358 0.024744898
000240 f6 66 d5 bd f5 37 d1 3c 13 07 4e bc 45 1a 4f bd
       -0.10420029 0.025539378 -0.012574929 -0.050562162
000250 6d b8 a8 3c 49 0a 95 3b fd ed 6b bd b3 88 da bc
       0.020595754 0.004548345 -0.05760001 -0.026676511
000260 8c 1e 69 3d 21 0e 86 bc 44 30 b4 3d 69 a9 3f 3d
       0.056913897 -0.016364159 0.087982684 0.04679242
000270 62 32 48 3d 5b 85 24 bd aa 4a b5 bd 8b b6 a3 bd
       0.048876174 -0.04016624 -0.08852132 -0.07993802
000280 00 25 29 be 0d f9 46 be b6 c8 16 bc 31 a7 11 bd
       -0.1651802 -0.19430943 -0.009203127 -0.035559837
000290 7e 90 36 bd ee b7 2b bd 9f c1 6d be ef 89 5b 3e
       -0.044571392 -0.041923456 -0.23218392 0.21439336
0002a0 76 82 02 bd e6 cd 51 bd f6 b4 74 be 38 21 d9 3c
       -0.0318627 -0.05122175 -0.23897156 0.026505098
0002b0 d1 1f a2 bd 68 fb a7 bd 41 50 2d 3e fe 7a 31 be
       -0.07916225 -0.08202249 0.16925146 -0.17332074
0002c0 fd a6 bf ba c7 0a a7 3d 86 2c cf 3d 46 8c c1 bd
       -0.001462191 0.081563525 0.10115914 -0.09450583
0002d0 e0 9e da bc c1 db d8 bd 4f 69 74 bd 88 89 d4 bd
       -0.026687086 -0.1058879 -0.059670743 -0.103777945
0002e0 35 38 30 3d b0 8a 47 3d 4e c7 72 bd cc de ef be
       0.043022353 0.048716247 -0.059272103 -0.46849668
0002f0 5d 82 9b bc 92 d3 1b 3e 1f 72 ee 3d 38 69 ea bd
       -0.01898306 0.15217426 0.116428606 -0.1144585
000300 11 0b db bd 30 75 b7 be 50 8c 2b 3e f8 b1 c6 3d
       -0.1069547 -0.35831594 0.16752744 0.097019136
000310 ec bc 8b bd 1e bc 40 3e 1a 32 2f 3e 0b db de 3e
       -0.06823143 0.18821761 0.17108956 0.43526492
000320 b3 49 2d bd bd d2 3c 3e dc 35 e8 be 8f ec b7 be
       -0.042306613 0.18439765 -0.4535359 -0.35922667
000330 4e f9 1e 3e 5b 5f ab bd 37 80 fc 3e 74 0a 25 bf
       0.1552479 -0.08367797 0.4931657 -0.64469075
000340 10 b7 8e be e9 fa ff bd 77 ce ab 3e 8c 34 82 3d
       -0.2787404 -0.12499029 0.33555958 0.06357679
000350 4b b8 3d bc 2b 4e ee 3e 60 82 d2 3d 8a 45 24 3f
       -0.011579583 0.46544012 0.10278773 0.6416861
000360 ae 1b da 3d 1d 86 0b bf 36 c7 2a bf d0 db 6d 3f
       0.10649811 -0.54501516 -0.6671022 0.9291353
000370 9a 2c 93 bf 51 d1 25 3e a7 12 03 bf c8 af e4 3d
       -1.1497986 0.16193129 -0.51200336 0.1116634
000380 3f 00 37 3e d0 aa 6f bc 30 ba a9 bd 4e 85 06 3c
       0.17871188 -0.014628127 -0.082874656 0.008210493
000390 7d 12 ae bd 9b e9 b8 3c bd d7 6d bd 8d da 09 3b
       -0.0849962 0.02257233 -0.058067072 0.0021034807
0003a0 dc 61 07 be 2b fd d4 3d f0 53 bb bd 32 af 81 bd
       -0.13220924 0.103998505 -0.09146869 -0.06332244
0003b0 a4 d9 93 3d 41 78 17 3d a1 2b d7 bd c2 c3 be bd
       0.07219246 0.036979917 -0.105063684 -0.093146816
0003c0 ea 9d 4c 3d ab 08 57 3d 4a df e8 bb 5e 13 b6 bb
       0.049955286 0.0524985 -0.0071066963 -0.005556508
0003d0 32 c6 a7 3b 68 5c 65 3d cb 82 b8 ba 75 bd cf 3d
       0.0051200623 0.05599633 -0.0014077065 0.10143558
0003e0 81 13 37 bc 1a 44 a5 bb 42 9c a0 3c bf d5 eb bc
       -0.011174084 -0.0050435187 0.01960576 -0.028788446
0003f0 7c 25 ae bd 97 e0 e0 3d 0f cd a7 3d 20 1e 64 bc
       -0.08503243 0.10980337 0.08193409 -0.013923198

actor.0.bias f4 [128]
000000 2a b4 04 be c1 b7 94 bd ce fe be bd 19 0a 34 3d
       -0.12959352 -0.07261611 -0.09325944 0.043954942
000010 3d 1a a9 bd bc b4 f7 3d 91 41 0d be 96 57 e8 bd
       -0.08256958 0.12095019 -0.13794543 -0.11344831
000020 68 8e 52 be aa aa 03 bc 1f 89 64 3d c1 18 0f 3e
       -0.20562136 -0.008036295 0.05579483 0.13974287
000030 02 b8 00 be 78 0d a0 39 1a d6 f0 3c aa 81 df 3d
       -0.12570193 0.00030527613 0.029398967 0.10913403
000040 6e 3b 50 3c f1 eb a0 3d ed 62 ba 3d f5 96 46 3d
       0.012709482 0.07857502 0.091009 0.048483808
000050 00 8b 16 be 3c d2 e6 bd 45 4b 73 bc 66 ae a0 3d
       -0.14701462 -0.11270568 -0.014849489 0.07845764
000060 83 6f 25 be a2 5a 1e 3e 53 3b 32 bd 44 2e 14 3d
       -0.1615582 0.15464261 -0.043513607 0.036176935
000070 90 49 ba 3d 93 6f be bc 47 78 75 bc a2 5a df bd
       0.09096062 -0.023246562 -0.01498229 -0.10905959
000080 9b 04 e0 bd 8c 68 e0 bd 51 a4 8f bb c5 c0 12 3d
       -0.109383784 -0.10957441 -0.0043836017 0.03582837
000090 bc 41 15 3d 79 d0 1a be e7 e2 65 be ae b0 3a 3d
       0.036439642 -0.15118589 -0.22449838 0.04557865
0000a0 9d c0 04 3e 47 4d f5 bd d0 49 c1 3d 6e bc 0c bd
       0.12964101 -0.1197763 0.09437907 -0.034359388
0000b0 43 74 d0 bd b3 e5 87 3d 30 ae b3 bd 26 6a 1e 3d
       -0.10178425 0.066356085 -0.08773458 0.03867545
0000c0 bf a1 7c bd 07 0c 56 bd d8 03 7c be fb 12 8f bd
       -0.06167769 -0.052257564 -0.24610841 -0.06986042
0000d0 27 f8 8c bd bc 64 2c bc c9 a3 c3 3d f9 fb f6 bd
       -0.06883269 -0.010522064 0.09552724 -0.12059779
0000e0 84 b5 0c bd 55 d8 e1 3d 23 f6 b8 bd 8a c5 84 bd
       -0.034352794 0.1102759 -0.09031322 -0.0648299
0000f0 39 36 26 3c f3 8e a0 3d a6 a0 fc 3d ee 5d 01 be
       0.010144764 0.078397654 0.12335329 -0.12633488
000100 d3 fb 14 be d1 4c 89 3d e2 79 2f be 68 67 62 be
       -0.14549188 0.06704105 -0.17136338 -0.22109759
000110 b6 04 af bd f4 93 82 bd f5 04 b5 bd a2 3d 16 be
       -0.085458204 -0.06375876 -0.08838836 -0.14671949
000120 e3 e0 8c bd 73 f6 a9 3c 0a 40 93 3d 27 52 1a be
       -0.06878831 0.020747399 0.07189949 -0.15070401
000130 ad f9 37 bd e5 6d 46 be 0c 99 24 bd ca a8 17 be
       -0.044915844 -0.19377859 -0.04018502 -0.14810482
000140 0f fb c4 bd e3 76 da bc f3 6c 47 3c 76 0c c7 3d
       -0.09618198 -0.026668018 0.012171972 0.097191736
000150 08 9d 37 3d 70 38 5b 3d 66 39 82 bd 6c 73 fb 3d
       0.04482749 0.05352062 -0.06358604 0.12277874
000160 b8 b6 28 be f4 b6 df bc e3 3a fa bd 02 47 1a be
       -0.16475952 -0.027308919 -0.12218263 -0.1506615
000170 70 14 d2 bd 8f 11 52 be 6b 57 02 be 9d 5e ec 3c
       -0.102578044 -0.2051451 -0.1272866 0.028853709
000180 f4 b9 4e be 57 ef 60 3c 3a 81 3d be 9c 2f 28 3b
       -0.20188123 0.013728938 -0.18506327 0.0025663143
000190 be c1 2f be f5 40 b5 3d 77 95 36 bd 8b e7 04 3e
       -0.1716375 0.0885028 -0.044576135 0.12978952
0001a0 e7 f4 38 3e ea 99 d4 bd 69 70 a7 ba 71 72 0c 3b
       0.18062173 -0.10380919 -0.001277459 0.0021430517
0001b0 2a 7f a6 3d a4 8b 12 be ea 69 38 bd 54 d1 13 be
       0.08129723 -0.14311081 -0.045022883 -0.14435321
0001c0 02 e9 ca 3d 4f 2d 0f be 34 de 54 bd 62 fa 44 bd
       0.09907724 -0.13982128 -0.051969722 -0.048090346
0001d0 5e dc 41 be 03 c9 c8 bd f0 d3 78 bd de 18 87 3c
       -0.1893172 -0.09803965 -0.060748994 0.01649135
0001e0 f7 94 a8 bd 55 a3 96 bd bf 27 13 3e 3c 9d 05 bd
       -0.08231538 -0.07355372 0.1437063 -0.032620654
0001f0 46 e0 cf bd d2 c0 c0 bd 38 b7 00 be 21 b5 bb 3c
       -0.10150199 -0.094117776 -0.12569892 0.022913517

actor.2.weight f4 [128, 128]
000000 d3 08 44 bd 4d 70 ec bd f3 9b 1f bd 1f 43 39 bc
       -0.047859978 -0.11544857 -0.038967084 -0.011307507
000010 42 ff 81 be d0 5a 0f 3d dd a2 a7 3d 2b 19 b4 bd
       -0.2539006 0.034998715 0.081853606 -0.08793863
000020 2b 4a 96 bd 82 d8 9d 3d 63 b1 d2 3d df 65 0a bd
       -0.07338365 0.07707311 0.1028774 -0.033788558
000030 58 16 52 be a3 ba 63 3d bb 43 90 bd 07 39 44 be
       -0.20516336 0.055597913 -0.070441686 -0.19162379
000040 b1 f8 fe 3c 9b 00 a8 bd 6a d6 61 bd a7 de 19 be
       0.031124445 -0.082032405 -0.05513612 -0.15026341
000050 c0 b2 34 bd ad 7d 04 be 71 2f d8 bd 3b 14 3e be
       -0.04411578 -0.12938567 -0.10555924 -0.18562405
000060 e1 c9 39 be 8c ae 62 bd cc 7b 06 3e b4 d5 65 3d
       -0.18143417 -0.055342242 0.13133162 0.056112006
000070 dc 45 be 3d b7 fe d3 be 5c c7 91 3b b9 1a 81 be
       0.09290668 -0.4140527 0.0044488143 -0.252157
000080 0c 99 3c be fd 00 18 3d aa 16 d7 bd 9e 11 68 bd
       -0.18417758 0.037110317 -0.1050237 -0.056657426
000090 e5 fe f2 bd f5 8e c8 bd c6 80 2d bd 62 dd 21 bd
       -0.118650235 -0.09792892 -0.042359136 -0.039517768
0000a0 26 a4 14 bd ce 6a 19 be b0 77 ba 3d 1d 38 c8 3d
       -0.036289357 -0.14982149 0.0910486 0.09776328
0000b0 e2 4c 0d be 90 dc 26 be 51 14 3b bd f1 2f 3f be
       -0.1379886 -0.16295075 -0.045673672 -0.18670632
0000c0 d2 7d f1 3d 02 59 a1 bd 3c e4 ec 3d 26 21 8c 3d
       0.117915764 -0.07878305 0.1156697 0.0684226
0000d0 12 bc f4 3c 5b 4c 1f 3e bf f8 c7 3c ee fa d1 bc
       0.029874835 0.15556471 0.024410604 -0.025632348
0000e0 49 3e 46 3d bf 79 83 bd 8c 76 64 bd 52 27 eb bb
       0.048399244 -0.064197056 -0.055777118 -0.007176318
0000f0 b1 7a 90 3d d1 0f 06 3b 40 46 97 3d b5 ce aa bd
       0.070546515 0.0020456205 0.07386446 -0.083402075
000100 71 22 3b bd d2 89 a0 3e 56 94 ed 3c 7e e9 31 be
       -0.045687143 0.3135515 0.029001396 -0.17374226
000110 6c f4 f7 bc 1b 17 9e bd d4 fe ca bd cc 77 18 3e
       -0.030267917 -0.07719251 -0.09911886 0.14889449
000120 29 1a 8d bd 4b d3 83 ba 1f 78 8d bd 20 d9 48 3d
       -0.06889755 -0.0010057477 -0.06907677 0.04903519
000130 0a c9 a8 3d 1a 18 cd bd 63 6a 9b bd fa 5e f2 bc
       0.0824147 -0.10014363 -0.07588651 -0.029586304
000140 35 6d 42 be e8 a8 24 be b2 a0 37 bd 7e 7c 17 bd
       -0.18986972 -0.16080058 -0.044830985 -0.03698396
000150 48 ae 95 3d fd 2b 0c bd ac ea 7d 3e 20 0f 63 bd
       0.07308632 -0.034221638 0.24796551 -0.055434346
000160 29 a3 61 bc 4d 7f 1d bd 51 5c 1d bd f4 b8 c8 bb
       -0.013771811 -0.03845148 -0.038418118 -0.0061255638
000170 58 60 1d be 43 fe f3 bd a6 5b 57 bd a2 f8 23 bd
       -0.15368783 -0.11913731 -0.052577637 -0.040032037
000180 53 c0 0c bd 89 ec fe bc e5 08 9f bd 16 f1 38 bc
       -0.034363102 -0.031118648 -0.07765368 -0.011287948
000190 90 28 d9 bd 2f b3 dc bb 81 de 25 bc 3b cb 60 3c
       -0.1060344 -0.0067352275 -0.01012385 0.013720329
0001a0 a1 86 33 bc 77 d4 00 be 0e 57 84 bd b3 96 fc bc
       -0.010957391 -0.12581049 -0.06461917 -0.030833578
0001b0 e8 2e 09 be 8a 84 94 bd d9 15 33 3c 06 c0 98 ba
       -0.133968 -0.07251842 0.010930502 -0.0011653907
0001c0 9d 18 d3 bd bb b9 d8 bd 8d 56 09 3e 49 5d 2f be
       -0.10307429 -0.105823 0.13411923 -0.17125429
0001d0 ae 92 6b bb 08 b1 02 3b ba 8d 8f 3d d8 a5 41 be
       -0.0035945582 0.0019941945 0.07009454 -0.1891092
0001e0 b1 29 68 be 2a 1e dd 3d 3e 8a bc bd c7 c7 82 3d
       -0.22672154 0.10796769 -0.09206055 0.06385761
0001f0 00 38 9a be 5b e7 0d be ee 37 6c bd c5 df 79 be
       -0.3012085 -0.13857786 -0.057670526 -0.24401768
000200 de e9 30 be df 6b 0a be 36 88 04 3d a1 00 19 bc
       -0.17276713 -0.13517712 0.032356463 -0.009338529
000210 10 fe 9e bc c3 d2 94 3d 98 5f 4b 3e ed 7b ed bd
       -0.019408256 0.07266762 0.19860685 -0.115959026
000220 44 e5 f4 3d 4a e3 9e bd 20 bf 50 be 9d 37 5e bd
       0.119577914 -0.07758196 -0.20385408 -0.054252256
000230 09 e7 85 bd 2d 63 cc 3c b2 ab 4f 3d 4f 05 15 3c
       -0.06538207 0.024949634 0.05070085 0.009095504
000240 c3 8f a4 3c 29 fc 11 3e b7 8e 88 be c2 44 12 3e
       0.020088082 0.14256348 -0.26671383 0.14284042
000250 36 f1 20 3e e2 9b 1d 3d cd 3a 5b bd 9a 35 37 be
       0.15717015 0.03847874 -0.053522874 -0.17891541
000260 06 7e 38 bd ac e8 eb 3b 51 39 6d 3d 88 15 67 bc
       -0.04504206 0.0071993675 0.05791599 -0.014104255
000270 57 b1 3e bd 90 69 14 be f9 cf 9f 3d 60 48 ee bc
       -0.046555843 -0.14493394 0.078033395 -0.029087245
000280 4a 7c ed 3d a9 1e 7a 3e 86 ef 24 bd c8 50 39 3e
       0.11595972 0.24425758 -0.04026749 0.18097222
000290 30 4e b2 bc 97 41 8b bd f3 99 2e be 78 55 c6 3d
       -0.021765798 -0.0679962 -0.17050914 0.096842706
0002a0 a3 35 d4 3c 81 a0 f5 bc c3 a5 4b 3d 6b 43 19 3e
       0.025904482 -0.02998376 0.04971863 0.14967124
0002b0 b8 47 0e be c0 80 cb bd 48 4e 78 be cb 33 1b 3c
       -0.13894546 -0.099366665 -0.24248612 0.009472798
0002c0 93 b5 fa 3c 86 c2 dc bc 5c ac 1e 3e d3 fd a7 3d
       0.03060416 -0.026948225 0.15495437 0.0820271
0002d0 02 4d 12 3d 6d 55 8a 3d 30 01 04 bc f2 c3 15 3d
       0.03571797 0.06754575 -0.008056924 0.03656382
0002e0 db 14 5a 3d 53 46 a1 3d 75 da 99 3c 4a ba 25 be
       0.053242546 0.078747414 0.018780926 -0.16184345
0002f0 b8 e6 b9 3d 03 37 70 bd c9 74 2e 3c 95 96 9c 3c
       0.09077209 -0.058646213 0.010647961 0.019114772
000300 dc b8 22 3e d7 3b a2 3c c0 e1 6b bd 46 19 90 3c
       0.15890831 0.019803924 -0.05758834 0.017590176
000310 92 ec 36 3d 18 be a8 3b fd 65 3d 3e 04 5e 02 be
       0.044659205 0.005149614 0.18495937 -0.12731177
000320 44 a2 d6 3d 8b 39 52 bd a2 d7 63 bd 3b 42 12 be
       0.104801685 -0.05132441 -0.055625565 -0.14283077
000330 67 37 1c bc cc 3c 6b 3d b3 46 b2 3c 1a 6f aa bd
       -0.009534693 0.057431027 0.021762228 -0.08321972
000340 5e 32 85 bd 10 af 3b 3d ee 51 b4 bd 12 db 5c bd
       -0.065037474 0.04582125 -0.08804689 -0.05391986
000350 48 18 c4 3d f0 76 dd 3c e9 ea 2b 3c 2c e0 9c bd
       0.09574944 0.027034253 0.010493019 -0.07659945
000360 fb 2b 22 3e 51 5f 41 3e 52 55 4a bd db 71 35 3d
       0.1583709 0.18884017 -0.049397774 0.044298034
000370 36 71 3f 3e ac 4b ad bd 5a c9 cf 3d f4 31 1b be
       0.1869553 -0.08461699 0.10145827 -0.15155774
000380 57 cb 56 bd e4 e1 73 3d 54 d2 0a bc 8a 1b 30 be
       -0.052440014 0.059541598 -0.008472998 -0.17198005
000390 59 ad f3 3d d2 73 a6 bd db 91 7d 3d c8 e9 82 be
       0.11898298 -0.0812756 0.061906677 -0.25568986
0003a0 11 64 1a 3e 9f 7e a3 bc 59 ca f7 3d d6 cd 39 be
       0.15077235 -0.019957839 0.12099142 -0.18144926
0003b0 b3 72 45 3c 23 34 9c bd 8f 40 99 3b 3e 58 a2 3d
       0.012051272 -0.07627132 0.0046768854 0.07926987
0003c0 cf 1a 63 3d 6d 88 45 3d f6 d6 c6 3d 87 bd e1 bd
       0.05544549 0.04822581 0.09708969 -0.110224776
0003d0 2e cc d3 bc 55 cd 99 3d dd c5 98 3d 13 a5 2a 3b
       -0.025854196 0.07509867 0.074596144 0.0026038333
0003e0 02 f6 42 bd 87 92 c8 bc 45 b3 7d bd 46 99 97 bd
       -0.047597893 -0.024483932 -0.061938543 -0.074022815
0003f0 78 bd 90 3d a5 ee a1 bd d2 a6 95 bd 2e 43 37 be
       0.07067388 -0.07906846 -0.07307209 -0.17896721

actor.2.bias f4 [128]
000000 6f 40 ca bd e1 a7 f8 bd 58 f2 29 bd ed c9 5f bd
       -0.09875571 -0.12141395 -0.041490883 -0.05463593
000010 0c 03 ca bd a0 46 13 bb 09 30 de 3c db 35 4d be
       -0.098638624 -0.0022472516 0.027122514 -0.20040075
000020 b0 e6 91 3c 13 79 38 be f2 63 ae 3d 69 a1 0e be
       0.017810196 -0.18014936 0.08515157 -0.1392876
000030 3c ee 35 be 6b 66 34 ba 7c f4 7f bd 1f 55 c3 bc
       -0.1776666 -0.00068817165 -0.062489018 -0.0238443
000040 b3 1c 2d bd 02 65 8b 3d 78 7c 6e 3d 43 c7 9e bd
       -0.042263698 0.06806375 0.05822417 -0.0775285
000050 05 f1 a8 3c 78 af 25 3d f1 4a bd bd e7 da 1f bd
       0.02062274 0.040450543 -0.092428096 -0.03902712
000060 aa 48 42 be 91 b3 8f bd 18 50 bb bd b5 2d 28 3d
       -0.18973032 -0.070166714 -0.09146136 0.041059215
000070 86 f2 b7 3c d9 e3 90 bc 0d 4d 2a bd 85 52 24 3c
       0.022454511 -0.017686771 -0.041577388 0.01002944
000080 24 7d 55 bd 3b ed 46 bd f4 86 bb 3c be 70 10 bd
       -0.052121297 -0.048566084 0.0228915 -0.03526377
000090 b8 03 d1 bd 95 c0 25 bc 5f 81 03 be eb 7e 5d 3d
       -0.102057874 -0.010116716 -0.1284232 0.054076117
0000a0 60 52 00 be 25 3c 0f be 4e 5f b8 bd c3 5f 8f bb
       -0.12531424 -0.13987787 -0.09002553 -0.0043754294
0000b0 39 20 31 be 3e 77 5b bd 24 be cd bc b2 7b af bd
       -0.17297448 -0.053580515 -0.02511508 -0.08568515
0000c0 0b c3 f9 bb ca 52 7a be 73 be d6 bd d3 42 36 be
       -0.007622128 -0.24445644 -0.10485544 -0.17798929
0000d0 17 f8 53 bd 2e ae 62 be 58 fd 2d be a4 12 8f bd
       -0.05175027 -0.22136757 -0.16991174 -0.06985977
0000e0 37 cc 08 bc af b9 bb bd 7e 5c b0 bc 3d b9 b5 bd
       -0.00834947 -0.09166276 -0.021528479 -0.08873222
0000f0 db 78 03 be e5 7d be bd 8c 35 a4 bd e2 3c 01 bd
       -0.12839071 -0.09301356 -0.08018026 -0.031552203
000100 9e 38 75 3d fd 5a c6 bd a0 7a 8c bc 2a e4 da bc
       0.059868447 -0.096853234 -0.017148316 -0.026720125
000110 12 b8 08 3e 7e 75 d1 bd a7 94 87 3d 78 12 d8 3b
       0.13351467 -0.10227488 0.0662015 0.0065939985
000120 40 70 24 be 17 93 3e bd 8f a8 96 bd 5c 55 c9 bd
       -0.16058445 -0.046526995 -0.07356369 -0.09830734
000130 85 b2 58 3d 78 ce d9 bd fc 71 65 be b4 0d 9b 3c
       0.052904624 -0.10635084 -0.22406763 0.018927433
000140 0c fa ee bc 9c ed a0 3d 95 71 25 be d3 f7 38 bd
       -0.029171966 0.078578204 -0.1615661 -0.04515822
000150 3a 0c 6d be aa 51 15 bb 47 e9 3a bd 96 4d df bd
       -0.23149195 -0.0022784271 -0.045632627 -0.1090347
000160 b1 8f f9 bd 3e 83 f1 bb ab cd f9 bd 07 06 a2 bd
       -0.1218561 -0.0073703816 -0.12197431 -0.07911306
000170 76 42 77 3d 37 a1 c4 bc 08 9b 92 3d 1b 54 d1 bd
       0.060366116 -0.024002654 0.07158476 -0.1022112
000180 33 4f 26 be bd cd 46 be e4 b7 69 be 33 cb 8e bd
       -0.1624115 -0.1941442 -0.22824055 -0.06972351
000190 c1 52 2a be 37 72 81 bd 19 87 7b be ec 8e 20 be
       -0.1663313 -0.06320613 -0.24563254 -0.1567952
0001a0 91 d9 a2 3a b8 54 8c bb 7e 6f 35 bd 95 1d 8e bd
       0.0012424459 -0.00428256 -0.04429578 -0.06939236
0001b0 0f f5 5d be 3b 12 72 bd 83 a9 b8 bc d4 9d 60 bb
       -0.21675514 -0.059099417 -0.022541767 -0.003427376
0001c0 04 56 d7 bc 79 f2 e1 bd 59 32 2d 3d ab ce 36 bd
       -0.026286133 -0.11032576 0.042284343 -0.044630688
0001d0 2a a3 b9 bd c2 9c e4 bd cb 2a ec bd 8c a3 14 be
       -0.09064324 -0.11162712 -0.115315996 -0.14515513
0001e0 28 72 fb bd 56 77 37 3b 90 3d e0 3c 06 e9 51 3d
       -0.12277633 0.0027994714 0.027373105 0.05124762
0001f0 ed 23 b0 bd 7e f5 11 be 27 53 f8 bb ac 1e c2 bd
       -0.08600602 -0.14253804 -0.007578272 -0.094785064

actor.4.weight f4 [128, 128]
000000 f3 2a 39 bd ac 78 1d bd fa f6 63 bc 75 f9 0d 3d
       -0.045206975 -0.03844516 -0.013913864 0.03466173
000010 fa ed b2 bd 42 64 cc 3d 8b e1 1c ba 74 5a 66 bd
       -0.08736797 0.0998006 -0.0005984536 -0.056238607
000020 82 e3 4d bb 53 ab 82 3c 9a 2c 93 bd 57 d5 89 bc
       -0.0031416123 0.015950834 -0.071862414 -0.016825361
000030 14 0f 6c bc 3a 2d aa 3c fd bb 3a 3c 5b f8 91 3d
       -0.014407892 0.020773519 0.011397359 0.07127448
000040 24 69 e3 bd 45 04 64 3d 1a 70 38 3d be 63 c2 3d
       -0.11104038 0.055668134 0.045028783 0.094916806
000050 92 e1 6a 3c c8 41 2e 3d a4 dd d9 3b 99 25 c9 3c
       0.014336007 0.042543203 0.006648736 0.02455406
000060 8b 72 00 bd 11 cf 9b bd 9d 33 e6 3c 37 d4 09 be
       -0.031359237 -0.07607854 0.028100783 -0.1345986
000070 26 25 ef bd 95 58 e8 3c 8a 67 64 bd aa 73 bd 3c
       -0.116770074 0.028362552 -0.055762805 0.023126442
000080 85 31 5e bd 93 be c4 3b 42 eb 95 3d 16 74 33 be
       -0.054246444 0.0060041635 0.073202625 -0.17524752
000090 bf b8 e2 3d 82 07 e0 3c 86 7e ff 3d c6 3d 02 3d
       0.11070394 0.02734733 0.12475304 0.031797193
0000a0 e1 79 28 bd d6 0b 7f bd 39 01 b3 bc 5c 83 a6 bd
       -0.041131858 -0.062267147 -0.021851169 -0.081305236
0000b0 73 f3 aa bd d5 2e 50 be 16 5f 08 3e 67 15 5e 3c
       -0.083472155 -0.20330365 0.13317522 0.013554907
0000c0 cd e1 93 bd e3 c3 d5 3c 82 cf 0a be dc aa 43 3d
       -0.072208025 0.026094383 -0.1355572 0.047770366
0000d0 c8 b6 1c 3e d8 66 b2 3d 63 f6 20 3d 8c 5f 26 bd
       0.153041 0.08711022 0.039297473 -0.040618464
0000e0 e7 f2 9c bc 6d 0b e3 bd 76 e4 5f be 2c 29 6b 3d
       -0.019158794 -0.11086164 -0.21864495 0.05741231
0000f0 e4 1d d2 bc b8 5c af bc 86 aa 53 bc 08 52 a1 3d
       -0.025649019 -0.021406516 -0.012919074 0.07876974
000100 03 76 d8 bd aa e7 1a be a9 08 59 3d aa ce 4b 3e
       -0.10569384 -0.15127435 0.052986775 0.19903055
000110 30 c4 18 bd ff 53 ed bb 1d cb 98 bd 68 06 e2 3d
       -0.037296474 -0.007242679 -0.07460616 0.11036378
000120 1b 65 64 bd ff f3 7f 3d 7f bb b6 3d 83 96 bf bd
       -0.055760484 0.062488552 0.08922481 -0.0935488
000130 7a 05 67 3d 55 2c 84 bd 2a 75 c1 bd 42 d6 ce 3d
       0.056401707 -0.06453768 -0.094461754 0.1009946
000140 7e 20 43 bc 28 9a fb bd f7 6b e9 bc 60 14 56 3d
       -0.011909602 -0.12285262 -0.028493864 0.052265525
000150 80 8a c0 3d b5 ae 91 bc b1 11 17 bc 92 ef 8a bc
       0.09401417 -0.017783502 -0.009220527 -0.01695994
000160 3f e5 dc 3d 19 07 a8 3c e2 37 ef 3d e8 bb 0c 3d
       0.10785913 0.020511197 0.11680581 0.03435889
000170 d1 3b 26 bd ee 44 8b 3d 0d e0 ec bd ba 49 9d 3d
       -0.04058439 0.06800257 -0.11566172 0.07680078
000180 94 9f cb bd a4 05 1d bc 9f 72 be bc 71 6d f0 bc
       -0.099425465 -0.009583864 -0.023248015 -0.02934906
000190 eb 19 42 3d 55 38 a4 bd f8 64 a7 3d 40 99 93 bd
       0.047388 -0.08018557 0.08173555 -0.072069645
0001a0 83 c7 8a 3d ac 9d a6 3d 6e 89 bf bb e9 25 2b 3d
       0.06776335 0.08135542 -0.0058452403 0.0417842
0001b0 3a 4e 8d bd 6a 9a 8e 3d 06 9c 90 3d df 88 f0 bd
       -0.06899686 0.06963046 0.07061009 -0.11744856
0001c0 75 5b 19 3d 3a 7e ae 3d 13 00 b4 3d 69 b4 87 bb
       0.037440736 0.085201696 0.08789077 -0.0041413796
0001d0 3b 98 95 bd de 96 e8 bd 21 d6 85 bc ad bc 1e 3d
       -0.07304426 -0.11356901 -0.016337456 0.038754154
0001e0 12 8a fe 3c ab 40 65 be 85 6a 10 3d 83 b5 55 3d
       0.031071696 -0.2238795 0.035257835 0.052175056
0001f0 da cc a4 bd 54 0c 09 bd 4c 86 b9 bd 74 21 0b bd
       -0.08046885 -0.033459023 -0.09058818 -0.03396745
000200 a1 f7 05 be 14 5b 2b 3e bc 58 e4 bc 87 89 8b 3c
       -0.13082744 0.16733962 -0.027874343 0.017033352
000210 ba 86 4c 3c e1 7d 83 bd 81 85 45 3d c7 b7 ba 3d
       0.012483293 -0.06420494 0.048223022 0.09117084
000220 5c 32 0c 3e 4e a8 85 bd e1 80 07 3e e0 20 0f 3e
       0.13691086 -0.06526242 0.13232757 0.13977385
000230 9a d0 31 bd 4e 4c a4 bd 9b 7e 81 3d 12 3d cb bd
       -0.04341183 -0.080223665 0.06322976 -0.099237576
000240 43 c4 ee bd 78 be be 3d 73 74 63 3c 79 83 32 3d
       -0.11658528 0.09313673 0.013882744 0.043582413
000250 03 65 3a 3e fa d6 1c 3d 28 5e 7d bc 71 f2 fb 3c
       0.18202595 0.038290955 -0.015464343 0.030755254
000260 52 26 9c bd 46 72 cb 3d 0d bd b6 3a 22 29 03 3e
       -0.076244965 0.09933905 0.001394184 0.1280866
000270 d4 67 36 be a3 66 fa bc 97 d8 4d 3d 52 d0 94 3c
       -0.17813045 -0.03056652 0.050255384 0.018165741
000280 28 d8 15 3e 08 f0 24 3c 40 af e1 bd a6 61 64 bd
       0.14633238 0.010066994 -0.110197544 -0.055757187
000290 40 16 e2 bc 7e f8 81 3d 88 41 12 3e 8e e2 1f 3d
       -0.0275985 0.06346224 0.1428281 0.03903442
0002a0 f4 d1 a3 bd 26 09 5f bd 60 38 7c bb 00 79 4f bd
       -0.0799903 -0.054452084 -0.003848575 -0.050652504
0002b0 6e 61 02 be 8c 9c 84 bd dc e9 4e 3e f4 11 a6 3d
       -0.12732479 -0.064751714 0.20206398 0.08108893
0002c0 f6 b5 a3 3d 52 58 81 3d 16 df 20 3e 1b 96 2b 3e
       0.07993691 0.06315674 0.157101 0.1675648
0002d0 43 33 74 3d a9 d3 3b 3e 97 1c 61 bd 0b 6b 58 bd
       0.0596192 0.1834246 -0.054958906 -0.05283646
0002e0 43 b6 94 3d 97 bd 11 bd e0 a6 dc bd 13 0d e3 3c
       0.07261326 -0.035581198 -0.107740164 0.027716195
0002f0 3f 59 93 bd b7 d4 20 bd 97 dc bb bd 37 7f 03 3e
       -0.07194757 -0.03926536 -0.091729335 0.12841497
000300 db 86 22 bd b3 3a 12 be 0a 6e c2 3b 65 26 14 3e
       -0.03967939 -0.14280204 0.005933528 0.14467771
000310 29 b0 2d 3d b8 55 95 3d db d1 4a bd a5 2f 15 3d
       0.042404328 0.0729174 -0.04951654 0.03642239
000320 a1 13 cd 3b 3d a0 58 bd 01 0b 00 be db eb dc bd
       0.0062584435 -0.05288719 -0.12504198 -0.10787173
000330 98 2e e2 bd b1 87 9b 3d c8 e6 37 bd 91 a5 a4 bd
       -0.11044043 0.075942405 -0.044897825 -0.08039392
000340 1e ff b1 3c ae ec 03 be e5 b1 13 bd 10 66 c4 3d
       0.021728095 -0.12883255 -0.036058325 0.095897794
000350 24 4f db 3d 71 34 22 3d 18 37 a8 bd ae 86 a6 bd
       0.10708454 0.039600793 -0.08213633 -0.08131157
000360 79 b4 2b bc a5 ca c5 bd 6e 0d d3 bc c8 9f 58 be
       -0.01048004 -0.09657792 -0.02576324 -0.21154702
000370 27 83 c0 bb 83 81 f4 bd 7f 90 2b bc 26 89 40 bd
       -0.0058750096 -0.11938765 -0.010471462 -0.047005795
000380 89 d5 3c bd 09 db e6 3c fb 88 d9 3d bc 2a 06 be
       -0.04610208 0.028180616 0.1062183 -0.1310224
000390 d8 f0 fe 3d fb 2e 86 3c b6 ae d8 bd a0 a7 e6 3d
       0.12448281 0.016379824 -0.105801985 0.11262441
0003a0 d9 b3 9e 3d 85 ee 75 bb 8c 72 cd 3d 81 45 06 be
       0.07749147 -0.0037526202 0.10031614 -0.13112451
0003b0 24 aa 5c be b2 5c c3 bb db f0 04 be 1d 39 bf bd
       -0.21549278 -0.005961978 -0.12982504 -0.09337065
0003c0 3b a1 b6 3d 71 39 99 3d ae 9d 28 bd 29 c7 60 bd
       0.08917471 0.07481659 -0.041166 -0.054877434
0003d0 03 0c 77 bd ba 79 b2 3d 9b d5 18 3e c5 68 9d 3c
       -0.06031419 0.08714624 0.14925234 0.019214997
0003e0 66 70 23 3d 4f cb 15 be c6 33 ef bd dd 30 b3 bd
       0.039902113 -0.14628337 -0.11679797 -0.08749554
0003f0 6b ee 92 bd 04 e1 1c 3e e1 66 52 3d be e0 9e bb
       -0.07174381 0.15320212 0.051367644 -0.0048485687

actor.4.bias f4 [128]
000000 23 91 08 be 19 3e 5b be ac 54 7c bd b7 b8 68 3d
       -0.13336615 -0.21410407 -0.061604187 0.056816783
000010 86 c2 4c bd 2a cb 25 be ff 1a ad bd ff ba b7 bd
       -0.0499902 -0.16190782 -0.08452415 -0.089712135
000020 af 55 0c 3d 37 9a 19 be 59 8b b0 bd aa 38 bd 3d
       0.0342614 -0.15000235 -0.086203285 0.092393234
000030 b5 9c 09 be 3c 32 9d bd e8 a6 2f 3d 7d fe 80 3c
       -0.13438685 -0.07675597 0.042883784 0.01574635
000040 1b a9 5c bd 03 92 98 bd ff 2e 24 bd 40 b9 2b be
       -0.05387221 -0.074497245 -0.04008388 -0.16769886
000050 1e eb b6 bd e8 55 23 bd 4c a1 c7 bc 24 07 6a 3c
       -0.08931564 -0.03987685 -0.024368905 0.014283929
000060 60 c9 3c bd da 46 e2 bd c4 54 84 bd 88 03 33 bd
       -0.046090484 -0.1104867 -0.0646148 -0.04370454
000070 f7 0c 87 bd 20 86 bb 3c a7 e7 8f bd c4 73 85 3c
       -0.0659427 0.022891104 -0.07026606 0.016290553
000080 60 8a 00 be 2b 66 82 bd 29 1a f3 bb 05 f9 18 be
       -0.12552786 -0.06367143 -0.00741889 -0.14938743
000090 0c 95 56 bd 35 94 df bd 8d 16 be bd aa f6 25 bc
       -0.052388236 -0.1091694 -0.09281645 -0.01012961
0000a0 d0 0f e8 bd c8 02 73 3d e0 a9 7a bd 30 0e 81 bd
       -0.11331141 0.059328824 -0.06119716 -0.06301534
0000b0 d1 fe 99 bc 18 f2 83 bc 7d c7 c3 3d 28 20 ea bc
       -0.018798264 -0.01610665 0.09559534 -0.028579786
0000c0 28 04 3e 3c 03 a6 6e bd 85 1a 78 3d bd 57 de bc
       0.011597671 -0.05826379 0.060572166 -0.027141446
0000d0 86 76 02 bd 27 47 12 be 20 13 24 be db 2f ca bd
       -0.031851314 -0.14284955 -0.1602292 -0.09872409
0000e0 45 be 06 be d4 58 41 bd 86 2a 90 3a 13 cc d5 bd
       -0.1315852 -0.047203854 0.0010999001 -0.10439315
0000f0 ca a0 63 bd 7d 55 f6 bd be 26 c0 bd 2d cc bc bd
       -0.055573262 -0.12028024 -0.093823895 -0.09218631
000100 3b 10 a6 bd b8 d2 ff 3b 44 5c 1b be ab 54 f7 3c
       -0.081085645 0.007807102 -0.15171915 0.03019174
000110 d3 78 d0 bd 44 c6 2f be 79 03 2e be 13 e8 51 bd
       -0.101792954 -0.17165476 -0.16993512 -0.051246714
000120 c6 a6 e0 bc 22 ad 26 bd 06 3b dd bd f2 ee cf bd
       -0.027423274 -0.040692456 -0.108022735 -0.10152997
000130 02 71 bd bd dc 75 20 3c c0 99 d0 bd 5c c2 03 3b
       -0.0925007 0.009793725 -0.101855755 0.002010486
000140 45 db 0e be b7 cd 00 be b2 6d 15 be ab 6a bc 3c
       -0.13950832 -0.12578474 -0.14592627 0.023000082
000150 a9 88 45 bd 11 74 33 bc 3d 48 6c bd e3 f6 8d bd
       -0.048226032 -0.010952965 -0.05768608 -0.069318555
000160 25 61 f6 bd 42 97 52 bd 92 4d 02 be 39 2c 35 bd
       -0.120302476 -0.051413782 -0.12724903 -0.044231627
000170 76 9f 57 3d 24 91 2e bd 7e 0f 1c be 3f d3 4d bc
       0.05264231 -0.042618886 -0.15240285 -0.012562572
000180 6c 8f 00 be d9 27 c2 bd 04 7b 82 bc 04 d3 b8 bd
       -0.12554711 -0.094802566 -0.015927799 -0.09024623
000190 57 d8 12 be 3a de 4f be 04 a3 1b be eb f3 b3 bc
       -0.1434034 -0.20299616 -0.15198904 -0.021966895
0001a0 3b 0e 60 be b6 aa f8 ba 20 d3 a6 bc b9 07 04 3d
       -0.21880428 -0.0018971774 -0.020364344 0.032233927
0001b0 59 1f 30 3d 29 61 97 3c 47 46 82 bd 53 a7 57 bd
       0.042998645 0.018478947 -0.063610606 -0.052649807
0001c0 31 a5 b9 bd 27 e3 18 be 61 0f 0d be 30 23 05 bd
       -0.09064711 -0.14930402 -0.13775398 -0.03250426
0001d0 a5 f3 dc 3c ee f5 16 bd ea 4d 4c be 5b bc f8 3d
       0.026971648 -0.03685563 -0.19951597 0.12145301
0001e0 6a ff 7a be 58 f2 9f bd 2d b7 b6 bc 87 ee 18 be
       -0.24511495 -0.07809895 -0.022304142 -0.14934741
0001f0 75 57 d0 bd ee 37 e9 3c 0e 7e 49 3c d3 a8 5c bd
       -0.10172931 0.028469052 0.01229812 -0.05387194

actor.6.weight f4 [27, 128]
000000 e0 ac 02 bd 86 b0 02 3d d2 b3 6d 3c b5 9e b1 bb
       -0.031903148 0.031906627 0.014508205 -0.0054205307
000010 80 ad 45 3c 79 69 96 3c 8b 7c 7e bb 55 51 50 bc
       0.012065291 0.01836084 -0.0038831558 -0.012714704
000020 8c dc 05 3d b1 33 6d bb 6a 01 07 3c a5 86 8f bb
       0.032681033 -0.003619414 0.008240083 -0.0043800646
000030 43 9b 36 3c dd 03 11 bd 06 2a 1e bb 11 ff 52 3a
       0.011145416 -0.035404075 -0.0024133935 0.0008048872
000040 ea 3c 18 3b a4 fc dc bb ef 99 8f 3c 55 be 88 bc
       0.0023229667 -0.0067439843 0.017529456 -0.01669232
000050 e3 df 7f 3c 7d dc ed 3c 73 5a 02 3c b4 84 38 bc
       0.015617344 0.029035801 0.007956135 -0.011262108
000060 ba 1c bf bb 74 e3 cb bc c4 d7 4e bc 16 dc 1e bd
       -0.005832282 -0.024888732 -0.012624685 -0.03878411
000070 09 61 fd bc d6 b8 45 3c 95 9c 9c bb aa 5a da 3b
       -0.030930059 0.012067994 -0.004779408 0.00666364
000080 43 56 61 bb 85 fc 4b 3d 3b 11 f0 bb d6 7b a6 3c
       -0.0034383691 0.04980137 -0.007326273 0.020322721
000090 63 9b eb bb 52 bb 77 3d b4 81 1a 38 47 b9 67 3b
       -0.0071901544 0.060481377 3.6837257e-05 0.0035358237
0000a0 db 3a 54 bb 8e 01 4a 3d 73 55 90 3b ca 43 29 3d
       -0.0032383713 0.04931789 0.0044047176 0.041324414
0000b0 8d 36 db 3c 75 f4 b5 3c 4e 2b f4 bb 3f 46 fe bb
       0.02675941 0.022211293 -0.0074514514 -0.007759839
0000c0 44 31 cd bb 41 ee 5b bc c5 22 82 3c 7b 84 55 3b
       -0.0062619764 -0.013423503 0.01588572 0.0032580185
0000d0 3a 80 a8 bb 15 d5 86 3c 43 f5 6d 3c 8a 51 0a ba
       -0.005142239 0.016459027 0.014523807 -0.00052764325
0000e0 d4 1c 2c ba 81 a5 18 bc d1 0a e4 ba 15 73 e3 3b
       -0.0006565575 -0.009316803 -0.0017398243 0.006941209
0000f0 48 a4 cf bc ac 31 57 ba 5f 84 3a bd 6a 6d fa 3b
       -0.02534689 -0.0008209001 -0.045536395 0.0076424377
000100 29 79 04 3a 90 61 22 bb b7 8a 98 bc 17 60 5d 3c
       0.00050534547 -0.002477739 -0.018620832 0.013511679
000110 20 2a b4 ba d3 01 7b bc 06 99 dc 3c d0 ec 5e bb
       -0.0013745464 -0.015320259 0.026928436 -0.0034015663
000120 c2 cf 51 3b 4f a7 a4 3c 0d 35 03 3d 25 49 d4 bc
       0.0032014702 0.02009931 0.032033015 -0.025913784
000130 30 5e 99 bb 75 51 83 3c b7 97 16 3c ba 15 87 3c
       -0.0046804175 0.016030053 0.009191445 0.016489852
000140 e2 fa 3e 3c 5d 11 e0 3c 64 6d 96 3c ca bf e8 3b
       0.011656495 0.02735203 0.018362708 0.007102941
000150 6b f8 95 bc 56 92 91 bb c2 d0 88 bc b6 73 3e bc
       -0.018306931 -0.0044424934 -0.016701106 -0.011624267
000160 b2 0f f6 bb 68 03 a5 3b fe 58 e0 3b 16 02 6e bc
       -0.0075091952 0.0050358064 0.006846546 -0.0145268645
000170 ce 97 f7 bc bc 1f 1f bc c9 74 58 bc a5 ce 98 bc
       -0.030223753 -0.009712156 -0.0132114375 -0.018653223
000180 86 78 7f bd 88 8a 33 bd f9 73 51 bc dc 62 ae bc
       -0.0623708 -0.043833286 -0.012783998 -0.021287374
000190 41 cc 0e 3d 46 66 86 3b 49 01 9e 3c 6f 05 28 3b
       0.03486276 0.0041015474 0.019287722 0.0025638004
0001a0 16 6d 73 bd 7b fb 9f bb 0b f8 5e bc 7b 0e 06 3b
       -0.059430204 -0.0048822737 -0.013608943 0.0020455408
0001b0 de 1c d7 bb b2 b3 d8 bc 46 54 a5 bb ac 7c d4 3c
       -0.0065647205 -0.026452873 -0.0050454466 0.025938354
0001c0 47 ff 0e 3c d4 d9 58 bd 21 5b 7d 3c ac de 01 bd
       0.008727855 -0.052942112 0.015463621 -0.031706497
0001d0 07 36 29 bc 4d a4 00 bd d8 42 1d 3c 72 cb ef 3b
       -0.0103278225 -0.03140669 0.009598456 0.0073179537
0001e0 52 cd 72 bd 83 29 a4 bc ec ce 9d 3c 78 9e dc 3a
       -0.05927784 -0.020039326 0.019263707 0.0016831895
0001f0 5f 6c 9f 3b a8 28 e2 3c a9 d9 eb 3b f9 90 9e bb
       0.0048652138 0.027607277 0.007197578 -0.0048390594
000200 cd 6b 9b ba 42 c7 1a 3d e4 13 fb bb 23 c4 1b bc
       -0.0011857689 0.037787683 -0.0076622833 -0.009507212
000210 6a d1 a3 3b 48 1a 06 bc 69 c4 b2 bc c9 14 3a 3c
       0.0049993293 -0.008184977 -0.021822171 0.011357495
000220 93 9d 64 bd b9 2d 06 bd b7 0e 7b 3b 3c de 83 3d
       -0.055814337 -0.03275845 0.0038308331 0.06438872
000230 70 53 8c bc ab 8b e4 3c 76 74 8b bc 47 2a c7 3b
       -0.01712963 0.02789863 -0.017023306 0.006078038
000240 90 0e 12 3c 83 d0 7f bb 83 7c dc bc f3 80 d2 3c
       0.008914605 -0.0039034195 -0.02691484 0.025696253
000250 ee 91 ba 3c d2 95 04 3b 35 69 1c 3a cb 2a 80 bc
       0.022774663 0.0020230901 0.0005966605 -0.015645405
000260 eb 88 72 3c 0b 4b 09 bd 18 fe cd ba 72 b3 af 3b
       0.014803152 -0.033518832 -0.0015715985 0.0053619677
000270 9b df 6e bc 07 ee 5e bc 08 0d ab 3c d6 c7 0b bc
       -0.014579679 -0.013606555 0.020880237 -0.008531531
000280 c9 bb d8 3b 70 78 c3 bb 70 8a 55 3c ae f1 eb bc
       0.0066141826 -0.005965285 0.013033494 -0.028801765
000290 cd 85 43 bc 26 52 4e bd 76 0d a5 bc 2e f6 7f ba
       -0.011933756 -0.05037131 -0.02014802 -0.00097641617
0002a0 7b 69 38 3c e8 10 76 bc 91 a9 82 3c e1 50 01 bc
       0.011255617 -0.015018679 0.015949996 -0.007892818
0002b0 fa f6 00 3d 2a 1e 1c 3c 26 a1 6d bc 60 67 f5 3c
       0.031485535 0.009528676 -0.014503753 0.02995652
0002c0 a3 b0 a9 3a f4 20 2d 3b c0 3e 36 3c dd 10 5a 3c
       0.0012946319 0.0026417347 0.011123359 0.013309685
0002d0 04 d3 59 3c 01 be bd 3b d6 37 77 bc c5 cc 94 bb
       0.013294939 0.0057904725 -0.015088996 -0.004541012
0002e0 1c a9 a0 3c c2 df ba bb 40 2d 3c 3c a3 4a 58 3b
       0.019611888 -0.0057029435 0.011485398 0.0033003471
0002f0 33 84 d2 bb 90 54 6c 3b 8c 4d 8a 3d 7d 6d e6 3c
       -0.006424451 0.0036061145 0.06753072 0.02812838
000300 50 c8 56 b8 f4 bf 13 3d 0c 07 cb 39 10 f2 8d bb
       -5.120813e-05 0.036071733 0.00038724428 -0.0043318346
000310 2c 54 e4 3c f0 87 d3 bb b3 3c 97 bc 28 f9 f0 3c
       0.027872168 -0.006455414 -0.01846156 0.029415682
000320 8f f6 6b 3c 75 45 45 3c 88 bb 49 3c 16 07 92 bc
       0.014402046 0.012040486 0.012312777 -0.017825644
000330 7f 08 19 bc 87 e7 a3 bc 9b 77 b9 b9 be b2 29 ba
       -0.0093404045 -0.020007862 -0.00035375063 -0.0006473473
000340 28 a8 37 bd 05 8f b8 bc b9 1f d2 3b 51 28 35 3c
       -0.0448381 -0.022529135 0.006412473 0.011056975
000350 b7 d5 85 bc aa f7 db bc 34 39 cf bc 5e 12 90 3c
       -0.016337259 -0.026851494 -0.025295831 0.017586883
000360 6d ef b8 3b 83 c0 23 bd c3 0e 17 bb cd b9 0f bd
       0.005643776 -0.039978515 -0.002304957 -0.035089303
000370 83 f9 3e 39 a6 c7 e5 3a 2a 56 01 bd 0c 67 d5 bc
       0.00018212762 0.0017530813 -0.031576313 -0.026050113
000380 0a ad 2e 3d 4c 3d c7 3c 48 13 52 3c ea 11 f3 3b
       0.04264549 0.02432122 0.01282198 0.007417907
000390 06 79 a6 b9 44 62 d8 bc c3 ce e6 3b d7 b1 bc 3c
       -0.00031752157 -0.026414044 0.007043691 0.02303402
0003a0 76 04 d7 bc 05 99 b2 3b 41 2c f7 bc 6e da 63 bc
       -0.026247244 0.0054503703 -0.03017247 -0.013907058
0003b0 6b 94 0d 3a 48 37 de 3c 4a 68 0e 3b 00 17 14 bc
       0.0005400839 0.02712597 0.0021729642 -0.009038687
0003c0 2b ae 71 bc 10 8c 48 bb 6c 71 ed bc 0c 23 8c 3b
       -0.014750998 -0.0030601062 -0.028984748 0.004276639
0003d0 3c cb d7 3a 89 3f 91 bc c6 3f 2a bc b3 10 3d bc
       0.0016463767 -0.017730491 -0.010391181 -0.011539626
0003e0 ab f2 b7 3a 1c 97 bd b9 3d 97 cf 39 34 60 79 bb
       0.0014034113 -0.00036161474 0.00039594798 -0.0038051726
0003f0 18 44 38 3d f8 0a 94 bb 91 af 88 3c 91 53 88 3a
       0.044986814 -0.004517909 0.01668528 0.0010400881

actor.6.bias f4 [27]
000000 f3 17 00 bd 88 75 9f ba 88 e0 15 bd 56 8c 93 bd
       -0.03127284 -0.0012165764 -0.036591083 -0.07204501
000010 fa 5e c0 3c 8d f3 80 bd f4 09 53 bd 58 7b 4c 3d
       0.023482788 -0.062964536 -0.051523164 0.049922317
000020 69 81 61 bd 2f 00 f4 3a 32 bf 36 3d 2e 08 3f be
       -0.055055056 0.0018615777 0.04461593 -0.18655464
000030 ec 98 7f bd 14 f7 ec bc cc 8d 80 3d 95 43 e4 3d
       -0.062401697 -0.02892641 0.062770456 0.11145703
000040 c5 f9 85 bd df cb ac bd 23 4a 83 bd d7 ed 95 3d
       -0.065417804 -0.08437323 -0.06410625 0.07320755
000050 ad e5 06 3e b3 e3 84 3c 7c 3c ad bc 81 48 2d 3d
       0.13173552 0.016221857 -0.021147005 0.042305473
000060 54 7a bd 3b 9b 89 63 bb a5 83 ea 3c
       0.005782405 -0.003471947 0.028627226
