IsaacLab/logs/rsl_rl/h1_flat/2025-02-27_11-21-20/exported/policy.onnx (onnx, 178993 bytes, 8 tensors)

actor.0.weight f4 [128, 69]
0.064111024 -0.08488698 0.21638484 0.11828117 0.13163374 -0.0116170095 0.3594263 -0.09376869
0.2371123 -0.48635525 -0.043495797 -0.45372286 0.19555043 -0.3624176 -0.7550083 -0.044946235
-0.061569486 -0.51326185 -1.1582305 -0.44333544 -0.44336522 0.88447183 -0.078546226 -0.042905502
0.035921525 -0.17716633 -0.97374064 -0.19137207 -0.03077198 0.52049786 0.11510266 0.070241995
0.018805312 0.059970327 0.09498372 0.014018302 -0.07704848 -0.026564823 0.0068742507 -0.022790851
-0.013345081 -0.049316153 0.034436516 -0.11245366 -0.05856727 0.068841815 0.018247114 -0.05896883
-0.14783977 -0.044550676 0.035722945 -0.030479224 -0.28064296 0.029190473 0.17073317 -0.004987259
0.07309892 0.03721808 -0.0749565 0.03236641 0.077145234 0.06619044 0.08143154 -0.13605775
0.10741915 0.108561434 0.30390188 0.02819476 -0.093956746 -0.25396085 -0.30171883 0.1299013
-0.0075723515 -0.5206246 -0.03382684 -1.1896515 -0.0059223683 0.27112532 -0.017625106 0.011596588
0.20841123 -0.33369765 -0.5122769 -0.34013677 0.08399532 0.27643758 -0.7618066 0.4455202
-0.09670842 -0.18429321 -0.51471055 -0.8972508 -0.05073932 0.085202195 0.06819429 -0.36951214
0.31995988 0.80905235 0.1257873 0.17393221 -0.04448576 -0.051807046 0.055768948 0.10777263
0.046169184 0.05256678 0.1204149 -0.16431262 -0.001536691 -0.05169993 -0.06642705 -0.0683657
0.029721994 -0.10094971 0.015966076 0.08894004 0.17923944 -0.06124136 -0.007345061 -0.18040188
-0.026807431 -0.22574188 -0.010811568 0.12119713 -0.19565812 -0.0358202 -0.030759899 0.24285428
-0.07559715 0.048928317 0.040250767 -0.25064108 -0.116388746 -0.062667795 -0.124145515 0.0029215661
0.055954102 0.13972211 -0.1976749 -0.46843356 -0.3469977 0.21835326 -0.16454805 0.1619294
-0.31396383 -0.39574012 0.24676664 -0.14943624 -0.10934939 -0.11550919 1.3769865 0.86991405
0.3133671 0.08810449 0.14344794 -0.73300105 0.34738746 -0.55992556 -1.3778036 0.10454798
-0.61989707 -0.08569143 -0.32217494 0.28446245 -0.9763583 -0.11236488 0.003303203 -0.4501887
0.23468073 -0.0064734975 0.033955924 -0.05706904 0.029429022 0.06505376 0.03772081 0.0797725
0.034685694 -0.04646538 0.0006824806 0.1384285 -0.0776364 -0.029254697 -0.055947497 0.041065402
-0.08473462 -0.047089364 0.009265441 0.059137974 0.047943465 0.10530443 0.17306349 -0.16600333
-0.020270871 -0.08468973 0.11409347 -0.0729208 0.13974948 -0.028306521 -0.027766095 -0.1256384
0.04921723 0.063270465 -0.20747519 -0.037147373 0.07194585 0.15137221 -0.033594403 -0.16622363
-0.27992877 0.039370574 0.258396 -0.2054601 -0.03208573 -0.55612653 -0.25301915 0.2142149
-0.51074743 0.04143489 -0.14172916 -0.2932204 0.77276725 -0.04096408 0.39150026 -0.57153744
-0.5483205 -0.86229104 -0.40771925 -0.60176915 -0.9255198 0.55676115 0.012612108 -0.0031510682
-0.15709549 0.19386545 -0.2334574 -0.22095521 -0.39159444 -0.99295247 0.10924518 -0.02257431
0.001197501 -0.060093045 -0.010704675 0.047675733 -0.010353082 0.074825674 -0.070568256 -0.1418728
0.0073992605 0.051808216 -0.06407272 -0.2037383 -0.102618456 -0.04862729 -0.20257194 0.017367953
00000000: a44c 833d 3ad9 adbd fd93 5d3e 663d f23d
00000010: ffca 063e 4555 3ebc b906 b83e cd09 c0bd
00000020: 91cd 723e 8e03 f9be a628 32bd 5d4e e8be
00000030: 5f3e 483e cd8e b9be 3948 41bf 8b19 38bd
00000040: 4930 7cbd 2165 03bf e640 94bf ddfc e2be
00000050: c400 e3be bf6c 623f d8dc a0bd aebd 2fbd
00000060: 7322 133d 176b 35be 1147 79bf 0af7 43be
00000070: 8515 fcbc 593f 053f f2ba eb3d 09db 8f3d
00000080: 990d 9a3c 72a3 753d d386 c23d 05ad 653c
00000090: 98cb 9dbd 799e d9bc 6541 e13b e1b3 babc
000000a0: 54a5 5abc bcff 49bd 4e0d 0d3d 1b4e e6bd
000000b0: 3ce4 6fbd f0fc 8c3d f97a 953c 4d89 71bd
000000c0: 4f63 17be c57a 36bd 3952 123d 91af f9bc
000000d0: 6fb0 8fbe dc20 ef3c add4 2e3e 296c a3bb
000000e0: e3b4 953d fc71 183d cb82 99bd a492 043d
000000f0: 52fe 9d3d da8e 873d 94c5 a63d b952 0bbe
00000100: 92fe db3d 7555 de3d 0799 9b3e b3f8 e63c
00000110: 656c c0bd 2807 82be e47a 9abe d904 053e
00000120: 7d21 f8bb a747 05bf 038e 0abd 8046 98bf
00000130: 6d10 c2bb f0d0 8a3e 8762 90bc 9eff 3d3c
00000140: c169 553e 6bda aabe 9424 03bf 6826 aebe
00000150: bd05 ac3d 3a89 8d3e c205 43bf 391b e43e
00000160: 100f c6bd 5cb7 3cbe 12c4 03bf 3ab2 65bf
00000170: 09d4 4fbd 7d7e ae3d 73a9 8b3d b230 bdbe
00000180: c8d1 a33e 0e1e 4f3f 63ce 003e 491b 323e
00000190: b336 36bd a033 54bd fb6d 643d e6b7 dc3d
000001a0: e61b 3d3d 4450 573d 169c f63d 9141 28be
000001b0: cb6a c9ba 4ec3 53bd e80a 88bd 5103 8cbd
000001c0: 8a7b f33c b9be cebd 4acb 823c 3226 b63d
000001d0: 8b8a 373e 38d8 7abd d6ae f0bb 45bb 38be
000001e0: 429b dbbc e128 67be 0123 31bc 3336 f83d
000001f0: 9a5a 48be 34b8 12bd 2ffc fbbc cbae 783e
00000200: aed2 9abd 0f69 483d fddd 243d 0754 80be
00000210: 395d eebd f957 80bd 0140 febd bf77 3f3b
00000220: 2130 653d 5013 0f3e 4a6b 4abe 86d6 efbe
00000230: afa9 b1be ff97 5f3e 497f 28be d2d0 253e
00000240: debf a0be 739e cabe 65b0 7c3e d005 19be
00000250: 93f2 dfbd 1590 ecbd 1841 b03f b0b2 5e3f
00000260: a771 a03e 2070 b43d 04e4 123e f5a5 3bbf
00000270: c5dc b13e 4857 0fbf de5b b0bf 401d d63d
00000280: 93b1 1ebf fd7e afbd 1df4 a4be 10a5 913e
00000290: 9ef2 79bf 8f1f e6bd 8d7a 583b 227f e6be
000002a0: 2550 703e a21f d4bb 5e15 0b3d 3ac1 69bd
000002b0: 2215 f13c e83a 853d 2381 1a3d c45f a33d
000002c0: 9612 0e3d 7b52 3ebd 7fe8 323a 33c0 0d3e
000002d0: d5ff 9ebd 8ca7 efbc 3429 65bd 3234 283d
000002e0: 5889 adbd c7e0 40bd 14ce 173c a93a 723d
000002f0: 5e60 443d d9a9 d73d 8e37 313e c7fc 29be
00000300: 190f a6bc cf71 adbd d6a9 e93d 8057 95bd
00000310: 7d1a 0f3e 14e3 e7bc b975 e3bc 5aa7 00be
00000320: 0298 493d f293 813d 6074 54be d827 18bd
00000330: 5958 933d 5101 1b3e 499a 09bd 8736 2abe
00000340: d352 8fbe 0a43 213d 7b4c 843e 2264 52be
00000350: 546c 03bd 4f5e 0ebf ba8b 81be 275b 5b3e
00000360: 58c0 02bf a2b7 293d 7321 11be fc20 96be
00000370: 13d4 453f f3c9 27bd b972 c83e 4750 12bf
00000380: bb5e 0cbf 1bbf 5cbf 94c0 d0be 8b0d 1abf
00000390: deee 6cbf e687 0e3f 04a3 4e3c 2782 4ebb
000003a0: a4dd 20be aa84 463e 750f 6fbe 1542 62be
000003b0: 117f c8be 2232 7ebf f0bb df3d c2ed b8bc
000003c0: 77f5 9c3a 2024 76bd a962 2fbc a147 433d
000003d0: f99f 29bc 343e 993d 1786 90bd 1a47 11be
000003e0: 7f75 f23b da34 543d 8f38 83bd c6a0 50be
000003f0: a029 d2bd 692d 47bd 056f 4fbe 3d47 8e3c

actor.0.bias f4 [128]
0.04230815 -0.19817066 0.038563598 -0.13721846 -0.18345794 -0.114960685 -0.048177574 -0.14941333
-0.12317759 0.25738257 0.057674397 0.20309399 -0.02271929 -0.2775302 0.15760492 -0.16558531
0.103201404 -0.19660693 0.08430925 0.02258135 0.16357149 -0.080280505 0.09489287 0.051538654
-0.21293245 0.028884681 -0.0673972 -0.18618445 -0.12770927 -0.06823626 -0.16305092 -0.082171015
0.08976624 -0.039882634 -0.23664413 -0.038898736 -0.049998727 -0.11701204 0.1247252 0.17717278
-0.15691294 -0.09397754 -0.4088249 -0.14522408 -0.21831562 -0.060717866 -0.15666914 -0.20670004
0.11273695 -0.0035709422 -0.13476004 -0.102896556 -0.2742251 0.031320665 -0.2731966 0.0557635
-0.0760857 0.09459596 -0.22372174 -0.09369891 0.12183378 0.07709033 -0.177564 0.00805577
-0.09829469 0.057918414 -0.2261865 0.09460726 -0.09370399 0.07290014 -0.18872395 0.18999937
-0.15612732 0.09171947 -0.01066308 -0.02794296 -0.04540089 0.06795612 -0.1562188 -0.19709699
-0.023472672 -0.007741381 -0.23907042 -0.15655595 -0.18449977 -0.18204689 0.26197755 -0.28168547
-0.017537028 0.026337337 0.056205403 -0.016577229 -0.081801556 0.0811126 0.0070979595 -0.1952456
0.09626577 -0.19413662 0.18012224 -0.15297341 -0.034949925 -0.07007118 0.12368091 -0.041955307
0.09577039 -0.1801477 0.062991604 0.018027078 -0.13776894 -0.23296207 0.04189655 0.17177448
0.035091788 -0.030299801 0.05603075 0.045596708 0.16988616 -0.13578628 -0.028118169 0.04299798
0.12722658 -0.19286457 -0.04080253 0.013893382 0.15542258 -0.12823163 -0.088495746 -0.29690507
00000000: 504b 2d3d 40ed 4abe ddf4 1d3d ff82 0cbe
00000010: 66dc 3bbe 8270 ebbd d955 45bd cfff 18be
00000020: 8844 fcbd a6c7 833e fd3b 6c3d dff7 4f3e
00000030: ce1d babc 7018 8ebe 2f63 213e 328f 29be
00000040: 425b d33d 5453 49be 54aa ac3d 86fc b83c
00000050: 497f 273e 1b6a a4bd 3157 c23d 321a 533d
00000060: f70a 5abe 919f ec3c 8b07 8abd 23a7 3ebe
00000070: 38c6 02be 74bf 8bbd d2f6 26be 4749 a8bd
00000080: 5dd7 b73d f95b 23bd d752 72be 4854 1fbd
00000090: 77cb 4cbd 02a4 efbd ed6f ff3d c86c 353e
000000a0: c9ad 20be 4c77 c0bd 7f51 d1be 9fb5 14be
000000b0: 218e 5fbe 4cb3 78bd e06d 20be 2da9 53be
000000c0: a1e2 e63d 7806 6abb 89fe 09be 6ebb d2bd
000000d0: 3b67 8cbe 194a 003d 6de0 8bbe 4568 643d
000000e0: d2d2 9bbd 87bb c13d 5017 65be 37e5 bfbd
000000f0: fd83 f93d 89e1 9d3d 56d3 35be 59fc 033c
00000100: ba4e c9bd dc3b 6d3d 6f9d 67be 73c1 c13d
00000110: e1e7 bfbd ab4c 953d da40 41be 328f 423e
00000120: d7df 1fbe 6bd7 bb3d 33b4 2ebc a2e8 e4bc
00000130: 49f6 39bd 942c 8b3d d2f7 1fbe cbd3 49be
00000140: c349 c0bc 69ab fdbb e0ce 74be 3450 20be
00000150: 82ed 3cbe 806a 3abe ec21 863e 1439 90be
00000160: d0a9 8fbc 66c1 d73c a337 663d f8cc 87bc
00000170: 9387 a7bd 5d1e a63d 0096 e83b 76ee 47be
00000180: fd26 c53d c0cb 46be f771 383e 10a5 1cbe
00000190: a727 0fbd 7b81 8fbd 6b4c fd3d 54d9 2bbd
000001a0: 4423 c43d a378 38be be01 813d 86ad 933c
000001b0: 4d13 0dbe 9c8d 6ebe b89b 2b3d a6e5 2f3e
000001c0: 68bc 0f3d 4a37 f8bc 8080 653d 9dc3 3a3d
000001d0: a3f6 2d3e 8f0b 0bbe 1358 e6bc a61e 303d
000001e0: af47 023e 4a7e 45be 8e20 27bd 11a1 633c
000001f0: 1927 1f3e 274f 03be 423d b5bd f103 98be

actor.2.weight f4 [128, 128]
-0.0065068603 -0.050733015 -0.15116186 -0.09291742 -0.057775058 0.021433523 -0.04349991 0.11139849
-0.043934092 0.24530318 -0.16926885 0.056516133 -0.13689616 -0.13631412 0.11006074 -0.1360534
0.112855375 -0.07204913 0.028092183 0.05827101 -0.0857037 -0.06448153 -0.04571379 0.04758931
-0.01796645 -0.015408582 0.02791674 0.0039626514 -0.13950351 0.013434462 0.06433549 -0.023554904
0.15175809 -0.050613124 0.0073896516 0.042330578 0.013187511 0.12867463 0.059265938 0.052410364
-0.090542234 -0.022452006 -0.013978292 -0.16227382 -0.0029043758 0.04631522 0.005787533 0.009987542
0.2485374 -0.05594246 -0.08042897 0.17617333 -0.018736746 0.040759075 -0.20850725 0.0016445373
0.041908268 0.065578796 0.024234483 0.15756577 -0.02133999 0.0047248635 -0.14624499 -0.14621049
0.14287177 -0.03338691 -0.020373931 0.05876776 -0.026539624 0.05231239 -0.07251075 0.14849746
0.06840871 -0.06034986 -0.12152869 0.035123106 0.022352494 0.011617067 0.048143804 -0.05171778
-0.06745806 -0.011660821 -0.10491163 -0.0375854 0.062155724 0.013020031 0.020110054 0.10228165
-0.018188434 0.05235238 -0.031538133 -0.018240102 0.055121623 -0.10636626 0.07479279 -0.055957604
0.05389986 -0.06484474 0.15681738 0.15598482 0.12968597 -0.008139159 0.06476351 -0.113030836
-0.0799179 0.051830832 0.14163403 0.099168524 0.05461905 -0.05128524 -0.035137415 0.021525098
-0.27398247 0.025705757 0.023536574 -0.07340838 -0.042165484 -0.02746839 0.061461266 -0.053254608
0.042380687 0.086775824 0.13286382 0.009508767 0.043971047 -0.018555531 0.14039311 0.048594996
0.072159894 -0.006327749 -0.12180164 0.13176766 -0.04722237 -0.14155763 -0.05985362 0.058880046
-0.00090828264 0.11917452 -0.06900816 0.0039757174 0.05211445 0.07340069 0.05043085 -0.10788666
-0.08703957 -0.05093473 -0.012112805 -0.06451945 -0.1761755 -0.017897068 -0.11779194 0.12591323
0.10834189 0.036068767 -0.07213372 -0.04961154 0.028271973 0.063338675 0.21515484 0.052841663
0.11641679 -0.15349443 0.01899807 0.072172634 -0.3393058 -0.03097603 -0.11817337 -0.0970723
0.012746446 -0.090607755 0.16099451 -0.0943852 0.050227582 0.023567375 -0.1330721 -0.011007746
0.08147445 -0.054180324 0.0150837535 -0.0002455953 0.10511226 0.079212844 0.076594114 -0.019084606
-0.08723787 -0.07681511 -0.04371337 -0.030463316 -0.08969593 0.08695745 0.10036433 -0.026027573
-0.023599366 0.06893561 -0.018906724 -0.06923976 0.12377464 -0.011038175 -0.084529266 -0.056123592
-0.051575348 -0.046218477 -0.15519653 -0.009258222 0.057593778 0.042843312 0.03494968 -0.044763885
-0.004722708 0.121519506 -0.08347073 0.12499188 0.031974867 0.0410137 -0.081178516 0.12090283
-0.06423664 -0.115258306 0.03329617 -0.191173 0.08630343 -0.11868051 0.044067882 -0.08359701
-0.2554658 -0.150212 -0.09539246 -0.09221711 0.004055479 0.08830362 -0.07098511 -0.10429382
-0.110429004 -0.060015652 0.0078753 0.11807141 -0.033548184 0.14896215 -0.030655429 0.018256316
0.08384448 0.07446326 -0.015730219 -0.07785688 -0.040847886 0.031076886 0.032690536 0.051006276
0.1325706 0.26872882 -0.029054567 -0.07454732 0.07070779 -0.08366824 0.0839936 0.07459513
00000000: 8037 d5bb 6ccd 4fbd 2dca 1abe 7d4b bebd
00000010: 8aa5 6cbd 5b95 af3c f62c 32bd e424 e43d
00000020: 3cf4 33bd c230 7b3e d054 2dbe 767d 673d
00000030: 822e 0cbe ee95 0bbe 8667 e13d 9551 0bbe
00000040: b820 e73d 7f8e 93bd 9421 e63c 95ad 6e3d
00000050: 6c85 afbd e40e 84bd 623e 3bbd 02ed 423d
00000060: 602e 93bc 4774 7cbc a6b1 e43c 21d9 813b
00000070: 02da 0ebe 381c 5c3c 53c2 833d 37f6 c0bc
00000080: 7966 1b3e b54f 4fbd e424 f23b d462 2d3d
00000090: 6e10 583c 48c3 033e d7c0 723d 40ac 563d
000000a0: 356e b9bd 45ed b7bc 3505 65bc 1c2b 26be
000000b0: 5757 3ebb 07b5 3d3d 58a5 bd3b caa2 233c
000000c0: 9780 7e3e ec23 65bd f2b7 a4bd c866 343e
000000d0: ce7d 99bc fdf2 263d ed82 55be 848d d73a
000000e0: 01a8 2b3d 2d4e 863d 6587 c63c ec58 213e
000000f0: 34d1 aebc 07d3 9a3b 3fc1 15be 34b8 15be
00000100: fa4c 123e b6c0 08bd 3be7 a6bc 76b6 703d
00000110: a069 d9bc 8445 563d 8480 94bd b80f 183e
00000120: de19 8c3d 6a31 77bd 09e4 f8bd 3fdd 0f3d
00000130: 941c b73c 8355 3e3c 7032 453d 06d6 53bd
00000140: 7427 8abd 070d 3fbc e9db d6bd 26f3 19bd
00000150: 0097 7e3d f851 553c d7bd a43c 0b79 d13d
00000160: e9ff 94bc 736f 563d 212e 01bd 446c 95bc
00000170: 36c7 613d 8ed6 d9bd f62c 993d cd33 65bd
00000180: 19c6 5c3d 52cd 84bd bc94 203e 7cba 1f3e
00000190: 66cc 043e 1b5a 05bc bba2 843d b67c e7bd
000001a0: ffab a3bd 914c 543d 8308 113e de18 cb3d
000001b0: 3ab8 5f3d 7910 52bd 40ec 0fbd 6755 b03c
000001c0: 6e47 8cbe e194 d23c c6cf c03c 2257 96bd
000001d0: b7b5 2cbd 6405 e1bc cfbe 7b3d 8121 5abd
000001e0: 5f97 2d3d 86b7 b13d 740d 083e a9ca 1b3c
000001f0: fc1a 343d c501 98bc 36c3 0f3e 8c0b 473d
00000200: 91c8 933d 0259 cfbb 2373 f9bd 1aee 063e
00000210: 3e6c 41bd 7cf4 10be 1229 75bd 342c 713d
00000220: d119 6eba c511 f43d 2654 8dbd bc46 823b
00000230: f675 553d 1a53 963d 9490 4e3d aef3 dcbd
00000240: cd41 b2bd efa0 50bd c974 46bc c622 84bd
00000250: 5a67 34be df9c 92bc e73c f1bd 66ef 003e
00000260: 5ae2 dd3d d8bc 133d d8ba 93bd 7835 4bbd
00000270: a09a e73c b5b7 813d 8d51 5c3e 8070 583d
00000280: ed6b ee3d a52d 1dbe d7a1 9b3c 3fcf 933d
00000290: 7db9 adbe 71c1 fdbc e104 f2bd d8cd c6bd
000002a0: 78d6 503c 8f90 b9bd bfdb 243e 074d c1bd
000002b0: 70bb 4d3d 5e10 c13c 0d44 08be d559 34bc
000002c0: 14dc a63d 30ec 5dbd d921 773c 3ec3 80b9
000002d0: 1945 d73d 583a a23d 60dd 9c3d 5257 9cbc
000002e0: c5a9 b2bd 3e51 9dbd ca0c 33bd 348e f9bc
000002f0: 80b2 b7bd bf16 b23d d08b cd3d c737 d5bc
00000300: 7553 c1bc 1d2e 8d3d 46e2 9abc 93cd 8dbd
00000310: 8f7d fd3d 76d9 34bc ae1d adbd dae1 65bd
00000320: ac40 53bd 964f 3dbd d7eb 1ebe ccaf 17bc
00000330: 74e7 6b3d 787c 2f3d 6527 0f3d 565a 37bd
00000340: f2c0 9abb 38df f83d b4f2 aabd befb ff3d
00000350: 14f8 023d fbfd 273d ec40 a6bd e79b f73d
00000360: 808e 83bd 8c0c ecbd 9161 083d dbc2 43be
00000370: dabf b03d c40e f3bd 8680 343d e934 abbd
00000380: 6acc 82be 2dd1 19be 1f5d c3bd 53dc bcbd
00000390: d3e3 843b 87d8 b43d a460 91bd 0098 d5bd
000003a0: 9a28 e2bd f9d2 75bd 6707 013c 6ccf f13d
000003b0: d269 09bd 8989 183e 1821 fbbc 458e 953c
000003c0: a8b6 ab3d 3280 983d a9dc 80bc 6e73 9fbd
000003d0: 1d50 27bd f494 fe3c 83e6 053d f5eb 503d
000003e0: 96c0 073e d396 893e d803 eebc 44ac 98bd
000003f0: 3fcf 903d 415a abbd d604 ac3d 55c5 983d

actor.2.bias f4 [128]
0.070600055 -0.13281502 0.023959676 -0.01514749 -0.13307324 -0.22542873 0.016468836 -0.0064120945
-0.06949312 -0.12680832 -0.12930174 -0.07693345 0.009801782 -0.055649504 -0.08594192 -0.042013664
-0.20994139 -0.09229916 -0.06815781 -0.14913134 -0.06820815 -0.21626078 0.04738646 0.022414483
-0.12997714 -0.08879766 -0.04195287 -0.06619505 -0.033149246 -0.21135749 -0.1329446 -0.14325583
-0.12869206 -0.15055484 -0.05552825 -0.1290394 -0.10214792 -0.13091348 0.0028545184 -0.2191742
-0.019731645 -0.1334024 -0.1356551 -0.0390124 -0.2247432 -0.047722507 -0.015343822 -0.037987147
-0.0977761 -0.1977627 -0.1348159 -0.11102669 -0.12126075 -0.20624317 -0.052143075 -0.09743314
0.05546443 -0.12781446 -0.05634372 0.057905626 -0.11932011 -0.14729893 -0.22096512 -0.086787425
-0.055170394 -0.057511795 -0.12727462 0.10023128 -0.09836752 -0.1087354 -0.07890195 0.13735364
-0.10144203 -0.17100887 -0.11428474 -0.18771756 -0.12629145 -0.1820101 -0.105555624 -0.12998985
-0.17180602 -0.0028134214 -0.05416472 -0.14349416 -0.08600251 0.009864721 -0.05537872 -0.2588358
-0.07935691 -0.10527318 -0.077506214 -0.118863456 0.018501852 -0.03503079 0.0012633208 -0.04299089
0.0076170736 -0.108869985 -0.16481036 -0.022153223 -0.20571122 -0.16830762 0.053656682 -0.056749478
-0.06823328 -0.10566427 -0.12697484 -0.13794132 -0.09513561 -0.15172619 -0.18305616 -0.15505451
-0.23804592 -0.18322071 -0.17284708 -0.15880467 -0.036343392 0.011741552 -0.1527217 -0.14482588
-0.061094023 -0.15205483 -0.20701672 -0.17546433 -0.12832567 -0.16055477 0.011164704 -0.03728821
00000000: c396 903d a900 08be 1547 c43c 2e2d 78bc
00000010: 5a44 08be cad6 66be a7e9 863c 8c1c d2bb
00000020: 6952 8ebd 0ada 01be ad67 04be 498f 9dbd
00000030: a797 203c bcf0 63bd 5102 b0bd 8516 2cbd
00000040: e0fa 56be 5807 bdbd 5296 8bbd e3b5 18be
00000050: b7b0 8bbd 7773 5dbe 4e18 423d 949e b73c
00000060: ba18 05be 8cdb b5bd c6d6 2bbd 4591 87bd
00000070: 81c7 07bd 196e 58be a122 08be a8b1 12be
00000080: dac7 03be 0c2b 1abe 9771 63bd e822 04be
00000090: ee32 d1bd 2f0e 06be df12 3b3b 346f 60be
000000a0: 42a4 a1bc a49a 08be 2ce9 0abe 77cb 1fbd
000000b0: 1523 66be ad78 43bd a764 7bbc 6998 1bbd
000000c0: d63e c8bd 4e82 4abe 2e0d 0abe f661 e3bd
000000d0: 8e57 f8bd 6931 53be fa93 55bd 078b c7bd
000000e0: ac2e 633d cbe1 02be acc8 66bd 732e 6d3d
000000f0: 1a5e f4bd 88d5 16be ae44 62be 9bbd b1bd
00000100: 5afa 61bd 7d91 6bbd 4754 02be 0f46 cd3d
00000110: e974 c9bd aab0 debd 5897 a1bd 6fa6 0c3e
00000120: d7c0 cfbd f31c 2fbe 1e0e eabd 0839 40be
00000130: 8c52 01be db60 3abe 8c2d d8bd 0f1c 05be
00000140: ebed 2fbe 6161 38bb d3db 5dbd 22f0 12be
00000150: 1522 b0bd a49f 213c ccd4 62bd 2086 84be
00000160: e085 a2bd 7799 d7bd 94bb 9ebd af6e f3bd
00000170: 3291 973c 727c 0fbd 0396 a53a 3717 30bd
00000180: a598 f93b 3af7 debd 0cc4 28be ad7a b5bc
00000190: f6a5 52be d558 2cbe 1cc7 5b3d 2472 68bd
000001a0: e4bd 8bbd 8266 d8bd b105 02be 7d40 0dbe
000001b0: 75d6 c2bd 1c5e 1bbe 1373 3bbe 9cc6 1ebe
000001c0: 4fc2 73be 369e 3bbe d3fe 30be b19d 22be
000001d0: cfdc 14bd a35f 403c 1463 1cbe 3c4d 14be
000001e0: ba3d 7abd 43b4 1bbe 31fc 53be ecac 33be
000001f0: ce67 03be 7868 24be 2aec 363c 86bb 18bd

actor.4.weight f4 [128, 128]
0.06121658 0.05140089 0.0037568226 -0.016710913 0.014231446 -0.06293638 -0.050254565 0.14694394
-0.044719875 0.068808086 -0.04417613 0.07120775 -0.012288765 -0.12673384 -0.034611996 0.08665528
-0.018129025 0.027905028 -0.031496838 0.04870342 -0.036550175 0.08648091 0.071305394 -0.09001478
-0.10070787 0.10412235 -0.07561152 0.20193954 -0.09851657 0.068414845 0.107685186 0.07768815
0.07953442 -0.0064007747 0.07286875 -0.012316374 -0.051588207 0.050141122 -0.002574483 -0.048015878
0.021192433 -0.031380422 0.123931944 -0.12098051 0.22056942 -0.08003971 0.07246819 -0.11274786
0.07758076 -0.018151615 0.0531278 -0.07394606 0.075608395 0.018134905 0.006417376 -0.032018647
-0.007606843 -0.05818544 0.04616905 -0.06526772 0.046060637 0.04521358 0.081873946 0.15189433
0.09255386 0.018644473 0.0079408 -0.08238167 0.10998346 0.0664403 0.027646577 -0.1815852
0.1126128 0.1019659 -0.06606128 0.13156456 -0.04465896 0.035226915 0.052147623 -0.02166893
0.11362125 -0.0023840787 0.07081156 0.021184498 0.010706285 0.053356163 -0.169684 0.14793514
0.10024428 -0.013738888 -0.1073938 -0.014991046 -0.02495919 -0.013815058 -0.036842342 0.02278289
-0.040871814 0.0054349084 0.023230871 0.09236635 0.0063861017 -0.14442967 -0.05328719 -0.035050362
-0.01916914 0.007228772 -0.071732536 0.0056482824 0.0024858972 0.10881785 -0.15249103 -0.15481497
-0.060723327 -0.05045206 0.022859916 -0.017407587 0.12638195 0.02696589 -0.018085863 0.008731623
-0.024035947 0.08070921 0.07202263 0.1279505 0.17274503 0.07194828 -0.03908736 0.043850306
-0.09120485 -0.057255924 -0.012930526 -0.12452958 -0.080144376 -0.028994922 0.05149934 -0.052569248
-0.063557856 0.08138087 -0.09503 -0.004894526 0.059533782 -0.01494164 0.02171607 -0.07982239
0.052463483 0.023619086 -0.09627012 0.14132538 -0.11002342 0.10005703 -0.025189657 -0.05277198
-0.02498403 0.037081547 -0.0508861 -0.116637796 0.108730935 -0.111942224 -0.018629773 0.016398378
0.05594139 -0.036552414 0.011976897 0.04478738 -0.086158164 0.073309705 -0.011367773 -0.0757427
-0.017618345 -0.12932809 0.068081476 -0.056377664 0.016104398 -0.03219294 0.027322078 -0.013246582
-0.05364972 0.12914295 0.022673775 0.076224715 -0.030528847 0.13068493 -0.05969329 0.091652066
-0.048212517 0.040486548 -0.048885465 -0.013206741 0.028821096 0.07609117 -0.054014463 0.0914093
0.093541205 0.08232364 -0.0036781202 0.083406344 0.058942087 0.036061026 0.074607976 -0.0001252082
0.023673074 0.07410495 0.13981253 -0.035721216 0.03583773 -0.069840945 0.017960588 0.05884797
-0.0008793778 -0.06165081 -0.07459575 -0.059201784 -0.09111793 0.022889545 -0.024440773 -0.031119378
0.011245322 -0.01463993 0.07476877 0.023633877 -0.028768672 -0.04115957 -0.05083734 -0.02641308
0.118429 0.033460833 -0.13018306 -0.06552186 0.008096487 -0.0051870085 0.041578524 0.07301636
-0.018167265 -0.081536286 0.085568815 0.039858684 -0.03780489 -0.09079384 0.11962612 0.05475193
-0.06286001 -0.002739518 0.025111323 0.0044222227 0.084074594 -0.121342264 0.17974891 0.01006836
0.008693466 -0.05019304 -0.13190307 0.076956384 -0.016023356 -0.028507717 -0.03793963 0.022146532
00000000: 3dbe 7a3d bd89 523d 0635 763b 53e5 88bc
00000010: 032b 693c cae4 80bd bbd7 4dbd 7978 163e
00000020: 302c 37bd 41eb 8c3d 08f2 34bd 5ed5 913d
00000030: d156 49bc 84c6 01be 4fc5 0dbd 5378 b13d
00000040: 5283 94bc 1699 e43c d402 01bd 3d7d 473d
00000050: a3b5 15bd e71c b13d 9008 923d ab59 b8bd
00000060: ee3f cebd 193e d53d 36da 9abd 3dc9 4e3e
00000070: 0ec3 c9bd 151d 8c3d 0d8a dc3d f71a 9f3d
00000080: f1e2 a23d 97bd d1bb 363c 953d 9eca 49bc
00000090: 284e 53bd c760 4d3d a8b8 28bb 4cac 44bd
000000a0: c19b ad3c c288 00bd 08d0 fd3d a1c4 f7bd
000000b0: f3dc 613e dceb a3bd 346a 943d 5ae8 e6bd
000000c0: a9e2 9e3d b2b2 94bc 899c 593d 0871 97bd
000000d0: 93d8 9a3d a78f 943c da48 d23b fc25 03bd
000000e0: d342 f9bb db53 6ebd c21b 3d3d 15ab 85bd
000000f0: 14aa 3c3d e031 393d 87ad a73d 308a 1b3e
00000100: e18c bd3d 4bbc 983c 211a 023c b9b7 a8bd
00000110: 023f e13d da11 883d 137b e23c 78f1 39be
00000120: 8aa1 e63d 7fd3 d03d 234b 87bd dcb8 063e
00000130: 50ec 36bd 194a 103d bf98 553d 0a83 b1bc
00000140: 42b2 e83d 343e 1cbb a705 913d 1d8b ad3c
00000150: 6a69 2f3c fe8b 5a3d a4c1 2dbe 4f7c 173e
00000160: e04c cd3d 1319 61bc 48f1 dbbd 019d 75bc
00000170: 3777 ccbc 8e58 62bc ffe7 16bd 2fa3 ba3c
00000180: 3469 27bd 5117 b23b ab4e be3c 922a bd3d
00000190: 8142 d13b 5fe5 13be ab43 5abd f890 0fbd
000001a0: 9a08 9dbc 56df ec3b 82e8 92bd 3a15 b93b
000001b0: 6fea 223b e5db de3d 9c26 1cbe d187 1ebe
000001c0: 06b9 78bd d2a6 4ebd b844 bb3c 5b9a 8ebc
000001d0: 456a 013e 92e7 dc3c ce28 94bc 150f 0f3c
000001e0: 09e7 c4bc df4a a53d 9a80 933d 7505 033e
000001f0: 13e4 303e 9f59 933d 111a 20bd 619c 333d
00000200: 9cc9 babd 3085 6abd 8fda 53bc 5d09 ffbd
00000210: bc22 a4bd c286 edbc f9f0 523d da52 57bd
00000220: 9f2a 82bd 03ab a63d 179f c2bd 4362 a0bb
00000230: b2d9 733d c8cd 74bc e6e5 b13c ec79 a3bd
00000240: f3e3 563d d07c c13c 4529 c5bd 9ab7 103e
00000250: f553 e1bd b3ea cc3d 8a5a cebc 6f27 58bd
00000260: 4fab ccbc d2e2 173d f16d 50bd ccdf eebd
00000270: 53ae de3d f741 e5bd 779d 98bc e455 863c
00000280: cd22 653d fcb7 15bd bf3a 443c f972 373d
00000290: b173 b0bd 6623 963d e53f 3abc fd1e 9bbd
000002a0: 5954 90bc 956e 04be 4d6e 8b3d 44ec 66bd
000002b0: 5fed 833c bfdc 03bd 8dd2 df3c 3108 59bc
000002c0: cfbf 5bbd 0d3e 043e 5abe b93c b41b 9c3d
000002d0: a217 fabc 45d2 053e f480 74bd 14b4 bb3d
000002e0: 7d7a 45bd 39d5 253d 203c 48bd 1661 58bc
000002f0: 381a ec3c b0d5 9b3d 453e 5dbd cd34 bb3d
00000300: 8892 bf3d 4c99 a83d 9e0c 71bb f2d0 aa3d
00000310: 426d 713d bab4 133d 11cc 983d 524a 03b9
00000320: 09ee c13c 56c4 973d 042b 0f3e 6950 12bd
00000330: 95ca 123d c508 8fbd 1522 933c 920a 713d
00000340: 0c86 66ba 8f85 7cbd a8c5 98bd 927d 72bd
00000350: 0a9c babd db82 bb3c 0438 c8bc 11ee febc
00000360: 4d3e 383c 51dc 6fbc 5e20 993d d59b c13c
00000370: 47ac ebbc f096 28bd d13a 50bd 3e60 d8bc
00000380: e78a f23d 3a0e 093d b54e 05be 5330 86bd
00000390: 21a7 043c c8f7 a9bb 3e4e 2a3d 9a89 953d
000003a0: 84d3 94bc 7ffc a6bd b43e af3d dc42 233d
000003b0: 4dd9 1abd 1ff2 b9bd 8afe f43d 8f43 603d
000003c0: c0bc 80bd 7c89 33bb 43b6 cd3c 4be8 903b
000003d0: 4d2f ac3d 4b82 f8bd 1910 383e c3f5 243c
000003e0: 0a6f 0e3c 3897 4dbd 9911 07be 4f9b 9d3d
000003f0: 6a43 83bc 0489 e9bc 9666 1bbd a56c b53c

actor.4.bias f4 [128]
-0.12200391 -0.04769333 -0.12358724 -0.035177477 -0.06329464 -0.054974586 -0.011624954 0.0029662545
-0.18614703 -0.08301306 -0.10275344 -0.06259629 -0.16192806 0.0009685524 -0.07923161 -0.036894012
-0.09070168 -0.011687686 -0.041116305 0.023605082 0.009485382 -0.07396671 -0.00606094 -0.10967937
0.01219432 -0.07340517 -0.09563658 0.04290905 -0.14357586 -0.17275278 -0.054630455 -0.090812415
-0.05288231 -0.10246491 -0.09356694 0.058023658 -0.13763942 -0.13189697 -0.05035959 0.0007237903
-0.03619807 0.018073553 -0.188682 0.005903041 -0.061940122 -0.13476855 -0.14823352 0.010759827
-0.04579644 -0.043467734 -0.04932574 -0.04547189 -0.11670322 -0.052539594 -0.065097176 0.016089441
-0.10938277 -0.16065215 -0.14754368 -0.10371744 -0.0043598246 -0.07389129 0.039189853 -0.11888678
-0.07978478 -0.14470313 0.025402809 -0.016096853 -0.09131935 0.01216887 0.059384137 -0.016465746
-0.034663714 -0.013382563 0.0066161593 -0.13053375 -0.08291868 -0.18173598 -0.08079143 -0.07526101
-0.07027516 -0.056040928 -0.07209664 -0.054155994 -0.11676447 -0.012591584 0.017649489 -0.06120143
-0.09281468 -0.030132223 -0.05319175 0.012238498 -0.140073 -0.069187775 -0.0916224 -0.0542009
-0.06855963 -0.06321316 -0.15524478 -0.17701004 -0.11315813 0.024506161 -0.0751958 -0.1605445
-0.09982493 -0.11530114 0.019248497 -0.07802246 0.04423896 -0.1327409 -0.045854446 -0.046444494
-0.16518515 -0.062480405 -0.12227233 -0.12800206 -0.11576997 0.0119971465 0.0518323 -0.058870804
-0.05601826 0.01441586 -0.07934842 -0.09085339 0.004506503 -0.046266 0.037552573 -0.09105084
00000000: 30dd f9bd 155a 43bd 4f1b fdbd 4216 10bd
00000010: 9fa0 81bd 082d 61bd 9776 3ebc 7e65 423b
00000020: 549d 3ebe c002 aabd 6570 d2bd 7c32 80bd
00000030: 78d0 25be 74e6 7d3a 2f44 a2bd 2d1e 17bd
00000040: cdc1 b9bd b57d 3fbc 9269 28bd 725f c13c
00000050: 9368 1b3c dc7b 97bd da9a c6bb 949f e0bd
00000060: afca 473c 7355 96bd 1cdd c3bd 66c1 2f3d
00000070: 8d05 13be 1be6 30be 2fc4 5fbd dcfb b9bd
00000080: 1f9b 58bd 1fd9 d1bd 06a0 bfbd 37aa 6d3d
00000090: 59f1 0cbe 0010 07be dc45 4ebd bfbc 3d3a
000000a0: 6d44 14bd fd0e 943c db35 41be 4c6e c13b
000000b0: edb4 7dbd c400 0abe 87ca 17be fc49 303c
000000c0: 0c95 3bbd 390b 32bd ca09 4abd bc40 3abd
000000d0: 1902 efbd c233 57bd ab51 85bd 01ce 833c
000000e0: 1304 e0bd ff81 24be b115 17be cf69 d4bd
000000f0: dcdc 8ebb 5154 97bd 8a85 203d ea7a f3bd
00000100: 3466 a3bd 0f2d 14be 8d19 d03c 8cdd 83bc
00000110: a405 bbbd f15f 473c c83c 733d 2ce3 86bc
00000120: 8afb 0dbd 8a42 5bbc 5ecc d83b a4aa 05be
00000130: 45d1 a9bd ff18 3abe fa75 a5bd 7222 9abd
00000140: 6cec 8fbd 2c8b 65bd 67a7 93bd add2 5dbd
00000150: 3622 efbd ee4c 4ebc a995 903c 5aae 7abd
00000160: 9f15 bebd dad7 f6bc 98df 59bd fb83 483c
00000170: 4c6f 0fbe 52b2 8dbd 86a4 bbbd c301 5ebd
00000180: fe68 8cbd e775 81bd 7df8 1ebe 1f42 35be
00000190: 73bf e7bd 25c1 c83c 4100 9abd c765 24be
000001a0: 0371 ccbd 0123 ecbd 06af 9d3c 3dca 9fbd
000001b0: e933 353d 3bed 07be dfd1 3bbd 953c 3ebd
000001c0: 4c26 29be 74eb 7fbd ea69 fabd f912 03be
000001d0: ce18 edbd ae8f 443c 1b4e 543d 8322 71bd
000001e0: 6773 65bd 8030 6c3c 6d81 a2bd 5811 babd
000001f0: 4aab 933b 6b81 3dbd bad0 193d dd78 babd

actor.6.weight f4 [19, 128]
0.02804997 -0.016369475 -0.005564988 0.00039391196 -0.010844082 -0.014778861 0.0056730853 -0.003408736
0.012568022 0.0249397 0.021038378 0.016848315 -0.006063559 0.0071114004 0.0068064197 -0.0020101669
0.0024399078 0.0011027869 0.00013102718 0.018552441 0.0011127151 -0.0056897416 0.033000704 -0.0051289243
-0.0040695095 -0.006247716 0.027874397 0.0020108067 -0.007280706 0.00092493213 0.035267893 0.007962178
0.005118281 -0.005795687 0.02230247 -0.040692832 -0.04228967 -0.018454276 0.020784482 0.020360744
0.02449536 -0.013083108 0.031848665 -0.00864762 0.0009755308 -0.014101029 -0.029384792 -0.07101295
-0.0078915525 0.0039729113 0.0073875166 -0.017419716 -0.005154983 -0.001756483 -0.0018466085 -0.010812489
0.02723847 -0.0022371525 0.009019555 -0.0027193541 -0.022223607 -0.0014446658 0.010776826 0.0013510155
0.007521934 0.030399218 -0.016329091 -0.013239311 -0.007463826 0.027592685 0.0015076151 0.007780008
0.0047695898 -0.0071208286 -0.009179098 0.02211105 0.012237418 0.06242283 -0.00034330206 0.010020653
0.015613808 0.03175559 -0.023937456 0.0067215217 0.0073963744 0.01007173 -0.0015558822 0.035114527
0.028732155 -0.020710144 0.0046920064 -0.019270727 -0.008127666 -0.013081092 -0.037158553 -2.431445e-05
-0.0008542273 0.013403322 -0.0055983616 -0.026122456 -0.0009349748 0.024119055 0.07835915 -0.00080275495
-0.013031213 0.06082496 -0.005287753 -0.051782437 0.01309015 0.02631373 -0.006997818 0.00047018754
0.032339815 0.0036181242 -0.0002530709 0.0051340745 0.032346267 0.011779919 -0.02227434 -0.026281506
-0.04028199 -0.0072842236 -0.008320212 -0.007446289 -0.013834178 0.023786724 0.012816485 0.00019963969
0.022931963 0.029009117 -0.0075533893 0.013067247 -0.0020073114 0.020894222 -0.033099625 -0.020871313
0.013573799 0.04015404 0.0002812656 -0.008456057 -0.02603225 -0.00053972396 0.0004579383 0.0066053746
0.01681179 -0.011266893 -0.035911474 -0.00084506907 -0.02650969 0.04510036 0.00034495932 -0.014809754
0.012832537 -0.022794941 0.0316965 -0.0073654647 0.06500454 0.040931873 0.0005623448 0.015165136
-0.0018559104 0.004423669 -0.04239085 0.035305455 -0.03869605 0.07759231 0.008139577 -0.004796686
0.0005174607 0.010182971 0.011527822 0.006752025 0.009364896 0.02090255 0.0072626183 0.046586346
-0.0013936815 0.013224005 -0.0045502763 0.015814783 0.019289332 0.0072386665 0.005447 0.0013387959
-0.008780384 -0.029404752 -0.0015280461 -0.033101182 0.010013413 -2.062459e-05 -0.0070917956 -0.030727135
0.010111794 -0.034121 0.011893303 0.00250618 -0.016407702 -0.011721333 -0.0027770526 0.00076246564
-0.0069829854 -0.0008456979 -0.0032081632 -0.049851596 -0.036106136 -0.009871653 0.020582303 0.0071759876
-0.02832033 0.016212048 0.03485664 -0.014111412 0.008490895 0.034931146 0.012872135 -0.019710144
0.014578477 -0.0041948124 0.005857083 0.041691344 0.028665643 -0.014902788 -0.002987891 -0.014223792
0.0031270308 -0.03609492 0.040520065 -0.014087998 -0.00035590027 0.008766855 -0.034384184 -0.08043074
-0.006028897 -0.05460524 -0.020140806 0.012484189 0.014206543 0.0045831325 0.011010086 -0.0010114978
0.008371952 -0.007305954 -0.0117228 -0.007648865 -0.0686506 -0.021156004 -0.003463469 0.01819961
0.011540523 0.005843203 0.00095454126 -0.014439226 -0.011052235 -0.0281953 -0.012239565 -0.011477893
00000000: 0dc9 e53c 4719 86bc 815a b6bb f885 ce39
00000010: 60ab 31bc 0923 72bc 4ae5 b93b 1a65 5fbb
00000020: 1bea 4d3c 574e cc3c ad58 ac3c 7a05 8a3c
00000030: d2b0 c6bb c006 e93b 6308 df3b 01bd 03bb
00000040: dce6 1f3b 638b 903a 5764 0939 4afb 973c
00000050: 86d8 913a 0371 babb bf2b 073d 8910 a8bb
00000060: 8559 85bb a4b9 ccbb d958 e43c bdc7 033b
00000070: fd92 eebb 2577 723a 1175 103d cc73 023c
00000080: 41b7 a73b bfe9 bdbb abb3 b63c 87ad 26bd
00000090: ef37 2dbd 6c2d 97bc 3844 aa3c 93cb a63c
000000a0: 7eaa c83c 885a 56bc bf73 023d bfae 0dbc
000000b0: c4ba 7f3a 0108 67bc 60b8 f0bc 3d6f 91bd
000000c0: 924b 01bc 322f 823b fb12 f23b cbb3 8ebc
000000d0: 22eb a8bb ca39 e6ba e609 f2ba de26 31bc
000000e0: 3623 df3c 319d 12bb c1c6 133c 3137 32bb
000000f0: 480e b6bc f15a bdba 4991 303c 8f14 b13a
00000100: 8e7a f63b c807 f93c 96c4 85bc b2e9 58bc
00000110: 1c93 f4bb 0e0a e23c 2b9b c53a 70ef fe3b
00000120: 384a 9c3b d755 e9bb ed63 16bc 3c22 b53c
00000130: 747f 483c 15af 7f3d 39fd b3b9 aa2d 243c
00000140: 0fd1 7f3c 2612 023d 7c18 c4bc 3640 dc3b
00000150: 495d f23b e603 253c beee cbba 40d4 0f3d
00000160: b25f eb3c 52a8 a9bc 67bf 993b a5dd 9dbc
00000170: e729 05bc 1452 56bc 9133 18bd e2f6 cbb7
00000180: 39ee 5fba 9b99 5b3c 7672 b7bb c3fe d5bc
00000190: 1919 75ba 5395 c53c c37a a03d f96f 52ba
000001a0: de80 55bc 9823 793d e344 adbb d219 54bd
000001b0: 1278 563c e48f d73c f44d e5bb 8183 f639
000001c0: c176 043d 0d1e 6d3b 9aae 84b9 bd3b a83b
000001d0: 857d 043d 9000 413c ad78 b6bc 504c d7bc
000001e0: bafe 24bd 7fb0 eebb 8051 08bc 0000 f4bb
000001f0: c0a8 62bc 60dc c23c 3cfc 513c 5f56 5139
00000200: d0db bb3c 87a4 ed3c 6c82 f7bb 0218 563c
00000210: 198d 03bb 5c2a ab3c 7993 07bd 51fa aabc
00000220: a464 5e3c 9078 243d d476 9339 468b 0abc
00000230: 9641 d5bc 437c 0dba 7017 f039 e671 d83b
00000240: e1b8 893c c698 38bc e917 13bd a087 5dba
00000250: d92a d9bc 28bb 383d a8db b439 9ca4 72bc
00000260: 903f 523c 75bc babc 30d4 013d ff59 f1bb
00000270: 1a21 853d 2ea8 273d 526a 133a 3177 783c
00000280: 0542 f3ba 6df4 903b 07a2 2dbd 749c 103d
00000290: c07f 1ebd b8e8 9e3d dc5b 053c 852d 9dbb
000002a0: 33a6 073a 7ad6 263c 31df 3c3c 1740 dd3b
000002b0: 396f 193c d33b ab3c 42fb ed3b 53d1 3e3d
000002c0: 31ac b6ba 7fa9 583c 7c1a 95bb 018e 813c
000002d0: a904 9e3c 5632 ed3b bf7c b23b 897a af3a
000002e0: 9adb 0fbc 3ce2 f0bc b848 c8ba 1b95 07bd
000002f0: 4c0f 243c f802 adb7 4b62 e8bb 79b7 fbbc
00000300: f0ab 253c 76c2 0bbd 21dc 423c b93e 243b
00000310: 7269 86bc d50a 40bc 36ff 35bb 34e0 473a
00000320: 87d1 e4bb d3b1 5dba 0c40 52bb 3031 4cbd
00000330: 07e4 13bd b7bc 21bc 389c a83c 8c24 eb3b
00000340: 0900 e8bc 21cf 843c d6c5 0e3d 8d33 67bc
00000350: 651d 0b3c f613 0f3d a6e5 523c 2b77 a1bc
00000360: 90da 6e3c a374 89bb c6ec bf3b 8bc4 2a3d
00000370: 36d4 ea3c d32a 74bc 7ed0 43bb e80a 69bc
00000380: dfee 4c3b 44d8 13bd 5ef8 253d 59d1 66bc
00000390: 2098 bab9 dba2 0f3c 6ed6 0cbd dfb8 a4bd
000003a0: 0e8e c5bb bea9 5fbd 55fe a4bc 7c8a 4c3c
000003b0: 8fc2 683c 1a2e 963b a663 343c 3c94 84ba
000003c0: 832a 093c c966 efbb fd10 40bc 55a3 fabb
000003d0: b098 8cbd 5b4f adbc 5efb 62bb 5917 953c
000003e0: 7614 3d3c 5778 bf3b 2e3a 7a3a 8192 6cbc
000003f0: 6f14 35bc d4f9 e6bc 7588 48bc c60d 3cbc

actor.6.bias f4 [19]
0.024808325 0.033288818 0.03463489 0.006522334 -0.026510647 0.053215723 -0.008606206 -0.0038514482
-0.13116021 -0.018656742 0.013388469 0.09240295 0.051458582 -0.027573526 0.025070367 -0.10964237
-0.19943775 -0.041557696 -0.0013009115
00000000: d43a cb3c db59 083d 50dd 0d3d 4eb9 d53b
00000010: db2c d9bc bbf8 593d 0b01 0dbc 9468 7cbb
00000020: dd4e 06be 06d6 98bc 4f5b 5b3c c23d bd3d
00000030: 3cc6 523d e0e1 e1bc 5f60 cd3c 2e8c e0bd
00000040: 6939 4cbe 6738 2abd 5983 aaba
