IsaacLab/logs/rsl_rl/h1v2_flat/2025-03-05_13-38-04/exported/policy.onnx (onnx, 195410 bytes, 8 tensors)

actor.0.weight f4 [128, 93]
0.24096724 -0.6113974 0.40428787 -0.015673066 0.451187 -0.1331333 0.6130575 -0.09939824
0.10305471 0.11798057 -0.053566206 -0.12782508 0.31960678 0.39891434 -0.36927012 0.3706627
-0.20176665 -0.037318595 0.03333955 0.35545775 -0.12502602 -0.14625406 0.0104187755 -0.06548508
0.21726811 0.07724251 0.20466888 -0.05600638 0.0060990686 -0.11295393 -0.62560016 -0.574013
-1.2737174 0.39461768 -0.3889043 0.6998079 0.49504697 -0.85678154 -1.263654 -0.03469152
0.058187503 -0.08647146 0.02558953 0.036806133 0.12033664 0.09037945 -0.05396123 -0.010228628
-0.053785227 0.01975046 0.028237289 -0.02451688 0.044715215 0.08559214 0.01560241 -0.031735558
0.009869333 -0.014035946 0.031785853 0.03272517 0.021199055 0.07415376 -0.00477385 -0.036200065
-0.003967165 0.12582645 -0.11169756 0.0074310144 0.09109773 -0.2327284 -0.050373618 -0.0451657
-0.096199594 0.098669566 0.1346963 0.017446434 -0.015692787 0.10021251 -0.3376228 0.0206128
0.013884121 0.030722862 -0.0039965655 0.09087129 0.052209057 -0.09231193 -0.037237663 -0.00075878046
-0.20805232 -0.029472772 -0.0020855896 0.0063662827 0.016974693 -0.061845236 -0.13681619 0.23956382
-0.2892521 -0.052631587 -0.0733704 0.041934047 -0.25369978 0.14585336 -0.50540364 0.022606306
-0.09604579 0.055854473 0.17567952 -0.0669967 0.029213805 -0.13838847 0.24968876 0.07320129
0.6916918 -0.21414188 -1.1249884 -0.28514674 -0.0075654974 -0.29556087 0.31143913 0.22485651
0.069231115 0.23112276 0.5439998 0.123821765 -0.5040417 0.03376506 0.083596945 -0.6505487
-0.6268048 0.32790822 0.20627563 0.14186493 0.1863069 -0.061313834 -0.06336852 0.047779657
0.06422494 0.18496381 -0.058707662 -0.06798705 -0.11286928 -0.07214393 0.0004963358 -0.075645365
-0.14342742 -0.014397885 -0.04003095 0.054297063 0.16226794 0.106545635 -0.11307272 -0.050604172
0.03225278 0.0014777036 0.05155035 -0.012387472 0.04923443 -0.11824084 -0.029216703 0.05109401
0.062241975 -0.26696584 0.11940687 0.06425335 -0.18878256 0.11835623 -0.07143465 0.03822938
0.058246296 -0.07514607 0.057505902 0.0048556537 0.14447992 0.038155783 0.1921761 -0.17112057
-0.102200985 0.07362951 0.14129505 0.004293308 0.0796435 -0.1773793 -0.13388269 0.013601361
-0.015287411 0.061459877 0.09426267 -0.21727979 -0.21528895 -0.24735372 0.052229106 -0.06207536
0.26302263 0.06618824 0.15183161 -0.12451343 -0.06823143 -0.09813448 -0.1661112 0.02702381
0.35648137 0.22761843 -0.08656547 0.11889471 0.6548551 -0.505883 0.26334772 -1.1230739
0.033232003 -0.3410681 0.25805256 0.361164 -0.08960775 -0.30778617 -0.08032696 0.5959354
-0.26834837 0.12738062 -0.6747764 -0.7864865 0.18158984 -0.16648467 -0.10983769 -0.14013697
-0.8735802 0.0057110796 -0.036766365 0.06848564 -0.1389564 -0.004877646 0.01942268 -0.041926805
-0.060477912 -0.015646968 -0.1685812 0.03838334 -0.13099709 0.07397229 -0.16721815 0.052466527
0.0051812124 0.0021781342 0.060617577 0.055049155 0.053937364 0.035550296 0.106398836 0.057543196
0.046241816 -0.067219906 0.062147386 -0.03676354 -0.15370846 0.2092159 0.12199593 0.10274702
00000000: 1ec0 763e 8a84 1cbf d2fe ce3e cd64 80bc
00000010: fc01 e73e 1954 08be 56f1 1c3f 4e91 cbbd
00000020: 590e d33d cc9f f13d 3d68 5bbd 94e4 02be
00000030: 80a3 a33e 803e cc3e f910 bdbe 80c7 bd3e
00000040: eb9b 4ebe 62db 18bd 0d8f 083d 8ffe b53e
00000050: d206 00be a0c3 15be 83b3 2a3c 0b1d 86bd
00000060: 887b 5e3e 5231 9e3d b894 513e f266 65bd
00000070: b2da c73b 6454 e7bd 5527 20bf 84f2 12bf
00000080: 2c09 a3bf 540b ca3e 771e c7be 9c26 333f
00000090: cc76 fd3e 0956 5bbf 6abf a1bf b218 0ebd
000000a0: 0556 6e3d f317 b1bd 22a1 d13c 07c2 163d
000000b0: 0e73 f63d dc18 b93d 7306 5dbd fa95 27bc
000000c0: e64d 5cbd b7cb a13c e351 e73c a0d7 c8bc
000000d0: 4d27 373d ef4a af3d 40a1 7f3c 25fd 01bd
000000e0: fcb2 213c 06f7 65bc e231 023d d40a 063d
000000f0: a4a9 ad3c eddd 973d f56d 9cbb 8546 14bd
00000100: fefe 81bb a6d8 003e b1c1 e4bd de7f f33b
00000110: 7291 ba3d 5b50 6ebe 9154 4ebd abff 38bd
00000120: 4b04 c5bd 4513 ca3d d4ed 093e d3eb 8e3c
00000130: 298e 80bc 373c cd3d e5dc acbe 2ddc a83c
00000140: 397a 633c 83ae fb3c 9ff5 82bb ba1a ba3d
00000150: 2ad9 553d 0a0e bdbd 8586 18bd e5e8 46ba
00000160: ab0b 55be e270 f1bc 63ae 08bb 409c d03b
00000170: 830e 8b3c 6e51 7dbd 8b19 0cbe 3850 753e
00000180: da18 94be 3894 57bd 3843 96bd 09c3 2b3d
00000190: f0e4 81be 955a 153e 2262 01bf dc30 b93c
000001a0: a8b3 c4bd a9c7 643d 55e5 333e 9135 89bd
000001b0: ca51 ef3c b5b5 0dbe 69ae 7f3e 8fea 953d
000001c0: b712 313f 0248 5bbe 9fff 8fbf c1fe 91be
000001d0: fee7 f7bb c153 97be f374 9f3e c940 663e
000001e0: 0bc9 8d3d 72ab 6c3e 9243 0b3f 4496 fd3d
000001f0: e008 01bf 3b4d 0a3d e034 ab3d 5c8a 26bf
00000200: 4876 20bf 96e3 a73e eb39 533e 0a45 113e
00000210: 3cc7 3e3e 3724 7bbd 5bc7 81bd 9ab4 433d
00000220: 5e88 833d 2767 3d3e 7277 70bd cb3c 8bbd
00000230: 0228 e7bd 32c0 93bd 881c 023a f5eb 9abd
00000240: a3de 12be 1be5 6bbc 7ef7 23bd 9966 5e3d
00000250: 9129 263e 9934 da3d ac92 e7bd 5246 4fbd
00000260: 7e1b 043d 81af c13a 7626 533d d3f4 4abc
00000270: 0baa 493d 4128 f2bd de57 efbc f447 513d
00000280: 71f1 7e3d bfaf 88be 978b f43d 4397 833d
00000290: 3750 41be c064 f23d 544c 92bd 6996 1c3d
000002a0: ab93 6e3d 2fe6 99bd 4f8b 6b3d 2d1c 9f3b
000002b0: 8bf2 133e 3d49 1c3d d0c9 443e 3b3a 2fbe
000002c0: c04e d1bd 12cb 963d a6af 103e e1ae 8c3b
000002d0: 221c a33d eba2 35be 8b18 09be 3ed8 5e3c
000002e0: 0d78 7abc 5abd 7b3d c90c c13d 987e 5ebe
000002f0: b574 5cbe 4b4a 7dbe 30ee 553d bc42 7ebd
00000300: e7aa 863e b38d 873d bf79 1b3e e600 ffbd
00000310: ecbc 8bbd bbfa c8bd 0e19 2abe 0a61 dd3c
00000320: ba84 b63e ce14 693e 3d49 b1bd 127f f33d
00000330: 95a4 273f 8c81 01bf 83d5 863e e3c0 8fbf
00000340: 481e 083d 7aa0 aebe 771f 843e 7dea b83e
00000350: 4584 b7bd 2696 9dbe 7682 a4bd 398f 183f
00000360: f564 89be 1170 023e 25be 2cbf 2e57 49bf
00000370: b0f2 393e f57a 2abe 95f2 e0bd 1180 0fbe
00000380: f4a2 5fbf 0224 bb3b 5498 16bd 3342 8c3d
00000390: 964a 0ebe a9d4 9fbb 501c 9f3c 71bb 2bbd
000003a0: b0b7 77bd 122e 80bc 8da0 2cbe d937 1d3d
000003b0: 1a24 06be c97e 973d 3c3b 2bbe 24e7 563d
000003c0: 29c7 a93b 07bf 0e3b 234a 783d 397b 613d
000003d0: 6ded 5c3d 309d 113d a2e7 d93d 6ab2 6b3d
000003e0: 0f68 3d3d 97aa 89bd 428e 7e3d 5e95 16bd
000003f0: c065 1dbe b13c 563e 01d9 f93d 086d d23d

actor.0.bias f4 [128]
-0.05675307 -0.12956668 -0.095725484 0.12512569 -0.16411048 0.072128214 -0.026759949 0.029026302
-0.14260651 0.13257754 0.07090942 -0.05190711 -0.18340588 0.06539211 0.02225407 0.025376817
0.08084958 0.16415142 -0.0599876 0.21492212 -0.014612492 -0.047270853 -0.031428844 -0.021701418
-0.20554052 0.090064235 0.06846511 0.054263107 0.09051283 -0.047624078 -0.022341296 -0.092089035
-0.03572192 -0.024251586 0.054453034 0.0017289511 -0.054952994 -0.17129652 -0.097604275 -0.009785813
-0.023468181 0.068961896 0.122454934 0.0045675617 -0.17514423 0.1551953 -0.10685892 0.09035072
-0.14621055 -0.04780908 -0.20016594 -0.06779499 -0.096396804 -0.12724692 0.19094558 -0.22298712
-0.026552819 0.005766158 -0.09242704 -0.071459636 -0.08665298 0.15825658 -0.07533062 -0.22473668
-0.16913901 -0.007450849 0.08285659 -0.07427284 0.07535917 -0.080147214 -0.062337242 -0.19449988
0.026405001 0.008738086 0.071284555 -0.0122127235 0.005603076 -0.17046303 -0.046937753 -0.1419725
-0.1722193 -0.05988935 0.10600902 0.027977377 0.037891176 -0.042246453 -0.08140896 0.12156033
-0.13420755 -0.009118973 0.0040863478 -0.23710844 -0.021965988 -0.100167595 -0.079312935 0.04373092
-0.15367292 0.09796817 -0.035759326 0.03332514 -0.21952769 0.019622633 -0.08741979 0.09186426
0.049492285 -0.16515845 -0.096603386 -0.16245858 0.008193062 -0.11713524 0.04729411 -0.064475074
0.0063795247 -0.19760758 -0.062422052 0.11355436 -0.14287235 -0.04495638 -0.025918284 -0.08679588
0.07421741 -0.08920667 -0.016532399 -0.07946357 -0.06961553 0.04688597 -0.07848887 -0.18040285
00000000: e875 68bd 21ad 04be b90b c4bd f320 003e
00000010: 940c 28be f5b7 933d ae37 dbbc 91c8 ed3c
00000020: 7107 12be 68c2 073e f538 913d 8d9c 54bd
00000030: c0ce 3bbe 4cec 853d 2b4e b63c 0be3 cf3c
00000040: 7794 a53d 4f17 283e 8fb5 75bd 8b14 5c3e
00000050: 3c69 6fbc 159f 41bd 88bb 00bd 2cc7 b1bc
00000060: 3779 52be 9973 b83d 7037 8c3d fe42 5e3d
00000070: ca5e b93d 7711 43bd 1805 b7bc 2d99 bcbd
00000080: 2651 12bd 43ab c6bc 250a 5f3d f99d e23a
00000090: 6416 61bd 5b68 2fbe c0e4 c7bd ad54 20bc
000000a0: 5840 c0bc e53b 8d3d a7c9 fa3d 7cab 953b
000000b0: 0259 33be 84eb 1e3e d9d8 dabd cc09 b93d
000000c0: 38b8 15be 74d3 43bd 4df8 4cbe 1ad8 8abd
000000d0: b06b c5bd 044d 02be 3d87 433e bc56 64be
000000e0: 4c85 d9bc 0af2 bc3b 634a bdbd 6e59 92bd
000000f0: 1e77 b1bd 030e 223e f146 9abd 5f21 66be
00000100: c732 2dbe 4026 f4bb b7b0 a93d 5c1c 98bd
00000110: e955 9a3d 3924 a4bd 5655 7fbd fa2a 47be
00000120: 4d4f d83c 302a 0f3c a3fd 913d e017 48bc
00000130: 029a b73b dc8d 2ebe cd41 40bd 3d61 11be
00000140: 425a 30be 894e 75bd 421b d93d d030 e53c
00000150: c733 1b3d 9e0a 2dbd beb9 a6bd 9ff4 f83d
00000160: b46d 09be bf67 15bc c5e6 853b 8ecc 72be
00000170: 04f2 b3bc ab24 cdbd d26e a2bd 311f 333d
00000180: 6f5c 1dbe 89a3 c83d 5f78 12bd f17f 083d
00000190: decb 60be a5bf a03c 2609 b3bd 5423 bc3d
000001a0: 6cb8 4a3d 4c1f 29be ffd7 c5bd 8b5b 26be
000001b0: 313c 063c 9ae4 efbd 78b7 413d 820b 84bd
000001c0: 550b d13b a459 4abe 44ae 7fbd 308f e83d
000001d0: 214d 12be 2e24 38bd 9552 d4bc 0ac2 b1bd
000001e0: 4cff 973d fdb1 b6bd f46e 87bc ccbd a2bd
000001f0: 9692 8ebd 810b 403d c6be a0bd 86bb 38be

actor.2.weight f4 [128, 128]
-0.10790131 -0.040051386 0.10323861 -0.0087888595 -0.17179242 0.02645501 -0.22218685 0.090430774
-0.08080947 0.06436005 0.07337803 0.12283711 -0.029366778 0.2031637 0.19227256 -0.18804799
0.0044267746 0.18983829 -0.094068885 -0.020948945 0.13977118 -0.017187543 0.0065171174 -0.13551158
0.027621815 0.29777038 0.03097829 -0.0046860753 0.08988055 -0.1513906 0.055368043 -0.061512586
0.06654473 0.12804762 0.10170377 -0.020878507 -0.015964845 -0.034971293 0.13923016 0.023009539
-0.1879912 0.064174116 -0.081141524 -0.10031174 -0.10490427 -0.049672965 -0.012331999 -0.15300062
0.13938026 -0.006995613 0.11529413 0.19676098 0.0023437198 -0.23394257 0.0075008012 0.08698439
0.05260694 0.103892796 -0.14750761 -0.04903538 -0.22075771 -0.034059085 -0.11416733 -0.05678721
-0.048386157 0.017868169 -0.09812773 -0.14184135 -0.00693649 -0.14115092 0.041218534 0.06251814
0.08117875 -0.11999738 -0.11779733 0.020571318 0.073168986 -0.039305147 -0.1251618 0.044526406
-0.10865282 -0.046301786 0.005080479 -0.31486794 0.012490996 0.031701967 -0.0061140126 -0.102424555
0.07044297 0.1691745 -0.05207637 -0.15389836 -0.057810906 0.012504786 -0.027831767 0.09999157
0.006904509 -0.1846457 0.011813063 -0.08555465 0.04566417 -0.28143677 -0.12382552 0.013172126
0.03514883 0.032432433 -0.032390974 -0.01090718 -0.08214195 0.07806653 0.17722781 -0.019011004
-0.112601005 0.11199047 0.11062405 -0.17579167 0.12382333 0.0119692385 0.006758739 -0.06963199
-0.10751785 0.006369098 0.0041142246 0.1193905 -0.0031248992 0.13428165 -0.08440593 -0.18754335
-0.010578868 -0.047705486 -0.0914123 -0.3888719 0.109375246 -0.0500533 0.15410575 -0.12807369
-0.10142941 0.028659847 -0.1041131 -0.049053002 0.029158715 -0.08776624 -0.09103999 -0.040718403
0.0019047318 0.006583074 -0.17082304 -0.21726991 0.069567434 -0.058750153 -0.035171416 -0.19398028
0.02626146 0.1107405 0.019535173 -0.09869714 -0.17497201 -0.07318818 0.09306252 -0.05097214
0.11411112 0.12400359 0.15094852 0.12226997 -0.0038319402 0.045738045 -0.08833861 -0.03954817
-0.03280495 -0.0501553 -0.21445781 0.018311692 0.035877395 -0.064761624 -0.116230786 -0.008106617
0.05183061 -0.019167908 0.25385472 0.07011971 0.07141754 0.060960088 -0.14728768 -0.071712896
0.040802684 0.08279193 0.009221727 -0.046099078 0.22107093 -0.0060199797 -0.030692473 0.09884161
0.22721693 -0.17974639 -0.27143878 0.095131695 -0.16159649 -0.06218912 -0.17770854 -0.05836752
-0.021408057 -0.14553474 0.18812054 -0.04383351 -0.15413094 0.01641607 0.1354313 0.068002425
-0.13240577 0.2069363 -0.28983474 0.06060645 0.06137659 0.043446966 0.15588129 -0.18423897
0.17025287 0.14754988 -0.08281904 0.053200364 0.086842984 -0.26146048 -0.17502144 -0.13256425
0.1884154 0.011029123 -0.0783197 -0.2587787 0.2929649 0.053909775 0.0057675736 -0.27079368
-0.029107219 0.034963872 0.20370029 -0.15639915 0.014411985 -0.021214854 0.16752294 -0.007308629
-0.019728191 -0.06291007 -0.06843846 -0.040031273 -0.06530584 0.11797582 -0.0253609 -0.14038327
-0.26163957 -0.07961575 -0.08193274 -0.12546322 0.03943097 -0.106802374 -0.14654647 0.028315533
00000000: 5dfb dcbd ec0c 24bd c46e d33d 26ff 0fbc
00000010: 5aea 2fbe 2db8 d83c f384 63be c533 b93d
00000020: 6f7f a5bd 34cf 833d 3847 963d 0692 fb3d
00000030: 9992 f0bc 250a 503e 19e3 443e a78f 40be
00000040: 7a0e 913b f864 423e 30a7 c0bd 1f9d abbc
00000050: 2d20 0f3e e4cc 8cbc 8b8d d53b 8cc3 0abe
00000060: 2547 e23c 5c75 983e 2fc6 fd3c a68d 99bb
00000070: 4b13 b83d 2306 1bbe 9ac9 623d 9ff4 7bbd
00000080: 9a48 883d ea1e 033e 114a d03d 6709 abbc
00000090: b5c8 82bc 0f3e 0fbd 5a92 0e3e 807e bc3c
000000a0: c480 40be b86d 833d 872d a6bd 3e70 cdbd
000000b0: 0dd8 d6bd e175 4bbd 270c 4abc 32ac 1cbe
000000c0: b3b9 0e3e 753b e5bb 541f ec3d b67b 493e
000000d0: 1899 193b a48e 6fbe 48c9 f53b df24 b23d
000000e0: 607a 573d bfc5 d43d 3c0c 17be 53d9 48bd
000000f0: 4f0e 62be 8a81 0bbd 90d0 e9bd b599 68bd
00000100: 9030 46bd 4460 923c 31f7 c8bd dc3e 11be
00000110: 7f4b e3bb de89 10be c4d4 283d 8309 803d
00000120: 0b41 a63d 30c1 f5bd ba3f f1bd 2e85 a83c
00000130: 9fd9 953d 6ffe 20bd 6a2a 00be 5261 363d
00000140: 5f85 debd f1a6 3dbd 267a a63b 5f36 a1be
00000150: 09a7 4c3c ecd9 013d 0e58 c8bb f7c3 d1bd
00000160: 6744 903d 153c 2d3e 084e 55bd 8897 1dbe
00000170: 21cb 6cbd e0e0 4c3c 72ff e3bc 61c8 cc3d
00000180: 383f e23b c313 3dbe 948b 413c 4737 afbd
00000190: 5a0a 3b3d 7b18 90be 3c98 fdbd e7cf 573c
000001a0: 38f8 0f3d dfd7 043d 66ac 04bd 07b4 32bc
000001b0: 0a3a a8bd 58e1 9f3d 357b 353e f7bc 9bbc
000001c0: 5b9b e6bd 425b e53d dd8e e23d bb02 34be
000001d0: 1697 fd3d a01a 443c 6978 dd3b 379b 8ebd
000001e0: 5232 dcbd deb3 d03b 9ed0 863b 0283 f43d
000001f0: 1ccb 4cbb 2181 093e 04dd acbd 5d0b 40be
00000200: fd52 2dbc d466 43bd 5f36 bbbd 381a c7be
00000210: 2100 e03d b004 4dbd e6cd 1d3e c025 03be
00000220: 39ba cfbd 0ec8 ea3c 4039 d5bd cdeb 48bd
00000230: 42de ee3c c9be b3bd 2d73 babd 57c8 26bd
00000240: 32a8 f93a d4b6 d73b 3cec 2ebe 017c 5ebe
00000250: 5f79 8e3d 00a4 70bd e70f 10bd c4a2 46be
00000260: 4622 d73c eacb e23d 3a08 a03c ba21 cabd
00000270: dd2b 33be afe3 95bd 9097 be3d 2ac8 50bd
00000280: 17b3 e93d 98f5 fd3d 4092 1a3e ae68 fa3d
00000290: 4a21 7bbb d157 3b3d e0ea b4bd 43fd 21bd
000002a0: 7c5e 06bd a56f 4dbd d49a 5bbe 6702 963c
000002b0: 2df4 123d bea1 84bd 680a eebd 9ed1 04bc
000002c0: 554c 543d 0406 9dbc 3ff9 813e ec9a 8f3d
000002d0: 5c43 923d 49b1 793d 95d2 16be 36de 92bd
000002e0: b720 273d d18e a93d ba16 173c 63d2 3cbd
000002f0: 6b60 623e 4043 c5bb c86e fbbc 786d ca3d
00000300: 8eab 683e 700f 38be 06fa 8abe 68d4 c23d
00000310: 8d79 25be 05ba 7ebd 3af9 35be c812 6fbd
00000320: f35f afbc 0f07 15be aca2 403e c48a 33bd
00000330: 80d4 1dbe fe7a 863c 81ae 0a3e db44 8b3d
00000340: 6195 07be 1ce7 533e 3865 94be 783e 783d
00000350: 0566 7b3d 72f5 313d 589f 1f3e 24a9 3cbe
00000360: c556 2e3e 5117 173e 079d a9bd a0e8 593d
00000370: bcda b13d 26de 85be d238 33be ecbe 07be
00000380: f7ef 403e 7fb3 343c 1466 a0bd a47e 84be
00000390: 7fff 953e 7fd0 5c3d eafd bc3b 78a5 8abe
000003a0: 4372 eebc 4736 0f3d cf96 503e 1927 20be
000003b0: 3f20 6c3c c6ca adbc 228b 2b3e 397d efbb
000003c0: 049d a1bc ffd6 80bd 7729 8cbd d5f7 23bd
000003d0: 11bf 85bd 4f9d f13d aac1 cfbc a2c0 0fbe
000003e0: 9ff5 85be 950d a3bd 5acc a7bd 6e79 00be
000003f0: 5e82 213d 34bb dabd 4710 16be faf5 e73c

actor.2.bias f4 [128]
-0.1435234 -0.24230686 -0.060887992 -0.016825099 -0.022335311 -0.019231236 -0.06934343 -0.18028666
0.042127088 -0.13864358 -0.009810553 -0.10034228 -0.15698981 -0.05199215 -0.117164485 -0.038055975
-0.09323781 0.04881686 0.09259507 -0.13134067 -0.05045369 0.043308225 -0.10631653 -0.16282506
-0.2109062 -0.11403571 -0.07383633 0.013815083 0.015218994 0.022341626 0.069549136 -0.012197212
-0.05082238 -0.06387219 -0.02537023 -0.09756847 -0.18236776 -0.14567724 -0.2103279 0.14321087
-0.14635739 -0.06673248 0.03984665 -0.12017113 -0.19681993 -0.15116376 -0.011586773 -0.098396294
0.053797025 -0.085215695 -0.15901299 -0.18180825 0.006609689 -0.18531154 -0.1467568 -0.12542997
0.035668883 -0.035921346 0.015150475 -0.06629007 -0.28448907 -0.2219565 0.08021863 0.029878428
-0.043673627 -0.041647103 0.035813417 -0.1278534 0.09260383 -0.05080443 0.09236759 -0.026025778
-0.18960556 0.027539896 -0.029671686 -0.079213105 0.15633145 -0.16026795 -0.16711454 -0.006173803
-0.068702936 0.005735327 -0.18353836 0.028247815 -0.011831582 -0.07528675 -0.09727736 -0.10764569
-0.1444866 -0.054192875 -0.22201782 -0.042211734 0.015757905 0.0068324455 0.075712875 -0.101668276
-0.2910423 -0.18305416 -0.20936742 0.041073207 -0.116161704 -0.10273476 -0.24399805 -0.22898903
0.014004834 -0.10065606 -0.06640537 -0.09948167 -0.15532799 -0.06572469 -0.02811554 0.004144311
-0.05179276 -0.119412586 0.009602301 -0.09754186 -0.10767414 -0.14144793 -0.08234194 -0.14063643
-0.19756165 0.08609965 -0.022581173 0.036814466 -0.15499397 -0.15488859 0.025040954 -0.12388345
00000000: ccf7 12be 4a1f 78be b065 79bd cad4 89bc
00000010: 8bf8 b6bc d38a 9dbc ee03 8ebd 119d 38be
00000020: 748d 2c3d 95f8 0dbe 71bc 20bc 4180 cdbd
00000030: f0c1 20be b8f5 54bd eff3 efbd 95e0 1bbd
00000040: 77f3 bebd 30f4 473d 7ca2 bd3d 2b7e 06be
00000050: 87a8 4ebd f763 313d 7bbc d9bd 9dbb 26be
00000060: cbf7 57be 8e8b e9bd 8037 97bd a858 623c
00000070: 1659 793c c905 b73c c76f 8e3d d1d6 47bc
00000080: 212b 50bd 6ccf 82bd 3bd5 cfbc fad1 c7bd
00000090: 9dbe 3abe 6a2c 15be 3260 57be dfa5 123e
000000a0: b6de 15be 0aab 88bd 3e36 233d 481c f6bd
000000b0: 2a8b 49be acca 1abe 73d6 3dbc ff83 c9bd
000000c0: 455a 5c3d 9185 aebd 4dd4 22be f12b 3abe
000000d0: 1796 d83b 4fc2 3dbe 6a47 16be b770 00be
000000e0: 8919 123d 4322 13bd b339 783c 17c3 87bd
000000f0: 8da8 91be 9148 63be aa49 a43d 9bc3 f43c
00000100: 1ee3 32bd 2796 2abd 17b1 123d 00ec 02be
00000110: 14a7 bd3d 4e18 50bd 382b bd3d 0334 d5bc
00000120: f627 42be 599b e13c 0912 f3bc 7b3a a2bd
00000130: 5a15 203e 481d 24be 1320 2bbe 9d4d cabb
00000140: 20b4 8cbd 69ef bb3b 7bf1 3bbe f667 e73c
00000150: 40d9 41bc f12f 9abd 5a39 c7bd 5875 dcbd
00000160: 4cf4 13be 59f9 5dbd a458 63be 36e6 2cbd
00000170: b916 813c b5e2 df3b 5a0f 9b3d 7537 d0bd
00000180: 7f03 95be 8d72 3bbe 6a64 56be 613c 283d
00000190: 30e6 edbd 9a66 d2bd a0da 79be 1a7c 6abe
000001a0: 8874 653c c424 cebd 8aff 87bd 0cbd cbbd
000001b0: 4d0e 1fbe ab9a 86bd 9052 e6bc 00cd 873b
000001c0: a524 54bd 968e f4bd f852 1d3c 07c4 c7bd
000001d0: 4284 dcbd bad7 10be e4a2 a8bd ff02 10be
000001e0: 9a4d 4abe 0355 b03d 27fc b8bc c4ca 163d
000001f0: bdb6 1ebe 1d9b 1ebe b022 cd3c 9bb6 fdbd

actor.4.weight f4 [128, 128]
-0.073381364 -0.037412085 0.07648614 0.15375386 -0.02382196 -0.0239251 0.10797806 0.0502759
0.06756273 0.028016925 -0.033992562 -0.07708267 0.08073513 0.0651897 0.09587353 -0.04545968
-0.088908516 -0.052384395 0.07483029 -0.025432706 -0.035414957 0.016545264 -0.07214933 -0.1594158
-0.0910404 -0.045607712 0.056069396 0.024235662 -0.029365163 -0.0022751526 -0.029027754 0.05503416
-0.1451719 0.015788956 0.0344743 -0.00028685597 0.07881548 0.09609076 -0.012974581 -0.07609207
0.07189593 -0.21231157 -0.02040148 -0.06499289 -0.07611788 -0.1223292 0.038486306 0.06739797
0.00034708073 -0.11694854 -0.06756636 0.04871858 0.16012444 0.07302423 0.0325691 0.020743873
-0.027561117 -0.15575467 -0.08805846 0.13162258 0.05967112 -0.059617937 -0.007358339 0.00034172766
-0.07421015 -0.17695637 0.13452356 0.11594993 -0.096491426 0.032279685 0.07355321 0.07158503
-0.08879487 0.02764834 0.13276602 -0.06362319 0.13999374 -0.029241825 -0.15062058 0.16698484
0.084274486 -0.08265609 -0.053372946 -0.04565343 0.1262178 0.08461148 -0.08000808 -0.09395225
-0.13129796 -0.04878444 -0.022731762 -0.114862695 0.11033799 0.094384894 -0.111329116 -0.12425373
-0.01546143 0.048809677 0.1029584 -0.05988317 0.043890942 -0.07920783 0.059436932 -0.11640311
0.20058545 -0.007733586 0.038926173 0.053050928 -0.1871741 0.09313128 0.099638954 0.05834126
-0.011105346 0.039189648 0.043957304 -0.16588993 -0.06272088 -0.18781072 -0.07081101 0.11507144
0.13862571 -0.10167184 -0.0127423685 0.11016289 0.11288301 -0.019682165 -0.06356559 0.0494866
-0.055479888 0.1686576 -0.027082697 -0.012401115 -0.013049486 0.10296902 -0.011691779 -0.081600145
-0.080045775 0.11164616 -0.0801747 0.0977832 0.022640811 0.032517456 0.1402071 0.033438213
-0.0443427 0.05730636 0.0667302 -0.16652305 0.08247812 0.100300714 0.025653893 0.09471627
-0.0584627 0.006284038 0.0010470164 0.09447699 -0.0042745145 -0.019049114 -0.08217899 0.026851289
0.07242013 0.060821667 0.0111953 0.07533367 -0.030690745 -0.079435624 0.0015952102 0.06910223
-0.08468868 -0.14996976 0.07774207 -0.0784399 -0.012992773 -0.15247934 0.14112522 -0.035262145
0.040852353 -0.033700403 -0.10258206 0.009044175 0.14979093 0.026726073 -0.015417265 0.020599015
-0.06603759 -0.004659132 -0.06673281 0.007924646 -0.017660325 0.09981935 0.08764976 -0.025865318
-0.012912825 -0.021498393 0.08919158 0.080989785 0.04117431 0.0687934 0.01731966 -0.026008751
0.07297555 -0.076251924 -0.13710871 -0.13495938 0.05322524 0.051056486 -0.013129324 -0.052996736
-0.0049196477 -0.12521607 0.089863665 0.058575146 0.046792798 0.023766583 -0.086152606 0.042310596
-0.0664611 -0.1533449 -0.10607345 -0.12779027 -0.13070053 -0.0066322843 0.037541248 -0.18738963
0.23996134 0.11431797 0.068731084 -0.008880657 0.07211582 0.06435367 -0.04880625 0.054839335
0.15132621 0.079688795 0.13063657 0.01356839 -0.013349356 0.04711738 -0.09666715 0.018990545
0.18105301 -0.030039987 -0.075670145 0.13302793 0.020801494 0.004995138 0.12223567 0.12018477
0.05539426 -0.22196229 -0.07558591 -0.004575194 0.021256717 0.056222677 -0.06764882 -0.08377123
00000000: f848 96bd 6a3d 19bd c4a4 9c3d a771 1d3e
00000010: 4526 c3bc 92fe c3bc 9a23 dd3d 1aee 4d3d
00000020: 545e 8a3d c083 e53c c93b 0bbd 85dd 9dbd
00000030: 7658 a53d 2d82 853d 5759 c43d ee33 3abd
00000040: ab15 b6bd 0591 56bd a040 993d 4058 d0bc
00000050: 460f 11bd ef89 873c 07c3 93bd e53d 23be
00000060: 6473 babd 27cf 3abd 06a9 653d de89 c63c
00000070: 368f f0bc ba1a 15bb 9dcb edbc 806b 613d
00000080: f1a7 14be d757 813c ec34 0d3d 2865 96b9
00000090: 036a a13d 3bcb c43d 5693 54bc 29d6 9bbd
000000a0: 2c3e 933d 3468 59be 0121 a7bc fe1a 85bd
000000b0: b1e3 9bbd bb87 fabd d1a3 1d3d f207 8a3d
000000c0: 63f8 b539 b782 efbd 3b60 8abd 228d 473d
000000d0: a9f7 233e ba8d 953d 2d67 053d 0eef a93c
000000e0: dac7 e1bc 277e 1fbe fe57 b4bd 12c8 063e
000000f0: b469 743d f031 74bd 391e f1bb e929 b339
00000100: 7efb 97bd 0d34 35be 8bc0 093e 2877 ed3d
00000110: 4c9d c5bd b437 043d 11a3 963d 2c9b 923d
00000120: 16da b5bd c67e e23c d1f3 073e e04c 82bd
00000130: 855a 0f3e 8d8c efbc 483c 1abe 13fe 2a3e
00000140: 1a98 ac3d 9947 a9bd 979d 5abd 17ff 3abd
00000150: 3d3f 013e c948 ad3d 47db a3bd 0a6a c0bd
00000160: f972 06be 31d2 47bd f637 babc 223d ebbd
00000170: e2f8 e13d de4c c13d 8500 e4bd bd78 febd
00000180: f051 7dbc a8ec 473d dbdb d23d 0e48 75bd
00000190: fdc6 333d b737 a2bd 2474 733d c164 eebd
000001a0: 4666 4d3e 056a fdbb 0d71 1f3d ee4b 593d
000001b0: 91aa 3fbe 9dbb be3d 820f cc3d 3ff7 6e3d
000001c0: 32f3 35bc 5385 203d 930c 343d 0ddf 29be
000001d0: ce73 80bd 7451 40be 5d05 91bd 93aa eb3d
000001e0: e6f3 0d3e 5339 d0bd 5ec5 50bc 159d e13d
000001f0: 352f e73d 7e3c a1bc ad2e 82bd 76b2 4a3d
00000200: e13e 63bd 94b4 2c3e 88dc ddbc 0c2e 4bbc
00000210: 83cd 55bc 6ce1 d23d e08e 3fbc fa1d a7bd
00000220: 0aef a3bd bea6 e43d a232 a4bd 8f42 c83d
00000230: 3979 b93c 0631 053d 7392 0f3e 82f6 083d
00000240: b1a0 35bd 13ba 6a3d d8a9 883d 0585 2abe
00000250: 4aea a83d 766a cd3d 1d28 d23c 9bfa c13d
00000260: 9676 6fbd 55ea cd3b 0a3c 893a 277d c13d
00000270: 3a11 8cbb e30c 9cbc 754d a8bd 3cf7 db3c
00000280: 0151 943d 2420 793d 7e6c 373c 8a48 9a3d
00000290: 286b fbbc 25af a2bd 5f16 d13a 7885 8d3d
000002a0: 4271 adbd ac91 19be 3c37 9f3d 19a5 a0bd
000002b0: a4df 54bc 8b23 1cbe 2183 103e 0a6f 10bd
000002c0: cc54 273d 6f09 0abd 8b16 d2bd 052e 143c
000002d0: cb62 193e a3f0 da3c b298 7cbc 44bf a83c
000002e0: b73e 87bd a2ab 98bb 36ab 88bd 60d6 013c
000002f0: 63ac 90bc 166e cc3d b881 b33d 81e3 d3bc
00000300: 5090 53bc 661d b0bc 13aa b63d f9dd a53d
00000310: 65a6 283d 8ee3 8c3d f6e1 8d3c 4e10 d5bc
00000320: 3574 953d f829 9cbd 3a66 0cbe cb32 0abe
00000330: b602 5a3d 9b20 513d 601c 57bc 1b13 59bd
00000340: ff34 a1bb a438 00be 710a b83d 7eec 6f3d
00000350: cea9 3f3d 23b2 c23c c770 b0bd e04d 2d3d
00000360: c21c 88bd 7206 1dbe 093d d9bd 74db 02be
00000370: 5cd6 05be a253 d9bb dac4 193d 11e3 3fbe
00000380: 6db8 753e 8a1f ea3d e2c2 8c3d 2d80 11bc
00000390: 76b1 933d dbcb 833d 10e9 47bd 369f 603d
000003a0: 42f5 1a3e e133 a33d 98c5 053e f44d 5e3c
000003b0: 42b7 5abc 27fe 403d 6df9 c5bd 0f92 9b3c
000003c0: f665 393e 6b16 f6bc f3f8 9abd 7938 083e
000003d0: e567 aa3c 41ae a33b b256 fa3d 6f23 f63d
000003e0: 17e5 623d 154a 63be c9cc 9abd 82eb 95bb
000003f0: 9122 ae3c c049 663d 778b 8abd 4090 abbd

actor.4.bias f4 [128]
-0.10516811 -0.14191113 -0.0872069 0.01828302 -0.025950756 -0.15890709 -0.080076754 -0.057063777
-0.03468414 -0.13703285 -0.14735803 0.039691977 -0.13045338 -0.107111074 0.02259726 0.0014607555
-0.043273706 -0.08203229 0.009899905 -0.14780763 -0.060705613 0.046293307 -0.015637709 -0.060798317
-0.14158176 -0.15881191 -0.02864764 0.02523936 -0.10946544 -0.033058956 -0.06325091 0.025891554
-0.13249028 -0.0616221 -0.043642443 -0.13650465 -0.07249868 -0.07078739 -0.19558166 -0.1625028
-0.08960122 0.04829411 -0.030153269 -0.032344084 -0.018464955 -0.062819816 0.019668432 -0.04666647
-0.025165299 -0.0440355 0.061848022 -0.008642959 -0.018705118 -0.118485615 -0.14693828 -0.02472009
-0.110176004 -0.106909275 -0.029490702 -0.14682794 -0.017257497 -0.11359795 -0.12884925 -0.09279094
-0.033306252 0.039550517 -0.17049369 -0.013456598 -0.13644224 -0.15276444 -0.09633855 -0.0030398227
-0.05042294 -0.012236388 -0.063431926 -0.10989798 -0.060537875 0.08296469 -0.07502657 -0.005127433
-0.15620027 -0.1733635 -0.11645869 0.020761563 -0.029605536 0.01656485 0.0018786602 -0.07274243
-0.12115123 -0.024506705 -0.059349015 -0.030697463 -0.05627204 -0.037525572 -0.16032477 0.030746868
-0.12429582 -0.045409467 -0.0016073235 -0.20409352 -0.109975144 -0.116340466 -0.098839216 -0.008750938
-0.1448 -0.033039786 0.031703863 0.040522035 -0.05583428 -0.061662655 -0.018955475 -0.062468577
-0.09370223 -0.07681092 -0.14422274 -0.08882911 -0.057354085 -0.040266566 -0.20182179 0.020609302
-0.14655912 -0.120168164 -0.11188011 -0.15447615 -0.16413483 -0.030028608 0.041940555 -0.06753066
00000000: 6162 d7bd 2751 11be 8899 b2bd 46c6 953c
00000010: ae96 d4bc 8ab8 22be 48ff a3bd b5bb 69bd
00000020: f510 0ebd 5752 0cbe 06e5 16be 0e94 223d
00000030: 9295 05be 0d5d dbbd e41d b93c d276 bf3a
00000040: c53f 31bd 8c00 a8bd 3633 223c e25a 17be
00000050: 73a6 78bd 0d9e 3d3d a71a 80bc a807 79bd
00000060: cffa 10be 979f 22be 75ae eabc c6c2 ce3c
00000070: 6b2f e0bd d468 07bd b189 81bd 861a d43c
00000080: 88ab 07be 7567 7cbd 6bc2 32bd e0c7 0bbe
00000090: 307a 94bd fbf8 90bd 8f46 48be 2267 26be
000000a0: d880 b7bd 0bd0 453d fd03 f7bc 3b7b 04bd
000000b0: d143 97bc ada7 80bd b11f a13c 5725 3fbd
000000c0: 7527 cebc 925e 34bd 5a54 7d3d 339b 0dbc
000000d0: 7a3b 99bc 96a8 f2bd fd76 16be c981 cabc
000000e0: f5a3 e1bd 40f3 dabd 7c96 f1bc 105a 16be
000000f0: 985f 8dbc 0ba6 e8bd 0ff1 03be 2d09 bebd
00000100: 236c 08bd b9ff 213d e695 2ebe 1079 5cbc
00000110: 84b7 0bbe 486e 1cbe 254d c5bd c337 47bb
00000120: 4988 4ebd 227b 48bc 99e8 81bd 3112 e1bd
00000130: 90f6 77bd 64e9 a93d 88a7 99bd 0704 a8bb
00000140: f7f2 1fbe 3486 31be e581 eebd 2714 aa3c
00000150: 4f87 f2bc 02b3 873c 603d f63a fcf9 94bd
00000160: 231e f8bd 49c2 c8bc f417 73bd 3f79 fbbc
00000170: 837d 66bd 6ab4 19bd 2d2c 24be dbe0 fb3c
00000180: cf8e febd 47ff 39bd d4ac d2ba e4fd 50be
00000190: a63a e1bd e943 eebd 376c cabd 1860 0fbc
000001a0: 7446 14be ba54 07bd e9db 013d 6ffa 253d
000001b0: 7cb2 64bd fb91 7cbd 8348 9bbc 0ddf 7fbd
000001c0: f4e6 bfbd 0b4f 9dbd 20af 13be 09ec b5bd
000001d0: 1eec 6abd 8eee 24bd 5faa 4ebe d7d4 a83c
000001e0: 9813 16be ba1a f6bd 6621 e5bd ff2e 1ebe
000001f0: f612 28be 8efe f5bc dcc9 2b3d 844d 8abd

actor.6.weight f4 [27, 128]
-0.017356887 0.073346 -0.026063966 -0.004876249 0.011354612 0.006786287 -0.030364824 0.0038868487
-0.005444458 -0.008336327 0.0025727793 -0.0085150255 -0.001362157 -0.008180173 0.025410041 0.057170793
0.00091851316 -0.01648841 0.00760719 -0.05069807 -0.0010779127 0.028989077 -0.006935261 0.012177015
0.0016781903 -0.003354591 0.009088602 -0.0023604403 -0.013058984 -0.0040259673 -0.034885015 0.00079116994
0.027133334 -0.015023866 -0.01316118 0.023344869 0.029129276 0.0126617905 -0.010508494 0.030482784
-0.00030804577 0.01276172 0.015800606 0.016394813 -0.029800385 0.0140465675 -0.020763583 -0.002868465
-0.003178726 -0.022315996 0.002922815 0.008149441 -0.0095200045 0.039637018 -0.01468379 -0.012578966
0.019206816 0.029603837 -0.012137321 -0.012153037 -0.009041979 0.0013377588 0.010950478 0.026685845
0.026632747 -0.015001243 -0.026793018 0.021699127 0.017498825 -0.01433067 -0.016126268 0.004916333
0.019255687 0.0022898074 0.016536437 -0.023113035 0.0010589771 0.0015527017 0.009031892 -0.0029624267
-0.020393798 -0.011096835 -0.015696455 -0.001179295 0.0017211793 -0.035221424 0.035291377 -0.010141058
0.026503421 0.0056955107 0.010451703 0.012671648 -0.057529718 -0.03829779 -0.009147444 -0.041454375
0.009814317 -0.030589435 -0.008596531 0.07432841 0.010613855 -0.0012225924 0.020774446 0.0030676888
-0.007264252 -0.0016627857 0.00061665097 0.016210532 0.024835257 -0.008986265 -0.028337156 0.008642874
-0.042196307 0.0012414588 0.048591863 -0.02751819 -0.005697081 -0.04542223 -0.010009158 0.040041704
-0.028515335 0.0127477925 -0.073241636 0.041155662 -0.0014469901 0.030282885 -0.002002907 -0.022630163
0.0002930326 0.008921829 -0.007846864 -0.052092627 -0.014417206 -0.0010843194 -0.004017534 0.015464531
-0.050722733 0.016807036 -0.04252209 -0.017401218 -0.005251103 0.021049343 0.031247327 -0.010397752
0.0019368046 0.0050840685 0.018285032 0.017430197 0.018670838 0.004133236 0.031943675 -0.07658483
0.006155908 -0.06564593 0.020849409 -0.010684154 0.023047732 0.008362922 0.0029040524 -0.008886875
-0.016212214 0.008363239 -0.0032391115 -0.017477209 -0.0008745081 -0.030438658 -0.029303076 -0.024490166
0.014515745 -0.0008199756 -0.01498595 -0.01922949 0.037863407 -0.024078961 -0.019282054 0.0058361543
0.00804968 0.0056043677 0.016581755 -0.026762357 0.012934235 -0.050829742 -0.008532109 0.0014317946
0.026595378 -0.036236465 -0.00050118554 -0.030415827 0.01226038 -0.0037449514 -0.0052902615 -0.05805871
0.039818347 0.008892274 0.00719686 0.0043844623 0.014386787 0.03058295 -0.002605662 0.00968299
-0.001396502 -0.020935666 -0.028157415 -0.0016667233 0.037598588 -0.008134857 0.0082392 -0.0050905794
-0.07254804 -0.03277076 0.012102808 0.023222875 0.01874182 0.044921037 0.011832107 0.021776387
-0.014275599 0.0051378524 0.026009724 0.015180152 0.041794524 0.004223176 0.008524466 0.030133015
0.01352778 0.02387088 0.00859687 0.0052147564 -0.00558776 -0.00013352605 0.037160277 -0.024824847
-0.00067887024 0.05735664 -0.019391157 0.019783413 -0.0014523766 -0.005790161 -0.021294024 0.05379365
0.006141412 -0.0032653601 -0.08929159 -0.025219187 -0.03896662 0.030468361 -0.01490845 0.0055453856
0.007714973 -0.009875612 0.086439036 -0.011469057 -0.050608233 0.017406173 0.054400124 0.022095637
00000000: 0830 8ebc 6d36 963d 1984 d5bc f1c8 9fbb
00000010: b208 3a3c 805f de3b a7bf f8bc 80ba 7e3b
00000020: 6d67 b2bb 1795 08bc 139c 283b 9b82 0bbc
00000030: 688a b2ba 2206 06bc b828 d03c ec2b 6a3d
00000040: 60c8 703a b412 87bc bc45 f93b c8a8 4fbd
00000050: c048 8dba 807a ed3c 3041 e3bb 1a82 473c
00000060: b9f6 db3a b3d8 5bbb 5ce8 143c 9eb1 1abb
00000070: 59f5 55bc 43ec 83bb 97e3 0ebd 8466 4f3a
00000080: ba46 de3c a926 76bc fda1 57bc bd3d bf3c
00000090: 85a0 ee3c 6673 4f3c d22b 2cbc 08b7 f93c
000000a0: 3481 a1b9 8916 513c 4670 813c 6a4e 863c
000000b0: f01f f4bc 9323 663c 6418 aabc dbfc 3bbb
000000c0: 2c52 50bb 09d0 b6bc b38c 3f3b 3c85 053c
000000d0: cbf9 1bbc 6d5a 223d 4794 70bc 0218 4ebc
000000e0: 9d57 9d3c bf83 f23c 9ddb 46bc 881d 47bc
000000f0: cf24 14bc bd57 af3a a269 333c 469c da3c
00000100: eb2c da3c c6c7 75bc 087d dbbc 5ec2 b13c
00000110: b259 8f3c 30cb 6abc 3c1b 84bc 3119 a13b
00000120: 1abe 9d3c 9810 163b 6c77 873c 8c57 bdbc
00000130: 60cd 8a3a 0684 cb3a 80fa 133c 4625 42bb
00000140: e510 a7bc 80cf 35bc da95 80bc 9392 9aba
00000150: 3299 e13a 5744 10bd b18d 103d ae26 26bc
00000160: b41d d93c 68a1 ba3b 9f3d 2b3c be9c 4f3c
00000170: 48a4 6bbd 25de 1cbd 29df 15bc 10cc 29bd
00000180: 3bcc 203c b296 fabc 77d8 0cbc 7e39 983d
00000190: bce5 2d3c 653f a0ba 2c2f aa3c 470b 493b
000001a0: f608 eebb d4f1 d9ba bfa6 213a f3cb 843c
000001b0: 4f73 cb3c 213b 13bc 5323 e8bc d79a 0d3c
000001c0: 09d6 2cbd 72b8 a23a 4308 473d d46d e1bc
000001d0: 94ae babb a90c 3abd 74fd 23bc c502 243d
000001e0: fe98 e9bc 1edc 503c b6ff 95bd d792 283d
000001f0: eea8 bdba d013 f83c 3443 03bb e462 b9bc
00000200: 2ba2 9939 dd2c 123c 2290 00bc 145f 55bd
00000210: 2536 6cbc b91f 8eba 85a5 83bb f25e 7d3c
00000220: a4c2 4fbd e9ae 893c a52b 2ebd 008d 8ebc
00000230: 7211 acbb ac6f ac3c 65fa ff3c 555b 2abc
00000240: 61dc fd3a 4298 a63b 7eca 953c c6c9 8e3c
00000250: 96f3 983c 1970 873b 5fd7 023d 82d8 9cbd
00000260: 80b7 c93b 6071 86bd 61cc aa3c 970c 2fbc
00000270: 99ce bc3c a304 093c ea51 3e3b 419a 11bc
00000280: 7acf 84bc f705 093c 4647 54bb 5d2c 8fbc
00000290: 3f3f 65ba 7e5a f9bc 010d f0bc 9a9f c8bc
000002a0: 73d3 6d3c a2f3 56ba a187 75bc 2a87 9dbc
000002b0: a916 1b3d 3e41 c5bc 66f5 9dbc 363d bf3b
000002c0: cee2 033c d8a4 b73b 76d6 873c bb3c dbbc
000002d0: 1dea 533c d932 50bd 42ca 0bbc 0eab bb3a
000002e0: 8dde d93c b06c 14bd fe61 03ba 9d2a f9bc
000002f0: c3df 483c dc6d 75bb ee59 adbb f8ce 6dbd
00000300: 9018 233d e7b0 113c a3d3 eb3b 89ab 8f3b
00000310: 8fb6 6b3c 1889 fa3c c1c3 2abb 67a5 1e3c
00000320: d50a b7ba 4681 abbc 61aa e6bc f475 daba
00000330: fa00 1a3d 1048 05bc b6fd 063c e0ce a6bb
00000340: 1194 94bd a23a 06bd db4a 463c e63d be3c
00000350: 7288 993c 1fff 373d 74db 413c 6564 b23c
00000360: 34e4 69bc 6e5b a83b 5812 d53c 2cb6 783c
00000370: bc30 2b3d 9162 8a3b 34aa 0b3c 83d9 f63c
00000380: 9fa3 5d3c dd8c c33c e3d9 0c3c 8ce0 aa3b
00000390: 8719 b7bb 2003 0cb9 6035 183d 7a5d cbbc
000003a0: 36f6 31ba ccee 6a3d 34da 9ebc d310 a23c
000003b0: ac5d beba 64bb bdbb ce70 aebc bb56 5c3d
000003c0: e63d c93b a7ff 55bb 82de b6bd 7898 cebc
000003d0: 769b 1fbd c998 f93c 9242 74bc 11b6 b53b
000003e0: e2cd fc3b 52cd 21bc f306 b13d b6e8 3bbc
000003f0: 944a 4fbd 6497 8e3c aad2 5e3d e901 b53c

actor.6.bias f4 [27]
-0.034962486 0.017523821 -0.023034332 -0.06537766 0.04247587 -0.07127514 -0.04296925 0.060950857
-0.039728347 -0.008174424 0.12159496 -0.16012944 -0.10543303 -0.054226883 -0.029341228 0.03220654
0.045819256 -0.10661991 -0.07828332 -0.07584743 0.15770228 0.065672815 -0.05503315 0.028853504
0.014578292 0.031881735 0.032827634
00000000: d334 0fbd 1e8e 8f3c 7fb2 bcbc b9e4 85bd
00000010: 2efb 2d3d b3f8 91bd 8600 30bd 9ba7 793d
00000020: 31ba 22bd 05ee 05bc c706 f93d f9f8 23be
00000030: 46ed d7bd 021d 5ebd 045d f0bc 01eb 033d
00000040: f9ac 3b3d 8a5b dabd 0153 a0bd e655 9bbd
00000050: b57c 213e 787f 863d 716a 61bd 2f5e ec3c
00000060: cad9 6e3c 6c96 023d 4576 063d
