IsaacLab/logs/rsl_rl/h1v2_flat/2025-03-04_11-56-54/exported/policy.onnx (onnx, 195410 bytes, 8 tensors)

actor.0.weight f4 [128, 93]
000000 2c 6a 75 3d cd ad 83 bf 6d e2 90 bd 10 e0 35 3d
       0.059915707 -1.0287415 -0.07074437 0.044403136
000010 31 ce 13 3e ae eb 11 bb 6e bd 1d 3f 85 7d 34 bf
       0.14434125 -0.002226572 0.6161717 -0.7050403
000020 e0 6e 4f 3e 6f 47 1d 3d 3d 68 5b bd 33 8e f2 3d
       0.20257139 0.038398203 -0.053566206 0.118435286
000030 a6 7e 94 bd 97 3e 31 bf 17 02 7d be 69 21 9d bc
       -0.07250719 -0.6923613 -0.24707828 -0.01918097
000040 33 8a 7a be 26 41 80 be cd d9 42 3b 16 54 55 bf
       -0.24466781 -0.25049704 0.002973187 -0.8333143
000050 ae 75 32 3f 0f 57 66 3b 7e 99 94 be 76 18 a4 be
       0.69710815 0.0035147106 -0.29023355 -0.32049912
000060 f5 e5 10 3e bc b0 43 3f 1a 96 cc 3e bb 39 d7 3d
       0.14150222 0.7644155 0.39958268 0.10509058
000070 83 42 eb 3e 58 e6 75 3e 8b 4e 1e bf e7 1d 80 be
       0.45949182 0.2401365 -0.618386 -0.25022814
000080 5f e2 6a bf 21 b8 29 be 84 22 d5 be 9d 68 7c 3d
       -0.91751665 -0.16574146 -0.41627896 0.061623204
000090 29 81 0f 3e 9e cf a4 3d 53 88 68 bf fc d0 7d bd
       0.14014114 0.08047412 -0.90833014 -0.06196688
0000a0 1f af 6e 3c 13 24 a5 3b fb 12 81 3c c9 a3 5a 3d
       0.014568119 0.005039701 0.01575612 0.053378854
0000b0 ad 9c fb 3c af 12 ad 3d 39 be c7 3b c0 e0 d7 3d
       0.030714357 0.08450829 0.0060956744 0.105409145
0000c0 54 e8 2e bd fa 18 bb 3c 1f be 9f bd 46 e1 23 3d
       -0.042702034 0.022839058 -0.077999346 0.04000976
0000d0 d7 c4 f2 3b f0 08 13 3d 2f 98 ae bc ff f4 9f 3d
       0.007408719 0.035897195 -0.021312801 0.07810401
0000e0 8b 4e 7d bc 9b b0 e0 bc ce 74 82 3c 1b 9a 44 bd
       -0.015460621 -0.027427962 0.015924837 -0.04799853
0000f0 63 2c 60 bb cc 33 3b 3d 92 64 b1 3c 91 2d 21 3c
       -0.0034206144 0.045703694 0.021654401 0.009837524
000100 8e 86 e9 bc 57 47 e9 3c 05 c5 ad be 00 a3 ac be
       -0.028506543 0.0284764 -0.33939376 -0.3371811
000110 c4 8c 2a bc 08 3b df bd fc 5b 20 3d 9b 89 96 3d
       -0.010409538 -0.10899931 0.039150223 0.07350465
000120 de 50 a0 bd d4 1c eb 3c c2 07 ab bc 58 38 56 bc
       -0.07827924 0.02870027 -0.020877723 -0.013074957
000130 bb e4 c5 bd 70 7a 2c 3e c5 96 06 bd df fb 2d 3c
       -0.096627675 0.16843581 -0.03285863 0.010619133
000140 6b a1 aa bd 61 30 25 bd 31 c8 04 be fb 0a 2c 3d
       -0.08331569 -0.04032934 -0.12966992 0.04200266
000150 ec bc c1 3d ff 70 e4 bd 2d db cb 3d d6 d1 b4 3c
       0.09459862 -0.11154365 0.09953914 0.022072714
000160 ed ce 14 bd 41 82 fc bc 02 07 19 3c bb 67 99 3d
       -0.036330152 -0.030823829 0.00934005 0.07490488
000170 c6 92 4a 3a b1 51 58 3e f2 e9 9f 3e 62 47 a1 bc
       0.00077275594 0.21124913 0.31233174 -0.019687358
000180 ca 8d c3 3e cb 3f ca 3e 83 22 03 be 12 31 09 3f
       0.38194114 0.39501795 -0.12806134 0.535905
000190 cc a0 09 3e 81 74 d7 3d 14 2c 32 3e dc 30 b9 3c
       0.13440245 0.10520268 0.17399627 0.022606306
0001a0 90 18 68 be b5 2c 0a 3f db 5c 60 3e cd 71 37 bf
       -0.2266562 0.5397447 0.21910422 -0.7165802
0001b0 89 f9 4a 3e 94 f9 73 be 8d 0d 88 bd ab f3 5f bd
       0.19821753 -0.23825675 -0.066432096 -0.05467574
0001c0 60 36 33 3f 7e 1d 19 bf 88 fd b3 be f4 e9 20 3e
       0.70004845 -0.59810627 -0.35154366 0.15714246
0001d0 3f 8c 32 be b2 2a 27 bf 62 48 3d be 13 b5 18 be
       -0.17436312 -0.6529952 -0.18484643 -0.14912824
0001e0 f5 4b d7 be f1 35 93 3e bb 39 d0 be b4 c6 e1 bd
       -0.42050138 0.28752092 -0.40669045 -0.11024228
0001f0 a5 10 a6 bc 73 96 dc 3e 71 08 d5 be 87 a0 8d bf
       -0.020271609 0.43083534 -0.41608003 -1.1064614
000200 30 ba d7 be b4 2a 3f bf 53 5e 5f bd e2 f3 05 3e
       -0.42134237 -0.74674535 -0.054533314 0.13081315
000210 2b 18 e1 3d 3e 3f 05 bd 44 bc e5 bd a2 95 92 ba
       0.10990938 -0.032531016 -0.112175494 -0.001118351
000220 44 d6 a9 3d ce 07 5e bb b8 a5 dd 3d ea 2b 5e bd
       0.08292821 -0.0033879164 0.10822624 -0.0542411
000230 70 41 99 bd 80 0e 04 bc 2b bf 00 bd 03 18 79 3c
       -0.07483184 -0.008060098 -0.031432312 0.015203479
000240 d0 cf ca bd 5d 99 10 3d 65 f3 2e bb b6 79 f8 bc
       -0.09902918 0.03530251 -0.0026695367 -0.030331474
000250 86 83 6e 3c f1 12 09 bc 2b 17 43 bd 91 55 0a bd
       0.014557725 -0.008366332 -0.047629517 -0.03377301
000260 7a f9 96 3d 80 45 f3 bc 1e d4 84 3d 7a df c5 3c
       0.07371803 -0.029696226 0.06485771 0.024154413
000270 86 85 64 3d fd 56 af bc 25 d8 5d bd 3f c9 b3 bd
       0.0557914 -0.021403784 -0.05416121 -0.08778619
000280 28 d4 e6 bd 37 db 64 be 59 a9 c5 bc cd 7c 63 bd
       -0.11270934 -0.22349249 -0.024128603 -0.05553894
000290 d7 08 01 bd 27 39 76 bd fc 3e 68 be d7 fe 63 3e
       -0.03150257 -0.0601131 -0.22680277 0.22265182
0002a0 5f b8 54 bd b3 10 1e bd 31 9b 6e be 10 a9 74 3d
       -0.051933642 -0.038590144 -0.23301388 0.059731543
0002b0 5b c2 86 bd be 4f 7c bd 41 6b 2f 3e 7e 2c 2b be
       -0.06580039 -0.061599486 0.17130758 -0.16716191
0002c0 01 6f a7 3c 79 ef b4 3d cc fe ca 3d eb 0c a3 bd
       0.020438673 0.08834738 0.0991188 -0.07961448
0002d0 1a 7a 5a bc 71 0e 7d bd 85 0e 79 bd bf d3 92 bd
       -0.013334775 -0.06178135 -0.060804863 -0.071692936
0002e0 74 38 06 3d 2f 08 7e 3d 93 78 9d bd ae 0c d0 be
       0.03276868 0.062019523 -0.07689013 -0.40634674
0002f0 33 bb a6 bd 4a 0c 29 3e 17 86 16 3e 27 03 f5 bd
       -0.08141174 0.16508594 0.14699589 -0.11963492
000300 cc a5 86 bd 69 f8 a6 be d0 dc 3a 3e eb bd d9 3d
       -0.06574592 -0.32611397 0.18248296 0.10631927
000310 ec bc 8b bd fc 26 34 3e 1c 74 98 3e 39 08 e0 3e
       -0.06823143 0.17592996 0.29776084 0.43756273
000320 89 7e 02 be 30 c0 26 3e 44 f7 ed be b9 9b b0 be
       -0.12743582 0.16284251 -0.4647771 -0.34493807
000330 45 35 07 3e 0f 66 2d be 5a 0f 0a 3f 0a bb 2c bf
       0.13203914 -0.16933464 0.53929675 -0.674729
000340 52 85 9b be b8 58 0b be 22 ab ac 3e c6 4f e7 3d
       -0.30375153 -0.13608062 0.33724314 0.112945125
000350 ee df 8a bc a4 fa fb 3e 42 bf a7 3d ff 2b 34 3f
       -0.016952481 0.4921466 0.081907764 0.7037963
000360 41 7b 12 3e c0 b2 14 bf 12 9b 2f bf aa 0d 80 3f
       0.1430483 -0.5808525 -0.68595994 1.000417
000370 3b c8 a0 bf 01 11 37 3e f5 26 03 bf 4c 7c 80 3d
       -1.2561105 0.1787758 -0.5123132 0.06273708
000380 04 28 47 3e 48 5d 17 bd 7c b0 a4 bd 6d 2e 8c 3c
       0.19448858 -0.036954194 -0.08041474 0.017111981
000390 4a e3 e0 bd 06 46 70 3c 7b a8 f0 bc 8b ea cf bc
       -0.10980852 0.014665132 -0.029377213 -0.025380393
0003a0 04 8b b8 bd b3 2b ea 3d f0 e8 f5 bd b5 31 6d bd
       -0.0901089 0.11434116 -0.1200732 -0.057908732
0003b0 40 a8 83 3d 13 fa 93 3c 79 af 8f bd ec d1 98 bd
       0.064285755 0.01806358 -0.07015891 -0.074619144
0003c0 f6 3c 54 3c 07 e7 64 3c e2 52 b2 bc 38 2f 4c 3c
       0.012953987 0.013971097 -0.021768037 0.01246243
0003d0 58 ea 92 3b 03 61 48 3d cd 19 9f bc 4a e8 c4 3d
       0.0044835024 0.048920643 -0.019421482 0.09614618
0003e0 a2 c5 30 bc 03 84 03 3c 5f 8f 39 3c c6 57 0c bd
       -0.010789307 0.0080270795 0.011325686 -0.034263395
0003f0 ea 08 6a bd 18 1f 11 3e 0a 50 8d 3d 43 9b c0 bc
       -0.057137407 0.14172018 0.06900032 -0.023511535

actor.0.bias f4 [128]
000000 3d 40 0d be de ba 54 bd 1c 78 e0 bd 5c 3b 1f 3d
       -0.13794036 -0.051936023 -0.10960409 0.03887497
000010 03 2e 27 bd e3 68 0a 3e 21 42 08 be 3f 8b ea bd
       -0.040815365 0.13516574 -0.13306476 -0.1145234
000020 24 e9 3d be 29 2b 91 3b b0 ad 82 3d 02 d1 10 3e
       -0.18545967 0.004430194 0.063807845 0.1414223
000030 95 c5 f9 bd af 6e 6a 3b 7e 57 25 3d c3 f3 d6 3d
       -0.12195889 0.003577154 0.040366642 0.104957126
000040 9b 43 c2 3c e2 a2 da 3d a9 ec d0 3d ab 2d 24 3d
       0.023713877 0.10675599 0.10201389 0.040082615
000050 2a 84 28 be f1 a9 b3 bd a9 43 5a bc 83 17 d2 3d
       -0.16456667 -0.08772648 -0.0133217955 0.10258391
000060 74 9d 23 be 26 22 23 3e d7 ba 1b bd bd 0a 16 3d
       -0.15978032 0.15930995 -0.03801998 0.036631335
000070 2c 0c b3 3d 5c d5 47 bc 7e 52 78 3b ed 1c 03 be
       0.08742556 -0.012196865 0.0037890966 -0.12804003
000080 41 cc b1 bd db af c9 bd f4 1f 70 bb 1a cc 35 3d
       -0.086815365 -0.09847995 -0.003664014 0.0443841
000090 8c b0 41 3d ea 4a 14 be 3b 03 74 be 76 2f 06 3d
       0.04728751 -0.14481702 -0.23829357 0.032760106
0000a0 53 4a 06 3e 42 3a d3 bd 1f 14 dd 3d ca b3 06 bd
       0.1311429 -0.10313846 0.107948534 -0.032886304
0000b0 76 28 d1 bd d1 be af 3d 75 85 d1 bd 2a 40 92 3c
       -0.102127954 0.08581317 -0.10230533 0.017852861
0000c0 3b 90 91 bd 03 6c 56 bd a3 82 71 be 34 61 a8 bd
       -0.07107588 -0.0523491 -0.2358499 -0.08221665
0000d0 99 d1 62 bd 7b 13 12 bd 80 4a bb 3d 67 16 cd bd
       -0.05537567 -0.03566311 0.09145069 -0.100140385
0000e0 94 c3 a1 bc 58 be 0a 3e 6f 5f aa bd 48 8c 8a bd
       -0.01974658 0.13549173 -0.08318984 -0.06765038
0000f0 2e ce b7 3c 3b b6 a5 3d 6a 7d 01 3e 18 7c dc bd
       0.022437181 0.08091398 0.12645498 -0.107658565
000100 9c f9 05 be ce f3 57 3d 47 9b 38 be 8b f0 67 be
       -0.130835 0.052722745 -0.18027984 -0.22650354
000110 d1 26 a6 bd e8 77 82 bd 04 36 7a bd e4 d3 20 be
       -0.081128724 -0.063705266 -0.06108667 -0.1570583
000120 bf 7d 67 bd e7 c4 94 3c eb b9 ad 3d 94 8e 21 be
       -0.056516405 0.018160297 0.08482727 -0.15777045
000130 b7 48 43 bd 57 d3 3f be da 8d 43 bc cc c1 12 be
       -0.04767677 -0.18732964 -0.0119356755 -0.1433174
000140 9d e5 d6 bd 92 a9 13 bd d6 c6 9f 3b c7 17 b8 3d
       -0.10493014 -0.036050387 0.004875998 0.0898891
000150 c4 fe 9e 3d 68 0d 8b 3d a3 a1 66 bd 47 6b e1 3d
       0.077634364 0.067896664 -0.056306493 0.1100679
000160 92 f7 16 be 42 b5 20 bd 4a fa e9 bd ae 9c 1f be
       -0.14742878 -0.03923536 -0.11424692 -0.15587112
000170 5f 08 c5 bd 85 b8 4c be f4 ed 15 be 22 c9 86 3d
       -0.09620737 -0.19992264 -0.14641553 0.06581332
000180 1c f8 46 be fb 34 17 3d fc 6c 37 be 1a f0 0c bb
       -0.19430584 0.03691576 -0.17912668 -0.0021505416
000190 97 00 33 be cf 08 d1 3d 5d cc 3c bd 8a 8a 0b 3e
       -0.17480694 0.10206758 -0.046093334 0.13627067
0001a0 14 1f 53 3e 75 32 a4 bd 02 c7 0d 3d 0f 08 f1 ba
       0.20617324 -0.080174364 0.034613617 -0.0018389242
0001b0 bf d4 ad 3d be b3 0e be 86 20 55 bd b5 08 1a be
       0.08487844 -0.13935754 -0.05203297 -0.15042384
0001c0 4a 45 f6 3d e5 ba 15 be d1 32 e7 bc 6b fe 8b bd
       0.120249346 -0.14622076 -0.028222473 -0.06835636
0001d0 2e 4d 36 be 6d 57 e7 bd d0 23 98 bd e6 7f 27 3d
       -0.17802879 -0.11295972 -0.07428706 0.040893458
0001e0 61 53 d5 bd f4 6f 91 bd 87 9e 1a 3e 5d 6a ef bc
       -0.10416294 -0.071014315 0.15099536 -0.029225523
0001f0 f0 18 ae bd 5d e3 c8 bd 6b d6 e8 bd 50 53 0f 3d
       -0.0850085 -0.09808991 -0.11369022 0.034991562

actor.2.weight f4 [128, 128]
000000 67 6f 6c bd 49 99 c6 bd 95 67 5e bd b8 c5 29 bd
       -0.05772343 -0.096972056 -0.054298002 -0.041448325
000010 35 f1 75 be 24 13 fe 3c ea 0a ac 3d c0 0f cf bd
       -0.24017794 0.031014986 0.08400519 -0.10110426
000020 0f a0 ab bd 1b ee a5 3d 3d a5 ce 3d 12 4d 96 bd
       -0.08380138 0.08102056 0.100901105 -0.07338919
000030 cb 01 5a be 19 46 8f 3d 47 43 9d bd e6 ca 45 be
       -0.21289746 0.06995792 -0.07678848 -0.19315681
000040 d9 d4 85 bc b6 26 ab bd fe d9 82 bd e9 bc 0d be
       -0.016336845 -0.08356993 -0.06389235 -0.13841595
000050 5b 61 75 bd cf 53 46 be 3a c1 c5 bd fa a3 3a be
       -0.0599073 -0.19367908 -0.09655996 -0.18226615
000060 35 bf 1b be 22 e6 84 bd b2 ac d2 3d de d1 84 3d
       -0.15209658 -0.06489207 0.10286845 0.064853415
000070 a4 6a cf 3d 1e 34 d5 be 4e 51 34 3c 51 8e 84 be
       0.10127762 -0.41641325 0.011005713 -0.2588983
000080 fd 63 56 be ba ac ac 3d 2f 81 2f be 1b c4 12 bd
       -0.2093658 0.084313825 -0.17139123 -0.035831552
000090 a0 50 dc bd f8 16 0b be 65 37 f3 bc ed 95 2b bd
       -0.107575655 -0.1358298 -0.0296895 -0.041891027
0000a0 0d 6d 04 bd 65 32 2b be 5f 1f ac 3d 76 7a db 3d
       -0.03233056 -0.16718443 0.08404421 0.10716717
0000b0 c4 c3 1f be 86 69 27 be 69 ed 5b bd ac ab 20 be
       -0.15602022 -0.16348848 -0.05369321 -0.15690488
0000c0 97 84 00 3e a8 70 7b bd bb 6d f1 3d 22 b3 92 3d
       0.12550579 -0.061386734 0.117885076 0.07163073
0000d0 a7 3c 1d 3d 1a 2d 2b 3e 5a 50 d1 3b 7c c0 c0 bc
       0.03838792 0.16716424 0.0063877525 -0.023529284
0000e0 93 6d 7b 3d 46 a1 51 bd bb b9 6b bd ec 69 10 bc
       0.061383795 -0.051179193 -0.057550173 -0.008814316
0000f0 4a 76 b4 3d ad 94 25 bc 8f 1a d3 3d 50 5e a9 bd
       0.08811624 -0.010106248 0.103078 -0.08269942
000100 91 f8 f1 bc 8d a3 ad 3e e8 86 c1 3c ee 83 54 be
       -0.029537471 0.33913842 0.023623899 -0.20753452
000110 1b df 17 bd 33 ff 99 bd 92 f8 21 bd 89 5e 23 3e
       -0.037078004 -0.075193785 -0.039543696 0.15954031
000120 9b 57 ac bd 5a 19 44 bc 7d 71 69 bd 07 6d 2b 3d
       -0.08415147 -0.011968935 -0.056992996 0.041852023
000130 5d 5a dc 3d 2a 28 d2 bd 33 bc 76 bd 61 1f fa 3b
       0.10759423 -0.10261567 -0.060238075 0.007633135
000140 5b 09 44 be 51 c1 39 be 45 88 9e bd ff 21 87 bd
       -0.19144194 -0.1814015 -0.07740835 -0.06598281
000150 f3 aa af 3d 24 07 4c bc c9 1a 85 3e 53 f4 ad bd
       0.08577528 -0.012452874 0.25996998 -0.08493867
000160 1d 8e 9e bc fa 5d 0c bd 40 b5 0f bd 2e 9a 14 bd
       -0.019354874 -0.03426931 -0.035084963 -0.03627985
000170 ca 5b 14 be 85 f7 e1 bd 81 39 98 bd 0a 81 06 bd
       -0.1448814 -0.11033539 -0.07432843 -0.032837905
000180 dd 40 e3 bc 02 a6 a4 bc 25 ee af bd 94 3a b8 bc
       -0.02774089 -0.02009869 -0.08590344 -0.02248887
000190 56 09 b8 bd 0b b4 88 bc 9d c7 96 3a c5 7c a3 bc
       -0.08986156 -0.016687414 0.0011503581 -0.019956956
0001a0 aa 0d 49 3c e5 80 20 be f6 17 27 bd e8 bd fd bc
       0.012271324 -0.1567417 -0.040794335 -0.030974343
0001b0 ca 79 e1 bd ec 61 ad bd 7a ee 2c bc b5 1a 61 3c
       -0.110095575 -0.08465943 -0.010554904 0.013739278
0001c0 d9 db c1 bd d4 f7 b8 bd d8 db 26 3e 04 29 57 be
       -0.09465761 -0.090316445 0.16294801 -0.2101174
0001d0 42 03 cf 3c 82 0d 1b bc 69 e4 98 3d 53 76 44 be
       0.025270108 -0.00946367 0.07465441 -0.19185762
0001e0 7f 13 7d be 3a 6f be 3d 16 04 a8 bd 3a 88 5f 3d
       -0.24714468 0.092985585 -0.08203904 0.054573275
0001f0 6f 36 8f be 98 18 15 be 7f 9d bf bc 69 d6 74 be
       -0.27971217 -0.14560163 -0.02339053 -0.23909916
000200 a6 4a 4b be c8 97 2d be cc 81 91 3c b0 53 b6 bb
       -0.19852695 -0.16952431 0.017762087 -0.0055641755
000210 b6 29 24 bd 4f 38 89 3d 13 8d 45 3e 6d 52 e4 bd
       -0.04007884 0.06700193 0.19292097 -0.11148534
000220 0a 9d 30 3e bd 94 97 bc 7c 2a 64 be e4 0d 50 bd
       0.17247406 -0.018503541 -0.22281832 -0.050794497
000230 30 45 3a bd 12 18 03 3d 61 60 1b 3d 73 9b 16 bd
       -0.04547614 0.032005377 0.03793371 -0.03676934
000240 e8 85 98 3c 3b a9 26 3e c2 58 87 be b7 ce 2b 3e
       0.018618539 0.16275494 -0.26434904 0.16778074
000250 b7 69 0f 3e 14 ef b1 bc 60 16 5f bd ab 0c 28 be
       0.14005171 -0.021720447 -0.054464698 -0.16411082
000260 b9 2d 82 bd c7 c7 f6 3b ff 2a c5 3c e4 93 30 bc
       -0.06356377 0.0075311395 0.024068354 -0.010777447
000270 e3 60 06 3d bd 1e 27 be ab 2a ab 3d 65 da d8 bc
       0.032807242 -0.1632032 0.08357748 -0.026471326
000280 85 8d bc 3d d7 4a 93 3e 8b 0f 04 bd 9e 19 35 3e
       0.0920668 0.28768036 -0.032241385 0.17685553
000290 f7 17 8a bd ce 32 89 bd dd 4a 17 be 10 52 04 3e
       -0.06742852 -0.06699143 -0.14774652 0.1292193
0002a0 7a bf 1d 3d 95 5f ca bc 42 d6 62 bc f7 98 06 3e
       0.038512684 -0.02470378 -0.013845028 0.13144289
0002b0 54 29 f8 bd b9 b1 b0 bd 54 fa 80 be ff de 03 3d
       -0.12117258 -0.08627648 -0.25190985 0.032195088
0002c0 86 c0 cc bb d7 f3 06 bd ce eb 23 3e d4 11 ef 3d
       -0.0062485365 -0.032947388 0.16007921 0.11673322
0002d0 42 5e 7a 3d e4 75 d4 3d 26 68 2e bd 40 c5 d5 3c
       0.061125048 0.10374048 -0.042579792 0.026095033
0002e0 2a e2 52 3d 86 54 9d 3d f9 f0 5d 3c dd 8c 03 be
       0.051485218 0.07682137 0.013546222 -0.12846704
0002f0 08 59 63 3d 9b b7 be bd 8a c1 aa bb 0f 67 d3 bc
       0.05550483 -0.09312364 -0.00521106 -0.025805978
000300 da 58 be 3d 72 e7 cb 3c 33 e5 8b bd d0 7d 9a bc
       0.09294291 0.024890635 -0.06830826 -0.01885882
000310 f2 a6 43 3d 73 d1 40 bc 54 b1 33 3e 2b ea cb bd
       0.047766633 -0.011768687 0.17548114 -0.09956773
000320 27 82 52 3d 7f 05 80 bd a7 89 2a bd 15 70 fb bd
       0.051393654 -0.06251048 -0.04163518 -0.12277237
000330 eb 2a 60 bc 7a 4a cc 3d f0 16 46 3d cc cd a0 bd
       -0.013682107 0.09975143 0.04836172 -0.07851753
000340 9f 07 d5 bd cd 75 9f ba 18 17 ee bd e9 01 ac bd
       -0.10401844 -0.0012165845 -0.116254985 -0.08398802
000350 c9 31 ed 3d 42 a7 25 3d 24 20 50 3c ab 03 53 bd
       0.115817614 0.040442713 0.012702975 -0.05151717
000360 9f 9f 0e 3e 72 99 45 3e 53 30 7e bd ef 8a 46 3d
       0.13928078 0.19296816 -0.062057804 0.04847234
000370 d3 6d 1c 3e a1 04 0c be 49 25 61 3d c4 0e 27 be
       0.1527627 -0.13673641 0.0549672 -0.16314226
000380 06 75 73 bd 30 8d 81 3d 86 e5 c9 bb db 82 4c be
       -0.059437774 0.063257575 -0.0061613945 -0.19971792
000390 b6 d2 d3 3d e8 55 66 bd cd 1a 5f 3d 27 a3 8a be
       0.10342924 -0.05623427 0.05446892 -0.270776
0003a0 90 72 3c 3e b0 69 9b bb 38 5f 4e 3e 06 9b 42 be
       0.18403077 -0.0047428235 0.2015351 -0.19004449
0003b0 74 59 83 3d 10 e1 97 bd 5b a5 40 3c 7e c7 30 3d
       0.06413546 -0.07415974 0.011758174 0.043159
0003c0 65 c3 22 3d 20 29 4f 3d 85 41 d1 3d 77 51 aa bd
       0.039737124 0.05057633 0.10217575 -0.083163194
0003d0 73 58 12 bc 18 d7 e9 3d da 40 06 3d 07 4e b7 bc
       -0.008932221 0.11417979 0.03277669 -0.022376074
0003e0 99 95 97 bd 86 03 4b bd db 01 eb bd 9c a0 8a bd
       -0.0740158 -0.049563907 -0.11474963 -0.06768915
0003f0 53 cf b0 3d cf 9e 98 bd f9 46 29 bd e3 06 3b be
       0.08633294 -0.07452165 -0.04132745 -0.18264346

actor.2.bias f4 [128]
000000 d5 0b e3 bd 57 f8 fe bd 12 24 17 bd 7d 83 5f bd
       -0.11086241 -0.12449711 -0.036899634 -0.054568756
000010 e8 1c d2 bd 6c b3 6f 3a 3f db c6 3c 87 1c 44 be
       -0.1025942 0.00091438624 0.024274467 -0.19151507
000020 1f f9 06 3d 1b f9 3f be 3a 0f af 3d 5d f8 10 be
       0.032952424 -0.1874737 0.08547826 -0.14157243
000030 36 95 28 be 32 4a cd 3b 11 24 a7 bd 54 48 62 bc
       -0.1646317 0.0062649483 -0.08161176 -0.01381119
000040 37 3c 40 bd ab cd 99 3d 05 28 69 3d f7 bc 9a bd
       -0.046932425 0.07509931 0.05692293 -0.075555734
000050 ce 32 8a 3c 47 a3 ef 3c 19 17 ac bd f6 bb 48 bd
       0.016869929 0.029252661 -0.08402843 -0.04900738
000060 7e fc 39 be ff 60 96 bd a9 2b b5 bd 90 22 20 3d
       -0.18162724 -0.07342719 -0.08846218 0.03909546
000070 51 8c d0 3c 9b 92 af bc 2a ed 4d bd 12 ad af 3b
       0.025457533 -0.021432212 -0.050275005 0.0053612078
000080 56 9a 84 bd 08 a1 25 bd 70 5d 47 3c 44 42 26 bd
       -0.0647475 -0.040436774 0.012168273 -0.04059054
000090 9a a9 e9 bd 5f ab c8 bb 1c ff f2 bd 3f b1 ae 3d
       -0.11409302 -0.0061239447 -0.118650645 0.08529901
0000a0 d4 59 0e be 0f 28 0d be 21 63 cc bd 1a 1b 17 bc
       -0.13901454 -0.13784812 -0.09979845 -0.00922277
0000b0 a9 65 30 be 17 de 69 bd 9c c3 ae bc d7 49 b2 bd
       -0.1722628 -0.057096567 -0.021333508 -0.0870549
0000c0 cd 24 87 bb f8 46 7c be 35 37 b6 bd 56 a6 2e be
       -0.00412426 -0.24636447 -0.08897249 -0.1705564
0000d0 00 6a 12 bd c9 7d 61 be e4 81 2e be 04 59 91 bd
       -0.03574562 -0.2202064 -0.17041737 -0.070970565
0000e0 ea 14 19 3c 34 68 ce bd 1e 96 3d bd 43 42 bf bd
       0.009343365 -0.10078469 -0.04628574 -0.0933881
0000f0 ad c4 ff bd bf 19 9b bd 49 23 b0 bd a2 39 c1 bc
       -0.12488685 -0.0757327 -0.0860048 -0.023587052
000100 41 29 3c 3d e3 96 da bd 96 4c 00 bd 36 ed 57 bc
       0.04593778 -0.106733106 -0.031323038 -0.013179114
000110 8b 4d 02 3e ff ea 88 bd 33 b0 9c 3d 0a ce 01 3c
       0.12724893 -0.06685447 0.07650795 0.007922659
000120 90 76 18 be 1a 3c 5f bd 94 90 90 bd 1d 99 cd bd
       -0.14888978 -0.054500677 -0.07058826 -0.1003897
000130 21 12 4c 3d 70 85 ec bd 5c 9f 6a be d5 fc 02 3d
       0.049821977 -0.11548889 -0.22912353 0.0319794
000140 29 6d d3 bc 51 b5 90 3d c3 1a 29 be e4 25 57 bd
       -0.025808888 0.07065833 -0.16514115 -0.05252637
000150 20 21 8b be f0 27 80 3c 03 99 19 bd bd 0b e9 bd
       -0.2717371 0.015644044 -0.03749944 -0.11379192
000160 89 58 01 be e3 2b a8 ba ae 76 09 be b3 4b a0 bd
       -0.1263143 -0.0012830462 -0.13424179 -0.078269385
000170 13 0c 7a 3d ba 0d b7 bc e2 a2 90 3d d9 17 d5 bd
       0.06104667 -0.022345413 0.070623174 -0.10404939
000180 a9 d9 27 be fd e2 40 be d4 6a 80 be 28 e7 89 bd
       -0.16391625 -0.18836589 -0.25081503 -0.06733543
000190 1e a3 27 be 63 db 75 bd e8 95 82 be 52 5e 16 be
       -0.16370818 -0.060023677 -0.25504994 -0.14684418
0001a0 93 71 bd 3b 91 1c 21 3b 04 25 d1 bc c7 21 7f bd
       0.0057813614 0.0024583677 -0.025530346 -0.062288072
0001b0 8d fc 63 be 1c a9 5c bd bb bd 18 bd 01 67 a3 3b
       -0.22264309 -0.053872213 -0.037290316 0.0049866443
0001c0 d4 aa 88 bc 55 0a e0 bd 56 40 58 3d 65 84 1f bd
       -0.01668302 -0.10939471 0.05279573 -0.03894462
0001d0 6e c4 c3 bd d0 92 f1 bd 0e ab f7 bd 62 86 15 be
       -0.0955895 -0.117955804 -0.12093173 -0.14602044
0001e0 00 7e 08 be ad 71 a6 bb 33 56 db 3c fc 41 43 3d
       -0.13329315 -0.005079469 0.026774501 0.04767035
0001f0 48 6a c8 bd 50 76 17 be 4e 06 3a bc 1e d5 ce bd
       -0.097858965 -0.14791226 -0.011354042 -0.10099243

actor.4.weight f4 [128, 128]
000000 cd c4 3a bd 9c c4 2d bd 46 09 05 bd b6 90 b4 3c
       -0.04559784 -0.04242383 -0.032479547 0.02204166
000010 80 d5 07 be 58 55 0c 3e db 3e 51 3c de 47 8f bd
       -0.13265038 0.13704431 0.012771334 -0.069961295
000020 6e 44 5f bc 0b 24 14 3c 7c df ba bd 83 a7 24 bc
       -0.013627155 0.009041796 -0.091246575 -0.0100497035
000030 8e 63 0b bc a6 93 0d 3c 95 84 8f bc 77 16 9a 3d
       -0.008507622 0.008641159 -0.017519275 0.07523816
000040 14 4b 0b be 4c 0b 7d 3d df 1b 24 3d b4 ee ba 3d
       -0.13602859 0.06177835 0.040065642 0.0912756
000050 77 8e 56 bc 12 d8 53 3d 34 be f2 3b 3c d7 1a 3d
       -0.01309549 0.051719733 0.007407928 0.03780292
000060 14 51 6f bd 93 fc df bd 75 15 3d 3d ce ec 15 be
       -0.05842693 -0.109368466 0.04616304 -0.14641115
000070 02 3b 0b be 9f ac fe 3c d3 ae 57 bd 4a 56 68 3c
       -0.13596728 0.031088172 -0.05265696 0.014180729
000080 a0 ac a5 bd 37 c5 49 bb 3f f1 72 3d 81 6e 4d be
       -0.08089566 -0.0030787715 0.0593121 -0.20061685
000090 4e 62 da 3d 38 38 08 3d dc b6 09 3e 70 7f 09 3d
       0.106632814 0.03325674 0.13448662 0.0335688
0000a0 89 cc 65 bd 58 da 95 bd 64 b0 ad bc ca 09 d1 bd
       -0.056103263 -0.073170364 -0.021202274 -0.10206945
0000b0 6b 72 08 be f2 1d 4e be ec 3c 0f 3e 18 3e 35 bd
       -0.13324897 -0.2012861 0.13988084 -0.04424867
0000c0 74 9c 74 bd 2e 6e a1 3c a6 46 20 be 0f 27 09 3d
       -0.059719518 0.019705858 -0.1565195 0.033484515
0000d0 13 77 06 3e ed 15 a5 3d bf b8 17 3d 02 1d 86 bd
       0.1313136 0.08060823 0.037041422 -0.065485016
0000e0 1b 65 8c bc 64 d7 01 be 40 66 78 be e5 3f 1f 3c
       -0.017138055 -0.12679821 -0.24257755 0.0097198235
0000f0 25 f0 e7 bc 76 af cc bb 92 3a cd bc da 38 a9 3d
       -0.028312752 -0.0062465025 -0.025052343 0.08262797
000100 45 b6 e7 bd 4e 0a 21 be 3d af 09 3d fc 63 44 3e
       -0.11314062 -0.15726587 0.033614386 0.19178766
000110 e9 87 0d bd 3c c9 0c bd b6 f0 93 bd 16 87 98 3d
       -0.034553442 -0.0343716 -0.07223646 0.074476406
000120 92 92 92 bd 23 6a 0d 3d af bc cf 3d b4 b9 de bd
       -0.07156862 0.034525048 0.101434104 -0.10875264
000130 6d 48 44 3d bf 87 7f bd 6d 9f df bd be a8 d3 3d
       0.047920633 -0.062385317 -0.1091908 0.103349194
000140 0c f1 2d 3c 92 98 fa bd 72 41 2c bd 7c d6 6c 3d
       0.010616552 -0.12236132 -0.0420546 0.057821736
000150 41 e2 b0 3d 6b 83 79 bd 7c ce fe bc 16 89 1f bc
       0.086369045 -0.060916346 -0.031104319 -0.009737274
000160 b6 9b 01 3e cb d7 00 3d 73 ef ee 3d 60 b8 37 3d
       0.12657055 0.031455796 0.11666765 0.044853568
000170 86 81 6a bd 46 ea 3e 3d e8 ab d4 bd 65 84 ba 3d
       -0.05725243 0.04661014 -0.10384351 0.091072835
000180 db 42 df bd 72 fd 07 bd 42 c4 b7 bc d0 f4 b1 bc
       -0.109014235 -0.03320069 -0.02243245 -0.021723181
000190 47 18 58 3d bd f6 c4 bd d8 58 8e 3d d5 64 a4 bd
       0.052757528 -0.09617374 0.06950539 -0.08027045
0001a0 b3 9d 75 3d 91 83 88 3d 15 e5 a4 3c c5 5b 49 3d
       0.059964847 0.06665719 0.020128766 0.049159784
0001b0 52 51 6b bd 9d 14 96 3d 29 40 2b 3d cd fd 00 be
       -0.0574506 0.073281504 0.041809235 -0.12596817
0001c0 30 c8 16 3d 51 69 ac 3d b6 bd bd 3d ce b7 cf 3c
       0.036812007 0.08418525 0.092647 0.0253562
0001d0 7f b8 9c bd bb d9 0c be fc 53 16 3c a8 24 d5 3c
       -0.07652377 -0.13754933 0.009175297 0.026018456
0001e0 fd ff fb 3c 6b 7f 80 be 82 2c 80 3b 5b 7f 4e 3d
       0.030761713 -0.25097212 0.0039115557 0.050414424
0001f0 e4 dc a7 bd 02 b9 d2 bc cd 08 b6 bd 33 85 0d bd
       -0.081964284 -0.025722984 -0.08888397 -0.034550857
000200 3f 70 1c be 28 ad 36 3e 3f 3d 8c bd d6 67 fa 3c
       -0.15277193 0.17839491 -0.06847619 0.030567091
000210 75 e3 96 3c d1 38 5a bd 3c 9d 92 3d 8a 63 7e 3d
       0.018419007 -0.05327684 0.07158896 0.062106647
000220 63 8c f4 3d e2 60 bd bd b9 73 11 3e 3b 15 fe 3d
       0.11940839 -0.092469946 0.14204301 0.12406393
000230 85 e1 3d bd 8b 12 92 bd 0f 96 75 3d dd 46 d7 bd
       -0.04635765 -0.07132443 0.05995756 -0.10511563
000240 57 29 f2 bd e5 72 e5 3d 3b be 33 3b 52 0d c4 3c
       -0.11824291 0.11203555 0.0027426619 0.023932133
000250 ab 70 56 3e 9b ae 34 3d e2 91 c9 3c cc 2c 44 3d
       0.20941417 0.04411183 0.024605695 0.047894284
000260 03 5a ac bd bd 7a 79 3d 78 b5 88 bc 34 9e f3 3d
       -0.08415606 0.060908068 -0.016688094 0.11895409
000270 8a e1 3b be 9a 31 35 bd 61 42 76 3d f6 e2 f6 3b
       -0.18347755 -0.044236757 0.060121898 0.00753438
000280 5d 24 25 3e ba 06 40 3d 15 00 dd bd ed df 75 bd
       0.16127153 0.046881415 -0.10791031 -0.060028005
000290 16 cf 1c bd 53 49 9b 3d 8f 67 d4 3d c3 bf 69 3d
       -0.03828343 0.07582345 0.10371315 0.057067644
0002a0 63 8b a2 bd 87 52 3d bd 34 be 87 bc 66 2d 9f bd
       -0.07936742 -0.046221282 -0.016570188 -0.07772331
0002b0 6e 25 e9 bd 00 84 6b bd ec 4b 5a 3e 9b cc 53 3d
       -0.11384092 -0.057498932 0.21318024 0.0517088
0002c0 0e 70 3b 3d db d0 56 3d f2 f3 e4 3d 64 b3 2a 3e
       0.04576116 0.052445274 0.111793414 0.16669995
0002d0 18 f7 20 3d dd ae 2c 3e b5 cb 53 bd d2 94 68 bd
       0.039298147 0.1686358 -0.051707942 -0.05678255
0002e0 99 63 76 3d 28 a2 7b bd f2 d3 96 bd 98 ec 49 3c
       0.060153577 -0.06143394 -0.07364644 0.012324475
0002f0 78 76 f2 bd ac f7 ef bc df 32 a6 bd 4e 2c 0e 3e
       -0.11839002 -0.029292904 -0.08115172 0.13884088
000300 60 2e 76 bd 1c e8 f3 bd e9 42 78 bc 23 78 18 3e
       -0.06010282 -0.11909506 -0.015152671 0.14889579
000310 10 74 a7 3c b1 71 ac 3d 8e 34 1e bd cd 0e 38 3d
       0.020441085 0.084201224 -0.03862434 0.04493599
000320 cf e2 4b 3c d7 03 47 bd a0 3d 0b be 8b 7e aa bd
       0.012444212 -0.048587646 -0.13597727 -0.083249174
000330 e5 78 e7 bd 87 d6 8f 3d e1 22 80 bd e8 8b c5 bd
       -0.11302356 0.0702334 -0.062566526 -0.096458256
000340 fc 7e 66 bc 8a 78 0d be e0 96 1e 3c 1e ed b7 3d
       -0.014068361 -0.13815513 0.009679526 0.089807734
000350 39 de eb 3d d9 f0 06 3d 28 35 e9 bd cb 53 d8 bd
       0.11516995 0.032944534 -0.11387092 -0.10562857
000360 75 72 6f bc e5 48 c0 bd 00 02 31 bd 1f bb 5e be
       -0.014614691 -0.093889035 -0.043214798 -0.21751069
000370 dd 7f 59 bd 2f e1 a9 bd a8 da 05 3d cf 6b ec bc
       -0.053100456 -0.082949035 0.03267923 -0.02886
000380 5e 78 72 bd 26 d1 1b 3d ca fd db 3d 41 5e 06 be
       -0.059196822 0.038041256 0.10741766 -0.13121893
000390 05 e4 e6 3d c5 d0 a4 3b 96 a8 0a be 25 9e b2 3d
       0.1127396 0.00502977 -0.13540873 0.0872157
0003a0 a6 5e b7 3d 8d 95 82 b9 b8 ee af 3d 49 e9 1a be
       0.089536 -0.00024906956 0.08590454 -0.15128054
0003b0 8e e9 68 be 40 8c e9 3b ff a5 0e be 5b 1a bd bd
       -0.22745344 0.007127315 -0.1393051 -0.092335425
0003c0 82 4a a5 3d 87 3a 06 3e 9b 53 1d bd 3e 3b ef bc
       0.08070852 0.13108264 -0.03840981 -0.029203054
0003d0 99 29 eb bd 56 9e bd 3d 42 83 16 3e c4 fe f6 ba
       -0.114825435 0.09258716 0.14698508 -0.0018844237
0003e0 73 01 24 3d 6c f7 0c be 1f cc d2 bd b8 11 07 be
       0.040040445 -0.13766259 -0.10292839 -0.13190353
0003f0 83 8f 36 bd dc 56 2a 3e 76 e8 44 3d 38 b9 b0 bb
       -0.044570457 0.16634697 0.048073255 -0.0053931735

actor.4.bias f4 [128]
000000 a7 18 01 be 76 16 62 be 43 ad 9b bd 53 24 8a 3d
       -0.1260706 -0.2207888 -0.076014064 0.067452095
000010 0a a5 70 bd 40 35 2b be 40 59 ba bd e6 2d c1 bd
       -0.058751144 -0.16719532 -0.09099054 -0.094325826
000020 d3 92 11 3d 7b fc 18 be d3 db b3 bd 64 0c cb 3d
       0.035540413 -0.14940064 -0.087821625 0.09914473
000030 90 86 0f be b1 91 9e bd 6f e9 3b 3d da 87 df bb
       -0.14016175 -0.07742632 0.045876916 -0.0068216147
000040 66 30 88 bd 19 94 8b bd 71 20 27 bd 40 17 26 be
       -0.06649856 -0.06815357 -0.040802423 -0.16219807
000050 e2 87 c5 bd 1c 64 0e bd ca 4c 36 bc ea fe 83 3c
       -0.09645058 -0.03476344 -0.011126706 0.016112763
000060 bb 96 3e bd 28 20 d3 bd 0e 69 94 bd 6d 6e 37 bd
       -0.046530467 -0.10308868 -0.072466 -0.044783045
000070 dc df 76 bd 4d 16 d6 3c 87 f7 9d bd e8 57 94 3c
       -0.060272083 0.02613368 -0.07713228 0.018108323
000080 85 04 09 be 10 17 84 bd d6 3a 53 bc a2 10 19 be
       -0.1338063 -0.06449711 -0.012892446 -0.14947751
000090 38 dd 45 bd 9c 89 ff bd 30 75 bb bd 82 4e 03 bc
       -0.048306674 -0.12477419 -0.09153211 -0.008014323
0000a0 d0 1f 00 be c5 12 62 3d a0 f1 7d bd 0d ec 8d bd
       -0.12512136 0.05519368 -0.06199801 -0.06929789
0000b0 96 90 ca bc 12 e9 80 bc 2d e4 d3 3d 89 0c 07 bd
       -0.024727147 -0.015736137 0.103462555 -0.03297094
0000c0 8d 2d 2a 3c fb d1 8b bd cc bc 86 3d ab 0e df bc
       0.010386837 -0.0682716 0.06578979 -0.027228674
0000d0 43 85 1d bd f7 ee 10 be e8 5b 27 be af d6 c9 bd
       -0.038457166 -0.14153658 -0.16343653 -0.09855401
0000e0 89 f2 01 be 0e 63 e9 bc b7 d7 9a bb 55 4a f1 bd
       -0.12690176 -0.028489616 -0.0047254222 -0.11781756
0000f0 04 f3 56 bd d4 36 e6 bd 01 98 c2 bd c5 13 b8 bd
       -0.05247785 -0.112409264 -0.09501649 -0.08988146
000100 ba 54 ac bd 00 cf 37 3b a4 f3 1d be e7 ec 20 3d
       -0.08414598 0.0028046966 -0.15424973 0.039288428
000110 ea 0e d7 bd 2e 96 27 be a1 61 38 be d0 bf 5a bd
       -0.105008915 -0.16365883 -0.18005992 -0.053405583
000120 82 2f cc bc cd b3 44 bd ad 4a e6 bd 03 5e c8 bd
       -0.024924997 -0.048023034 -0.11244712 -0.09783556
000130 9f 51 b6 bd 80 58 59 3c 49 03 cc bd 29 44 58 bb
       -0.08902287 0.013265729 -0.09961564 -0.003299961
000140 5b e3 0c be a5 e0 05 be 55 59 15 be a0 c5 86 3c
       -0.13758604 -0.13073976 -0.14584859 0.016451657
000150 13 04 3f bd 02 74 90 bb 94 12 87 bd 6b 8a 94 bd
       -0.046634745 -0.0044083605 -0.0659534 -0.07252964
000160 8d 86 f5 bd 52 e7 52 bd e0 54 01 be 18 fe 52 bd
       -0.11988554 -0.051490135 -0.12630033 -0.051511854
000170 d0 5f 44 3d 89 7b 2e bd d6 dc 24 be 7e 7e 93 bc
       0.047942936 -0.04259828 -0.16099867 -0.018004652
000180 b3 cf ea bd cf c1 c9 bd 51 0d 98 bc 3c 94 b4 bd
       -0.11465397 -0.09851419 -0.018561037 -0.08817336
000190 8a dd 1d be 9d 14 52 be db 06 24 be 78 34 ab bc
       -0.15416542 -0.20515676 -0.1601824 -0.020899042
0001a0 ca 48 5e be 7b 58 40 bc e5 66 90 bc 37 68 28 3d
       -0.21707454 -0.011739845 -0.017627189 0.041115012
0001b0 1b 31 2f 3d 12 67 82 3c d6 6e 6e bd ee fc 88 bd
       0.04277144 0.015918288 -0.05821117 -0.066888675
0001c0 7a 61 b8 bd 47 b1 16 be ae 25 11 be fb 8f 09 bd
       -0.09002967 -0.14716063 -0.1417453 -0.033584576
0001d0 c4 5b ae 3c b9 b2 17 bd f8 d9 4c be 3b 06 00 3e
       0.021283992 -0.037035678 -0.20005023 0.12502377
0001e0 21 5f 7c be 66 5d ae bd 47 15 fc bc 09 94 13 be
       -0.24645664 -0.08513908 -0.030771865 -0.1441194
0001f0 67 7b cf bd 21 98 dc 3c cd 60 81 3c f1 c0 0e bd
       -0.10130959 0.02692801 0.015793229 -0.034851972

actor.6.weight f4 [27, 128]
000000 d2 46 18 bd f2 20 15 3d e5 70 18 3c e4 34 4f bb
       -0.037176915 0.036408372 0.00930426 -0.0031617219
000010 76 78 0e 3c 09 95 4b 3c aa 59 25 bc 29 34 f6 bb
       0.008695712 0.0124256695 -0.010092178 -0.007513542
000020 5b 21 0b 3d 4f 40 16 ba d6 18 93 3b 45 13 49 bb
       0.033967357 -0.00057316286 0.0044890447 -0.0030681652
000030 cb a1 12 3c 19 61 1b bd 93 1b 83 ba d9 2a 72 3b
       0.008949707 -0.037934396 -0.0010002725 0.0036951809
000040 5a bd 85 bb ee f3 d3 bb ed 6e 96 3c 8b 41 a1 bc
       -0.0040814104 -0.0064682877 0.01836344 -0.019684574
000050 b7 2b 66 3c 03 9e f7 3c 61 48 f5 3a 2d df 8c bc
       0.014048508 0.030226713 0.0018713587 -0.017196262
000060 21 7d 61 bb db 8b f7 bc 4d 74 95 bb 49 f5 03 bd
       -0.0034406858 -0.030218055 -0.0045609833 -0.032216344
000070 bd 7a dc bc 19 c5 2b 3c 42 31 c9 ba 77 86 11 bb
       -0.026913995 0.010484003 -0.0015349763 -0.0022205391
000080 8e 23 81 bb 62 b4 51 3d ee e1 9c bb 66 6d 6c 3c
       -0.003941006 0.051197417 -0.004787675 0.0144303795
000090 22 9c ca bb 42 75 76 3d 1c 93 c2 3a 35 cf a9 3b
       -0.0061831633 0.06017042 0.0014844867 0.0051821717
0000a0 8f d5 db ba 4a c5 59 3d d8 fb d2 3b 9f f8 29 3d
       -0.001677202 0.053166665 0.0064387135 0.04149687
0000b0 fc 8f 9d 3c 14 ce aa 3c 0e 4c 2a bc 07 68 a6 ba
       0.019233696 0.020850219 -0.010394109 -0.0012695797
0000c0 93 36 72 3c f3 8b 2b bc 4b ec de 3b 7c 9f 10 3b
       0.014783519 -0.010470378 0.0068030707 0.0022067716
0000d0 11 9f df 3a 6e f5 92 3c 3f e0 9b 3c 04 68 02 bc
       0.0017060955 0.017939296 0.019027827 -0.00795937
0000e0 77 81 d3 3a 48 54 f7 bb cb df df 3b 37 01 b7 3b
       0.0016136606 -0.007547889 0.006832098 0.0055848616
0000f0 64 cb b7 bc 97 e8 ae 3b 17 2f 28 bd f0 d0 40 3c
       -0.022435851 0.0053377855 -0.041060533 0.011768565
000100 a6 53 61 bb 20 23 85 3a c1 c5 65 bc 8c e5 2d 3c
       -0.0034382134 0.0010157563 -0.014024199 0.01061381
000110 79 e1 f9 3a 32 12 29 bc d9 24 d6 3c 87 24 17 bc
       0.0019064388 -0.0103192795 0.026140617 -0.009225017
000120 af 6c 30 3c 1d e5 82 3c b0 24 ee 3c 9f 64 b2 bc
       0.0107681 0.01597839 0.029070228 -0.021776496
000130 80 77 9b bb 14 0d a0 3c 35 7e 15 3b f7 0c 56 3c
       -0.00474447 0.019537486 0.002281082 0.0130646145
000140 53 c3 88 3c c6 27 b2 3c cb b9 e4 3c 0f 1c 5b 3b
       0.0166947 0.021747481 0.027920624 0.0033433472
000150 38 61 9b bc ea 58 8d bb a3 ee 62 bc cd 94 84 bc
       -0.018967256 -0.004313578 -0.013850841 -0.016184235
000160 9d 99 2b bc 88 19 0f 3c f6 12 03 3c a1 4c d1 bc
       -0.010473636 0.0087341145 0.008000126 -0.025549235
000170 71 e9 b8 bc 55 55 b8 bb 93 df 2a bc ad 64 a5 bc
       -0.022572251 -0.0056254067 -0.010429281 -0.020189608
000180 6d e9 58 bd 2c cb 0c bd 09 2b 39 bc ec 90 9d bc
       -0.052956987 -0.034373447 -0.011301764 -0.019234143
000190 8a e0 21 3d 51 13 eb b9 48 ed 95 3c 94 a4 ca 3b
       0.039520778 -0.00044837085 0.018301621 0.00618417
0001a0 28 f5 53 bd c1 41 22 bc 1b 65 29 bc 9d 04 b5 3b
       -0.05174747 -0.009903372 -0.010339047 0.0055242316
0001b0 6a ac 89 bb fe 0f b4 bc 50 7f 69 bb 55 08 9d 3c
       -0.0042014616 -0.021980282 -0.0035628863 0.019169012
0001c0 8c 20 2f 3c e5 6e 3a bd 4f f6 67 3b d3 c6 ff bc
       0.010688912 -0.045515914 0.0035394614 -0.031222736
0001d0 ba bd 96 bb 1c b2 09 bd d0 63 92 3a a4 0a 32 3c
       -0.004600254 -0.033617124 0.0011168662 0.010866795
0001e0 38 dd 88 bd 72 0e 3b bc 77 d6 8f 3c 6c 66 37 3b
       -0.06682819 -0.011417018 0.01755832 0.0027984632
0001f0 ed 4f 3a 3c 14 3c 75 3c 94 47 d5 3b 99 d2 d6 ba
       0.011371595 0.014967937 0.006508777 -0.0016389667
000200 1c ab 46 3b e1 cb 26 3d fc 48 3a bc 33 61 d4 bb
       0.0030314391 0.040721778 -0.01136994 -0.0064813136
000210 af 5e 58 3b ef 83 57 bb 70 d7 ac bc 99 8a 77 3c
       0.003301542 -0.0032885035 -0.021098822 0.015108728
000220 36 be 63 bd d8 3e 03 bd 23 c5 61 3c db 8b 72 3d
       -0.05560132 -0.032042354 0.013779911 0.059215408
000230 8e ad 5d bc 78 67 c2 3c 9b 74 53 bc ad f0 45 3b
       -0.013530148 0.023730978 -0.012906219 0.0030203268
000240 66 12 ac 3b 62 8b 75 3a 17 6d d2 bc 6f 25 b3 3c
       0.0052512167 0.0009366778 -0.025686784 0.021868436
000250 75 7e 82 3c df 0b 93 3b 46 d1 f6 3b 4a 74 70 bc
       0.01592944 0.004487499 0.0075322716 -0.014676163
000260 c8 f0 92 3c 38 c5 e5 bc 75 e1 a9 ba 14 82 f0 3b
       0.01793708 -0.028048143 -0.0012960868 0.0073397253
000270 ac d3 28 bc 08 36 6d bc 31 a3 3a 3c 54 d7 a7 bb
       -0.010304373 -0.014478214 0.011391447 -0.0051221047
000280 2d 81 0b 3a df 87 c0 bb 54 3e 57 3c 29 f5 fe bc
       0.0005321678 -0.005875572 0.013137419 -0.03112276
000290 22 a1 01 bc e7 01 52 bd 35 58 b8 bc 0e 3e dd bb
       -0.007911952 -0.051271345 -0.022502998 -0.0067517823
0002a0 ac b8 86 3c 77 2d 80 bc 32 91 6f 3c 7d 15 93 bb
       0.01644548 -0.01564668 0.01462202 -0.0044886456
0002b0 91 75 bd 3c cb 60 78 3c e5 46 f1 bb a7 c6 c9 3c
       0.02312735 0.015159796 -0.0073631876 0.024630858
0002c0 7e bf d5 3a 63 0a 15 3c b5 a6 0c 3c 01 2c ad 3c
       0.001630768 0.009096715 0.008584668 0.021139147
0002d0 7f 7d 66 3b 85 65 31 3c a8 7f 8b bc 62 c2 25 bc
       0.0035170016 0.010827427 -0.017028645 -0.010117145
0002e0 d5 42 82 3c 00 fe e1 bb 43 1f 60 3c 69 94 e1 3b
       0.015901009 -0.0068967342 0.013679328 0.006884147
0002f0 5a 96 b5 bb 1b 32 25 ba a8 bc 87 3d 54 55 f5 3c
       -0.005541605 -0.0006301717 0.0662778 0.029947914
000300 3b 25 a1 b9 87 0c c4 3c 81 b8 43 bb d2 28 6d 3b
       -0.00030736052 0.023931755 -0.0029864612 0.003618766
000310 2a 28 c4 3c cc 2c b0 39 ec 36 80 bc c4 0a c9 3c
       0.023944933 0.00033602712 -0.015651189 0.024541266
000320 c8 11 96 3c 90 a3 52 3c c7 a6 75 3c b2 1f 86 bc
       0.018319026 0.012856379 0.014993376 -0.016372535
000330 a5 7a d0 bb 72 82 91 bc 27 44 7a bb d5 c0 02 3b
       -0.0063622766 -0.017762396 -0.0038187595 0.0019951363
000340 a8 5b 35 bd 80 de b7 bc c7 2c 0e 3b 45 a0 73 3c
       -0.044276863 -0.022444963 0.002169417 0.014869754
000350 e9 8b cc bb 84 8a 7a bc c9 01 f2 bc f6 59 91 3c
       -0.0062422645 -0.015291814 -0.029541867 0.017743092
000360 c8 54 19 ba 08 23 20 bd 06 83 11 3b f1 44 1f bd
       -0.000584912 -0.03909591 0.002220334 -0.038884107
000370 31 4f 98 bb 84 b4 a5 3b d5 07 14 bd f3 dd f7 bc
       -0.004648112 0.0050569195 -0.03614028 -0.0302572
000380 5d d8 41 3d 58 48 8b 3c 97 4f 13 3c 30 d8 67 3b
       0.04732548 0.01700227 0.008991144 0.003537666
000390 49 ad 25 3b 9d e8 d9 bc 68 ec dd 3b b0 80 f6 3c
       0.0025280288 -0.026600176 0.0067725666 0.03009066
0003a0 19 07 c0 bc f4 33 bc bb 48 31 9e bc 99 aa 8d bb
       -0.023440884 -0.005743498 -0.019310609 -0.0043233153
0003b0 59 46 b5 bb bc f0 ad 3c 4f 4b 77 b7 39 3b f0 bb
       -0.0055320677 0.021232955 -1.4739881e-05 -0.0073312786
0003c0 5c d4 e5 bc 33 8a d5 ba 50 d6 bf bc b6 08 f4 3a
       -0.028055362 -0.0016291797 -0.023417622 0.0018618319
0003d0 c5 3a 03 3b a1 b7 6a bc ec 48 87 bc bc 6d 15 bc
       0.0020024043 -0.014326007 -0.016514264 -0.009120401
0003e0 0c a7 51 ba 3a a7 46 bb be f4 a4 39 79 44 10 bc
       -0.0007997609 -0.0030312077 0.00031462865 -0.008805388
0003f0 e7 6c 2d 3d e0 04 53 3a 2c 7c 69 3c 78 e4 a7 ba
       0.042340185 0.00080497377 0.014250796 -0.0012809178

actor.6.bias f4 [27]
000000 bc 8a 09 bd af cf fb b9 6b f7 0b bd 76 6d a5 bd
       -0.033579573 -0.00048029187 -0.034171503 -0.08077519
000010 a2 d7 a6 3c 36 af a5 bd 55 3e 5e bd 0e a3 85 3d
       0.020366494 -0.080900595 -0.054258663 0.06525241
000020 8e cf 4f bd 29 8c 88 3c f9 60 53 3d 99 d2 4f be
       -0.05073505 0.016668396 0.051606152 -0.2029518
000030 a2 f4 96 bd 46 82 fc bc 91 ac 53 3d e3 a9 d5 3d
       -0.07370879 -0.030823838 0.051678244 0.10432794
000040 26 ee aa bd 46 68 86 bd 18 ca 9f bd 9a 25 b1 3d
       -0.083462045 -0.06562857 -0.07802218 0.0864975
000050 71 d1 31 3e 06 ae 71 39 b8 5c bb bc 73 c9 24 3d
       0.17365052 0.0002304838 -0.02287136 0.04023118
000060 36 c2 50 bb 9d 61 d1 3c a1 b1 03 3d
       -0.003185404 0.025559241 0.032151822
