IsaacLab/logs/rsl_rl/h1v2_flat/2025-03-04_15-18-06/exported/policy.onnx (onnx, 195410 bytes, 8 tensors)

actor.0.weight f4 [128, 93]
0.055455532 -1.036773 -0.07169536 0.017378122 0.16507378 0.016429737 0.59517074 -0.6511981
0.19811435 0.031803545 -0.053566206 0.10231726 -0.10903133 -0.5984243 -0.25054252 -0.012094197
-0.24444678 -0.25473702 0.012314023 -0.74067706 0.7143919 0.005645203 -0.32722092 -0.30471912
0.14911912 0.70129645 0.36584166 0.1109958 0.4066841 0.2445939 -0.60677165 -0.29461995
-0.90694296 -0.18861572 -0.42516398 0.036402956 0.08744365 0.10190439 -0.9146271 -0.053522144
0.0386604 0.0060285386 0.008834768 0.066498525 0.030787101 0.09702514 0.01477046 0.113116205
-0.032496702 0.02802411 -0.06995296 0.044000003 0.0036861694 0.02527268 -0.003814005 0.071796976
-0.0008127469 -0.03398621 0.0056245825 -0.044879466 0.007840651 0.04469407 0.011416893 0.03029861
-0.05009386 0.016554778 -0.31254572 -0.30805033 -0.032471817 -0.11127364 0.035259288 0.080489144
-0.061717205 0.03361032 0.002321242 0.0047226995 -0.10949779 0.15589987 -0.016725013 0.020837873
-0.08772871 -0.04462227 -0.1371576 0.060917765 0.08996406 -0.10989656 0.10529676 0.012707983
-0.024887415 -0.03196225 0.027017295 0.047699917 -0.029816 0.20681898 0.33109233 -0.01969875
0.37961242 0.37644905 -0.15035334 0.52278644 0.1327077 0.11437436 0.17371936 0.022606306
-0.22157787 0.4879842 0.13980953 -0.6400499 0.20379862 -0.22092119 -0.07159056 -0.025142327
0.651037 -0.6132955 -0.34832498 0.15227199 -0.1762934 -0.65881133 -0.17315477 -0.14944462
-0.41760924 0.29140645 -0.3945552 -0.0878358 0.013766737 0.38177207 -0.40076694 -1.0885774
-0.43634942 -0.71843934 -0.04384716 0.14631005 0.12289239 -0.029368745 -0.103306204 0.004907713
0.077641554 0.016639194 0.1240083 -0.050697424 -0.04522563 -0.0010424665 -0.028128492 0.022757929
-0.10293951 0.038540594 0.0032392838 -0.03769258 0.025408847 -0.00070614525 -0.041641876 -0.043604363
0.0660227 -0.018831627 0.083130606 0.025605362 0.06352771 -0.04300272 -0.063836455 -0.097493134
-0.1392141 -0.21064685 -0.016465602 -0.041172832 -0.008740805 -0.048607484 -0.22467504 0.20651183
-0.04420139 -0.03746661 -0.24204929 0.04855216 -0.06768784 -0.064143546 0.17153724 -0.16884658
0.014560008 0.085120395 0.10109104 -0.08954333 -0.009881057 -0.07790873 -0.06558743 -0.07174282
0.031872056 0.055986837 -0.065557025 -0.4292544 -0.058179807 0.14636043 0.13955419 -0.12524602
-0.094105184 -0.3264776 0.17953187 0.10355369 -0.06823143 0.16911998 0.23622295 0.43544224
-0.095129535 0.17218925 -0.4555778 -0.37003195 0.12880988 -0.14237745 0.5370046 -0.6487353
-0.32826486 -0.13225636 0.3335227 0.08218243 -0.010441363 0.491582 0.09106573 0.6924007
0.13342723 -0.56382287 -0.703989 0.9401583 -1.2372026 0.17788893 -0.5091002 0.05810119
0.18372273 -0.019041384 -0.054904938 0.022186754 -0.11196214 0.020468242 -0.044480797 -0.02666103
-0.12391569 0.116232134 -0.12206043 -0.05832151 0.069744006 0.0180522 -0.066364 -0.0619038
0.008500359 0.039477747 -0.009634424 0.011482155 -0.005788706 0.056186408 -0.014463827 0.090100065
-0.009674114 -0.019110145 0.013424104 -0.04654147 -0.09149829 0.13600735 0.069301434 -0.022938373
00000000: 5725 633d fab4 84bf 04d5 92bd 905c 8e3c
00000010: 1a09 293e a897 863c 1c5d 183f ebb4 26bf
00000020: 7dde 4a3e 6f44 023d 3d68 5bbd b68b d13d
00000030: d14b dfbd 5632 19bf 1c47 80be bd26 46bc
00000040: 4250 7abe e46c 82be c2c0 493c 039d 3dbf
00000050: 63e2 363f 65fb b83b 8089 a7be 2504 9cbe
00000060: afb2 183e 2a88 333f 994f bb3e c451 e33d
00000070: e638 d03e d376 7a3e 6355 1bbf 6dd8 96be
00000080: 6a2d 68bf 7b24 41be 18af d9be 441b 153d
00000090: a815 b33d 40b3 d03d 0025 6abf 093a 5bbd
000000a0: 5e5a 1e3d 0c8b c53b b4bf 103c 6130 883d
000000b0: 3b35 fc3c 1eb5 c63d cdff 713c 78a9 e73d
000000c0: 431b 05bd d192 e53c 7f43 8fbd 5939 343d
000000d0: a993 713b a708 cf3c 63f4 79bb 4b0a 933d
000000e0: 850e 55ba 2035 0bbd 6b4e b83b 88d3 37bd
000000f0: 1376 003c 2111 373d ec0d 3b3c ca34 f83c
00000100: 382f 4dbd e39d 873c fe05 a0be c6b8 9dbe
00000110: 2b01 05bd 6fe3 e3bd 0b6c 103d 7ed7 a43d
00000120: 2ecb 7cbd faaa 093d fa1f 183b e0c0 9a3b
00000130: 6140 e0bd 37a4 1f3e e502 89bc 30b4 aa3c
00000140: 1cab b3bd d7c5 36bd 0b73 0cbe e884 793d
00000150: 143f b83d 7311 e1bd d4a5 d73d 2535 503c
00000160: b1e0 cbbc d9ea 02bd 6053 dd3c fd60 433d
00000170: af40 f4bc 5bc8 533e ef84 a93e 465f a1bc
00000180: 8f5c c23e eebd c03e 3af6 19be 55d5 053f
00000190: 87e4 073e 1b3d ea3d 7de3 313e dc30 b93c
000001a0: 4fe5 62be 11d9 f93e 3b2a 0f3e 4fda 23bf
000001b0: 96b0 503e 2a39 62be 129e 92bd 48f7 cdbc
000001c0: 5caa 263f ef00 1dbf a757 b2be 30ed 1b3e
000001d0: 4286 34be dca7 28bf 7c4f 31be 0308 19be
000001e0: e1d0 d5be 3a33 953e 2403 cabe 42e3 b3bd
000001f0: e18d 613c a177 c33e 5331 cdbe 8156 8bbf
00000200: 3169 dfbe a4eb 37bf 1499 33bd 4dd2 153e
00000210: 01af fb3d b996 f0bc 3492 d3bd e1d0 a03b
00000220: 8902 9f3d eb4e 883c 10f8 fd3d 1aa8 4fbd
00000230: 833e 39bd 5fa3 88ba b96d e6bc d66e ba3c
00000240: f3d1 d2bd bedc 1d3d 2a4a 543b 8963 1abd
00000250: 3726 d03c 9b1c 39ba ac90 2abd 7d9a 32bd
00000260: e936 873d c944 9abc 6140 aa3d 56c2 d13c
00000270: d11a 823d 9f23 30bd b0bc 82bd 7baa c7bd
00000280: 248e 0ebe cfb3 57be dfe2 86bc d8a4 28bd
00000290: 9835 0fbc a418 47bd 3711 66be d677 533e
000002a0: 840c 35bd 9776 19bd c5db 77be a1de 463d
000002b0: ec9f 8abd b15d 83bd 75a7 2f3e 1ee6 2cbe
000002c0: 1a8d 6e3c 9a53 ae3d d208 cf3d 7e62 b7bd
000002d0: 28e4 21bc 9d8e 9fbd b452 86bd e6ed 92bd
000002e0: 468c 023d 7452 653d c342 86bd 3cc7 dbbe
000002f0: f34d 6ebd 82df 153e 4be7 0e3e 7e40 00be
00000300: 38ba c0bd 1228 a7be 34d7 373e f513 d43d
00000310: ecbc 8bbd ca2d 2d3e 6ee4 713e 49f2 de3e
00000320: 46d3 c2bd 6152 303e 7e41 e9be d474 bdbe
00000330: bde6 033e 65cb 11be 2279 093f 8413 26bf
00000340: 5512 a8be 366e 07be 7dc3 aa3e 434f a83d
00000350: 4012 2bbc a3b0 fb3e ab80 ba3d 2c41 313f
00000360: 26a1 083e b256 10bf a038 34bf 37ae 703f
00000370: a85c 9ebf 8428 363e 6454 02bf 83fb 6d3d
00000380: d021 3c3e adfc 9bbc 00e4 60bd ffc0 b53c
00000390: 684c e5bd 04ad a73c 7f31 36bd 3b68 dabc
000003a0: 82c7 fdbd 1d0b ee3d d2fa f9bd 89e2 6ebd
000003b0: f2d5 8e3d 35e2 933c d9e9 87bd d78e 7dbd
000003c0: 1745 0b3c 6bb3 213d b4d9 1dbc a61f 3c3c
000003d0: 2faf bdbb b823 663d b0f9 6cbc 6286 b83d
000003e0: 2d80 1ebc e18c 9cbc c6f0 5b3c 45a2 3ebd
000003f0: 7563 bbbd 8345 0b3e e9ed 8d3d 41e9 bbbc

actor.0.bias f4 [128]
-0.13278148 -0.060994085 -0.106639765 0.043084748 -0.057783928 0.13170905 -0.13700202 -0.11828952
-0.19422019 0.0010321052 0.061076734 0.14044945 -0.12632395 0.012821982 0.03692996 0.10465557
0.014753936 0.091728225 0.09920965 0.041408572 -0.15869586 -0.09937733 -0.016083704 0.08839853
-0.15901648 0.15501769 -0.0431047 0.037791017 0.08807752 -0.018114049 -0.0024427841 -0.12231008
-0.096079454 -0.10136404 -0.0058346023 0.038585655 0.04477982 -0.14882645 -0.23031971 0.03711314
0.13247737 -0.10850544 0.102654845 -0.034518756 -0.101629496 0.08121121 -0.098259956 0.030005783
-0.068540975 -0.05190515 -0.2420768 -0.07676387 -0.057481736 -0.026875073 0.09617802 -0.108112425
-0.02111836 0.12626268 -0.08643914 -0.07015072 0.022070821 0.07684673 0.12718505 -0.1166372
-0.1353466 0.0614279 -0.17575364 -0.2221847 -0.0815855 -0.06285319 -0.07755257 -0.15132472
-0.06118009 0.02011497 0.07647761 -0.15559073 -0.049814723 -0.19608247 -0.026923526 -0.14451143
-0.0955785 -0.03513284 0.009994184 0.09155789 0.07136184 0.06256035 -0.06347746 0.11709849
-0.14664428 -0.03187301 -0.112920195 -0.15225272 -0.09825324 -0.20604274 -0.13794388 0.049235273
-0.19833063 0.028403286 -0.17965282 -0.0022825333 -0.1608106 0.097527765 -0.039809488 0.1373097
0.19769539 -0.089260906 0.022388782 -0.0034352103 0.08413211 -0.14158382 -0.052362178 -0.14717646
0.11211275 -0.14024042 -0.036502637 -0.061695468 -0.18471281 -0.11195137 -0.06879969 0.034590874
-0.096506365 -0.076245196 0.14380918 -0.03113652 -0.094519526 -0.09868505 -0.12108838 0.03345711
00000000: def7 07be efd4 79bd f365 dabd a279 303d
00000010: d7ae 6cbd bdde 063e 424a 0cbe c741 f2bd
00000020: a8e1 46be b447 873a 992b 7a3d fbd1 0f3e
00000030: 115b 01be 4a13 523c df43 173d a955 d63d
00000040: 7eba 713c 02dc bb3d 6e2e cb3d 099c 293d
00000050: 2b81 22be 5786 cbbd f9c1 83bc 4a0a b53d
00000060: 37d5 22be f5bc 1e3e 8e8e 30bd c1ca 1a3d
00000070: fd61 b43d ea63 94bc 1e17 20bb b57d fabd
00000080: 4ec5 c4bd f397 cfbd 3130 bfbb fe0b 1e3d
00000090: 0b6b 373d f665 18be eed8 6bbe f303 183d
000000a0: 26a8 073e 1a38 debd b43c d23d 8a63 0dbd
000000b0: 2023 d0bd 1052 a63d 843c c9bd b0ce f53c
000000c0: 365f 8cbd 7f9a 54bd fbe2 77be 6036 9dbd
000000d0: f871 6bbd 1d29 dcbc fbf8 c43d 0c6a ddbd
000000e0: 6900 adbc 014b 013e 0107 b1bd 2eab 8fbd
000000f0: decd b43c d261 9d3d cc3c 023e 7cdf eebd
00000100: 4d98 0abe d29b 7b3d c3f8 33be 6384 63be
00000110: 4c16 a7bd 2cb9 80bd e2d3 9ebd def4 1abe
00000120: f997 7abd 26c8 a43c 4ba0 9c3d 2d53 1fbe
00000130: 860a 4cbd d8c9 48be ba8e dcbc cefa 13be
00000140: a9be c3bd 74e7 0fbd a5be 233c b482 bb3d
00000150: 2826 923d a41f 803d 7800 82bd 55d1 ef3d
00000160: eb29 16be 468d 02bd b442 e7bd 23e8 1bbe
00000170: ff38 c9bd defc 52be 2941 0dbe edaa 493d
00000180: 2f17 4bbe 02ae e83c e9f6 37be 8e96 15bb
00000190: 89ab 24be a3bc c73d 460f 23bd ea9a 0c3e
000001a0: a970 4a3e 6cce b6bd ae68 b73c 4421 61bb
000001b0: 754d ac3d 59fb 10be b979 56bd 6db5 16be
000001c0: 5f9b e53d 2f9b 0fbe ca83 15bd 63b4 7cbd
000001d0: 5b25 3dbe c346 e5bd dae6 8cbd 29af 0d3d
000001e0: 21a5 c5bd 7126 9cbd b742 133e 0412 ffbc
000001f0: 7493 c1bd 631b cabd 2ffd f7bd 530a 093d

actor.2.weight f4 [128, 128]
-0.059363402 -0.10030146 -0.049484644 -0.01378941 -0.24773733 0.03826661 0.08649733 -0.09738969
-0.087761454 0.089298375 0.09056432 -0.061271526 -0.20757587 0.06543212 -0.07889566 -0.21227282
-0.0036569985 -0.075407535 -0.06283447 -0.14194362 -0.04780385 -0.15840481 -0.11176562 -0.18276724
-0.18881834 -0.059565317 0.098983936 0.062489875 0.106193915 -0.42429674 0.008647692 -0.27288437
-0.19937426 0.06987582 -0.14172606 -0.039110858 -0.122045204 -0.1390591 -0.053194374 -0.03573055
-0.032725163 -0.165634 0.08936104 0.093763344 -0.15249416 -0.15986647 -0.06536951 -0.18576422
0.11632036 -0.07719819 0.11746336 0.06420406 0.037035152 0.15957966 0.008139779 -0.02622853
0.056518905 -0.051958047 -0.06374836 -0.02503701 0.08190554 -0.010785247 0.097014144 -0.07545403
-0.032348085 0.3312278 0.03247357 -0.19671524 -0.041980065 -0.07376247 -0.08389286 0.14932609
-0.08362857 -0.008243695 -0.057345707 0.03946282 0.10051634 -0.10220971 -0.06468331 -0.0102857975
-0.20668168 -0.18047953 -0.06001223 -0.050304074 0.078572266 -0.021698639 0.24706489 -0.07954597
-0.016585162 -0.048294395 -0.035392355 -0.03460694 -0.14525591 -0.122962885 -0.072884895 -0.03504739
-0.03815101 -0.029487852 -0.08373366 -0.021463627 -0.09585728 -0.011413628 -0.0151058575 -8.418729e-06
0.009742102 -0.15389822 -0.064223334 -0.037223876 -0.11587865 -0.07894916 -0.002394301 0.0014236405
-0.09909783 -0.09259847 0.14632817 -0.20629358 0.0024025228 -0.003454881 0.062293418 -0.17314562
-0.2623302 0.102061816 -0.09170524 0.06325523 -0.29900658 -0.14452134 -0.036056478 -0.24432005
-0.20468652 -0.13937724 0.020538606 -0.0015839873 -0.012259459 0.07065354 0.20395006 -0.11580404
0.13858677 -0.018113846 -0.20957673 -0.05655197 -0.070109 0.02750841 0.031126736 -0.02431306
0.04382325 0.16013958 -0.2561369 0.15091452 0.14994879 0.006032801 -0.047262102 -0.13448252
-0.051806625 0.0039637587 0.047628608 -0.0063556978 0.007086141 -0.1589437 0.071881875 -0.030042604
0.078821085 0.26348844 -0.049239174 0.17959158 -0.059334077 -0.050106443 -0.15336297 0.11082403
0.03232837 -0.027986007 -0.0036341206 0.14357665 -0.12599276 -0.094115116 -0.26886094 0.04081977
0.008350844 -0.026895076 0.15852584 0.11496162 0.0493296 0.089660145 -0.038508683 0.03346886
0.057141807 0.081526965 0.020841196 -0.1532928 0.06632359 -0.08464927 0.009489264 0.0118666915
0.12966077 0.038538944 -0.05629193 0.011630923 0.046010863 -0.009464699 0.18383074 -0.10290201
0.075513564 -0.07689746 -0.036548536 -0.12860231 -0.022835698 0.077876545 0.034256577 -0.07549654
-0.09157356 0.01761299 -0.11766826 -0.08245185 0.12808932 0.045953277 0.007055593 -0.065837905
0.13971749 0.19238938 -0.0402116 0.04514947 0.16693102 -0.1209929 0.07091753 -0.17162408
-0.051512383 0.07126021 -0.0038188172 -0.18043172 0.11720053 -0.053550486 0.061152957 -0.2715459
0.17354706 -0.0020488135 0.17199215 -0.1833081 0.052136723 -0.07959524 0.008493289 0.05564596
0.05222081 0.016314533 0.09730819 -0.10353674 -0.002077525 0.09997266 0.05566558 0.00286569
-0.06667974 -0.035294462 -0.09141241 -0.06642975 0.08124299 -0.07943973 -0.039468944 -0.1703973
00000000: 0a27 73bd da6a cdbd 69b0 4abd faec 61bc
00000010: dbae 7dbe 73bd 1c3d 8325 b13d 3f74 c7bd
00000020: 47bc b3bd 11e2 b63d c979 b93d daf7 7abd
00000030: c58e 54be 4601 863d 0c94 a1bd 0c5e 59be
00000040: 41aa 6fbb 446f 9abd 5caf 80bd ab59 11be
00000050: f8cd 43bd df34 22be 60e5 e4bd 5627 3bbe
00000060: 9859 41be c3fa 73bd 17b8 ca3d 62f5 7f3d
00000070: 327c d93d 6c3d d9be 0daf 0d3c 80b7 8bbe
00000080: c428 4cbe 0e1b 8f3d a320 11be b532 20bd
00000090: d6f2 f9bd 8265 0ebe 58e2 59bd 325a 12bd
000000a0: d20a 06bd f69b 29be ec02 b73d ff06 c03d
000000b0: 6e27 1cbe 09b4 23be 73e0 85bd fa38 3ebe
000000c0: 5e39 ee3d 161a 9ebd a190 f03d 6b7d 833d
000000d0: 2cb2 173d da68 233e b55c 053c 37dd d6bc
000000e0: 5e80 673d f6d1 54bd 808e 82bd 6a1a cdbc
000000f0: 17be a73d 9bb4 30bc 5aaf c63d a487 9abd
00000100: 6d7f 04bd b196 a93e 0203 053d b86f 49be
00000110: 4af3 2bbd c710 97bd 05d0 abbd f0e8 183e
00000120: 7545 abbd 9010 07bc 55e3 6abd c4a3 213d
00000130: 83db cd3d 5353 d1bd af78 84bd c385 28bc
00000140: 5da4 53be a0cf 38be 62cf 75bd a50b 4ebd
00000150: 7fea a03d 58c1 b1bc 94fe 7c3e ffe8 a2bd
00000160: 9bdd 87bc 58d0 45bd 93f7 10bd 02c0 0dbd
00000170: f7bd 14be f7d3 fbbd ad44 95bd da8d 0fbd
00000180: 3c44 1cbd 8290 f1bc 8e7c abbd 7dd4 afbc
00000190: d250 c4bd 3a00 3bbc 8f7e 77bc 2a3e 0db7
000001a0: 569d 1f3c 7f97 1dbe 8687 83bd 1078 18bd
000001b0: c951 edbd 19b0 a1bd b4e9 1cbb 7399 ba3a
000001c0: cef3 cabd 44a4 bdbd 0dd7 153e a03e 53be
000001d0: a573 1d3b 496b 62bb 6227 7f3d 164d 31be
000001e0: 2550 86be c905 d13d f5cf bbbd f58b 813d
000001f0: 6417 99be 67fd 13be f5af 13bd 092f 7abe
00000200: 5899 51be e8b8 0ebe 9440 a83c cb9d cfba
00000210: e6db 48bc ceb2 903d 49d8 503e ab2a edbd
00000220: b1e9 0d3e 7d63 94bc 489b 56be 0aa3 67bd
00000230: 4f95 8fbd 5159 e13c 7ffd fe3c 2f2c c7bc
00000240: 0280 333d a1fb 233e 6024 83be 5689 1a3e
00000250: 2d8c 193e cdae c53b e895 41bd c9b5 09be
00000260: 2f33 54bd 6be2 813b 3716 433d 7543 d0bb
00000270: dc32 e83b 23c2 22be ce36 933d e81b f6bc
00000280: f36c a13d f5e7 863e 04af 49bd dbe6 373e
00000290: 4a08 73bd 6a3c 4dbd 2f0b 1dbe b6f7 e23d
000002a0: c16a 043d e942 e5bc 6d2a 6ebb c205 133e
000002b0: 3f04 01be 6dbf c0bd 24a8 89be a232 273d
000002c0: fad1 083c 1053 dcbc 9954 223e ff70 eb3d
000002d0: d60d 4a3d bd9f b73d 48bb 1dbd a516 093d
000002e0: 870d 6a3d 9cf7 a63d 28bb aa3c caf8 1cbe
000002f0: aad4 873d 995c adbd dc78 1b3c 836c 423c
00000300: cbc5 043e 03db 1d3d 5e92 66bd a08f 3e3c
00000310: e375 3c3d d311 1bbc 203e 3c3e 4abe d2bd
00000320: dba6 9a3d 6a7c 9dbd ebb3 15bd 53b0 03be
00000330: ee11 bbbc bd7d 9f3d a050 0c3d ee9d 9abd
00000340: eb8a bbbd 1e49 903c 0ffc f0bd 84dc a8bd
00000350: d929 033e 8139 3c3d 9b32 e73b 06d6 86bd
00000360: 1a12 0f3e b901 453e ebb4 24bd a7ee 383d
00000370: f7ef 2a3e 20cb f7bd 363d 913d 39be 2fbe
00000380: a6fe 52bd dff0 913d 1f45 7abb 18c3 38be
00000390: d506 f03d c157 5bbd 867b 7a3d 1008 8bbe
000003a0: 52b6 313e 6345 06bb b61e 303e 1eb5 3bbe
000003b0: 518d 553d d402 a3bd 7027 0b3c 05ed 633d
000003c0: 7de5 553d 0ea6 853c 8449 c73d 120b d4bd
000003d0: 1627 08bb 77be cc3d 9701 643d 4dce 3b3b
000003e0: 638f 88bd ed90 10bd 6e36 bbbd 520c 88bd
000003f0: ba62 a63d 4cb1 a2bd 30aa 21bd a17c 2ebe

actor.2.bias f4 [128]
-0.10523094 -0.1193747 -0.038744677 -0.05227672 -0.10241708 0.0011413875 0.027037004 -0.19658652
0.029895823 -0.18702571 0.0881763 -0.14505753 -0.1698384 0.006005016 -0.071286224 -0.017796459
-0.040078666 0.072383076 0.058226824 -0.0720695 0.013192814 0.032821182 -0.09012857 -0.047867913
-0.18574761 -0.072602026 -0.09079577 0.036590595 0.025268909 -0.01865693 -0.050873436 0.0075257956
-0.06560449 -0.041735034 0.016821345 -0.035601974 -0.10426857 -0.0048201582 -0.12311662 0.065063946
-0.13106696 -0.14079013 -0.097471796 -0.010847485 -0.1763734 -0.05659421 -0.02481659 -0.086427726
-0.0073415744 -0.2574778 -0.09027316 -0.17125678 -0.040999454 -0.22206697 -0.17013603 -0.06929429
-0.0055255047 -0.097179875 -0.028436838 -0.08958521 -0.13024007 -0.07804797 -0.088059604 -0.026793223
0.04767035 -0.10430855 -0.024564302 -0.015628185 0.12802942 -0.07893972 0.072168075 0.007464306
-0.15352972 -0.052294753 -0.071453795 -0.10110917 0.051384665 -0.10853726 -0.23242855 0.024365377
-0.032734405 0.077414535 -0.16356601 -0.051868327 -0.25375476 0.0097321775 -0.040275026 -0.1112433
-0.12333853 -0.002492753 -0.13251081 -0.08082694 0.0593986 -0.025756178 0.07454943 -0.10384053
-0.16165085 -0.1900021 -0.24099104 -0.06729788 -0.16794945 -0.058528107 -0.24851863 -0.15085956
0.0044068983 -0.0011211054 -0.038454264 -0.06770102 -0.22092663 -0.05404583 -0.034275215 0.0014861342
-0.018080479 -0.108440146 0.05059176 -0.041350864 -0.09276612 -0.11248509 -0.11831181 -0.14382547
-0.13060312 -0.0030837285 0.027827954 0.048416153 -0.0914391 -0.15186 -0.008216825 -0.104419515
00000000: 5283 d7bd b97a f4bd bdb2 1ebd 1d20 56bd
00000010: 0cc0 d1bd 9c9a 953a b57c dd3c fa4d 49be
00000020: 16e8 f43c ab83 3fbe c795 b43d f689 14be
00000030: 1eea 2dbe bac5 c43b 83fe 91bd e1c9 91bc
00000040: 8729 24bd 943d 943d 407f 6e3d 2d99 93bd
00000050: ac26 583c 816f 063d 5495 b8bd 2511 44bd
00000060: 9f34 3ebe 5fb0 94bd 22f3 b9bd 05e0 153d
00000070: be00 cf3c 6bd6 98bc aa60 50bd f39a f63b
00000080: a65b 86bd 5bf2 2abd ebcc 893c 60d3 11bd
00000090: c38a d5bd 6bf2 9dbb 9124 fcbd 3f40 853d
000000a0: 6b36 06be 4a2b 10be 4b9f c7bd a6b9 31bc
000000b0: 3b9b 34be 55cf 67bd 294c cbbc 0501 b1bd
000000c0: 9791 f0bb 21d4 83be 22e1 b8bd f05d 2fbe
000000d0: 0bef 27bd 8665 63be 2438 2ebe 2aea 8dbd
000000e0: 4b0f b5bb 3e06 c7bd 5ff4 e8bc 7378 b7bd
000000f0: a75d 05be 9dd7 9fbd 9858 b4bd 767d dbbc
00000100: fc41 433d b99f d5bd 133b c9bc ae06 80bc
00000110: 251a 033e 26ab a1bd dbcc 933d 2397 f43b
00000120: e536 1dbe 0633 56bd 5e56 92bd 5312 cfbd
00000130: ba78 523d c848 debd c001 6ebe e699 c73c
00000140: 8314 06bd 838b 9e3d d97d 27be e273 54bd
00000150: 25ec 81be b673 1f3c 6df7 24bd 87d3 e3bd
00000160: e998 fcbd 755d 23bb eab0 07be 9888 a5bd
00000170: f24b 733d 9ffe d2bc 5fad 983d 58aa d4bd
00000180: cd87 25be e98f 42be 5bc6 76be 79d3 89bd
00000190: f1fa 2bbe 2bbb 6fbd ab7b 7ebe ee7a 1abe
000001a0: be67 903b 0ef2 92ba 3882 1dbd d5a6 8abd
000001b0: 973a 62be 295f 5dbd 2b64 0cbd 64ca c23a
000001c0: 831d 94bc de15 debd 4e39 4f3d 865f 29bd
000001d0: 2afc bdbd 955e e6bd 764d f2bd fc46 13be
000001e0: d3bc 05be 6118 4abb 73f7 e33c 0450 463d
000001f0: 6c44 bbbd 3081 1bbe dd9f 06bc e6d9 d5bd

actor.4.weight f4 [128, 128]
-0.042278852 -0.045976434 -0.025254035 0.022300439 -0.11218631 0.12276255 0.0055883257 -0.06939934
0.0038994178 0.013021472 -0.07602544 -0.016216654 -0.015434632 0.015670415 -0.0017770253 0.0703168
-0.11724686 0.05091516 0.058357988 0.088848405 -0.005428201 0.043428432 -0.00547286 0.030521369
-0.036381803 -0.08099351 0.030377107 -0.14569533 -0.12468582 0.026065921 -0.054752123 0.01973228
-0.06668576 -0.0029999204 0.06400891 -0.18497524 0.1058046 0.04162151 0.120131016 0.030414063
-0.046346594 -0.07031234 -0.017566772 -0.08460138 -0.09777741 -0.19327258 0.13644046 -0.023244018
-0.06980707 0.01804245 -0.15246604 0.03934648 0.13839908 0.078606665 0.035617664 -0.06195325
-0.028742403 -0.11826995 -0.23728098 0.029718867 -0.026682468 -0.014967298 -0.024025237 0.08257908
-0.11991163 -0.15980238 0.041451834 0.20087366 -0.02820855 -0.03129271 -0.07579075 0.088337354
-0.06969239 0.051881846 0.09198587 -0.10760202 0.062154613 -0.060414437 -0.099554315 0.10148402
0.0053522647 -0.11904182 -0.04274306 0.056245655 0.082367025 -0.035829723 -0.01068843 -0.016463004
0.119137585 0.022600021 0.118475005 0.038035993 -0.051791206 0.04520024 -0.108025275 0.09219094
-0.10550263 -0.017255766 -0.025761403 -0.024180932 0.05325431 -0.08132051 0.075008914 -0.078206494
0.06352351 0.08189578 0.0045119743 0.048093576 -0.06147791 0.07219696 0.054225486 -0.12783852
0.02909353 0.081746325 0.09113007 0.014965049 -0.069718055 -0.12045288 0.0023307314 0.035117596
0.024786614 -0.23504217 0.013264267 0.052394055 -0.08066635 -0.031455763 -0.09191094 -0.038187664
-0.13892545 0.18076801 -0.042797007 0.026259996 0.012693167 -0.062763646 0.06174721 0.086892545
0.12279439 -0.08883292 0.121556915 0.13890404 -0.044905487 -0.07155604 0.05116835 -0.10880216
-0.11985342 0.11500965 0.007423859 0.040301908 0.19127588 0.03917802 0.0027945926 0.03751521
-0.076238506 0.056430537 -0.0017681628 0.13405058 -0.17972864 -0.039203472 0.06308039 0.010855327
0.1578616 0.044775434 -0.11732043 -0.065035835 -0.027185 0.07323999 0.11957627 0.04689782
-0.089947745 -0.051163334 -0.024218354 -0.062335912 -0.130953 -0.058978718 0.20188326 0.08630695
0.06889906 0.06905373 0.14660916 0.17669703 0.05700601 0.17346476 -0.048789393 -0.04967162
0.089125745 -0.06705802 -0.09470617 0.021215403 -0.09827031 -0.033907026 -0.07801144 0.12905906
-0.07372134 -0.13453087 -0.0031274974 0.14250061 0.023531975 0.09729994 -0.044560682 0.039947785
0.012622369 -0.06542808 -0.1309275 -0.09453831 -0.11826854 0.07150528 -0.06223267 -0.10318928
0.0055171303 -0.13715172 -0.012816984 0.10378971 0.11931141 0.039634015 -0.11268719 -0.0887093
-0.010097956 -0.089247055 -0.038580097 -0.20980984 -0.046739757 -0.091510184 0.017382938 -0.05388187
-0.042836692 0.045760132 0.11150144 -0.12701796 0.11912209 0.010106991 -0.12244455 0.10411211
0.081358455 -0.0057512415 0.08971303 -0.13874425 -0.23727667 0.0076877894 -0.15208943 -0.08653302
0.084598675 0.10988686 -0.035942405 -0.0349667 -0.09647366 0.09199729 0.1553287 -0.0020983724
0.04202494 -0.1480887 -0.10622556 -0.13641527 -0.06332866 0.16426124 0.047699988 -0.00027897058
00000000: 972c 2dbd c951 3cbd 8de1 cebc 69af b63c
00000010: f0c1 e5bd ef6a fb3d 461e b73b 3e21 8ebd
00000020: 608d 7f3b 0358 553c 3ab3 9bbd cad8 84bc
00000030: 8ae1 7cbc 3e5f 803c 13eb e8ba 4102 903d
00000040: 1f1f f0bd 6a8c 503d c908 6f3d 27f6 b53d
00000050: 0ddf b1bb 03e2 313d ad55 b3bb f307 fa3c
00000060: 1605 15bd eddf a5bd 69d9 f83c 2831 15be
00000070: 475b ffbd 3388 d53c c343 60bd 97a5 a13c
00000080: 8b92 88bd 509a 44bb 1a17 833d 266a 3dbe
00000090: 15b0 d83d 517b 2a3d 4007 f63d ea26 f93c
000000a0: edd5 3dbd ebff 8fbd 31e8 8fbc 7d43 adbd
000000b0: 863f c8bd 3fe9 45be 0cb7 0b3e 3d6a bebc
000000c0: 02f7 8ebd c3cd 933c 0f20 1cbe c629 213d
000000d0: 7db8 0d3e 88fc a03d d4e3 113d b1c2 7dbd
000000e0: 3075 ebbc 8437 f2bd c9f9 72be fb74 f33c
000000f0: 3195 dabc 6639 75bc 93d0 c4bc 381f a93d
00000100: 3b94 f5bd 3ca3 23be 66c9 293d d3b1 4d3e
00000110: 9e15 e7bc c92c 00bd 2e38 9bbd 37ea b43d
00000120: e2ba 8ebd 0f82 543d 1663 bc3d 735e dcbd
00000130: d695 7e3d 2175 77bd 22e3 cbbd dbd6 cf3d
00000140: 0d62 af3b 33cc f3bd 5913 2fbd d861 663d
00000150: 0bb0 a83d 30c2 12bd 861e 2fbc 6cdd 86bc
00000160: 68fe f33d ae23 b93c 06a3 f23d a1cb 1b3d
00000170: 0423 54bd e323 393d 5b3c ddbd 9bce bc3d
00000180: c311 d8bd f75b 8dbc 9409 d3bc 1717 c6bc
00000190: 3121 5a3d 5e8b a6bd 469e 993d ba2a a0bd
000001a0: 9d18 823d fab8 a73d 2fd9 933b c5fd 443d
000001b0: 43d0 7bbd 00dc 933d 8b1b 5e3d 1ae8 02be
000001c0: 8e55 ee3c 9e6a a73d 67a2 ba3d f72f 753c
000001d0: 57c8 8ebd 00b0 f6bd 2fbf 183b 78d7 0f3d
000001e0: 4c0d cb3c e5ae 70be 5e52 593c 269b 563d
000001f0: 6634 a5bd c2d7 00bd ce3b bcbd ab6a 1cbd
00000200: 7942 0ebe 401b 393e ea4b 2fbd 341f d73c
00000210: 00f7 4f3c 3a8a 80bd a4ea 7c3d b8f4 b13d
00000220: a07b fb3d 09ee b5bd d5f2 f83d dc3c 0e3e
00000230: d1ee 37bd f98b 92bd e795 513d abd3 debd
00000240: b675 f5bd 2e8a eb3d d843 f33b 9d13 253d
00000250: d3dd 433e 2279 203d 7c25 373b 8da9 193d
00000260: ef22 9cbd b523 673d b3c1 e7ba 8e44 093e
00000270: c90a 38be d293 20bd 4b30 813d 8bda 313c
00000280: 79a6 213e 7266 373d b245 f0bd 8231 85bd
00000290: 14b3 debc d9fe 953d 67e4 f43d ee17 403d
000002a0: 8636 b8bd a590 51bd 9265 c6bc f153 7fbd
000002b0: 8b18 06be ab93 71bd 7cba 4e3e b3c1 b03d
000002c0: f31a 8d3d 0b6c 8d3d b620 163e 11f0 343e
000002d0: 227f 693d bfa0 313e 63d7 47bd 7874 4bbd
000002e0: 8f87 b63d b755 89bd 4ff5 c1bd edcb ad3c
000002f0: f241 c9bd 18e2 0abd 76c4 9fbd 0f28 043e
00000300: 37fb 96bd 76c2 09be b3f6 4cbb aeeb 113e
00000310: 21c6 c03c 3145 c73d 4385 36bd 4aa0 233d
00000320: 0ece 4e3c 28ff 85bd dc11 06be 4d9d c1bd
00000330: c736 f2bd 5c71 923d afe7 7ebd e754 d3bd
00000340: 0bc9 b43b 8071 0cbe 54fe 51bc b38f d43d
00000350: 8a59 f43d 4757 223d 8bc8 e6bd 39ad b5bd
00000360: e671 25bc 29c7 b6bd 2a06 1ebd 64d8 56be
00000370: 3072 3fbd b169 bbbd aa66 8e3c 3cb3 5cbd
00000380: 8775 2fbd fa6e 3b3d de5a e43d ff10 02be
00000390: 48f6 f33d cb97 253c 35c4 fabd bb38 d53d
000003a0: 439f a63d e974 bcbb 77bb b73d f912 0ebe
000003b0: a8f8 72be dae9 fb3b 55bd 1bbe 3938 b1bd
000003c0: 1242 ad3d 5d0c e13d 5838 13bd 3e39 0fbd
000003d0: fb93 c5bd 1369 bc3d 7d0e 1f3e d984 09bb
000003e0: 5822 2c3d 90a4 17be c98c d9bd 72b0 0bbe
000003f0: 75b2 81bd 1934 283e 1061 433d cc42 92b9

actor.4.bias f4 [128]
-0.12665798 -0.2199033 -0.07321391 0.06616567 -0.053219266 -0.16371417 -0.087353304 -0.09485586
0.035217952 -0.15058641 -0.08908294 0.09690145 -0.13810341 -0.07733492 0.042606562 0.004365116
-0.0605366 -0.06618677 -0.04533359 -0.1632628 -0.09223991 -0.041260887 -0.0152648315 0.016729759
-0.045659184 -0.1091709 -0.067532815 -0.04325685 -0.06283799 0.022561006 -0.071122475 0.013201784
-0.133851 -0.06550331 -0.011479276 -0.14916734 -0.049187496 -0.121162504 -0.090931 -0.013830742
-0.1188039 0.057001673 -0.062195975 -0.064678684 -0.021794714 -0.016124027 0.10024353 -0.03279814
0.0064094304 -0.06368904 0.06403947 -0.026778681 -0.037702177 -0.14263104 -0.16124405 -0.09822698
-0.125789 -0.033659637 -0.0029525603 -0.11045043 -0.052888192 -0.11455816 -0.09456701 -0.089481555
-0.08110721 0.0049317176 -0.15283194 0.038024276 -0.10225996 -0.16645347 -0.17775783 -0.04992279
-0.026060011 -0.042159274 -0.11062514 -0.09659428 -0.0944819 0.011673207 -0.09808132 -0.004153066
-0.13930815 -0.13096301 -0.14207064 0.022270564 -0.047035344 -0.010246217 -0.06515207 -0.070886716
-0.118722945 -0.05356691 -0.1287733 -0.052279104 0.04775681 -0.044682503 -0.15660967 -0.015315687
-0.11547447 -0.09490844 -0.016780503 -0.09161513 -0.14902337 -0.20714474 -0.15419726 -0.022257173
-0.21906061 -0.010841645 -0.016880795 0.03684425 0.042513426 0.017128771 -0.058829352 -0.061256018
-0.09079487 -0.14906867 -0.14214228 -0.032088246 0.027185706 -0.036880467 -0.19962913 0.12687396
-0.24578783 -0.08209593 -0.024631348 -0.14553638 -0.0988068 0.029725768 0.014534067 -0.03878599
00000000: a1b2 01be 552e 61be 2df1 95bd de81 873d
00000010: 72fc 59bd b0a4 27be 4ae6 b2bd ca43 c2bd
00000020: b340 103d 5333 1abe 1e71 b6bd 4474 c63d
00000030: fb6a 0dbe c561 9ebd 3884 2e3d 3f09 8f3b
00000040: 3af5 77bd ee8c 87bd b7af 39bd 5d2e 27be
00000050: 47e8 bcbd 2d01 29bd 5819 7abc d90c 893c
00000060: 2005 3bbd fe94 dfbd a54e 8abd 182e 31bd
00000070: 34b1 80bd dcd1 b83c a9a8 91bd 4c4c 583c
00000080: 3d10 09be 9926 86bd 9313 3cbc 53bf 18be
00000090: d478 49bd 0c24 f8bd 083a babd 569a 62bc
000000a0: 764f f3bd 967a 693d 35c1 7ebd 4276 84bd
000000b0: d48a b2bc 8916 84bc 7b4c cd3d 5857 06bd
000000c0: 3306 d23b 666f 82bd 2027 833d f75e dbbc
000000d0: 996d 1abd df0d 12be 291d 25be 3a2b c9bd
000000e0: d5ce 00be b0de 09bd be7f 41bb d633 e2bd
000000f0: 4aa1 58bd 789d eabd 59ac c1bd 1b42 b7bd
00000100: 891b a6bd 3f9a a13b fa7f 1cbe 58bf 1b3d
00000110: ab6d d1bd c772 2abe 2606 36be d77b 4cbd
00000120: ce7b d5bc 34af 2cbd 6f8f e2bd 39d3 c5bd
00000130: ba7f c1bd fb40 3f3c dcde c8bd 7116 88bb
00000140: cca6 0ebe 2b1b 06be f77a 11be c270 b63c
00000150: 22a8 40bd c0df 27bc 736e 85bd 0e2d 91bd
00000160: 0425 f3bd fa68 5bbd 26dd 03be 9d22 56bd
00000170: a59c 433d 0005 37bd 495e 20be a6ee 7abc
00000180: e17d ecbd 5b5f c2bd 4477 89bc b7a0 bbbd
00000190: 9599 18be c01d 54be e3e5 1dbe ad54 b6bc
000001a0: 6d51 60be 28a1 31bc 9849 8abc ffe9 163d
000001b0: 8f22 2e3d a351 8c3c 0cf7 70bd 97e7 7abd
000001c0: a9f2 b9bd 75a5 18be bf8d 11be f76e 03bd
000001d0: 8fb4 de3c f90f 17bd 946b 4cbe 3feb 013e
000001e0: ceaf 7bbe e921 a8bd aec7 c9bc 7d07 15be
000001f0: 385b cabd 7483 f33c 4c20 6e3c 0fde 1ebd

actor.6.weight f4 [27, 128]
-0.035453252 0.036283463 0.011606027 -0.0048540956 0.009354405 0.01565378 -0.013937092 -0.006766124
0.03308601 -0.005905267 0.004293327 -0.001340337 0.012466583 -0.03587331 -0.007924633 0.005063396
-0.006063702 -0.005143779 0.019447519 -0.018790077 0.01932559 0.02869216 0.008793444 -0.013498083
-0.0063801957 -0.029466009 -0.007045999 -0.03546443 -0.026865285 0.010190369 -0.004963278 0.00036363967
-0.001945582 0.048738763 -0.0076950244 0.016400367 -0.01084492 0.058670234 -7.632627e-06 0.0031165772
-0.00058682344 0.05204825 0.0063893683 0.037158277 0.022139987 0.022303525 -0.008623079 -0.004701314
0.007469537 -0.009599504 0.009220088 0.010078838 0.0001356395 0.013629096 0.019231811 -0.0033769805
0.0030133836 -0.012312591 0.0010310491 0.0069804927 -0.024062566 0.0039771306 -0.042705 0.012292095
-0.0011260583 0.0015992238 -0.014603561 0.007908517 -0.0010072525 -0.012004548 0.027708901 -0.005536544
0.0052067363 0.013161633 0.034188405 -0.027174301 -0.003535146 0.019213608 0.002737666 0.01564102
0.014193839 0.017648708 0.017885707 0.0019004466 -0.014659752 -0.007076292 -0.01619522 -0.013728588
-0.010309255 0.007738006 0.00826431 -0.023014173 -0.023307258 -0.009278284 -0.012709694 -0.019400444
-0.056846514 -0.034935866 -0.011596641 -0.017075617 0.034525182 0.0015082866 0.01632029 0.0019135321
-0.05454604 -0.00629558 -0.011709834 0.0034620343 -0.0080587445 -0.02424302 0.00022065656 0.020639105
0.011018951 -0.047525615 0.007030893 -0.031383548 -0.011234767 -0.033953734 0.0036797256 0.009502162
-0.0636216 -0.0106296735 0.016211787 -0.0020781842 0.008792346 0.018723534 0.007146734 -0.0028514152
0.00074468297 0.038016666 -0.009263216 -0.009851403 0.0033179906 -0.004828347 -0.021066623 0.014793362
-0.055168178 -0.031194141 0.0089029055 0.06432752 -0.01301265 0.025493812 -0.014388646 8.156592e-05
0.0044059926 -0.00029681835 -0.024697032 0.027061515 0.019779349 0.002897574 0.0024619005 -0.017145032
0.020691855 -0.033666156 -0.001995525 0.0061123692 -0.013264714 -0.015081872 0.016566455 -0.005970864
0.0026193429 -0.0062429043 0.01391664 -0.030416884 -0.010116905 -0.051387142 -0.024604 -0.0034517834
0.016173674 -0.013726637 0.018182902 -0.001686521 0.028783942 0.011536364 -0.014802008 0.024904264
0.004549493 0.008607288 0.010215669 0.01242606 0.010841991 0.013654558 -0.01902821 -0.0049265977
0.018517444 -0.007963056 0.015188683 0.0058461623 -0.0030900647 0.0024529153 0.06746647 0.028085522
0.00028880176 0.026556483 -0.0013711347 -0.0016336153 0.025723394 -0.0012203907 -0.016450986 0.027289229
0.017439058 0.016415909 0.0126565965 -0.017400933 -0.008542074 -0.01651281 -0.0018542479 0.00197029
-0.044896666 -0.021370715 0.004018006 0.019420924 -0.0101316525 -0.019302107 -0.030214902 0.018038513
0.0045100055 -0.038267177 0.00037733777 -0.03748663 -0.0054055923 0.010108839 -0.033411074 -0.026015418
0.044362664 0.018342443 0.007652571 0.006760909 0.0058739865 -0.025088843 0.0063382005 0.025450109
-0.024888411 -0.0014836713 -0.02302701 -0.008521259 -0.006180497 0.025331222 -0.0034377435 -0.0068537346
-0.020835668 -5.1743573e-05 -0.025653835 0.004413077 0.0036247745 -0.015831338 -0.014799585 -0.008925607
6.2648965e-06 -0.0034620354 0.0025734596 -0.0055327965 0.043695245 -0.00073002325 0.014249364 0.0015491275
00000000: 6e37 11bd f89d 143d 3527 3e3c 1b0f 9fbb
00000010: 3843 193c 5b3c 803c 6758 64bc 5db6 ddbb
00000020: 3285 073d f880 c1bb 0aaf 8c3b 3fae afba
00000030: a440 4c3c e4ef 12bd 52d6 01bc d8ea a53b
00000040: 05b2 c6bb 258d a8bb 6750 9f3c a6ed 99bc
00000050: b350 9e3c d20b eb3c 6112 103c 1027 5dbc
00000060: f610 d1bb b362 f1bc 20e2 e6bb 2643 11bd
00000070: 9614 dcbc 81f5 263c fea2 a2bb e4a6 be39
00000080: e602 ffba 4ca2 473d 8b26 fcbb 105a 863c
00000090: e4ae 31bc 3350 703d e20d 00b7 7d3f 4c3b
000000a0: 0ed5 19ba 8c30 553d e85d d13b 4733 183d
000000b0: eb5e b53c e2b5 b63c d147 0dbc 7b0d 9abb
000000c0: 05c3 f43b 3d47 1dbc da0f 173c b621 253c
000000d0: 733a 0e39 924c 5f3c 088c 9d3c 5550 5dbb
000000e0: 307c 453b c0ba 49bc 4424 873a 9ebc e43b
000000f0: dc1e c5bc 9752 823b 70eb 2ebd c964 493c
00000100: 3f98 93ba 0c9d d13a c643 6fbc b992 013c
00000110: c905 84ba b9ae 44bc c7fd e23c e66b b5bb
00000120: 459d aa3b e4a3 573c 2409 0c3d a49c debc
00000130: e8ad 67bb db65 9d3c 6a6a 333b 9921 803c
00000140: 478d 683c 0694 903c 0c85 923c 6818 f93a
00000150: 752f 70bc 3de0 e7bb d7ab 84bc dfed 60bc
00000160: 26e8 28bc 198f fd3b 0767 073c 3888 bcbc
00000170: ddee bebc f203 18bc 523c 50bc aeed 9ebc
00000180: e4d7 68bd e918 0fbd d6ff 3dbc 2ae2 8bbc
00000190: 476a 0d3d b3b1 c53a 21b2 853c 7ccf fa3a
000001a0: ab6b 5fbd 274b cebb 9bda 3fbc 4ce3 623b
000001b0: d308 04bc 4c99 c6bc 0b60 6739 5713 a93c
000001c0: d588 343c 38aa 42bd 6863 e63b 098c 00bd
000001d0: 0712 38bc 1213 0bbd 8d27 713b f5ae 1b3c
000001e0: 0b4c 82bd 1528 2ebc 95ce 843c 2532 08bb
000001f0: c60d 103c 1962 993c 262f ea3b cfde 3abb
00000200: d436 433a 5db7 1b3d bec4 17bc c767 21bc
00000210: a572 593b 1c37 9ebb e993 acbc db5f 723c
00000220: 07f8 61bd db8a ffbc 7edd 113c 26be 833d
00000230: 0333 55bc 66d8 d03c 5bbe 6bbc 5f0e ab38
00000240: 2560 903b 499e 9bb9 6e51 cabc 1cb0 dd3c
00000250: 4d08 a23c 3ae5 3d3b d657 213b bd73 8cbc
00000260: f781 a93c 86e5 09bd 5bc7 02bb 454a c83b
00000270: 3e54 59bc f519 77bc 60b6 873c 3da7 c3bb
00000280: 48a9 2b3b 4791 ccbb 9e02 643c d42c f9bc
00000290: 60c1 25bc 537b 52bd 548e c9bc 5137 62bb
000002a0: a77e 843c b0e5 60bc 4ff4 943c 410e ddba
000002b0: 4dcc eb3c 0503 3d3c 1f84 72bc 0704 cc3c
000002c0: ea13 953b 9505 0d3c 9f5f 273c ac96 4b3c
000002d0: 9ba2 313c 5eb7 5f3c 0ce1 9bbc 4c6f a1bb
000002e0: e5b1 973c 7a77 02bc f4d9 783c 2a91 bf3b
000002f0: af82 4abb 17c1 203b dc2b 8a3d 9c13 e63c
00000300: 516a 9739 fb8c d93c a5b7 b3ba 091f d6ba
00000310: deb9 d23c 84f5 9fba 38c4 86bc a98d df3c
00000320: 5bdc 8e3c a87a 863c 9d5d 4f3c 678c 8ebc
00000330: 0ef4 0bbc df45 87bc 3c0a f3ba fb1f 013b
00000340: 91e5 37bd a311 afbc 7aa9 833b a118 9f3c
00000350: 3bff 25bc 741f 9ebc 3e85 f7bc 81c5 933c
00000360: abc8 933b 0bbe 1cbd 6bd5 c539 958b 19bd
00000370: 6521 b1bb 8b9f 253c 0dda 08bd 491e d5bc
00000380: a0b5 353d e442 963c 6bc2 fa3b 9e8a dd3b
00000390: 927a c03b 1e87 cdbc aeb0 cf3b bf7c d03c
000003a0: c8e2 cbbc bf77 c2ba 24a3 bcbc c09c 0bbc
000003b0: c485 cabb 6c83 cf3c c44b 61bb 4b95 e0bb
000003c0: 90af aabc 3d07 59b8 fe27 d2bc 939b 903b
000003d0: a08d 6d3b b9b0 81bc f579 72bc b63c 12bc
000003e0: 0d37 d236 51e3 62bb 7da7 283b 764c b5bb
000003f0: c9f9 323d 085f 3fba 2a76 693c 180c cb3a

actor.6.bias f4 [27]
-0.032997556 0.0007536507 -0.035430137 -0.07832677 0.024935525 -0.07124362 -0.06362434 0.060998898
-0.047173664 0.011148545 0.046374418 -0.19888556 -0.06670956 -0.02047503 0.06322915 0.112516075
-0.075860165 -0.07892183 -0.06142398 0.08492372 0.1604491 0.0027230124 -0.023371475 0.04291508
0.0030981393 0.0056576035 0.028463522
00000000: 7228 07bd a490 453a 311f 11bd c969 a0bd
00000010: 9645 cc3c 2de8 91bd 7a4d 82bd fbd9 793d
00000020: 2c39 41bd 63a8 363c 1af3 3d3d a8a8 4bbe
00000030: 069f 88bd 40bb a7bc 497e 813d d46e e63d
00000040: 935c 9bbd c5a1 a1bd b697 7bbd 7dec ad3d
00000050: c54c 243e 9174 323b 8975 bfbc b9c7 2f3d
00000060: 270a 4b3b 6b63 b93b 552c e93c
