IsaacLab/logs/rsl_rl/h1v2_flat/2025-03-06_12-07-52/exported/policy.onnx (onnx, 195410 bytes, 8 tensors)

actor.0.weight f4 [128, 93]
000000 58 7d 52 3e 6b cb 58 bf 40 d7 82 3e 4f 03 18 be
       0.20555627 -0.8468539 0.25554848 -0.14845012
000010 54 72 7b 3e 48 a3 55 bd 55 be fd 3e 69 21 34 bd
       0.24555331 -0.05215767 0.49559274 -0.043977175
000020 b4 1c b8 3d a7 5a 80 3e 3d 68 5b bd b8 fd e4 bd
       0.0898985 0.25069162 -0.053566206 -0.111812055
000030 31 f7 70 3e 5e 01 4b 3e 41 d8 f6 bd 6e 45 98 3e
       0.23531796 0.1982474 -0.12052966 0.2974047
000040 25 6f 23 3e 82 16 33 3d b4 90 89 be ad f8 8d 3e
       0.15960367 0.043722637 -0.26868212 0.27728787
000050 83 af 5c be 33 d9 71 bb 58 37 c2 3e 86 3a 8d bd
       -0.21551327 -0.0036903142 0.3793285 -0.06895928
000060 c9 1c 97 3e 18 d0 b2 be 27 ab da bd c5 d1 a0 3d
       0.2951415 -0.34924388 -0.10677176 0.0785251
000070 98 6b c3 be 1c 56 6f 3e 02 fd 16 bf 8f 13 86 bd
       -0.38168025 0.23372692 -0.5897981 -0.06546699
000080 0e ee 92 bf 1e 04 58 be 26 96 82 bd 08 7a 3d be
       -1.1478899 -0.2109532 -0.06376295 -0.18503582
000090 ee 32 05 3e 33 b6 78 3e fe 3d e9 be 11 d7 d9 3c
       0.1300771 0.24288253 -0.4555511 0.02659181
0000a0 9a e3 56 3c 1e 0e 64 bd ff f0 29 bd 56 f6 1b 3d
       0.013115788 -0.055677526 -0.041489597 0.03807672
0000b0 2b 25 ef 3d ef 2d ac 3d 65 16 5a 3d 6b f9 5a 3d
       0.11677011 0.08407199 0.053244013 0.05346052
0000c0 d4 3c a3 3d 89 a9 2e 3b dc 77 f1 bd 86 59 83 3d
       0.079705864 0.0026651344 -0.117904395 0.064135596
0000d0 2e 00 8e 3c 15 96 8c 3a 60 03 27 bd ca 3a 3f 3d
       0.01733407 0.001072588 -0.040774703 0.046686925
0000e0 78 e4 db bc 4c d9 03 bd b2 af cc bc cc e3 ce 3b
       -0.02684234 -0.032189652 -0.024986122 0.0063137766
0000f0 f7 41 21 bb 53 23 76 3d 71 11 97 3c 60 e2 57 3c
       -0.0024605969 0.06009228 0.018440934 0.013176531
000100 6d 12 6d bd 81 ce 79 3d 1c 1c 30 3e d1 96 a7 3c
       -0.0578789 0.060987953 0.17198223 0.020457657
000110 04 e3 07 3c ae 6f 7f be 96 b4 9a 3d 94 50 2e be
       0.008293871 -0.24944946 0.07553975 -0.17022926
000120 5a a8 e8 3d 96 6c 57 be 36 46 cc 3d 79 18 41 bd
       0.113602355 -0.21037516 0.09974329 -0.04714248
000130 c1 77 bd bc d3 0d 85 3e 00 ee 9f be cb 6e 20 bd
       -0.023128392 0.2598711 -0.31236267 -0.03916816
000140 fc f5 0f bd 72 7c 84 3c 7b 8a ac bc a4 11 38 3d
       -0.0351467 0.016172621 -0.021062126 0.0449387
000150 3b f1 10 3e 34 70 90 3d 8c 1c bf 3d 84 3a 64 bd
       0.14154522 0.07052651 0.09331617 -0.055719867
000160 d3 d4 62 bd cb be 89 bd 11 fd 9f bc db 2d 85 3d
       -0.055378746 -0.06725844 -0.019529851 0.06502887
000170 bf 95 08 3d 6b ca 35 3d c5 6e 97 bb e3 ca 45 3e
       0.033345934 0.044382494 -0.004621359 0.19315676
000180 d3 42 12 3d 69 a1 8d 3e 89 46 2e bd 8c eb d8 3d
       0.03570826 0.2766221 -0.042547736 0.10591802
000190 55 11 17 3e 97 1a bb 3d 70 12 b5 bd dc 30 b9 3c
       0.14752705 0.09135931 -0.08841407 0.022606306
0001a0 46 e5 8e be 55 1e df 3e ae 29 f6 3e 4d 6b 37 bf
       -0.27909297 0.4357783 0.48078674 -0.71648103
0001b0 1f 16 4d 3e 74 4d 24 be 65 7e 3d be 7c 66 07 3d
       0.2002797 -0.16045171 -0.18505247 0.03305672
0001c0 c9 a5 d3 be b3 f1 0e bd f8 0d f6 3d fd 80 c0 bd
       -0.41337422 -0.03489847 0.12014383 -0.093996026
0001d0 02 4d ed 3e 8d 78 59 be 21 49 1b be 12 a4 54 3f
       0.46347815 -0.21237393 -0.15164615 0.8306285
0001e0 33 2e b4 be a1 ff 17 3e cd 5b 04 3f d4 a6 f7 be
       -0.35191497 0.14843608 0.51702577 -0.48369467
0001f0 ed b7 1d bd e0 5e 5d bd 3c 0e 5f bf 27 81 a1 bf
       -0.038505483 -0.054045558 -0.87131095 -1.2617539
000200 e1 48 1f bf d6 ff a5 be bd 24 60 3e 8a 22 91 3f
       -0.6222058 -0.3242175 0.21889015 1.1338665
000210 0a 4a 20 3d 5d cc 68 bb 83 2b 78 bd df b0 a6 bd
       0.03913311 -0.00355222 -0.06058837 -0.08139204
000220 63 0a 14 3e 44 d1 33 bd b6 0a 8d 3d bc a0 f9 bb
       0.14457087 -0.043900743 0.068868086 -0.007618038
000230 0f cc c2 bd a3 00 19 3b a4 e2 83 3d 5f 65 23 bb
       -0.09511577 0.0023346327 0.06439713 -0.0024932248
000240 e0 a0 ca bc 31 06 17 3d ec 06 03 be 58 90 7a 3c
       -0.024734914 0.03687114 -0.12795609 0.015293203
000250 2d fd d0 3d 6e 39 ae bd 4c 30 5e 3d fd 0e 3b 3d
       0.102045394 -0.085070476 0.05424528 0.04566859
000260 43 15 4c 3d a2 d6 45 3c 73 4e 8c 3d f4 61 21 3d
       0.049824964 0.012075098 0.068509005 0.039400056
000270 1c 11 80 3d 6d a9 2b bc 3b 47 2b bd 22 17 cf 3d
       0.06253263 -0.010477406 -0.041815978 0.10111834
000280 77 23 ed bd 66 c9 12 be 9a c3 10 bd 99 04 38 3e
       -0.1157903 -0.1433464 -0.03534279 0.17970504
000290 98 26 de bd 03 0f 8c bd a7 2d 85 3d de 51 95 3d
       -0.10847205 -0.06838801 0.06502848 0.072910056
0002a0 28 de 96 bc 85 8c 2c 3d ae b5 41 bd 74 d1 02 3e
       -0.01841648 0.042126197 -0.047292404 0.12775213
0002b0 ab 4d 9c bd 9a 8f 32 3b c9 87 5c 3d ba 15 17 be
       -0.076320015 0.0027246238 0.053840432 -0.14754382
0002c0 93 f8 44 3d 11 c7 25 bc e4 ed e3 bd 99 c1 35 be
       0.04808862 -0.010118262 -0.111293584 -0.17749633
0002d0 20 c6 82 bd 51 a6 56 bd 61 cb a2 bd 44 d3 f3 bc
       -0.063854456 -0.052404705 -0.07948948 -0.029763825
0002e0 eb db 79 bd 2d cf 16 3e b4 05 87 3d 7f 87 a8 be
       -0.061000746 0.14727469 0.06592885 -0.32915875
0002f0 92 ac d7 bd 70 7e 94 3e 6c b3 49 3e 30 4c 72 bd
       -0.10530962 0.29002714 0.1969735 -0.05915469
000300 93 fe 1c 3f 66 83 cf be 8b 38 25 3e 11 72 ae be
       0.6132595 -0.40529937 0.1613485 -0.340714
000310 ec bc 8b bd a4 81 2e 3d 56 af 29 be fa 0a 49 bd
       -0.06823143 0.042604104 -0.16570792 -0.049082734
000320 02 12 42 3e a1 04 e4 bb b9 b6 ac bd d1 d8 59 be
       0.18952182 -0.0069585596 -0.08433289 -0.21274115
000330 6f 58 09 bf 14 9b f7 be ba 57 fc 3e 62 ec c6 bd
       -0.53650564 -0.48360503 0.4928568 -0.09713055
000340 58 49 0e 3e 69 13 1f be 70 f9 e4 be c1 03 b9 3e
       0.13895166 -0.15534748 -0.44721556 0.36135677
000350 d4 ac 1d 3f 7a 88 41 be 92 fe a3 bd 6c fa a9 be
       0.6159184 -0.18899718 -0.0800754 -0.3319887
000360 22 6e 48 be ca ca b2 be db 32 b4 be 41 33 26 bf
       -0.19573262 -0.3492034 -0.3519505 -0.6492196
000370 5e 09 79 3e 4c d3 cb be ed ed 9b 3e 87 2a 1c 3f
       0.2431998 -0.39809644 0.3045496 0.6100239
000380 a5 51 8c be ad b1 67 3b 2e 07 01 bd 99 94 53 bc
       -0.2740604 0.0035353706 -0.031500988 -0.012913846
000390 0a e9 9e 3b 21 83 b1 bc 9a 83 e3 bc 07 b1 ae bd
       0.0048495578 -0.021668972 -0.027772713 -0.08529859
0003a0 86 94 2a bd cb 9a d3 3d f3 aa c0 bd 29 12 79 3c
       -0.04164555 0.10332259 -0.09407606 0.015202084
0003b0 6c c2 3a bd 62 55 f6 bb 2c d2 9c bd 1c f7 fb bd
       -0.04559557 -0.0075175026 -0.076572746 -0.12302992
0003c0 30 46 08 bd 33 c2 15 bd fa f0 a2 3c a3 b4 70 3b
       -0.03327006 -0.036562156 0.019890297 0.0036728762
0003d0 ba 6b 54 3a 00 bc 18 bd c6 2f 48 bd af f2 02 3b
       0.0008103211 -0.037288666 -0.048873685 0.0019981076
0003e0 00 d6 99 3d 33 e3 b2 bd 20 ae 5d 3c d0 f8 c3 bc
       0.075115204 -0.08734741 0.013530284 -0.023922354
0003f0 2c 32 c3 bd fc 7c 22 bc 35 35 96 bd 96 9d f9 3d
       -0.09531054 -0.009917494 -0.07334367 0.1218826

actor.0.bias f4 [128]
000000 55 b7 a1 bd 68 7a d2 bd cf 88 ec bd 29 6f 88 3d
       -0.07896296 -0.102772534 -0.11549532 0.06661827
000010 f5 4d 3a be 5c 96 c1 3d f5 79 aa 3a d8 50 c2 bd
       -0.18193801 0.09452507 0.0013006317 -0.09488076
000020 2d c2 12 be ac 9f ad bd 42 94 6b 3b 45 68 a2 3d
       -0.14331885 -0.084777206 0.0035946523 0.07930044
000030 95 0e 0a be 0e d1 1e bc 62 0d b2 bc 95 38 8c 3d
       -0.13482125 -0.009693397 -0.021734897 0.0684673
000040 f4 0f b9 3d 8b 95 9c 3d cc 00 bb 3d b5 8c 0e 3e
       0.09036246 0.076457106 0.09131011 0.13920863
000050 be 75 57 bd dd 07 3a 3c fb 25 2c bc 2a 91 c9 3d
       -0.052602522 0.011354414 -0.010507102 0.09842141
000060 e1 2c 3c be 58 ca 2b 3e a5 2a 8d bd b1 3f 92 bd
       -0.18376495 0.16776407 -0.068928994 -0.071410544
000070 c9 b7 df 3d fd d7 63 bd b5 e1 b8 bc 4b 8c 10 bd
       0.10923726 -0.055625904 -0.022568563 -0.035290044
000080 f6 bd 7b bc 73 a3 94 bd 7e 03 5b bd ab 4a ed 39
       -0.015365114 -0.07257738 -0.053470127 0.00045259795
000090 9d 94 40 bb 0d f3 fa bd 20 7f a9 bd 22 18 a5 3c
       -0.0029385455 -0.122533895 -0.082762 0.020153109
0000a0 12 ef cb 3d 6e 2c db bb c2 25 73 3d 62 4b d9 bc
       0.099577084 -0.006688646 0.05936218 -0.026525203
0000b0 75 bb 45 bd 3e 74 15 3e 78 12 3f be 66 6f 87 3d
       -0.048274476 0.14595124 -0.18659389 0.066130444
0000c0 c2 60 40 bd ee f3 b5 bd 1b cc 2e be 0b 72 e5 bd
       -0.046967275 -0.088844165 -0.17070048 -0.112033926
0000d0 c0 41 c9 bd 5c 20 ae bd 23 0a e0 3d 4f 9a 0f be
       -0.09826994 -0.08502266 0.109394334 -0.14023708
0000e0 67 1a 25 bd 51 0e c7 3d 45 a7 21 be f9 53 80 bd
       -0.040308382 0.097195275 -0.15786465 -0.062660165
0000f0 68 da 58 3d b5 85 c9 3c 28 06 52 bc e7 84 73 be
       0.052942663 0.02459989 -0.012818851 -0.23781167
000100 9a f6 6f bc 5c cf 05 bc eb 82 c2 bd 74 cd f0 bc
       -0.014646197 -0.008167114 -0.09497627 -0.029394843
000110 c6 0c 1a 3c 38 6e 63 bd 7b 13 f7 bd 6a 59 6b be
       0.0094024595 -0.055525035 -0.120642625 -0.22983328
000120 4f 63 80 bd 21 60 b9 3c 5e 33 61 bd 3f d1 89 be
       -0.062689416 0.022628846 -0.05498063 -0.26917455
000130 c6 a4 42 3d b2 39 f8 bc e9 a6 0e be c3 fd ae bc
       0.04752042 -0.030300949 -0.13930859 -0.021361237
000140 34 14 3b bd fb b2 5b 3c b6 fd b4 3c 2e 89 3c 3e
       -0.045673564 0.0134093715 0.022093635 0.18411705
000150 87 b5 9f bc ac 91 10 3d 5d 26 3c bb 37 6f 0c 3e
       -0.019495739 0.035295174 -0.002870939 0.137143
000160 5a b5 b4 bd 6d 2b 05 3d aa a8 12 3d 1c 5e 96 bd
       -0.088236526 0.032512117 0.03580538 -0.07342169
000170 c0 66 c4 bd f8 bc 2d be 7e 66 a0 bc 08 77 9e 3c
       -0.095899105 -0.16966617 -0.019580122 0.019343868
000180 13 f2 56 bd 65 9a 16 3e c3 e1 64 bd b6 22 cc bd
       -0.052476954 0.14707334 -0.055879366 -0.09967558
000190 57 01 0e be c7 0d 22 3e 9d 71 26 be 47 64 3c 3e
       -0.13867699 0.15825568 -0.16254278 0.18397628
0001a0 af 2b d8 3d 69 3a 72 bc 56 6e b5 bd 07 af 13 bd
       0.10555207 -0.014784434 -0.088589355 -0.03605559
0001b0 b1 ba 2b 3e ab d1 83 bd ae 82 ba bd be bb 80 bd
       0.16770436 -0.06436475 -0.091069564 -0.06285809
0001c0 9f 04 43 3e 0b 83 a5 bd 76 96 5c bd be cb 18 3d
       0.19044732 -0.08081635 -0.05385443 0.03730368
0001d0 a6 d5 3b be 13 fb 72 3b fd e8 f2 bd bb 47 56 bd
       -0.18343219 0.0037075921 -0.11860845 -0.0523145
0001e0 ac 9d 65 3d 88 4b 3d 3b 82 f0 f1 3d 4a af aa bd
       0.05605857 0.0028884131 0.11813451 -0.08334215
0001f0 bf 81 f1 bd 14 15 50 3c 21 51 bd bd ac fd e9 bd
       -0.11792325 0.012700338 -0.0924399 -0.11425337

actor.2.weight f4 [128, 128]
000000 20 08 2a bd 7c 24 35 bc 0a b8 25 3e 3e 93 e1 bc
       -0.041511655 -0.011056062 0.16183487 -0.02753603
000010 74 c7 31 bd ce 54 bb bc b3 1f a6 bc 6a 1f 23 bc
       -0.043403104 -0.022867586 -0.020278787 -0.00995622
000020 92 ad 34 be 16 d2 9f 3a 07 1d d2 3d 75 a4 55 3d
       -0.17644337 0.0012193348 0.10259443 0.05215879
000030 4b 3c 9a be cb 7a f1 3d 72 9b 4d 3e ca 66 91 3d
       -0.30124125 0.11790999 0.20078829 0.070996836
000040 e9 56 e3 bd 2c a4 c3 3d 0a e5 1b be 48 bd 84 b9
       -0.11100561 0.09552798 -0.1522409 -0.00025318027
000050 0d f1 7b 3c 34 a5 7c 3c 6c fc 1e be e7 d2 e4 bd
       0.015377295 0.015420247 -0.15525979 -0.11173039
000060 7f c7 02 bd 80 34 da bd cd ed ad 3c 45 19 67 3d
       -0.031928536 -0.10654545 0.021231556 0.056420583
000070 27 c8 3c 3c fc 57 30 be c9 c8 57 bd 34 f9 83 bc
       0.011522329 -0.17221063 -0.052681718 -0.01611004
000080 cc a8 e7 bc 7a e4 80 bc 00 63 e1 3d 99 c8 10 be
       -0.02827873 -0.015733946 0.11005211 -0.14139022
000090 f2 5a 7f bd 9d bf 9e 3c dc 83 47 3d 3c 6f ba 3c
       -0.06234259 0.019378478 0.048709735 0.022758119
0000a0 b9 e5 0c 3e d6 8a f9 bd f7 0e 81 bd 65 23 05 3e
       0.13759507 -0.12184684 -0.063016824 0.13001783
0000b0 08 df e8 bd 06 43 2f be e0 ad d3 bd 6c 47 b6 bc
       -0.11370665 -0.17115411 -0.103358984 -0.022250853
0000c0 8c 33 16 3d 8d 20 83 3c 33 b2 40 3d b3 54 f1 3d
       0.036670253 0.016006732 0.047044944 0.11783733
0000d0 9b 61 3b bd 2c a3 0d bd c5 f1 31 bc 6f b4 57 bd
       -0.04574738 -0.03457944 -0.010860865 -0.05266231
0000e0 b8 b7 3c be 6a 5f 57 bd 0b 85 06 be e3 25 04 bd
       -0.18429458 -0.05258123 -0.1313669 -0.032262694
0000f0 47 2e 64 3d 64 16 02 be cd 66 34 3e d5 0e 21 3e
       0.055708196 -0.12703854 0.1761734 0.15728314
000100 22 d6 4e 3c 57 59 f1 3d c0 c5 e3 3b 17 87 7b bc
       0.012624295 0.11784618 0.006951064 -0.015352032
000110 e9 de 78 ba 11 10 25 3c f6 54 84 bd 8e 8e 4d 3d
       -0.00094936654 0.010074631 -0.064615175 0.05018478
000120 be 8b a5 3c ca a5 f7 bc 0b 0f d1 bd 4e ae 06 be
       0.020208236 -0.030230422 -0.10207947 -0.1315243
000130 b1 3d cb 3c 10 66 e3 bd fa 87 0d bc 26 78 63 3e
       0.02480969 -0.11103451 -0.008638376 0.22213802
000140 61 f7 9d bd db 13 02 be ac e5 4a bc d0 46 d6 bc
       -0.077131994 -0.12702887 -0.01238386 -0.026156813
000150 19 cc ab 3d b0 a7 9f 3c 39 87 e2 3c 89 2c e3 bd
       0.08388538 0.01948914 0.02765237 -0.11092479
000160 f8 d3 43 3d 7e 17 6b 3d e7 7c 1b be 7b f1 34 bd
       0.04780957 0.05739545 -0.15184365 -0.044175606
000170 fe 10 43 be 1e eb 59 be f1 06 60 3e f0 74 32 3d
       -0.19049451 -0.21281096 0.21877648 0.04356855
000180 87 57 2a 3c f3 5f ee bd ab 84 db bc cf 87 a0 bd
       0.010396845 -0.116393946 -0.02679666 -0.078384034
000190 6b b9 95 3c 72 52 13 bd a1 98 97 3d 47 1f 50 bc
       0.01827689 -0.035967298 0.074021585 -0.01270277
0001a0 04 46 b1 3c 67 4f 22 bd 7e 23 b8 3d 7f 61 87 3c
       0.021639831 -0.039626505 0.089911446 0.016525982
0001b0 59 3f 22 3d 69 a9 01 bc 79 46 c3 bc 14 0c 8f bd
       0.039611194 -0.007913926 -0.023837315 -0.069847256
0001c0 42 d4 e2 bd 3e 61 a7 bd 54 ef 3c 3e b5 c2 25 bc
       -0.11075641 -0.08172844 0.18450671 -0.010117223
0001d0 64 7c d0 bc 61 e7 38 bc 21 e7 87 3d 17 18 1f bb
       -0.02544994 -0.011285634 0.06635881 -0.0024275833
0001e0 70 74 23 3d e8 85 d8 bb 3b 0b 3b 3b 05 78 ce 3d
       0.039905965 -0.0066077597 0.002854063 0.10081486
0001f0 68 36 10 3d a7 90 d6 3d 24 e4 4e 3d 7c 25 71 bd
       0.035208136 0.10476809 0.05051054 -0.05887364
000200 3f 4c e5 bd 9d 98 f8 bc d9 5e ac bd df 95 eb bd
       -0.111961834 -0.03034621 -0.08416528 -0.11503195
000210 75 dd bb bc 6d 3b ca bd 72 ab 84 3d 72 a1 d8 3c
       -0.022932747 -0.09874616 0.06478013 0.02644417
000220 65 5b 3d bc aa 6b 80 bc fe 12 c8 bd 03 18 c2 3d
       -0.011557435 -0.015676338 -0.097692475 0.09477236
000230 4b ff fa 3c eb 88 84 3d 3a f2 1f bd cf c9 1d be
       0.030639311 0.064714275 -0.039049365 -0.15409015
000240 ee f2 ca bd e4 81 14 3e e7 3c d8 bd 3d 52 41 be
       -0.099096164 0.14502674 -0.10558491 -0.18879028
000250 76 8e 2d bd 8c 29 70 3d cd 1d 21 be 24 8e 52 bd
       -0.04237219 0.058633372 -0.15734024 -0.051405087
000260 bd 05 c0 bb e0 28 12 bc f9 f8 b3 3d 6d 33 78 3d
       -0.005860059 -0.008920878 0.08787722 0.06059592
000270 74 bf 55 be 8d 62 ce bd 39 60 98 bd a5 1b 4c bd
       -0.20873815 -0.10077391 -0.07440228 -0.04983105
000280 48 1e 67 bd 1d d1 d0 bc 35 22 bc bd a4 af 9b bd
       -0.056425363 -0.025490338 -0.09186212 -0.0760186
000290 8f b5 20 bd a7 03 de bd 11 19 f3 bd bd a4 70 bd
       -0.039235648 -0.108405404 -0.118700154 -0.058750857
0002a0 14 8e 93 3b 22 6c ef bc 7f 9f 33 3d ec 07 35 bd
       0.004503021 -0.029226366 0.04385328 -0.044197008
0002b0 1c 24 f8 bd a3 46 e8 3d 09 00 3f 3d ed 70 61 bd
       -0.12116262 0.11341598 0.046630893 -0.055039335
0002c0 40 61 d3 bc 1e 59 8a 3d a5 e3 58 3d 83 ce 70 bd
       -0.025803208 0.06755279 0.052951474 -0.058790695
0002d0 75 ed bd 3d 20 1a ff bc 71 77 12 bd 5a 2e 27 3d
       0.09273807 -0.031140387 -0.03575844 0.04081569
0002e0 8c ca 99 3d 5a 09 5d bc cd ae e0 bd 6c 55 7f 3d
       0.07509336 -0.013490999 -0.109708406 0.062337324
0002f0 8e a2 a3 bc b0 95 83 be 63 9d 5e bd 88 b3 ca 3b
       -0.019974973 -0.2570014 -0.054349314 0.0061859526
000300 93 76 1c 3e 4e 56 b5 bd f0 b7 09 be 7e f6 0e 3e
       0.15279607 -0.08854352 -0.13449073 0.13961217
000310 52 03 2f 3d 04 a8 14 bd 0b 11 c4 bc bb 11 67 3c
       0.042727776 -0.036293045 -0.023933908 0.014103348
000320 b9 36 b8 3c 54 b4 db bc 7a 21 52 3d f6 46 33 3d
       0.022487031 -0.026819386 0.051301457 0.043768845
000330 44 3e 49 be da 42 29 3d d8 bf 83 3a 98 6b 06 3c
       -0.19652659 0.04132352 0.0010051681 0.008204363
000340 5d 5d a2 bd 6f 2f 34 3a 81 a4 18 bd 56 5d e0 bd
       -0.07927964 0.0006873523 -0.03726626 -0.109553024
000350 4b 0a 72 3d 17 c8 c4 bd a3 bb ba 3d c1 5c b9 3d
       0.059091847 -0.096084766 0.0911782 0.090508945
000360 41 e7 ae 3d ff 2a 3a 3c 92 1c 4b bd 9c 66 89 bd
       0.08540202 0.01136279 -0.049587794 -0.06709024
000370 0f 6f e5 3d 31 c7 13 3d e1 b6 49 bd 45 aa 23 be
       0.11202823 0.036078636 -0.049246673 -0.15982921
000380 36 7a 92 3d fe a3 0f bd a3 fa 2e 3d 24 ec 4d be
       0.07152216 -0.035068505 0.042719495 -0.20109612
000390 0e 0c 46 3e d0 db f9 bd 06 ba a5 bc d8 fb 1c be
       0.19340536 -0.12200129 -0.020230304 -0.15330446
0003a0 e7 65 c5 bd f4 c4 52 bd 81 fe 18 bd 2f df 76 bd
       -0.09638577 -0.05145736 -0.03735209 -0.06027144
0003b0 91 05 b8 bc 01 79 09 3d 0b 38 aa 3d d5 1c 1f 3e
       -0.022463592 0.033562664 0.083114706 0.15538342
0003c0 9c 16 17 be 4b b8 ef bc 28 43 99 39 a6 c5 1f bd
       -0.14754719 -0.029262682 0.0002923247 -0.03900685
0003d0 de 92 83 bd b4 a2 99 3d 1a 00 39 bb 39 14 cf bd
       -0.06424497 0.07501736 -0.002822882 -0.10111279
0003e0 0c d3 0d bd 30 88 cf 3d 35 05 8f bd 4b 23 c3 bd
       -0.034625098 0.101333976 -0.06983415 -0.09528216
0003f0 d6 df 9a 3d 67 8e 1a 3d fd 4b ab 3c 98 7d f3 bd
       0.075622246 0.03773346 0.020910257 -0.118891895

actor.2.bias f4 [128]
000000 9a 6c 5d be 22 c8 45 be 95 ea d7 bd 71 d9 86 bd
       -0.2162346 -0.19314626 -0.1054279 -0.065844424
000010 dd a0 ca bd 7e 4e 12 3c 2e 38 f3 bd 32 b6 33 be
       -0.098939635 0.008929847 -0.1187595 -0.17549971
000020 50 77 9f bc 19 33 06 be d8 37 37 bd c8 ff 1c be
       -0.019466072 -0.1310543 -0.04473099 -0.15331948
000030 e6 e0 5d be 04 45 b3 bc 70 4b 11 be 3e 60 8f bd
       -0.21667823 -0.021883495 -0.14188933 -0.070007786
000040 f9 99 04 be 17 3a e1 3d 37 e2 a5 3d 72 c1 59 be
       -0.12949361 0.10997408 0.08099788 -0.212652
000050 14 d0 e2 3c 07 71 82 bc fe cf ea bd dd 61 08 be
       0.02768711 -0.015923036 -0.114654526 -0.13318582
000060 38 f7 2a be ff 7e e3 bc f7 bf 84 3c 8e bb 01 3c
       -0.16695869 -0.027770517 0.016204817 0.007918252
000070 76 48 14 3d 65 4d a3 bd 70 c1 ba 3c 86 40 25 bc
       0.036201917 -0.07973746 0.022797316 -0.010086184
000080 91 ad 5a 3d 5a ff 95 bd 1f b3 53 3c 80 4b 4e bd
       0.053388182 -0.07324095 0.012921124 -0.05036497
000090 fc 85 46 bd 80 b2 25 bd 00 87 31 bd 8a ae a7 3d
       -0.04846762 -0.040453434 -0.043341637 0.081875876
0000a0 43 41 af bd 31 56 9f bd 1d b9 86 3c 5f 27 c7 bb
       -0.085573696 -0.077801116 0.01644569 -0.0060776914
0000b0 88 0d 9c be f5 4b 06 be a3 a1 3b bd a3 b6 e4 bd
       -0.30479074 -0.13114913 -0.045808446 -0.11167648
0000c0 43 46 35 bd e8 76 a7 bd 0f 8f c6 bc 67 d8 d4 bd
       -0.04425646 -0.081769764 -0.024238138 -0.10392838
0000d0 34 f7 eb bc 03 d3 8a bb 72 55 60 be 59 96 bf bd
       -0.0288044 -0.0042365803 -0.21907595 -0.093548484
0000e0 99 d7 86 bd 98 ef d3 bd 23 0c 1e 3c 4f f1 88 bd
       -0.06584091 -0.10348433 0.009646448 -0.06686651
0000f0 cd 5b ca bd 76 10 6c be 45 36 b0 bd 7c 67 8f 3c
       -0.09880791 -0.23053154 -0.08604101 0.0175054
000100 69 2b 65 bd 95 ab f1 bd 72 6a 48 3d dc dd e2 bd
       -0.055949602 -0.11800305 0.04892964 -0.110774726
000110 15 3a 20 3e 49 25 6d be 2b 52 ee bc 49 87 1f 3d
       0.15647157 -0.23158754 -0.029091915 0.038947377
000120 7a 05 3a be c4 90 80 bd 5b d4 c2 3a 7c dc 8d bd
       -0.18166152 -0.06277612 0.0014864312 -0.0692682
000130 59 c8 0e 3e 25 4e d0 bd d8 d1 82 be a8 af 71 3d
       0.13943614 -0.10171155 -0.25550723 0.05900541
000140 f3 e3 ce 3b 79 8c 82 3d 18 a5 4f be e4 1e 15 bd
       0.0063137948 0.06374449 -0.20277822 -0.036406413
000150 85 ef 08 3d d1 da 05 3d ff 7e cf bd 78 2b 57 be
       0.03343155 0.032679383 -0.101316445 -0.21012676
000160 dd f5 cd bd 86 c8 90 bc d0 be 3a be 4d c0 5d bd
       -0.1005666 -0.017673742 -0.18236852 -0.05413847
000170 20 ad 12 3d e0 ab ff bc c3 ff 92 3c c2 08 0b bd
       0.035809636 -0.031209886 0.017944222 -0.0339439
000180 7c 2c 72 be dd ed 26 be 08 16 12 be 44 87 6d 3c
       -0.23649782 -0.16301675 -0.14266217 0.014497582
000190 23 a8 12 be 51 e7 f0 bd 1a 45 2f be 68 fb 72 be
       -0.14321952 -0.1176287 -0.17116204 -0.23728716
0001a0 ca 04 e4 3d 6c 58 4d bd 0a 29 8b bd 03 2e 94 bd
       0.11133726 -0.050133154 -0.06794937 -0.072353385
0001b0 10 c5 c4 bd 39 7f 74 3c eb 0b e4 bd 88 52 2a 3d
       -0.09607899 0.01492291 -0.11135086 0.041582614
0001c0 d9 e2 7f bd a5 11 61 be 24 60 9b 3d 69 be c7 bd
       -0.0624722 -0.21979387 0.07586697 -0.09753115
0001d0 6a a4 1b be d8 bb fe bd 85 0d 4e be 28 3d b7 bd
       -0.15199438 -0.12438172 -0.20122345 -0.089472115
0001e0 be 58 c8 3c 11 9e 46 3d dd 8c 9d 3c 46 3f 0a bd
       0.024456378 0.048490588 0.019232208 -0.03375175
0001f0 95 54 34 be 53 ef 50 be ca 56 38 3d ab d7 04 be
       -0.1761039 -0.20403795 0.045004643 -0.12972896

actor.4.weight f4 [128, 128]
000000 68 c5 9a 3c 61 71 24 bd c5 05 75 bd 13 64 74 3d
       0.018892959 -0.04014719 -0.059819955 0.05966575
000010 10 2a 91 bd 2d 9b d6 3d ee 6e 9f bb f1 57 99 3d
       -0.07088101 0.10478816 -0.004865519 0.074874766
000020 48 9d d8 3c 9b 76 6b be 2d 0a 43 bc 32 3f fe bc
       0.026442185 -0.22994463 -0.011904282 -0.031035993
000030 d0 a7 a4 3d 09 cf 10 3d a2 b4 b3 3b 56 4c 6f 3c
       0.0803982 0.035353694 0.0054841796 0.014605602
000040 81 a8 b9 bd fa 82 a9 bc d1 aa fd 3d 15 3e ae 3d
       -0.09065343 -0.020692337 0.12386096 0.08507935
000050 e6 d0 80 3d 30 3f 85 bd 67 70 e2 3c 86 6f a4 bd
       0.06289844 -0.06506193 0.027641488 -0.08029084
000060 db 16 44 be 9c ec 54 3d 88 71 2e bd 1d b5 58 3c
       -0.19149344 0.05198346 -0.04258874 0.0132267745
000070 43 92 9d 3d c9 6a 7d 3d 6b 46 22 3e db 86 1f bd
       0.07693913 0.061869416 0.15847175 -0.038946968
000080 6e 9f 93 bd 80 8d 15 bc 86 2d c2 bb 77 90 39 3d
       -0.07208143 -0.0091279745 -0.005925837 0.045303788
000090 00 0b 7d bc a4 72 99 3d e8 8b ce 3d 2c c7 9b 3c
       -0.015444517 0.07492569 0.10085279 0.019015871
0000a0 94 3f b0 3d 48 a3 9f 3d 0d 26 6b bd 76 3b 05 3e
       0.086058766 0.07794815 -0.057409335 0.13010964
0000b0 0d 7f 4f bd dc 73 39 3c 32 be 86 3c 95 12 af bd
       -0.050658274 0.011319127 0.016448114 -0.08548466
0000c0 21 20 d6 bc d3 21 9f bd 0c 73 38 bd c5 5c 5f 3c
       -0.026138367 -0.07770123 -0.045031592 0.013632958
0000d0 57 50 1c bd c3 0d 96 bd be 5c 38 3a 83 72 8a 3d
       -0.038162556 -0.073268436 0.00070328626 0.067601226
0000e0 53 de 5f bd 9b f7 f5 3c 1a cd bd bd 5e 6d bf 3c
       -0.054655384 0.030025294 -0.09267636 0.02336758
0000f0 23 2c 97 3d f7 b8 8d 3c 43 3b 54 bd 2f 87 fb 3c
       0.07381465 0.017300112 -0.05181433 0.030704109
000100 30 ba f5 bc 15 c0 08 3a 09 10 be 3d 24 fd c6 3d
       -0.029996008 0.0005216611 0.09280402 0.097162515
000110 db 10 35 bd 3d 07 16 3e 98 75 51 3e 6a a9 07 bd
       -0.044205528 0.14651199 0.20455015 -0.03312055
000120 00 9a 07 bd 6d 8b 51 3d 63 12 24 3e ef 72 3f be
       -0.03310585 0.051158357 0.16022639 -0.18696187
000130 5e 25 97 bc af a8 22 be 9d 28 1f be 8e 90 82 3c
       -0.018450435 -0.1588466 -0.15542836 0.01593807
000140 dd 63 f1 bc 0a 39 1a 3d cb 20 8f 3d b7 8e a1 3c
       -0.029466564 0.037652053 0.06988677 0.019721372
000150 6d e4 11 3e 10 da 4c 3d b9 d0 89 bc b0 54 a4 bd
       0.14247294 0.050012648 -0.01682316 -0.08023965
000160 04 b6 cb 3c ef 17 8d bd 9a 8c 19 3e 32 54 ac 3b
       0.024867065 -0.068893306 0.14995041 0.0052590603
000170 33 73 8b bd a1 23 65 b9 9e a3 bc bd f4 dd 1a bd
       -0.06809082 -0.00021852415 -0.09210895 -0.037809327
000180 d1 7a 13 bd 01 f4 fc 3d 8f 59 a3 3d 15 29 9f bd
       -0.0360058 0.123512276 0.07976066 -0.07771508
000190 fe 0f 74 3d 8c 6d ad bd da 52 c8 3d 41 bb 77 bd
       0.059585564 -0.0846816 0.09781428 -0.060481314
0001a0 44 80 da 3c fd 1b 18 bc 4b a8 e7 bd 56 d8 81 3c
       0.02667249 -0.009284017 -0.11311396 0.015850227
0001b0 b6 20 2e be cc 43 f7 3d 78 ed d7 3d 5b 48 18 bd
       -0.17004666 0.12073478 0.105433404 -0.03717838
0001c0 31 1a 5b 3b 8d 30 c5 3d b4 88 1e bd 04 0f 11 bc
       0.003343236 0.09628401 -0.03870459 -0.008853678
0001d0 6c 9f d9 bc 88 27 bd bd 77 01 04 be 95 de 06 3e
       -0.026565276 -0.092360556 -0.12891184 0.13170846
0001e0 b3 19 66 3d 04 70 4f bd 88 e8 c4 bb 89 e4 c6 3d
       0.056176852 -0.050643936 -0.006009165 0.09711558
0001f0 06 14 9a 3d 66 be 71 bd 8a 72 05 be 62 c8 a5 bd
       0.075233504 -0.05901947 -0.13031974 -0.080948606
000200 55 33 55 bd 75 9f 4e bd af bf 1f 3d d7 9b ae 3d
       -0.052050907 -0.05044504 0.039001163 0.08525818
000210 1c e9 08 3d 50 76 7f bc 0f 05 22 3d 86 6d 81 bd
       0.033425435 -0.015592173 0.039555606 -0.06319718
000220 51 2a b6 3c ba ce 6b bc 6d 07 e9 bc f5 d2 1d 3e
       0.022236975 -0.014392549 -0.028445924 0.15412505
000230 b5 e1 b5 bd 8a 14 81 bd e2 21 69 bc d0 f2 12 ba
       -0.08880941 -0.06302746 -0.01422927 -0.000560564
000240 2e b7 f6 bd 02 d9 90 3d 1f 9b 95 3c e8 a6 c1 bc
       -0.120466575 0.07072641 0.018262444 -0.023639157
000250 5a fb c8 3d fa 4c 24 3d ad 33 a0 3d 64 9a 8c 3c
       0.098135665 0.040112473 0.078223564 0.017163463
000260 1a f6 99 bc a4 64 c2 3d be ec 8c bd 06 3c 07 3d
       -0.018794108 0.09491852 -0.068810925 0.033016227
000270 eb 51 17 bd 2d f4 ca bc de 47 ab 3d 4b 85 51 bd
       -0.036943357 -0.024774635 0.08363317 -0.05115251
000280 b9 c5 ed 3d 14 3e 3e bd 9f 27 3c 3e a9 f1 cb bc
       0.11609978 -0.04644592 0.18374489 -0.024895506
000290 85 f1 4d 3d b7 9a c2 bd ab 4b 8e 3c 85 1c f2 bc
       0.05027916 -0.09502166 0.017370066 -0.029554615
0002a0 aa 60 97 bd 25 3a 97 bd d2 35 48 3d 4c 54 a5 bd
       -0.07391484 -0.07384137 0.048879452 -0.08072719
0002b0 c8 bd 34 bd 90 e6 38 bd 73 61 e3 3c ec 8c c9 3d
       -0.044126302 -0.045141757 0.027756428 0.09841332
0002c0 34 15 68 3d 3b a0 89 bd e9 06 25 3d 93 a0 7a ba
       0.056660846 -0.06720015 0.040289793 -0.00095606706
0002d0 5a 0d f3 3b fa 52 34 3e be bc c3 bd 73 e6 5b bd
       0.007417363 0.17609778 -0.09557484 -0.05368657
0002e0 8f 6c fa 3a a3 3f a2 3c 02 b1 5e be 16 2f 45 3a
       0.0019105839 0.019805735 -0.2174721 0.000752197
0002f0 8b ff c3 bd cd 63 a6 bd ba ad e2 3b 0b 12 41 bd
       -0.09570225 -0.08124504 0.0069176825 -0.047136348
000300 58 72 eb 3d 1c 17 76 bd ea 78 d9 3d 85 78 58 3d
       0.11496419 -0.060080633 0.10618766 0.05284931
000310 81 24 04 bd 94 0c 04 3d 34 04 5c 3d f6 59 bd 3c
       -0.032261375 0.032238558 0.053714946 0.023114186
000320 4b d8 9d bd 4b c9 80 bd 6c 79 d2 bc 4d e9 c2 bd
       -0.0770727 -0.062883936 -0.025692664 -0.09517155
000330 e8 18 22 be 12 bb 5a bc 1f 3f 87 bd 76 1c 24 be
       -0.15829813 -0.013350265 -0.06603836 -0.16026482
000340 8c ff 3b bc cf a4 27 be d7 56 45 3e 9e 6c a4 bd
       -0.011474501 -0.16371463 0.19271408 -0.080285296
000350 e8 92 33 be a3 37 42 bc f6 a6 80 bd 8a 91 a9 bd
       -0.17536509 -0.011854085 -0.06281845 -0.082797125
000360 45 84 f2 bd 81 50 e7 bc 01 e8 02 be ab e5 1c be
       -0.11841635 -0.02823663 -0.12783815 -0.15321986
000370 8e c1 b0 3c 76 1e 5e bd 2a 23 9a 3d 64 c8 de bc
       0.021576669 -0.05422827 0.07526238 -0.027195163
000380 42 d5 c4 3d 95 0d 18 3e d9 d1 bc 3d 7f 90 b7 bd
       0.09610988 0.14848931 0.09219713 -0.08963107
000390 e6 e8 86 3d 4e 7f d4 3d af 67 7d bd e5 19 2c bb
       0.065873906 0.10375844 -0.06186646 -0.0026260552
0003a0 3d fe 3e 3e 51 23 29 3c 9c ec ab 3b 86 4e 8a bd
       0.18651672 0.0103233615 0.005246712 -0.067532584
0003b0 9e 84 b5 bd 5c ee 32 bd 69 70 f1 bd 6e 67 8b bd
       -0.08863185 -0.04368435 -0.11789019 -0.06806837
0003c0 47 b1 a8 3d 0e 40 18 bd 52 00 47 bd 9d 59 c4 3d
       0.08236938 -0.037170462 -0.04858429 0.09587405
0003d0 3a f4 1d be eb 1e 6c 3d da 52 8e 3d 6e d3 78 3c
       -0.15425196 0.057646673 0.069493964 0.0151871275
0003e0 43 e1 c5 3d 2e 65 2b be 81 a4 37 be cc 56 42 bd
       0.09662106 -0.16737816 -0.17933847 -0.047446057
0003f0 89 0a ba bc 0c 24 3b 3d 0e 8c c1 3d ac 91 78 3c
       -0.022710102 0.045688674 0.094505414 0.01517145

actor.4.bias f4 [128]
000000 96 c0 ee bd 1e 40 0d be 85 8c cb bd 1f d2 89 3c
       -0.116578266 -0.1379399 -0.09938911 0.016823826
000010 42 e3 9d bd e6 97 4d be b1 10 c6 bd 3c 25 f5 bd
       -0.077093616 -0.20077476 -0.096711524 -0.119699925
000020 28 5e 2f bc 2c ba 38 be c4 e1 9e bd b6 7e b1 3c
       -0.010703601 -0.18039769 -0.07757905 0.021666866
000030 63 70 2e be f7 36 ad bd cd 30 8b 3d ed 20 f8 39
       -0.1703506 -0.08457749 0.067964174 0.00047326778
000040 e7 e0 50 bd 56 12 6f bd 97 b5 cb 3b 5f 08 0a be
       -0.050995734 -0.058367096 0.0062167156 -0.13479756
000050 74 0e 46 bd ad da 3e 3d d2 fb b2 bc 7f 16 0c 3c
       -0.048353627 0.046595264 -0.021848593 0.008550285
000060 98 8c 39 bd ce a3 10 be bc a2 39 bd ed 92 b6 3d
       -0.045300096 -0.14124987 -0.04532121 0.089147426
000070 ec 86 b4 bd 45 16 2d 3c 50 93 ea bd 34 7e ec 3b
       -0.08814797 0.0105643915 -0.11453879 0.007217193
000080 05 e2 1c be af 0c a4 bd d5 9c b5 bc 77 ea 83 be
       -0.15320595 -0.08010232 -0.02216951 -0.2576482
000090 da 50 f8 bd 32 bf 87 bd 03 be e1 bd 95 c6 ba bd
       -0.12124796 -0.066282645 -0.1102257 -0.09119908
0000a0 4d ae 9b bd 05 a9 b3 3d b0 b6 5c 3d 26 d0 02 bc
       -0.076016046 0.08772472 0.053885162 -0.007984197
0000b0 c1 05 f1 bc 0c 88 85 bd 90 f7 24 3e c1 4b a2 3c
       -0.029421689 -0.065200895 0.16110063 0.019811513
0000c0 2e 26 d0 3c 26 d7 98 bc f1 c1 0a 3d fa 4e 54 bd
       0.02540883 -0.018657278 0.033876363 -0.05183313
0000d0 7c 9d e0 3d 8d 10 54 be a7 87 0c be c8 fc 43 bd
       0.10967538 -0.20709439 -0.13723622 -0.047848493
0000e0 ae 6e da bd 06 56 bb bd 7f 67 82 bc 32 4c 37 be
       -0.10665642 -0.09147267 -0.015918491 -0.1790016
0000f0 30 4e 8e bd 90 7f 0e be 52 98 cc bd 5f 00 82 bd
       -0.06948507 -0.13915849 -0.0998999 -0.06347727
000100 52 5d 70 bd 62 33 f1 bc ab e0 3d be e4 9f 22 3d
       -0.058682747 -0.029443447 -0.18542735 0.039703265
000110 58 a7 06 be 12 f4 55 be fb 8c b9 bc 5c 22 61 bc
       -0.13149774 -0.20893887 -0.022650233 -0.013741102
000120 a7 fc 95 bc 0c 6c a0 3b 46 fe 19 be 40 6a 83 bd
       -0.01830895 0.0048956927 -0.15038404 -0.0641675
000130 4d 26 f4 bd a8 6d b1 3d 62 c3 e5 bc 0d 1e 18 3d
       -0.11921368 0.086634934 -0.028047267 0.037138034
000140 a5 c1 2b be 65 2a 1c be db 2d 11 be 77 68 48 bd
       -0.16773088 -0.15250547 -0.14177649 -0.04892775
000150 41 fc 8a bd 07 94 29 3d 91 89 f8 bd 67 89 0f be
       -0.06786395 0.041400936 -0.12135614 -0.14017259
000160 37 0b f4 bd 2c 3a 9e 3b ac 02 b8 bd ab e5 0c be
       -0.119162016 0.004828712 -0.089848846 -0.13759486
000170 3c 05 bf 3c e0 57 6c bb 92 a7 2b be 42 79 ee 3c
       0.023317926 -0.003606312 -0.16763142 0.029110555
000180 46 7c 10 be f3 76 f5 bd 7b dd 83 bc b4 cc fa bd
       -0.14109907 -0.119855784 -0.016096821 -0.12246075
000190 e6 d1 b4 bd 57 75 f0 bd fa ad 08 be 97 77 8a 3d
       -0.088290974 -0.11741131 -0.13347617 0.06761091
0001a0 49 16 59 be 61 38 5e bd d7 74 59 3d 85 4d 79 bc
       -0.21199907 -0.054252986 0.053089943 -0.015216236
0001b0 20 9d 3d 3d 6e ed 86 bd bf 91 eb bb 52 1e 1a bd
       0.046292424 -0.06588255 -0.007189005 -0.037626572
0001c0 8a 0c 15 be 96 38 02 be 00 46 11 be b8 6c 15 bc
       -0.14555565 -0.12716898 -0.14186859 -0.009120159
0001d0 e9 26 7d 3d 6d af 18 bc 4a 7d 25 be 61 c7 b5 3d
       0.061804686 -0.0093191685 -0.16161075 0.08875919
0001e0 32 38 40 be 3d ea b3 be b7 d5 ac bd a5 89 48 be
       -0.18771437 -0.35139647 -0.084392 -0.19583757
0001f0 bd 62 fe bd 12 59 33 3c 97 bc f6 bb d5 c7 5d bd
       -0.124211766 0.010946529 -0.007529806 -0.054145653

actor.6.weight f4 [27, 128]
000000 3b d8 39 3b 42 02 06 3d 1b 55 c1 3c 41 9c 03 bc
       0.0028357643 0.032716997 0.023600152 -0.008032859
000010 c9 cf 4f 3d 3a 38 5c bc f8 80 7a bd 2d a0 7a 3b
       0.05073527 -0.01344114 -0.06115815 0.0038242445
000020 2f 1f 96 3b b3 e5 44 3d 29 c0 39 3b 10 98 0d 3c
       0.004581354 0.04807062 0.0028343296 0.008642212
000030 bd d0 e2 39 c4 97 63 3c 38 e9 88 bb ad 96 d5 ba
       0.000432616 0.013891164 -0.0041781925 -0.0016295515
000040 54 56 b8 3b cf a5 86 bc ca 12 c9 3c 94 b1 1f 3c
       0.0056255255 -0.016436486 0.024545092 0.009746928
000050 a6 51 40 bc 0d ae 5f bb 27 2f 20 bc 45 a7 15 3d
       -0.0117382165 -0.0034130842 -0.009776867 0.036536474
000060 43 8c e1 bb 77 67 f9 3c 0e 49 1d 3b 5e 2e 88 b9
       -0.0068831756 0.030444844 0.0023999843 -0.00025974488
000070 3e df 3b 3c e2 f1 6f bd 0d b6 aa bc c5 20 2c 3b
       0.011466799 -0.058580287 -0.020838762 0.002626465
000080 ba 99 82 3c 91 1b 77 3b 7f f0 25 3c 7c 45 3e bc
       0.015942443 0.003770564 0.0101281395 -0.011613246
000090 2b aa 29 3b 90 9c 9b 3c 2b d6 2c 3a 31 d6 b8 3c
       0.0025888782 0.018995553 0.0006593193 0.022563072
0000a0 f6 6f e0 3b e0 34 11 3c c6 20 8d ba 66 9f 20 3c
       0.0068492843 0.008862704 -0.0010767214 0.009803629
0000b0 ca f4 07 bd 29 a3 21 3c 59 48 44 bb 94 fa ba ba
       -0.033192433 0.009865561 -0.002995035 -0.0014265352
0000c0 9f 10 21 3b d2 e0 29 bc 76 5a 0a 3c bc 01 99 3c
       0.0024576557 -0.010368543 0.008444419 0.018677585
0000d0 ab d9 71 3b 02 cf 2d 3c 1b f2 2b bd c4 a3 07 bd
       0.0036903422 0.010608437 -0.041978937 -0.033115163
0000e0 3f 11 2a 3d e8 79 92 3b 54 dd 6c bc 60 1b 2d bc
       0.041520353 0.0044700988 -0.014457066 -0.010565609
0000f0 ba 1b 04 3d c3 d1 a4 bc 00 db 06 bc 24 ab ce 3b
       0.032253005 -0.020119553 -0.008230925 0.0063070226
000100 c7 25 09 3c bb 43 a1 3a a9 9a 99 bb bd da e7 ba
       0.008370823 0.001230351 -0.0046876264 -0.001768909
000110 45 f4 d7 bb 27 07 c0 3c 87 6b 42 bc 4c 50 c2 bc
       -0.0065903985 0.02344091 -0.011866457 -0.02371993
000120 f0 3b 9a bc dc 41 79 3b e3 bd b0 3c fa 84 aa bc
       -0.018827409 0.003803364 0.02157492 -0.020815361
000130 94 83 3a bc bd f7 40 ba 0a 75 8a 3b 9a c6 36 bc
       -0.01138391 -0.00073611346 0.004225378 -0.011155749
000140 ba 72 62 bc d8 7a 02 3d ce 57 e2 3b be 5a 83 bc
       -0.013821298 0.031855434 0.00690744 -0.01603448
000150 fb 63 f9 3c db 86 7a bc 06 38 9a 3a 66 4d 0c bc
       0.030443182 -0.015290941 0.0011765964 -0.008563375
000160 a9 d3 6a bd e5 c9 4d bc 25 40 20 3c 89 a8 d7 bd
       -0.05733076 -0.012560342 0.009780918 -0.105301924
000170 d9 5e 44 bd f1 fd e8 3a 88 51 cc bc 0a b3 a6 bb
       -0.047942016 0.0017775876 -0.02494122 -0.005087261
000180 95 9e e2 3b b6 81 02 3d 1f 5b 29 ba 34 41 8d 3d
       0.006915877 0.031861983 -0.00064604165 0.06897202
000190 bc b2 6c 3b 46 99 03 3b 21 3d c7 3a 28 89 a1 3c
       0.0036117276 0.0020080372 0.0015200713 0.019718722
0001a0 3f 7c 60 bc 00 d2 60 bc f0 cb 73 bc 4e 06 5e bb
       -0.013701498 -0.013721943 -0.014880165 -0.003387827
0001b0 15 b6 95 3c de 5f 1e 3b 24 4c 06 bc b1 1c 23 bc
       0.0182753 0.0024166028 -0.008196864 -0.009955571
0001c0 81 ed 1d 3c 24 fa 5b bc f4 19 4e 3b a0 fa b7 3b
       0.009639145 -0.013426337 0.0031448575 0.0056145936
0001d0 5f 1b d0 bb 0d 77 6e bd bf 99 6f bc 4e bb 0f 3d
       -0.006350919 -0.058219004 -0.014624058 0.035090737
0001e0 45 17 b4 bb 96 65 49 3c 59 c1 26 3c d9 76 d2 3c
       -0.005495938 0.012292286 0.010177934 0.025691437
0001f0 ef 60 50 bd 10 d9 81 bb 14 a5 ce bb 2c c7 6b bc
       -0.050873693 -0.0039626434 -0.0063063 -0.014390748
000200 42 f4 2d 3c 01 35 49 bc 47 80 cb bc a7 de 38 bd
       0.010617318 -0.0122807035 -0.02484144 -0.045134213
000210 13 54 a3 bc 21 a3 40 bc 78 83 e1 bc 1e 69 c4 bb
       -0.01993755 -0.011757643 -0.02752851 -0.0059939763
000220 03 b1 a8 bc 16 84 a4 bc 45 20 61 3c 92 0a 7f 3b
       -0.020592218 -0.020082515 0.013740604 0.0038916213
000230 ca 9b 25 bd cf fc 7d 3c 39 24 2c bc 6a fc 0b 3b
       -0.040431775 0.015502169 -0.010506683 0.0021360167
000240 7d 3e 5a 3b 79 28 62 3c d4 f4 31 3d 98 45 67 3b
       0.0033301406 0.013803595 0.043446377 0.0035289284
000250 48 a0 49 3c 9f e6 d4 bb 33 97 ac bb 53 30 35 bc
       0.01230628 -0.0064972187 -0.005267048 -0.011058885
000260 79 cb 1f 3a 7e 89 8f bd 3b ed a5 bb b4 ea 44 bc
       0.00060956884 -0.070086464 -0.0050636805 -0.012018848
000270 72 d5 c7 bc cd 20 13 3d 5a 42 38 bd 91 e8 51 3c
       -0.02439377 0.035919953 -0.044985153 0.012811796
000280 d4 b2 12 3d 7e c3 99 bc fb d7 01 bc b2 17 10 3c
       0.035815075 -0.018769976 -0.007925029 0.008794712
000290 30 48 c9 bb c9 fe 5c 3c 90 a4 06 bc 78 41 6a bc
       -0.0061426386 0.01348848 -0.008217946 -0.0142978355
0002a0 9d 98 19 3c 06 cb 02 3d da 9c 25 bc ef 82 2f bb
       0.009374765 0.0319319 -0.010108197 -0.0026780923
0002b0 5b c4 c8 3c e7 de 72 bc 6f b8 90 3b b5 86 a8 3c
       0.024507692 -0.014823652 0.0044165174 0.020572046
0002c0 df 61 6b bc fd 92 95 bb 92 25 c8 bc cc 92 01 3d
       -0.014366596 -0.0045646415 -0.024431977 0.031634137
0002d0 dc a8 08 3c 66 df 1d 3c 2a 5b 96 3c cc 14 d3 3c
       0.00834104 0.009635782 0.018354017 0.025766753
0002e0 52 c5 79 3b d8 63 a8 bc 62 f9 0f 3b 5e a6 35 bd
       0.0038111997 -0.020555422 0.0021968712 -0.044348113
0002f0 8b 4a 14 3c 5e 6b 65 ba dd d8 5f bc 08 d5 84 3c
       0.009050976 -0.00087516557 -0.013662544 0.016214862
000300 84 20 56 bc 9c 03 85 3c 0e ec 61 bb fc c4 9f bb
       -0.013069276 0.016237073 -0.0034472975 -0.0048757773
000310 fd 47 83 3d c3 a7 d4 3c d7 9a ee 3b e3 c2 06 3d
       0.06410215 0.025958901 0.007281642 0.032900702
000320 40 e3 5b 3c c2 fe 0f 3d 83 0e ad 3c 35 31 ac bc
       0.01342088 0.035155065 0.021125084 -0.021019557
000330 ed e4 3b b9 13 08 7f 3c cf e5 80 3c 27 32 f6 3b
       -0.00017918991 0.01556589 0.015734581 0.007513303
000340 84 11 a2 3c 35 a9 c4 3c d0 5b a6 bc 14 8d 67 3d
       0.019783743 0.024006465 -0.020307451 0.056531027
000350 0f 79 19 3b ce f9 32 3b 84 30 77 bb b9 4d 02 bd
       0.0023418104 0.002730954 -0.0037718127 -0.031812403
000360 e9 0d 1f bc 62 6a f3 bc c5 e3 00 bc 1a 92 4a 3d
       -0.009707906 -0.029713813 -0.0078668045 0.04945574
000370 09 72 15 3c fe c8 38 3b 3a 8a 2b 3c 5f dc fa 3c
       0.009121426 0.0028195973 0.0104699675 0.03062266
000380 84 2b e2 bc 78 1d aa bc c6 20 96 bb 2f 00 01 bd
       -0.02760864 -0.020766005 -0.0045815436 -0.031494316
000390 8c 4b 31 bc 82 78 5b 3b ef c7 d7 bb 91 38 22 3d
       -0.010821234 0.0033488576 -0.0065851132 0.039604727
0003a0 c9 34 c7 bc 02 0e 8a 3c 18 ef d6 3c 07 d4 f1 3c
       -0.024317162 0.016852383 0.026237056 0.029520048
0003b0 0d ed 89 3c bd 99 b8 3c 5e 2e 0c bb 81 3d 78 3c
       0.016836667 0.022534246 -0.0021389942 0.015151382
0003c0 57 8e e7 bb b8 bb 6b 3d 23 0c 8e 3b 15 d4 96 bd
       -0.007066529 0.05755207 0.004334943 -0.0736467
0003d0 66 00 72 bc f6 24 7c 3c 19 2c 97 bc c4 ab 23 bd
       -0.014770603 0.015389672 -0.018453645 -0.03995873
0003e0 ce ed 06 3c a0 a4 39 3c 8f d3 7e bc 00 ab 2c bd
       0.008235408 0.011330754 -0.015553369 -0.042155266
0003f0 4a 64 ef 3c 5b 37 9b bc d8 7b cc 3c 5b e2 62 3a
       0.029222626 -0.018947294 0.024961397 0.00086549454

actor.6.bias f4 [27]
000000 f8 eb b7 bc f4 ed 46 bc 61 ef cb bc 20 d4 8b bd
       -0.022451386 -0.012141693 -0.024894418 -0.06827569
000010 19 1e 90 3d 5a 38 24 bd eb 86 e9 3b 9b 90 6e 3d
       0.07036991 -0.040092804 0.007126679 0.058243375
000020 12 d8 4b bd 60 ae 57 3d bf 30 de 3d ea cf 51 be
       -0.049766608 0.05265653 0.10849141 -0.20489469
000030 2b dc bf bd d2 e8 a5 bd a5 bb fc bc 5c 1c 03 3e
       -0.093681656 -0.081010476 -0.030851195 0.12803787
000040 25 05 13 3b 97 c5 04 be 09 d5 d5 bd 90 f8 67 be
       0.0022433486 -0.12966 -0.10441024 -0.22653413
000050 ac 67 9d 3e 08 38 87 3b 6c 22 3c bd df ed e4 bb
       0.30743158 0.0041265525 -0.045931265 -0.0069863643
000060 eb 63 31 3d 58 5b 35 3d 54 98 4b 3d
       0.04330818 0.044276565 0.04970582
