IsaacLab/logs/rsl_rl/h1v2_flat/2025-03-04_16-30-01/exported/policy.onnx (onnx, 195410 bytes, 8 tensors)

actor.0.weight f4 [128, 93]
0.23662692 -1.4675614 0.1004356 -0.0074405265 0.06444692 -0.07101051 0.007471531 -0.80841774
0.14619555 0.28994206 -0.053566206 -0.15696211 0.29020676 0.06442637 0.20167653 0.33105946
-0.31059742 -0.28686324 -0.30460536 0.7048922 0.09760253 -0.11695842 -0.45007133 0.012880956
0.58289635 0.2039557 0.032021645 0.52599525 0.40830496 0.28279683 0.2654094 -1.0617902
-1.1024375 -0.45948744 0.17643994 0.12130139 -0.09102065 0.02916534 0.07414764 0.07358871
0.0034646266 -0.031651743 0.029662957 0.01907148 0.121635765 0.040098563 -0.029961955 0.070670724
-0.00046895046 0.06481926 -0.013173933 0.028006619 0.028805396 0.03934934 0.025621513 0.05675775
-0.0068444284 -0.019850511 -0.0076111695 -0.015192092 0.004752133 0.019367276 0.014212036 0.02071999
-0.07458987 0.021169988 0.12952678 -0.07378912 0.022582144 -0.31358445 -0.09640524 -0.14391485
-0.053122904 0.09297407 -0.07493224 -0.01322099 -0.044956494 0.051215257 -0.04649994 0.036243726
-0.011170798 -0.0038069608 -0.14487095 0.03391816 0.08821331 -0.005903342 0.088435404 0.05372349
-0.027943721 -0.04770466 -0.10888818 0.011124298 -0.018999036 -0.36882877 -0.13679427 -0.15673701
0.35398272 0.25954562 -0.020024456 -0.19161388 -0.35664985 0.14530718 0.19219278 0.022606306
-0.20177594 0.43753785 0.14478473 -0.044466138 -0.21981172 -0.42259058 0.38439167 0.38751438
-0.1381088 0.42927536 0.32897156 0.11842117 -0.2620162 -0.21149674 0.40614116 0.7682381
0.3113705 0.4910255 -0.31464267 -0.2901358 -0.3663123 -0.65616345 0.13067803 0.5737317
-0.6095078 -0.15607922 -0.22555584 0.3044365 0.02233565 -0.12977353 -0.0032475602 0.070348516
-0.02801998 -0.0039724433 0.06820076 -0.10488493 -0.053742494 0.120837845 -0.08013087 -0.026559101
0.06859318 0.058710165 -0.029783355 0.019928798 0.18123613 0.030382514 0.08241029 0.015762566
0.10879674 -0.036039382 0.070968516 0.049107246 0.08864705 0.0028099008 -0.07476604 0.14288105
-0.09153507 -0.12173896 0.4717259 -0.24106692 -0.03800637 -0.0057105897 0.21030417 0.19982973
-0.021373205 -0.084310494 -0.15207356 0.32383347 -0.025820559 -0.02217995 -0.009254145 0.062011786
0.026686203 -0.03996588 0.051997326 -0.21270838 0.0019018512 0.012375221 -0.08423897 -0.101993814
-0.021680575 0.04904889 -0.56443506 -0.54550195 0.14309222 0.25811994 0.0145339025 -0.02764125
-1.1591595 -0.4301743 0.15359162 0.4429793 -0.06823143 -0.06409045 0.050322738 0.19388776
-0.48937178 -0.026907975 -0.8920075 -0.051453695 0.16410369 0.57504493 0.266781 -0.41530222
-0.5665665 0.06722949 0.6027472 -0.38167438 0.23119217 1.1559249 0.85258734 0.5107845
0.33199722 -1.1705239 -1.0179626 0.07045025 -0.24931927 -0.25866777 -0.20454471 -0.047566086
-0.08050533 -0.08077357 -0.018080007 0.080731995 -0.06959467 0.03541677 -0.05286284 -0.066131346
-0.0044375444 0.014935772 -0.06117111 0.05958102 0.013902841 0.02206921 -0.09494585 -0.04184983
0.0006319303 -0.037878707 0.022112995 0.021906866 0.007566949 -0.0069410354 -0.0029656405 0.02066303
-0.027376952 -0.029816115 0.00401113 -0.04538227 -0.13413048 -0.0067923097 -0.1605626 -0.11948737
00000000: 544e 723e 0dd9 bbbf 2eb1 cd3d a9cf f3bb
00000010: bffc 833d f56d 91bd bfd3 f43b 77f4 4ebf
00000020: 49b4 153e 4973 943e 3d68 5bbd adba 20be
00000030: fb95 943e f9f1 833d 4b84 4e3e a080 a93e
00000040: a006 9fbe bddf 92be 3cf5 9bbe d173 343f
00000050: d6e3 c73d e587 efbd c06f e6be a50a 533c
00000060: b238 153f c3d9 503e 2129 033d a0a7 063f
00000070: 590d d13e bfca 903e bee3 873e bee8 87bf
00000080: ac1c 8dbf f041 ebbe acac 343e dd6c f83d
00000090: 0969 babd 27ec ee3c b8da 973d adb5 963d
000000a0: ca0e 633b 42a5 01bd bbff f23c cb3b 9c3c
000000b0: 2c1c f93d 643e 243d c672 f5bc d0bb 903d
000000c0: 77dd f5b9 f6bf 843d 7bd7 57bc 236e e53c
000000d0: 4bf9 eb3c c62c 213d 35e4 d13c d17a 683d
000000e0: 3a47 e0bb 8a9d a2bc 1e67 f9bb 41e8 78bc
000000f0: c8b7 9b3b 1fa8 9e3c 99d9 683c f8bc a93c
00000100: 93c2 98bd af6c ad3c aba2 043e c01e 97bd
00000110: 30fe b83c 248e a0be 1c70 c5bd 6a5e 13be
00000120: 6797 59bd 3069 be3d 1376 99bd da9c 58bc
00000130: 4d24 38bd 17c7 513d b976 3ebd 4d74 143d
00000140: b905 37bc 347e 79bb 0d59 14be c5ed 0a3d
00000150: 2ea9 b43d d270 c1bb 9f1d b53d 2a0d 5c3d
00000160: 3bea e4bc f665 43bd c400 dfbd b042 363c
00000170: dea3 9bbc 20d7 bcbe cc13 0cbe ab7f 20be
00000180: 393d b53e 2ae3 843e 540a a4bc 6e36 44be
00000190: cf9a b6be 68cb 143e 2fce 443e dc30 b93c
000001a0: 5a9e 4ebe f604 e03e 7342 143e 2022 36bd
000001b0: 5316 61be cb5d d8be fcce c43e 4968 c63e
000001c0: 656c 0dbe fbc9 db3e f66e a83e cc86 f23d
000001d0: fd26 86be 9a92 58be bcf1 cf3e 41ab 443f
000001e0: f46b 9f3e b267 fb3e d818 a1be ae8c 94be
000001f0: 498d bbbe 54fa 27bf 76d0 053e 15e0 123f
00000200: b408 1cbf 3bd3 1fbe 1cf8 66be 1adf 9b3e
00000210: 41f9 b63c 5ae3 04be 05d5 54bb e212 903d
00000220: 288a e5bc 452b 82bb d7ac 8b3d e9cd d6bd
00000230: 1721 5cbd d579 f73d a71b a4bd 7992 d9bc
00000240: 957a 8c3d 127a 703d 39fc f3bc b841 a33c
00000250: f795 393e c0e4 f83c bac6 a83d 7f20 813c
00000260: d3d0 de3d 089e 13bd f157 913d ae24 493d
00000270: 968c b53d 5026 383b f01e 99bd 694f 123e
00000280: bd76 bbbd 4752 f9bd 0f86 f13e 3fda 76be
00000290: 91ac 1bbd e61f bbbb fa59 573e 2aa0 4c3e
000002a0: dc16 afbc fbaa acbd 2cb9 1bbe 80cd a53e
000002b0: a385 d3bc bab2 b5bc b39e 17bc 1200 7e3d
000002c0: 069d da3c 43b3 23bd 26fb 543d 3ad0 59be
000002d0: 8947 f93a 70c1 4a3c 7b85 acbd 22e2 d0bd
000002e0: 769b b1bc 7de7 483d d17e 10bf 04a6 0bbf
000002f0: c486 123e 4c28 843e 9b1f 6e3c e76f e2bc
00000300: 575f 94bf ce3f dcbe 1f47 1d3e 2fce e23e
00000310: ecbc 8bbd db41 83bd 371f 4e3d 838a 463e
00000320: f08e fabe 1d6e dcbc 9b5a 64bf 1cc1 52bd
00000330: cc0a 283e 2536 133f 8597 883e 7ea2 d4be
00000340: 810a 11bf 9daf 893d a44d 1a3f d36a c3be
00000350: a4bd 6c3e 59f5 933f 2a43 5a3f c6c2 023f
00000360: 8afb a93e bad3 95bf 994c 82bf 3848 903d
00000370: 8d4d 7fbe 1a70 84be 2b74 51be a8d4 42bd
00000380: fadf a4bd 9d6c a5bd 861c 94bc d156 a53d
00000390: a687 8ebd 2d11 113d b586 58bd df6f 87bd
000003a0: d268 91bb 2bb5 743c 8f8e 7abd 3a0b 743d
000003b0: bec8 633c 7dca b43c f872 c2bd ba6a 2bbd
000003c0: 20a8 253a b426 1bbd 5026 b53c 0776 b33c
000003d0: 2bf4 f73b a071 e3bb 315b 42bb 8445 a93c
000003e0: a145 e0bc ed40 f4bc cc6f 833b c2e2 39bd
000003f0: 8059 09be 0692 debb 866a 24be cbb5 f4bd

actor.0.bias f4 [128]
-0.10332017 -0.17601418 -0.10186826 0.11977755 -0.12323656 0.09665047 -0.22099133 -0.15424663
-0.14525965 -0.06607432 0.07329955 -0.03630424 -0.1367325 0.08419547 -0.024098802 -0.0234844
0.09057565 -0.014008034 0.04878324 0.14776321 -0.06508262 -0.10220964 0.02374068 0.061460745
-0.1287074 0.08078964 0.0619148 -0.043203432 0.11288514 0.032022808 -0.10823136 -0.08768793
-0.056573898 -0.09185476 0.0009873478 -0.02564489 0.00050554477 -0.113095306 -0.14915071 -0.1393131
0.015567317 -0.033426236 -0.044331692 -0.13751088 -0.10079046 0.08878268 -0.15397254 0.045948077
-0.11798749 -0.12775481 -0.13936017 -0.18921101 -0.010549936 -0.11468492 0.07086478 -0.07842762
-0.11920728 0.1206303 0.03246543 -0.09909278 0.039255086 0.059976414 0.020088676 -0.072250254
-0.14430667 -0.12654954 0.004413035 -0.11119234 -0.030859696 0.048871584 -0.027160572 -0.19203842
-0.0863648 0.040792596 -0.024354348 -0.18250242 -0.04484509 -0.14730917 -0.14875744 -0.18986322
-0.06276773 -0.108118005 0.06899272 0.1523672 -0.13667749 0.11254416 -0.014959729 0.1142091
-0.14519128 -0.03704536 -0.13368987 -0.09084022 -0.078418344 -0.0823346 -0.010625883 0.091561586
-0.1522732 0.06097538 0.015349893 -0.064843625 -0.06844392 0.101758026 -0.06874488 0.06421502
0.029253908 -0.046868663 0.0011542927 -0.17957142 0.09814127 -0.22183661 -0.04644424 -0.19359906
0.060149334 -0.07743875 0.011864455 0.0095886495 -0.060900986 0.0024312048 -0.10261063 -0.120932885
-0.01760453 -0.03271069 0.035933036 -0.08750328 -0.085017234 -0.052993596 -0.016091174 -0.1072579
00000000: 8699 d3bd 103d 34be 4ea0 d0bd ef4d f53d
00000010: 7363 fcbd aef0 c53d 8d4b 62be d4f2 1dbe
00000020: f2be 14be f951 87bd 131e 963d c1b3 14bd
00000030: 9b03 0cbe ad6e ac3d da6a c5bc 5b62 c0bc
00000040: ba7f b93d f481 65bc efd0 473d 3d4f 173e
00000050: 094a 85bd 4a53 d1bd d17b c23c 43be 7b3d
00000060: dfcb 03be 0a75 a53d 609a 7d3d 15f6 30bd
00000070: 5330 e73d 592a 033d 67a8 ddbd bb95 b3bd
00000080: 08ba 67bd 591e bcbd e569 813a 3b15 d2bc
00000090: 8986 043a 839e e7bd f7ba 18be 18a8 0ebe
000000a0: 0f0e 7f3c f3e9 08bd 2695 35bd a7cf 0cbe
000000b0: 3b6b cebd b2d3 b53d faaa 1dbe 0d34 3c3d
000000c0: 6da3 f1bd 28d2 02be 6fb4 0ebe 88c0 41be
000000d0: a4d9 2cbc eddf eabd 8e21 913d a99e a0bd
000000e0: f222 f4bd 050d f73d 79fa 043d 28f1 cabd
000000f0: f1c9 203d d4a9 753d 0291 a43c f1f7 93bd
00000100: 21c5 13be 3496 01be 399b 903b cfb8 e3bd
00000110: 79cd fcbc 922d 483d d97f debc b8a5 44be
00000120: 07e0 b0bd 2316 273d c582 c7bc eae1 3abe
00000130: 7caf 37bd 37d8 16be df53 18be 816b 42be
00000140: 5e8c 80bd f96c ddbd 0e4c 8d3d 2606 1c3e
00000150: 2ff5 0bbe 8d7d e63d a719 75bc 76e6 e93d
00000160: 06ad 14be e0bc 17bd ffe5 08be 700a babd
00000170: cc99 a0bd 0b9f a8bd 2f18 2ebc a484 bb3d
00000180: 81ed 1bbe 52c1 793d 1e7e 7b3c bccc 84bd
00000190: 532c 8cbd 8366 d03d 1eca 8cbd 2a83 833d
000001a0: e4a5 ef3c 5bf9 3fbd a34b 973a 92e1 37be
000001b0: 4afe c83d 2329 63be 513c 3ebd d53e 46be
000001c0: 265f 763d 3598 9ebd 2263 423c b619 1d3c
000001d0: 5073 79bd d954 1f3b 8625 d2bd a9ab f7bd
000001e0: 6037 90bc a5fb 05bd 852e 133d eb34 b3bd
000001f0: 841d aebd d00f 59bd a3d1 83bc 08aa dbbd

actor.2.weight f4 [128, 128]
-0.18845391 0.0026624403 -0.030508619 0.12131084 -0.16948634 -0.07875774 -0.029406302 0.01314478
-0.00853429 0.08799014 0.035688844 -0.0020715354 -0.12857504 0.058793552 0.10141549 -0.13295622
0.023321837 -0.09510814 -0.1099421 -0.06254401 0.17295161 -0.08118347 -0.06568573 -0.034681164
-0.08519208 -0.093442306 -0.06007565 -0.09958846 0.09223125 -0.36708355 0.024422986 -0.1450834
-0.039728563 0.19664463 0.10289745 0.060374383 -0.011306084 -0.014148692 0.06804532 -0.0378249
-0.05020248 -0.06715481 -0.17849925 -0.08589128 -0.0009434624 0.09816366 -0.026328947 -0.025615752
-0.07529016 -0.05252529 -0.02659062 -0.010050579 -0.098115146 -0.24570166 0.020061288 -0.04364623
0.028638948 0.039220035 -0.09953289 0.058514435 -0.049306016 -0.021570416 -0.121135496 0.1106542
-0.22182159 0.031229861 -0.039679024 -0.12815624 0.09450044 -0.11694544 -0.16726366 0.0013419522
-0.029097455 -0.15966569 -0.14722453 -0.02309531 0.112818524 0.0137648 0.05520781 0.19975753
-0.055989835 -0.13423243 0.08814253 -0.08931391 0.08616025 0.051592544 -0.016574096 -0.070357874
0.0096440185 -0.12556015 -0.08776947 0.10266907 -0.10148821 -0.040739212 0.026744852 0.0069929585
-0.011805604 0.0128331715 -0.06210514 -0.14846362 0.17560294 -0.041876536 0.06503786 -0.098474756
-0.061515775 -0.024333777 0.06464383 -0.04561678 -0.1462818 -0.10477927 0.083931156 0.009356235
-0.1751489 -0.015529899 -0.017577138 -0.1765458 -0.02735058 -0.026990084 -0.015812539 -0.045146946
-0.012251861 0.053633593 0.067335434 0.07470455 0.0261407 -0.06799462 -0.060578313 0.009824078
0.18480141 -0.14470258 0.048461728 -0.07378552 0.027153617 -0.08006688 0.17073181 0.12963513
0.07325876 -0.027398847 -0.04001858 0.06987116 -0.098298565 0.11043059 0.10233165 -0.1420131
-0.039090894 0.067248575 -0.15721229 -0.05975439 0.26407743 0.020877594 0.054497823 -0.11392857
-0.07831184 0.05699763 -0.16841733 -0.0005688994 -0.114392355 -0.13276342 0.1495492 0.016544776
0.15245417 0.123961754 -0.012365956 0.13989772 0.009807144 0.10567693 -0.13331585 -0.0468112
0.011132414 -0.07063651 -0.07433423 0.035996024 0.099382706 -0.052430227 0.016930241 0.18919523
-0.07004477 -0.020313095 0.04789961 -0.0068152174 -0.036438197 -0.12188996 -0.02243794 -0.11656841
0.084101 0.11244392 -0.25311258 0.028475279 0.109311305 -0.1070877 -0.18493831 0.07346154
-0.026631458 -0.029516466 -0.1418541 0.1548647 0.08036614 -0.047943763 -0.05662629 0.03844051
-0.11768201 -0.12668629 0.022522748 0.13967171 -0.10887252 -0.025357915 0.25486377 -0.057545442
0.034032833 0.06601639 0.002046821 -0.062063612 0.09603318 0.010131476 0.0017117251 0.08358771
0.0401513 0.11983615 -0.13356443 -0.021695225 -0.04023422 -0.054770287 0.14412668 -0.12987296
0.109912 0.094962016 -0.1297312 -0.07081922 0.089840375 -0.098126784 0.11349673 0.10034799
-0.006434253 0.18824212 0.032540243 -0.08228391 0.14298469 -0.013500237 0.014933267 -0.06482055
-0.07341665 -0.019543914 0.017676458 -0.031960044 -0.11250475 0.12520361 -0.07450751 0.04966734
-0.05843513 0.045067612 -0.17220993 -0.04679975 -0.025405446 0.0017866197 -0.013567865 -0.08189952
00000000: 10fa 40be 567c 2e3b 36ed f9bc d171 f83d
00000010: d48d 2dbe bd4b a1bd 7ce5 f0bc 345d 573c
00000020: 68d3 0bbc 2d34 b43d 772e 123d 99c2 07bb
00000030: 2da9 03be 82d1 703d edb2 cf3d ad25 08be
00000040: 700d bf3c 0ec8 c2bd 5329 e1bd 1317 80bd
00000050: 3a1a 313e 8543 a6bd 3d86 86bd d60d 0ebd
00000060: 2f79 aebd ae5e bfbd e311 76bd 09f5 cbbd
00000070: bde3 bc3d 60f2 bbbe b712 c83c be90 14be
00000080: 6bba 22bd 365d 493e e6bb d23d 214b 773d
00000090: 273d 39bc eacf 67bc 585b 8b3d 48ee 1abd
000000a0: 1ea1 4dbd 7688 89bd 82c8 36be c4e7 afbd
000000b0: b152 77ba 070a c93d ceaf d7bc 20d8 d1bc
000000c0: ba31 9abd c224 57bd 92d4 d9bc 2fab 24bc
000000d0: 98f0 c8bd 3799 7bbe 9257 a43c 64c6 32bd
000000e0: 3a9c ea3c 30a5 203d e6d7 cbbd d5ac 6f3d
000000f0: 1bf5 49bd 71b4 b0bc e315 f8bd ab9e e23d
00000100: 3325 63be c4d5 ff3c 7986 22bd 643b 03be
00000110: 7289 c13d 1781 efbd 2a47 2bbe 72e4 af3a
00000120: c95d eebc 677f 23be 07c2 16be 6032 bdbc
00000130: 660d e73d c185 613c 9621 623d 3d8d 4c3e
00000140: 9955 65bd 3a74 09be 1284 b43d 36ea b6bd
00000150: c974 b03d b452 533d 66c6 87bc ca17 90bd
00000160: f201 1e3c d792 00be 7bc0 b3bd 2944 d23d
00000170: 0dd9 cfbd 29de 26bd 0518 db3c 3025 e53b
00000180: 4b6c 41bc 3942 523c f661 7ebd d906 18be
00000190: 42d1 333e bb86 2bbd 9232 853d 22ad c9bd
000001a0: f7f7 7bbd a157 c7bc fc63 843d a9d8 3abd
000001b0: e5ca 15be 8496 d6bd 19e4 ab3d e54a 193c
000001c0: 3c5a 33be 1e71 7ebc eefd 8fbc 6cc8 34be
000001d0: 530e e0bc 4f1a ddbc 4c89 81bc 01ec 38bd
000001e0: 08bc 48bc e6ae 5b3d 29e7 893d b3fe 983d
000001f0: 0525 d63c c340 8bbd f720 78bd 2bf5 203c
00000200: 953c 3d3e ea2c 14be ce7f 463d dd1c 97bd
00000210: 4371 de3c 1bfa a3bd 52d4 2e3e 12bf 043e
00000220: b008 963d 8c73 e0bc 86ea 23bd 9c18 8f3d
00000230: c250 c9bd 6f29 e23d 4293 d13d e26b 11be
00000240: c61d 20bd 9fb9 893d 42fc 20be 05c1 74bd
00000250: 2835 873e 7d07 ab3c 1c39 5f3d 6253 e9bd
00000260: f561 a0bd 5976 693d 9875 2cbe 3122 15ba
00000270: 8a46 eabd 22f3 07be 6d23 193e e988 873c
00000280: f21c 1c3e a9df fd3d 949a 4abc 5941 0f3e
00000290: 25ae 203c 256d d83d f383 08be 1abd 3fbd
000002a0: bb64 363c e0a9 90bd 8b3c 98bd 9170 133d
000002b0: 2989 cb3d 14c1 56bd 4ab1 8a3c 65bc 413e
000002c0: a273 8fbd a667 a6bc 6232 443d 3052 dfbb
000002d0: 3840 15bd 71a1 f9bd c5cf b7bc 6bbb eebd
000002e0: 253d ac3d ff48 e63d f997 81be fd44 e93c
000002f0: 9bde df3d cc50 dbbd 7860 3dbe 0173 963d
00000300: 372a dabc 84cc f1bc 3442 11be da94 1e3e
00000310: 0197 a43d ae60 44bd f8f0 67bd cc73 1d3d
00000320: 4403 f1bd 0dba 01be a081 b83c 1a06 0f3e
00000330: 8ef8 debd 67bb cfbc 817d 823e c5b4 6bbd
00000340: 0366 0b3d 9a33 873d f523 063b 6a36 7ebd
00000350: 0bad c43d 7efe 253c f75b e03a 0930 ab3d
00000360: b175 243d a86c f53d 1dc5 08be 2fba b1bc
00000370: a3cc 24bd cf56 60bd f295 133e 6bfd 04be
00000380: 8b19 e13d 727b c23d 41d8 04be ab09 91bd
00000390: 3bfe b73d b2f6 c8bd f970 e83d 3f83 cd3d
000003a0: 6dd6 d2bb 8bc2 403e eb48 053d 7784 a8bd
000003b0: 946a 123e 1930 5dbc a9aa 743c a3c0 84bd
000003c0: 785b 96bd 8f1a a0bc 38ce 903c 89e8 02bd
000003d0: e468 e6bd 6035 003e 6597 98bd fb6f 4b3d
000003e0: ad59 6fbd d198 383d cd57 30be 18b1 3fbd
000003f0: 151f d0bc 022d ea3a c04b 5ebc efba a7bd

actor.2.bias f4 [128]
-0.02906515 -0.14713287 -0.087568775 0.02942425 -0.06181442 -0.08913886 -0.060400985 -0.23634388
0.082673654 -0.07808297 0.031099973 -0.13181247 -0.22748221 0.010721556 -0.07462468 0.022048466
-0.20058095 0.03883513 0.035964984 -0.23238085 0.05206271 -0.07554727 -0.06268522 -0.15705374
-0.11916328 -0.1044561 -0.037647255 0.025485497 0.012925402 0.03527506 -0.023264516 0.026273735
0.010837743 -0.07521655 0.032805983 -0.014150647 -0.05982969 -0.19142821 -0.15512176 0.19706255
-0.086039685 -0.06468166 -0.009253326 -0.06730169 -0.46948949 -0.023365185 -0.09826638 0.049761407
0.04075891 -0.15527639 -0.06551732 -0.12847358 -0.035906646 -0.060102627 -0.19235939 -0.034436963
0.07777561 -0.04783645 -0.007114739 -0.123537116 -0.15833877 -0.23338458 -0.07963794 0.07031416
0.001962847 -0.06422388 0.025396438 -0.14659269 0.08914248 -0.16435985 0.12295953 0.003901146
-0.20467654 -0.010932584 0.09137457 -0.0419694 0.13475257 -0.100825176 -0.18607964 0.01268598
-0.038117643 0.001678792 -0.12253284 -0.029000083 -0.0108436 -0.03590046 -0.10355455 -0.0996309
-0.31178606 -0.0012330541 -0.13184491 -0.09425602 0.15212624 0.0005246151 0.052886512 -0.110968344
-0.2597259 -0.23583068 -0.19023491 -0.10767293 -0.1804638 -0.07400052 -0.14547937 -0.2115377
0.02494804 -0.038308926 -0.07612136 -0.17650749 -0.102604285 0.007981838 -0.042895548 0.049610417
-0.034576476 -0.16833949 0.054708198 -0.1313 -0.1702725 -0.12875605 -0.08984831 -0.15170278
-0.08702673 0.07810301 0.025194097 0.0013655714 -0.20707674 -0.1269891 0.08103185 -0.12828463
00000000: 0a1a eebc 00aa 16be 4257 b3bd 200b f13c
00000010: 1e31 7dbd 6f8e b6bd 0667 77bd 2104 72be
00000020: ce50 a93d f7e9 9fbd 5fc5 fe3c d9f9 06be
00000030: 19f1 68be 77a9 2f3c d3d4 98bd fc9e b43c
00000040: 1865 4dbe 9611 1f3d 0550 133d 3ff5 6dbe
00000050: b53f 553d 87b8 9abd 1c61 80bd b2d2 20be
00000060: e10b f4bd 14ed d5bd 0234 1abd f6c6 d03c
00000070: 11c5 533c 957c 103d 3a95 bebc 043c d73c
00000080: ca90 313c 220b 9abd 915f 063d 1ed8 67bc
00000090: fa0f 75bd c205 44be 3dd8 1ebe c4ca 493e
000000a0: 9335 b0bd d177 84bd 439b 17bc 78d5 89bd
000000b0: ed60 f0be 5868 bfbc e23f c9bd 9ed2 4b3d
000000c0: d1f2 263d c600 1fbe f22d 86bd 948e 03be
000000d0: d912 13bd 2c2e 76bd dcf9 44be c60d 0dbd
000000e0: d248 9f3d 27f0 43bd c222 e9bb 0701 fdbd
000000f0: 8f23 22be 5efc 6ebe 3719 a3bd df00 903d
00000100: 1ca3 003b cf87 83bd 310c d03c 651c 16be
00000110: 5590 b63d f34d 28be 35d2 fb3d 5eaa 7f3b
00000120: ba96 51be 951e 33bc 9722 bb3d 1be8 2bbd
00000130: 94fc 093e 6e7d cebd a98b 3ebe dbd8 4f3c
00000140: 3f21 1cbd e90a dc3a 7ff2 fabd 9591 edbc
00000150: 5ba9 31bc 5c0c 13bd 6814 d4bd 490b ccbd
00000160: 6ca2 9fbe 6e9e a1ba 5a02 07be 4d09 c1bd
00000170: fbc6 1b3e 5386 093a 879f 583d 5f43 e3bd
00000180: cbfa 84be 997d 71be f1cc 42be a083 dcbd
00000190: 81cb 38be 968d 97bd 8bf8 14be 579d 58be
000001a0: d55f cc3c d2e9 1cbd 84e5 9bbd 61be 34be
000001b0: 3222 d2bd 41c6 023c 3eb3 2fbd 4b34 4b3d
000001c0: 10a0 0dbd 3061 2cbe b415 603d 8273 06be
000001d0: ea5b 2ebe a0d8 03be 6402 b8bd f957 1bbe
000001e0: 123b b2bd 79f4 9f3d da63 ce3c f9fc b23a
000001f0: ed0b 54be 6e09 02be 07f4 a53d 0c5d 03be

actor.4.weight f4 [128, 128]
-0.035338473 -0.024192512 0.07268809 0.10056454 0.027054846 0.13845524 -0.0066606845 -0.12761526
0.05019155 -0.115390114 -0.11949211 -0.10788389 0.10396496 0.055934627 0.094246656 -0.06991997
-0.08390386 0.05270794 0.08691794 -0.036634978 0.123546116 -0.0030441282 -0.035806265 0.0109787285
-0.12420908 -0.09694643 0.032671213 0.037391588 0.010505158 0.009959649 0.044360146 -0.053226594
-0.04387927 0.13376957 0.032736342 0.041526664 0.048783317 -0.0047526876 0.14126503 -0.073811516
0.023794848 -0.033636946 -0.031038849 -0.1381207 -0.076945126 -0.043518536 0.023700645 0.0024911875
-0.07019527 -0.036094338 -0.09410336 0.10868645 0.023953432 0.064023845 0.006337407 0.000551751
0.019761238 -0.05841894 0.011732491 -0.021925507 -0.008816457 -0.10421004 -0.06866595 0.0053700306
-0.12750281 -0.016857093 0.19527765 0.17215747 0.0356368 0.16086332 0.05348457 0.052277237
-0.021046333 0.09377234 0.003755247 -0.08848518 -0.05503293 0.013868886 -0.021777354 -0.10407591
0.016937349 -0.05708013 0.06395487 0.048923027 0.0567219 0.11456324 0.10461591 -0.08964075
0.044655725 -0.09003195 0.14736733 -0.13452262 -0.0848726 -0.026878437 0.015218396 -0.03875533
0.06055352 0.16809288 0.046083737 0.06899629 0.13579233 -0.09384604 0.014979151 0.017881202
0.052570384 0.1010653 0.039761115 0.05235539 -0.008766916 0.09191552 -0.06561718 0.07804808
-0.06694723 -0.014920104 -0.008193121 -0.022601051 -0.09971373 -0.043719716 -0.062119 0.119183905
0.16018045 -0.14630221 -0.052694056 0.019078815 -0.046283595 -0.056991525 0.019525293 -0.0027873188
-0.106758334 -0.07873917 -0.026017927 0.10172821 0.10202735 0.07915859 -0.025266321 0.081780925
-0.04615914 -0.033377144 0.014041337 0.11123729 0.095526114 -0.06421208 -0.01576147 0.07432356
-0.11851513 -0.024129316 -0.03925584 -0.016857572 0.13612674 0.10237045 0.020121366 0.1140327
0.0298557 0.030202836 0.08481792 0.07737725 -0.13187505 -0.041105963 0.13245185 -0.027086511
0.07124519 0.048737783 0.103646606 -0.017614018 -0.06980006 -0.06561939 -0.008326516 0.044804394
0.004382217 -0.20587158 0.04395629 -0.14325626 -0.061177295 -0.039352737 -0.021899464 -0.12223125
0.03240257 -0.11763085 0.017545452 0.1175004 0.019445632 0.0049041426 -0.05361237 0.051904723
-0.031140625 -0.036076844 -0.15664078 -0.027951147 -0.09765991 -0.04722818 0.0034460798 0.11396024
-0.021164635 -0.006894874 0.023685487 0.060209144 -0.01189554 -0.11472027 0.037171606 -0.018736329
-0.03737562 -0.015623414 -0.04008668 -0.07216212 -0.008807151 -0.027986905 0.031475876 -0.09778333
-0.004504909 -0.050075814 0.1142284 -0.063148946 0.03485983 -0.015423735 -0.092758894 -0.17594685
-0.025194028 -0.00563294 -0.08486082 -0.0800965 -0.03253813 -0.0037675234 -0.022629926 -0.04953245
0.18880436 0.090045065 0.1409829 0.023510514 0.0026916673 0.04575516 -0.07357811 0.0738465
0.0640252 -0.09535577 -0.034471188 -0.07560555 -0.0820983 0.1316483 -0.009913788 -0.102543555
0.054170266 0.0041663726 -0.057509407 0.11372274 0.0146397 0.017552428 0.05746085 0.09082115
0.1748793 -0.15003142 -0.11683508 -0.08387877 -0.00895435 0.13068366 0.049855456 0.009904177
00000000: 13bf 10bd 602f c6bc 7edd 943d c8f4 cd3d
00000010: 20a2 dd3c 36c7 0d3e df41 dabb 93ad 02be
00000020: a895 4d3d a751 ecbd 48b8 f4bd 3bf2 dcbd
00000030: 95eb d43d b51b 653d 6404 c13d 3432 8fbd
00000040: c9d5 abbd 48e4 573d 0802 b23d 8f0e 16bd
00000050: bf05 fd3d ff7f 47bb 97a9 12bd 20e0 333c
00000060: 5561 febd da8b c6bd 40d2 053d ec27 193d
00000070: d41d 2c3c cc2d 233c fcb2 353d 2104 5abd
00000080: c0ba 33bd e4fa 083e 8b16 063d dd17 2a3d
00000090: 04d1 473d 6fbc 9bbb c8a7 103e 7e2a 97bd
000000a0: 6aed c23c e5c6 09bd 2f45 febc 836f 0dbe
000000b0: 6895 9dbd 7e40 32bd db27 c23c 3143 233b
000000c0: 8ac2 8fbd a8d7 13bd 43b9 c0bd 0097 de3d
000000d0: fd39 c43c ef1e 833d 06aa cf3b 62a3 103a
000000e0: 52e2 a13c b348 6fbd a239 403c 1f9d b3bc
000000f0: e772 10bc 136c d5bd bca0 8cbd 15f7 af3b
00000100: 1990 02be e317 8abc ddf6 473e 0c4a 303e
00000110: e5f7 113d 5bb9 243e a312 5b3d a820 563d
00000120: 5c69 acbc b60b c03d 971a 763b b837 b5bd
00000130: 366a 61bd 533a 633c 6c66 b2bc c025 d5bd
00000140: 32c0 8a3c dbcc 69bd c5fa 823d 8363 483d
00000150: 3955 683d 22a0 ea3d de40 d63d 9295 b7bd
00000160: ece8 363d ac62 b8bd 76e7 163e 4cc0 09be
00000170: b0d1 adbd 2b30 dcbc 9456 793c e9bd 1ebd
00000180: f806 783d 8a20 2c3e 4dc2 3c3d ed4d 8d3d
00000190: 250d 0b3e 5a32 c0bd 1d6b 753c 997b 923c
000001a0: 0b54 573d 53fb ce3d 8ddc 223d 9b72 563d
000001b0: 1ca3 0fbc 343e bc3d 4d62 86bd acd7 9f3d
000001c0: a11b 89bd 7473 74bc 713c 06bc d725 b9bc
000001d0: b636 ccbd 7213 33bd 7e70 7ebd b116 f43d
000001e0: 5806 243e 3fd0 15be b9d5 57bd 2d4b 9c3c
000001f0: de93 3dbd f26f 69bd 82f3 9f3c 73ab 36bb
00000200: 1da4 dabd 0142 a1bd 8c23 d5bc e156 d03d
00000210: b7f3 d03d e61d a23d 51fb cebc c27c a73d
00000220: 5e11 3dbd 79b6 08bd a30d 663c 60d0 e33d
00000230: 32a3 c33d 9f81 83bd 331e 81bc f336 983d
00000240: 0fb8 f2bd d8aa c5bc bbca 20bd e418 8abc
00000250: cf64 0b3e 99a7 d13d 90d5 a43c fa89 e93d
00000260: f193 f43c f06b f73c 05b5 ad3d f777 9e3d
00000270: 410a 07be ba5e 28bd 75a1 073e 88e4 ddbc
00000280: 00e9 913d 45a1 473d ac44 d43d 464b 90bc
00000290: 55f3 8ebd 7563 86bd f06b 08bc d084 373d
000002a0: b398 8f3b 00d0 52be 830b 343d c5b1 12be
000002b0: 0b95 7abd 5630 21bd 8166 b3bc 6154 fabd
000002c0: 8fb8 043d 71e8 f0bd 7bbb 8f3c 0da4 f03d
000002d0: 724c 9f3c eeb2 a03b a598 5bbd 0c9a 543d
000002e0: a01a ffbc 50c5 13bd 7166 20be cef9 e4bc
000002f0: eb01 c8bd 5672 41bd a0d7 613b fc63 e93d
00000300: 7561 adbc 65ee e1bb 1108 c23c dd9d 763d
00000310: 83e5 42bc 76f2 eabd 4141 183d ee7c 99bc
00000320: 2e17 19bd 59f9 7fbc ee31 24bd bcc9 93bd
00000330: de4b 10bc cb44 e5bc d9ec 003d a042 c8bd
00000340: ea9d 93bb 4c1c 4dbd 94f0 e93d 3c54 81bd
00000350: 2ec9 0e3d d5b3 7cbc 60f8 bdbd 692b 34be
00000360: b563 cebc 8794 b8bb 82cb adbd a209 a4bd
00000370: b446 05bd 8ee8 76bb 6562 b9bc 8ae2 4abd
00000380: ee55 413e 8c69 b83d d25d 103e 1f99 c03c
00000390: af66 303b c369 3b3d 1fb0 96bd d53c 973d
000003a0: a51f 833d e349 c3bd a931 0dbd 15d7 9abd
000003b0: 2723 a8bd d0ce 063e 716d 22bc 5b02 d2bd
000003c0: a4e1 5d3d 1186 883b fc8e 6bbd 78e7 e83d
000003d0: 5adb 6f3c 1cca 8f3c 115c 6b3d 7000 ba3d
000003e0: 8f13 333e d6a1 19be 3b47 efbd a2c8 abbd
000003f0: 44b5 12bc f0d1 053e 3c35 4c3d 2145 223c

actor.4.bias f4 [128]
-0.16354103 -0.1604695 -0.05224463 0.088532224 -0.046349306 -0.14967999 -0.06791358 -0.10255898
0.019188657 -0.16530454 -0.09411013 -0.03781062 -0.18519783 -0.06234562 0.08506677 -0.0045087235
-0.08756585 -0.11630827 0.030326795 -0.18414514 -0.11181936 -0.0005831034 -0.008966347 -0.037685797
-0.018592428 -0.08098333 -0.05342281 0.020652672 -0.13258484 -0.0141067 -0.10186363 0.022115525
-0.22373512 -0.07132412 -0.08794703 -0.13848053 -0.10170106 -0.096781164 -0.1259016 -0.09612761
-0.09446804 0.056988247 0.026767213 -0.06430033 0.046692926 -0.07875889 0.08936056 -0.034659643
0.045419864 -0.06993578 0.051035076 -0.036127333 0.05626289 -0.14792313 -0.17770125 -0.06613796
-0.07016448 -0.073103786 0.043599598 -0.23203544 -0.029983774 -0.037309606 -0.104118764 -0.14043249
-0.10146926 0.039574753 -0.19593902 0.08445824 -0.17338692 -0.21860066 -0.086951196 -0.07103474
-0.04621573 -0.021716328 -0.14000285 -0.08894125 -0.13049774 0.060361262 -0.09679928 0.06037239
-0.14541629 -0.17598698 -0.1602884 -0.06020259 -0.07073939 0.054394662 0.02232253 -0.121680886
-0.13379328 0.018471181 -0.12737757 0.021598792 0.05747464 -0.033184532 -0.18032761 0.024715442
-0.18372135 -0.14252646 -0.050623357 -0.13135839 -0.14434415 -0.15219803 -0.07940267 -0.03496181
-0.22049129 -0.060893785 0.013936877 0.07335566 0.008049961 -0.13575388 -0.004884023 -0.17052905
-0.13291064 -0.13328765 -0.14507447 -0.10565374 0.08531108 -0.027473982 -0.23311251 0.09132611
-0.21715714 -0.24384671 -0.037227087 -0.1461132 -0.098516665 -0.028502472 0.042547468 -0.03592859
00000000: 4d77 27be 1e52 24be 77fe 55bd 6250 b53d
00000010: c5d8 3dbd b645 19be 4616 8bbd 710a d2bd
00000020: 8831 9d3c 9845 29be d0bc c0bd 4fdf 1abd
00000030: 80a4 3dbe 1f5e 7fbd 7d37 ae3d eabd 93bb
00000040: b955 b3bd 0833 eebd e66f f83c 8b90 3cbe
00000050: 8c01 e5bd 68db 18ba 96e7 12bc 6c5c 1abd
00000060: 264f 98bc 97da a5bd e0d1 5abd cb2f a93c
00000070: 52c4 07be ca1f 67bc e19d d0bd 9e2b b53c
00000080: d21a 65be 6112 92bd 931d b4bd d7cd 0dbe
00000090: a548 d0bd 3435 c6bd 59ec 00be 8dde c4bd
000000a0: 7678 c1bd 826c 693d ea46 db3c e4af 83bd
000000b0: 1541 3f3d 574c a1bd ab02 b73d 45f7 0dbd
000000c0: 2e0a 3a3d 7d3a 8fbd 280a 513d 41fa 13bd
000000d0: eb73 663d 2979 17be 51f7 35be 5773 87bd
000000e0: 65b2 8fbd 70b7 95bd 7e95 323d b39a 6dbe
000000f0: 88a0 f5bc f5d1 18bd 383c d5bd 89cd 0fbe
00000100: 1ecf cfbd 2319 223d 3da4 48be 71f8 ac3d
00000110: 578c 31be dad8 5fbe 7813 b2bd a97a 91bd
00000120: b54c 3dbd 71e6 b1bc e85c 0fbe d526 b6bd
00000130: 33a1 05be 5f3d 773d b33e c6bd 0a49 773d
00000140: 02e8 14be ee35 34be a422 24be fe96 76bd
00000150: d0df 90bd f0cc 5e3d bddd b63c d433 f9bd
00000160: 1b01 09be e050 973c 446f 02be f3ef b03c
00000170: 876a 6b3d 81ec 07bd cda7 38be 0a78 ca3c
00000180: 7321 3cbe 75f2 11be 705a 4fbd d082 06be
00000190: f4ce 13be cdd9 1bbe de9d a2bd 1d34 0fbd
000001a0: 78c8 61be c36b 79bd 8057 643c 7e3b 963d
000001b0: fce3 033c 1103 0bbe 280a a0bb 2b9f 2ebe
000001c0: ba19 08be 8f7c 08be 678e 14be fd60 d8bd
000001d0: 93b7 ae3d 1e11 e1bc 0cb5 6ebe 2f09 bb3d
000001e0: 715e 5ebe f4b2 79be 6e7b 18bd b39e 15be
000001f0: 1bc3 c9bd 047e e9bc 4146 2e3d db29 13bd

actor.6.weight f4 [27, 128]
-0.00063110254 0.025387334 0.016515367 0.024734126 0.020012971 -0.03854658 0.004064594 0.01323838
-0.0037511247 0.016508993 0.01302529 -0.002710554 -0.019237153 0.004560062 0.0009976602 0.014939726
0.009697586 0.013447494 -0.00081404304 -0.0047284914 0.015941462 -0.0043255286 0.0028736477 0.009940287
0.005868965 0.014302373 -3.237654e-06 0.0045634806 0.0071954476 0.0042913454 -0.04472419 -0.03258967
0.022521183 0.013900503 0.04127026 0.02973757 -0.003438991 0.03024886 0.025448091 0.006796988
-0.0106236525 -0.019302208 -0.0049691023 0.04496954 -0.016194679 -0.01247123 0.013392952 -0.013156836
0.0069281077 0.02943624 0.002582233 -0.027400492 0.014919629 0.02081346 -0.011142052 0.032611012
-0.020083675 0.00019155658 0.026528774 0.004034459 0.0033365132 -0.016104376 0.0058539077 -0.021803733
0.034419402 0.008884569 0.0148270745 0.0062945937 0.015106668 0.0029514458 -0.009964277 0.02273612
-0.020871868 0.0004077524 0.005568963 -0.033868503 -0.0128538795 0.0072626714 -0.009569523 0.009569704
0.00446426 0.0015823912 -0.038689222 -0.009728112 0.02147842 -0.024540497 0.006988246 -0.025268616
-0.03680634 -0.002655043 -0.011541353 0.01109929 0.05938437 -0.016517311 -0.0046181595 -0.005875121
-0.0011344949 -0.0016129551 -0.020491447 0.028527051 0.009996716 0.021230508 0.00397629 -0.06564878
-0.008066179 -0.070288986 -0.02274725 0.010350341 -0.018010605 -0.0093569 0.019347375 -0.014468607
0.0027790663 -0.031736188 0.0009301178 -0.0034120681 0.016063659 -0.003871429 0.027430357 0.007391762
-0.068990044 -0.0019121051 0.025178647 0.013458478 -0.007210694 0.036194514 -0.007137361 0.011878138
-1.1902755e-05 0.01448695 -0.0073228735 -0.025389934 -0.01991401 -0.042951945 -0.018496633 0.029303009
-0.0023935547 -0.026537444 0.007295708 0.03315563 0.0025059432 -0.024448065 0.0019835706 -0.019180853
-0.00075678853 -0.0018999147 0.021977192 -0.022274205 0.004159271 -0.008227291 -0.015075604 0.0037250277
0.0013723124 0.014480525 -0.0063246675 -0.0021208776 -0.03961602 -0.008884527 -0.0074108117 0.010414881
0.01512955 -0.021559076 0.0278126 0.010900153 -0.02073397 -0.03335783 -0.025123248 -0.013430109
0.014102923 0.0007030419 -0.0077967043 -0.009494087 -0.004867841 -0.0073012128 0.01397421 0.0008692983
-0.0045584636 -0.0040274947 0.0056743785 -0.021825956 -0.019802473 0.0037156534 -0.00865839 -0.05645224
0.0025521212 -0.0039417464 -0.014770288 0.013485977 0.014728761 -0.015146935 -0.03077652 0.010379017
-0.015696837 -0.022708457 0.021985328 -0.003164014 -5.4892615e-05 0.003264361 0.0018119091 0.003992026
0.00014738542 0.003956549 0.054564226 -0.0010082708 -0.0093296245 0.0021612456 0.0037380795 0.010070846
0.0029205994 0.010611463 -0.008854571 0.02522147 0.0041332524 0.060303617 -0.0050833356 -0.011334494
-0.021363258 -0.008398564 -0.009680751 -0.027470894 0.01942958 0.0034512496 -0.024558 -0.01683109
0.01035527 0.033787142 0.010944472 -0.0051215454 0.0048009222 0.017109256 0.016816294 -0.007858435
-0.0005149952 0.072364666 -0.0033781477 -0.009469648 0.041390985 0.04224943 -0.02182281 -0.0034186603
0.022907922 0.036321096 -0.009183157 -0.003967683 -0.014343808 0.014489887 -0.019320762 -0.00353718
-0.008184335 0.0035256967 -0.03487608 0.003941081 0.01449671 -0.02229311 0.01230203 -0.014236046
00000000: 9370 25ba 19f9 cf3c 3c4b 873c 399f ca3c
00000010: 3ef2 a33c 05e3 1dbd 4930 853b cae5 583c
00000020: 6ed5 75bb de3d 873c 0768 553c 8da3 31bb
00000030: 3c97 9dbc 936c 953b ecc3 823a c1c5 743c
00000040: a0e2 1e3c e152 5c3c 8165 55ba 76f1 9abb
00000050: ab97 823c 2abd 8dbb cf53 3c3b 96dc 223c
00000060: 7250 c03b 8054 6a3c 7946 59b6 4089 953b
00000070: cac7 eb3b 6a9e 8c3b b630 37bd bf7c 05bd
00000080: 587e b83c efbe 633c 010b 293d 349c f33c
00000090: b260 61bb 75cc f73c 8478 d03c 45b9 de3b
000000a0: d40e 2ebc aa1f 9ebc dad3 a2bb fb31 383d
000000b0: b4aa 84bc 2154 4cbc 1d6e 5b3c c58f 57bc
000000c0: 2e05 e33b 4524 f13c ae3a 293b ff76 e0bc
000000d0: 7671 743c fd80 aa3c 278d 36bc 2093 053d
000000e0: 8586 a4bc 94dc 4839 df52 d93c 7f33 843b
000000f0: 67a9 5a3b 53ed 83bc 23d2 bf3b be9d b2bc
00000100: 5cfb 0c3d 9590 113c 42ed 723c e142 ce3b
00000110: f581 773c 0b6d 413b 3541 23bc 1941 ba3c
00000120: 7bfb aabc 9ac7 d539 d97b b63b b3b9 0abd
00000130: 1499 52bc b4fb ed3b 7dc9 1cbc 3fca 1c3c
00000140: ed48 923b 3d68 cf3a 9778 1ebd a962 1fbc
00000150: 83f3 af3c 2709 c9bc a8fd e43b 2100 cfbc
00000160: 3fc2 16bd 3b00 2ebb f117 3dbc ccd9 353c
00000170: 063d 733d 504f 87bc ee53 97bb 1684 c0bb
00000180: 55b3 94ba cb69 d3ba aedd a7bc 90b1 e93c
00000190: 44c9 233c 9aeb ad3c 8a4b 823b de72 86bd
000001a0: 0228 04bc acf3 8fbd 7158 babc 7a94 293c
000001b0: fa8a 93bc af4d 19bc 637e 9e3c bc0d 6dbc
000001c0: ff20 363b cefd 01bd 26d3 733a 019d 5fbb
000001d0: ef97 833c cdb7 7dbb a1b5 e03c 9836 f23b
000001e0: a74a 8dbd 9a9f faba 7343 ce3c f380 5c3c
000001f0: af47 ecbb b340 143d 86e0 e9bb 869c 423c
00000200: f2b1 47b7 ac5a 6d3c b7f4 efbb 8dfe cfbc
00000210: b522 a3bc 61ee 2fbd 4086 97bc dd0c f03c
00000220: 2fdd 1cbb 0e65 d9bc d610 ef3b 33ce 073d
00000230: c03a 243b 4f47 c8bc cbfe 013b 2a21 9dbc
00000240: 3863 46ba 8f06 f9ba 8309 b43c 6578 b6bc
00000250: 7e4a 883b c2cb 06bc abff 76bc 981f 743b
00000260: 2adf b33a b93f 6d3c 283f cfbb 6cfe 0abb
00000270: 6844 22bd 6890 11bc 65d6 f2bb 2da3 2a3c
00000280: efe1 773c a99c b0bc 40d7 e33c 8e96 323c
00000290: 49da a9bc 38a2 08bd 45cf cdbc f609 5cbc
000002a0: f20f 673c 584c 383a 7f7b ffbb 168d 1bbc
000002b0: 6982 9fbb 033f efbb 16f4 643c 9fe1 633a
000002c0: 2a5f 95bb 13f9 83bb 23f0 b93b 59cc b2bc
000002d0: cc38 a2bc 5282 733b ebdb 0dbc 773a 67bd
000002e0: 7d41 273b c429 81bb 14ff 71bc 4af4 5c3c
000002f0: e750 713c da2a 78bc 0a1f fcbc c10c 2a3c
00000300: a796 80bc 1607 babc 931a b43c 595b 4fbb
00000310: 7f3c 66b8 e4ee 553b 957d ed3a 8bcf 823b
00000320: 798b 1a39 f0a5 813b bd7e 5f3d f427 84ba
00000330: 48db 18bc afa3 0d3b 91fa 743b 3100 253c
00000340: 8767 3f3b b4db 2d3c c312 11bc 429d ce3c
00000350: 3c70 873b ed00 773d 1c92 a6bb 50b4 39bc
00000360: 0002 afbc 219a 09bc 039c 1ebc a40a e1bc
00000370: c82a 9f3c 5c2e 623b dc2d c9bc 5be1 89bc
00000380: 26a9 293c 6364 0a3d 7150 333c a3d2 a7bb
00000390: 0e51 9d3b b628 8c3c 53c2 893c aac0 00bc
000003a0: be00 07ba ed33 943d ea63 5dbb 9526 1bbc
000003b0: 9889 293d bd0d 2d3d c0c5 b2bc 9a0b 60bb
000003c0: 65a9 bb3c 6ec5 143d f474 16bc 5603 82bb
000003d0: 4b02 6bbc fe66 6d3c 9346 9ebc 08d0 67bb
000003e0: 9717 06bc 600f 673b 38da 0ebd 2f24 813b
000003f0: 9c83 6d3c 0aa0 b6bc 748e 493c 4e3e 69bc

actor.6.bias f4 [27]
-0.004259531 -0.04602615 -0.009383014 -0.08377637 0.033302683 -0.0076523856 -0.06513542 0.048626106
-0.035648942 -0.056429293 0.047879543 -0.2176022 -0.15368351 -0.13684832 0.06585355 0.06409795
-0.024185073 -0.037783023 -0.15616214 -0.08803024 0.25248063 0.011842163 0.0070682685 -0.010021636
0.07847536 0.06605191 0.10267387
00000000: 8993 8bbb eb85 3cbd 37bb 19bc f292 abbd
00000010: 6568 083d ddc0 fabb b865 85bd 2b2c 473d
00000020: a004 12bd 6722 67bd 571d 443d 1cd3 5ebe
00000030: 365f 1dbe f721 0cbe 3ade 863d c945 833d
00000040: c61f c6bc 5fc2 1abd f8e8 1fbe 3349 b4bd
00000050: 2445 813e a205 423c ef9c e73b ca31 24bc
00000060: b1b7 a03d 3946 873d ae46 d23d
