IsaacLab/logs/rsl_rl/h1v2_flat/2025-03-05_16-54-15/exported/policy.onnx (onnx, 195410 bytes, 8 tensors)

actor.0.weight f4 [128, 93]
00000000: 66aa 1cbd ee8f 85bc c003 b33d 6090 113e
00000010: c666 b43c 98f0 44be 8531 683e 0a59 193d
00000020: b726 2c3e 17d3 12be 3d68 5bbd c7da 573e
00000030: 3f39 143c b407 873e 44d8 e23d 522c 17be
00000040: 8723 673c ccbd ffbe c39d 7a3f 00ee b2be
00000050: 9b4a 303e 6594 863e 4545 0e3e e62b 90be
00000060: 4c3f b1bd 301c abbe da56 ba3d 5b65 a1be
00000070: 6c7f 2cbf c0c4 9cbd 7a9c 15be 6c3b 993d
00000080: f721 0bbe 0b77 b03e aec0 61bf 94a1 2e3f
00000090: 1019 01be c327 1b3f ad0e 1dbf 22c2 a73c
000000a0: 63c5 cd3d fdf7 ac3b 1d0e c53d 3225 613c
000000b0: f341 0d3d b538 d33d 4931 0b3d fdf3 ecbc
000000c0: 9c96 eabc 44a8 943d 8e56 6abe 4a1f 713d
000000d0: f0e3 d23d f37e 843c a3e6 98bd fe05 123c
000000e0: 510f c53c 02c5 173d 1671 fb3d 9d4f df3c
000000f0: 6268 b83c ec67 143e b0c2 193d 1a5c 20bc
00000100: b8be 0abe d81f 213d 02e0 3d3a 6b6c 8c3c
00000110: 78e9 e93d 6637 43be 7f5c 2b3e 0b49 eabd
00000120: 27b1 fd3b 2d1b b0bd 24b8 223e fb07 f6bb
00000130: 5c1d 3f3d b406 163e b9fc 59be 99bc 8c3c
00000140: e81f 32bd edee 173d 88cb cfbd 55b8 283c
00000150: 03ac ac3d 007d b53d c047 973d 9ca4 73bd
00000160: dccd 11bd eb74 983c 2574 50bd bad7 fa3c
00000170: 523a 35bd cc95 49be f082 663e 644d 44be
00000180: 62a6 483e d7fe a73e 892f 42bc 0486 903e
00000190: c162 a7be 7165 703d 19a0 443e dc30 b93c
000001a0: 5557 ffbe 7997 1a3f 574f 34be 5579 29be
000001b0: ad19 7fbd 93fa d0bc 9b4a 1e3e 88fd 45be
000001c0: 72e2 a73b da99 c53a 97b2 a0be 1e2d 4e3e
000001d0: af0c 57be 7be2 c6be 48b6 8dbe 8fe0 2d3e
000001e0: 4299 91bd 97a5 363e e7c9 95bf 0347 e4be
000001f0: d7b0 9bbe 01e0 b4be a16e 02bf e6d8 67bd
00000200: ee5d d0be 176b 5abf 70ed 2fbd a234 373f
00000210: 2831 3f3c 0469 96bd 88e7 3b3d 6992 2bbe
00000220: d96b fe3d 5c0b 033b 050a fa3c d01f e23d
00000230: 84a5 813b d371 62bd 4a05 5abd 7ebe cc3d
00000240: 81a3 1bbe da18 d03c 2e88 49bc 9de4 3ebd
00000250: 203a 063d 4a61 8a3d a3d8 0e3d 5799 123c
00000260: 07be 693b 2026 a4bc 19c2 74bb 8cb8 febc
00000270: c0a6 e3bb a1ae 9fbc 214c d2bb aa88 3cbd
00000280: 2287 8bbd de1f 2cbd e2ea eebc 320e 02be
00000290: 6593 26bd 92eb 893d 797a 20bb d2cb 9b3e
000002a0: e3e5 ecbc c9b9 82bd 8bb9 8cbd 87e3 acbd
000002b0: a092 603d d4c0 883d f9df 5ebd 29fd d2bd
000002c0: dfbd 2e3d 4f50 68bd 052c b53d ae19 46bd
000002d0: 7f20 79bd 0361 1bbe 9383 bbbc 883e babc
000002e0: 3d1f c03d 83f4 4f3d 4048 553e 60ba 07bf
000002f0: be19 853e 2556 113f f5aa 123e dedd a73c
00000300: a62a a63d 75d9 5dbf 3f50 9e3e e3cd 393e
00000310: ecbc 8bbd 9e75 5ebe eae2 423f 901a c53e
00000320: 941b 07bf 6e89 d43d 05e1 8abe 8303 82bf
00000330: 6710 4f3e 6ed0 40bf 29b6 903e 2f66 fe3e
00000340: d5d6 493e e7d4 023e 0fba 56be 6d85 f3bc
00000350: 50e0 5ebf 06a7 183d 5214 043f 8294 27bf
00000360: a526 273f 8ec0 ad3d 97f6 1ebe 9b96 063f
00000370: 05a8 273e 85bc 63bf 6534 863e 1d9e 2ebf
00000380: 8d5a a5be 0e01 b5ba 0b32 86bc cc21 593c
00000390: 6c19 083d 2aaf 293d 9e2f 9dbd cd8f a5bd
000003a0: b110 91bd c70b 17bd fbbb 4cbc dfb0 b23c
000003b0: dacd d4bc fdc1 633d 68c6 bfbd 0831 8cbd
000003c0: e315 a43c f3a3 683d 0e65 29bd d606 26bd
000003d0: 468f e73c 4f27 f7bc 3913 20bd 928d 593c
000003e0: f24d a73c 8dd8 cdbc 241f ae3c 8241 76bc
000003f0: 1add 03bd d810 0b3e 5ecc 253d 2836 24be
-0.038248442 -0.016303983 0.0874095 0.14215231 0.022021662 -0.19232404 0.2267514 0.03743843
0.16811644 -0.14338337 -0.053566206 0.2107955 0.009046852 0.26373065 0.11076406 -0.14763
0.0141075915 -0.4994949 0.97896975 -0.34947205 0.1721596 0.2628509 0.13893612 -0.28158492
-0.08654651 -0.33419943 0.09098597 -0.3152264 -0.6738193 -0.076547146 -0.14610472 0.07482037
-0.13587175 0.34465823 -0.8818463 0.682153 -0.12607217 0.60607547 -0.6135052 0.020478312
0.10047414 0.005278586 0.096218325 0.013741778 0.034486722 0.103135504 0.03398255 -0.028924936
-0.02863627 0.072586566 -0.2288458 0.05886773 0.10297382 0.016173815 -0.074658655 0.008912561
0.024055155 0.037053116 0.12277429 0.027259642 0.022510711 0.14492768 0.037539184 -0.009787584
-0.13549316 0.03933701 0.00072431576 0.017141541 0.11421484 -0.19064102 0.16734503 -0.11439713
0.0077420655 -0.08598933 0.15890557 -0.0075082756 0.04665886 0.14650995 -0.21287812 0.017179774
-0.04348746 0.03709309 -0.101462424 0.010297854 0.08431246 0.088617325 0.07386732 -0.059483156
-0.035596713 0.018610438 -0.050892014 0.030620445 -0.04424507 -0.19686049 0.22510886 -0.19170147
0.1959472 0.32811615 -0.011852154 0.28227246 -0.3269253 0.058690492 0.19201697 0.022606306
-0.49871317 0.6038738 -0.17608391 -0.16550191 -0.062280346 -0.025510108 0.15458147 -0.19334996
0.00512343 0.0015075759 -0.31386253 0.20134398 -0.21000932 -0.38844666 -0.27678132 0.16980194
-0.0710931 0.17836605 -1.1702241 -0.44585428 -0.30408356 -0.3532715 -0.50950056 -0.056603335
-0.40696663 -0.85319656 -0.042951047 0.71564686 0.011669435 -0.07344249 0.045875102 -0.1675507
0.12422914 0.0019995784 0.030522356 0.11041224 0.0039564986 -0.055284332 -0.0532277 0.09997271
-0.1519909 0.025402475 -0.012300534 -0.04660474 0.032770276 0.06756838 0.03487457 0.008947692
0.0035666244 -0.02003771 -0.0037347137 -0.031093858 -0.0069473684 -0.01949245 -0.0064177667 -0.04602877
-0.06812884 -0.04202258 -0.029164735 -0.12700728 -0.04066791 0.067343846 -0.0024487062 0.3042894
-0.028918212 -0.06383092 -0.06871327 -0.08441835 0.054827332 0.06677404 -0.054412816 -0.10302193
0.042661544 -0.056717213 0.08846287 -0.048364334 -0.060822006 -0.15173726 -0.022889888 -0.022734895
0.09380958 0.050770294 0.20828342 -0.5301876 0.25996202 0.5677207 0.14323027 0.020491537
0.08113603 -0.8665994 0.30920598 0.18144946 -0.06823143 -0.21724555 0.76127493 0.38496828
-0.52776456 0.10377775 -0.271248 -1.0157322 0.20221101 -0.7531804 0.28263977 0.49687335
0.19710858 0.12776528 -0.20969413 -0.029726708 -0.87061024 0.03726866 0.51593506 -0.6546098
0.6529334 0.084839925 -0.15523754 0.52573556 0.16372688 -0.8895953 0.2621185 -0.6821001
-0.32295647 -0.0013809518 -0.016381284 0.013252687 0.03322737 0.041426815 -0.07675098 -0.080840684
-0.07083262 -0.036876466 -0.01249599 0.021812854 -0.025977064 0.055604924 -0.09364015 -0.068452895
0.020029968 0.05679698 -0.04135614 -0.040533863 0.02826656 -0.030170111 -0.039080832 0.013278382
0.02042291 -0.025127674 0.021255083 -0.015030267 -0.03219328 0.13580644 0.040478103 -0.16036284

actor.0.bias f4 [128]
00000000: 6886 13be dbb0 08bc ea15 2abe 88fb 0bbd
00000010: 0c0f 98bd 334c a33d e66d 88bd 67ef 43be
00000020: 4655 05be 3341 4d3b f4d3 f83d 2981 303e
00000030: 5027 21be 5c48 383d 2939 7b3c 501e f3bc
00000040: 1c39 153e 84d9 cd3d d54f 7b3d cc2d fd3d
00000050: f6f6 543d b7d7 ddbd a63d 41be 1404 76bc
00000060: 1020 9fbd b32a bd3d 5a66 2cbb 0718 e93c
00000070: 9e28 f2bc 4928 933c 90d5 c9bd 35d3 8b3a
00000080: 2b50 9cbd 11bc a4be e3ba f93c c566 9fbd
00000090: 489e 923c 7555 27be 81ac e1bd 4c35 9dbd
000000a0: 7d8d ed3d 4966 83bd 98fe 66bd 79df fd3c
000000b0: 5f7b 35bd e444 ef3d eaf2 c4bd ded7 1f3e
000000c0: f0e3 54bd bb44 dbbc e53b 0abe c3f6 20be
000000d0: 8208 e5bd a054 02be 1784 a73d c29a 0abe
000000e0: 164e f6bd 2a7b 87bb a161 6fbd 8ead d9bd
000000f0: b690 013c a4ad 423d d15d 863d b5be f7bd
00000100: 1cd5 37be 4658 7f3c 71aa 00be c0a2 ffbd
00000110: 7b7a 65bd df15 b5bd 7fcc cebd e4c1 63bd
00000120: 11f1 71bd 2cf2 243d 8cc6 4e3d 7f76 80be
00000130: 18d8 8f3d 2097 1dbe cc9f 9ebd 99a6 54be
00000140: d4da 10be 4048 5cbd 14c9 b4bc e0a5 b03d
00000150: df9b 54bc f121 983c 7b84 e9bc 0da9 8f3d
00000160: 5d25 8bbe a92a 92bd fa8d fb3b 0d84 97bd
00000170: e979 d9bc 837d debd da72 71bd bea3 6fbc
00000180: 425a a1bd 09e7 c13d d9ca 14be c45f 553d
00000190: d272 b2bd 682b 7cbb 942b 3fbe 4e4d 333e
000001a0: 4925 b93d c489 09bd 53f3 0cbd eb61 423c
000001b0: 5344 293e 6d6b dfbd ac65 b2bc e1b9 263d
000001c0: 9d5e 023e ebf3 58bd eae8 e2bc 180d 393c
000001d0: 0076 4dbe 2255 82bd e990 06be 2b33 93bb
000001e0: dbb1 29bc 1902 863b f8a0 3c3d 7c16 21bc
000001f0: 10b6 e9bd 9706 903b 289d 62bd 9b0e 753b
-0.1440674 -0.008342947 -0.16609922 -0.034175426 -0.07424745 0.07973518 -0.066615865 -0.19134293
-0.1302081 0.003131938 0.12149802 0.1723677 -0.15737653 0.044990882 0.015333452 -0.02967754
0.14572567 0.100512534 0.06135543 0.12362251 0.051993333 -0.1083216 -0.18871173 -0.015015621
-0.07769787 0.0923666 -0.0026306123 0.02845384 -0.029560383 0.017963545 -0.09855187 0.0010667803
-0.07632478 -0.32174733 0.030484622 -0.077832736 0.01789774 -0.16341193 -0.11019231 -0.07676181
0.115992524 -0.06415994 -0.056395143 0.03099035 -0.04430711 0.11683062 -0.09616645 0.1560969
-0.05197519 -0.026766172 -0.1349941 -0.15719132 -0.11183263 -0.12727594 0.08179491 -0.13535598
-0.120266125 -0.0041345553 -0.058442716 -0.10628806 0.007908037 0.047528878 0.06560863 -0.12096921
-0.17952389 0.015585011 -0.12565018 -0.12482214 -0.05602501 -0.08842062 -0.10097598 -0.05560483
-0.05906779 0.040270016 0.050482318 -0.25090405 0.070236385 -0.15389681 -0.077453226 -0.20766677
-0.14145976 -0.05377984 -0.022068538 0.08625388 -0.012976616 0.018570872 -0.028505554 0.07014666
-0.27176943 -0.07137043 0.007676837 -0.073982336 -0.02654739 -0.10863783 -0.05894742 -0.0146264415
-0.078785434 0.094678946 -0.14530505 0.052093282 -0.087133065 -0.003847802 -0.18668967 0.17509958
0.09040315 -0.03357865 -0.03441174 0.011864166 0.1652997 -0.10909162 -0.021776997 0.04070461
0.12731405 -0.052966993 -0.027698953 0.011294626 -0.20064545 -0.06363894 -0.13141216 -0.0044921837
-0.010357345 0.0040896055 0.04605195 -0.009832021 -0.11411679 0.004395317 -0.055325657 0.0037392739

actor.2.weight f4 [128, 128]
00000000: 3f26 f8bc bae5 2e3d 115d a93c abf2 30be
00000010: 28f1 05bd 8e9a e1bc 70bb 3f3d db6d 263e
00000020: 3856 303d fe78 123e ca91 3f3e 6d52 6b3d
00000030: 7a66 78be 2f33 f73d 3d09 923d 7544 34be
00000040: 87cc be3d 1d9f 80bd 56e0 75bd a5bc 7fbe
00000050: 3aa1 7d3e caa3 863b 422d 42bd bcea 04be
00000060: cec3 a2bd 79f1 f13c 9786 e23c 5c82 b2bd
00000070: fb05 b83d fb3b f5bd ea21 913d 679c b1bd
00000080: 3f43 2b3c e42a 0c3c 5bad 8e3d 3296 7f3a
00000090: 35b3 003c dee6 98bb 64b6 51bd 7fed 31bd
000000a0: 7775 3ebe b03f 17be 732c b7bd e6a4 c03d
000000b0: 5236 23be d082 ffbc 808d 48be 0ac7 20be
000000c0: 3036 023e 9b34 cdbd a4df 403d 6668 1e3a
000000d0: 675f 41bd 3632 1dbd 9008 29bd 8924 973d
000000e0: be0d 9bbb 698b 963d be6c 98bd 413e 51bd
000000f0: 8a5d 0fbe a038 abbe 1a59 1a3d 5ddf 933c
00000100: 871a f9bd 7186 8f3c 6531 8bbd 4f7e f1bd
00000110: 1ac0 97bc 9c58 373b dcfc 513c f9ef b73d
00000120: 00d9 3f3d 5f7f 06bd fbe4 bebe 1ad8 343e
00000130: 1427 ba3c 16a8 d4bd dfe9 04be e597 9d3d
00000140: eded e83c 7762 1abe 970e 08bc e3d7 6abe
00000150: 58e6 a63d 2981 f9bc 065e e63c 050f b2bd
00000160: 43f7 be3b 7368 86bc 4eb3 833b 5d30 3f3e
00000170: 89ef b4bd 7114 563b 52b8 233e e6a1 833d
00000180: f2c9 5ebd eba1 ecbd 4b31 c0ba 8e7a ae3d
00000190: 8747 a53c 83eb 1abd d5cd aa3c bb7c 3d3c
000001a0: c2db 243e ca3d d03d 90d7 6ebe 296a 483d
000001b0: 1262 0ebd 3236 4abd 614f 303e fd68 09bc
000001c0: eeb7 8cbd e7c4 e03c 1237 1f3e 2c5f dbbd
000001d0: 5bb8 2abe 6685 7f3b 3ef6 693e d1c4 87bd
000001e0: 6d2e cfbd 7767 473e 2029 0ebe 841c 8d3d
000001f0: 13af 0c3d 7f76 2b3e a999 e5bd 3567 33be
00000200: ad39 2a3d 4f95 273c 39de 25bd aadc 873c
00000210: 3ce2 6a3c d1ac 6bbd f0b1 1d3d 202d c9bc
00000220: 5342 c8bd f4bb 24bd e235 32be 894b 06bd
00000230: 75b8 243d e74f 92bd 0d9b 82bd df9d 32bd
00000240: 1aab 47be a729 a3bd 604d 3abb b64a d0bd
00000250: 6070 d03c 89ff 69bb 2bfc 833c 447a 30be
00000260: 250a 12be 289f 833c 9d7a 08be d49c 163e
00000270: ede2 69bd b001 9dbd 525d 5e3d f495 943d
00000280: 6e90 633d 3772 19bd 356c 9e3d 79e5 823d
00000290: dfa2 7c3b abca ea3d b061 9abc 543c 083e
000002a0: 7a5c e1bd 6f44 9bbb 5b96 d7bb 10d6 14be
000002b0: 51f4 2c3e b1a4 36be dc0e 04bd e203 1e3d
000002c0: cd03 32be b31a 68bd 1975 873d 8a52 26bd
000002d0: aa5c 84bd 89f4 8ebd dbaf f2bd 2a7d f6bd
000002e0: cb31 c23d ef5b da3c 8cd3 15bd 2da3 063d
000002f0: 5563 fd3b d428 36bd a459 9b3d 9a61 083c
00000300: 8b0b 51bd 3581 c0bd 93b6 a2bd aecc f53d
00000310: b2c5 353d 9c95 f6bd 3d6f fc3b 15f6 e7bd
00000320: 4a75 a33d 86bc 603d 492f de3d 3e4a 93bd
00000330: 42e4 1abe 3f95 503c 7f8b 92bd 3135 b23d
00000340: 7a5b 21bd 9019 d43d 9740 5abe 0b3e d23d
00000350: 767a ef3d 7145 80bd 5292 87bb 69d8 683c
00000360: 68ce 9ebc b037 553e 2573 cfbd 9488 743d
00000370: 1698 733d 4f65 003d e07d b93c 7834 d1bd
00000380: 9535 893d 8084 043e f61f 953d 58f8 16bd
00000390: a400 f3bc 233d 9abd a442 2c3e 287f d8bd
000003a0: bb1f 013e 964a f1bb 5a47 cd3d 9d2f 04bd
000003b0: 4c61 0e3d 7a84 07bd f7b5 0e3b 64df 81bc
000003c0: 8513 7f3d 45b4 403d fa60 b4bd 4e17 a8bd
000003d0: b807 98bd 8437 503d 5d4d 2fbd 4dd4 5e3d
000003e0: 77fa 8dbd 13d4 84bc e8be 06be 125a 863c
000003f0: 3ad2 15be 7573 6f3d 4982 efbc f5ff 02be
-0.030291675 0.042699553 0.02067426 -0.1728007 -0.032700688 -0.027539518 0.046809614 0.16252844
0.043050975 0.14303967 0.18707958 0.057451654 -0.24257842 0.12070309 0.07130668 -0.1760424
0.09316354 -0.062803484 -0.060028397 -0.24974306 0.24768534 0.0041088806 -0.047406442 -0.12980169
-0.07947503 0.029534088 0.027652068 -0.0871627 0.08985516 -0.11974331 0.07086547 -0.086724095
0.010453044 0.008555148 0.06966659 0.0009749859 0.007855226 -0.0046661934 -0.051199332 -0.043439385
-0.18599497 -0.14770389 -0.08944025 0.09406452 -0.1593869 -0.031190306 -0.19585228 -0.15700927
0.12715983 -0.10019799 0.04708828 0.0006042778 -0.047210123 -0.038377963 -0.04126793 0.073800154
-0.004731863 0.07350809 -0.07442616 -0.05108476 -0.14000526 -0.3344164 0.03768263 0.018050844
-0.12163263 0.017520161 -0.06796531 -0.117916696 -0.018524218 0.00279764 0.012816634 0.08981318
0.046837807 -0.032836314 -0.37284073 0.17660561 0.022723712 -0.10383622 -0.1297984 0.07694987
0.028433764 -0.15076624 -0.00830426 -0.22933917 0.08149403 -0.030457096 0.028121006 -0.08694271
0.0058278157 -0.016407227 0.0040191775 0.18670793 -0.0883475 0.0032665993 0.15988281 0.06427364
-0.05439181 -0.11554321 -0.0014663128 0.08519469 0.020175708 -0.037822258 0.020850101 0.011565383
0.16099456 0.10168035 -0.23324418 0.048929367 -0.034761496 -0.04936809 0.1721778 -0.008386848
-0.06871019 0.02743764 0.15548351 -0.10711512 -0.16671889 0.0038989424 0.2284784 -0.066293366
-0.10116277 0.19473062 -0.13882875 0.068902045 0.03434665 0.16744421 -0.11210949 -0.17519839
0.04155891 0.010228469 -0.04049513 0.016584713 0.014336165 -0.057537857 0.038499773 -0.02455765
-0.09778275 -0.04021831 -0.17403367 -0.03278688 0.040214974 -0.071441464 -0.0637723 -0.04360759
-0.19498864 -0.07966929 -0.0028427467 -0.101705 0.02544421 -0.003570529 0.016111454 -0.1723414
-0.14261682 0.016067103 -0.13328023 0.14708263 -0.05710118 -0.076663375 0.054288216 0.07255164
0.05555766 -0.03746244 0.077354826 0.06391425 0.0038549227 0.11464437 -0.01884541 0.13304263
-0.11003967 -0.0047383825 -0.006579203 -0.14534783 0.16890074 -0.17836262 -0.032240734 0.03857792
-0.17384262 -0.056666087 0.066141315 -0.04060606 -0.06462987 -0.06980235 -0.11849948 -0.12035592
0.094821535 0.026655165 -0.0365787 0.03287046 0.0077327886 -0.04447253 0.07585457 0.008324051
-0.0510364 -0.09399644 -0.079449795 0.1200193 0.04437799 -0.120402545 0.0077036903 -0.11326233
0.079813555 0.05486729 0.10848863 -0.07191895 -0.15126136 0.012730896 -0.07155513 0.08701552
-0.03939388 0.10356438 -0.21313702 0.1026574 0.116932794 -0.06263245 -0.004137316 0.014211752
-0.019385532 0.20822024 -0.10129384 0.059700564 0.059471212 0.031346615 0.02264303 -0.10215086
0.06699673 0.1294117 0.07281487 -0.036857933 -0.029663391 -0.07531192 0.16822296 -0.10571128
0.1260976 -0.0073636277 0.10023375 -0.03227197 0.03476076 -0.033085324 0.002177594 -0.015853591
0.062274475 0.04704692 -0.08807559 -0.0820757 -0.07423347 0.050834194 -0.04279839 0.054401685
-0.06932538 -0.016214406 -0.13158762 0.01640037 -0.14630976 0.058459718 -0.02923693 -0.12792952

actor.2.bias f4 [128]
00000000: bc16 06be db72 21be 0584 e1bd 4bcc f8bc
00000010: 43d9 8abd eb00 473d 1749 92bd 39ba 13be
00000020: 1018 3b3d 8199 31be 12c1 f2bc ce42 b1bd
00000030: de39 17be 27ec 90be 3cc0 adbd baa2 a2bd
00000040: 2020 76bd 5372 35bd dd55 89bc 0762 aebd
00000050: 3f36 12bd e184 b53b 1c6b 9fbd 352e c1bd
00000060: 0739 0cbe b77c adbd d8f2 0fbd 584f 363d
00000070: 7b67 b2bc 43c7 11be 8137 babc e54f f3ba
00000080: 2d15 c2bd d7ed aebd 6269 aebc 44a8 9ebd
00000090: 5501 87bd 8c83 73bc 38af 28be 276e 813d
000000a0: 19a6 b2bd 6e10 d53c 3509 e5bc f09a 7bbd
000000b0: 2596 60be 3d83 7ebd 1c1d 74bc 802b 48be
000000c0: 98b1 7ebd ca4a 01bd e588 e6bd 94da 75be
000000d0: 655d b2bc a4ba 94bd be8b 17be 48a3 34be
000000e0: 6bd2 9d3c 7fe2 ecbd 1b87 88bb c865 bfbd
000000f0: be39 aebd edad 08be 5c18 52bd 5606 c03b
00000100: 743f cebc df02 16be c70d cc3c 1a2f d7bd
00000110: 3bc5 cd3d e8da 12be 85a0 cbbc 858f 41bd
00000120: bdc4 0cbe fde4 0a3d 7028 4b3d 24c9 eabd
00000130: 20f8 013e c26a 01bd 896b 9fbd a686 7b3d
00000140: 709b 3bbd d303 123d 5d22 1cbe 4abc 3cbd
00000150: a984 37bb 23c8 8dbd 052d 63bd 31cb 52be
00000160: e1a5 2dbe 3133 093d 1a5e 0abe ca74 c9bd
00000170: 15c2 e83d 8e2f e5bd 53da 31bc d125 17bd
00000180: 2ff0 09be 39ec 2dbe d27b 3dbe 7c95 60bd
00000190: 082d 82be 5f56 0fbe ed64 05be 7d09 36be
000001a0: a71d 623d e3d2 963c dfde dabc e147 d6bd
000001b0: d4aa e8bd 6742 e63c bca8 c3bd 925c 523d
000001c0: 96a5 943c 79b0 06be 6e60 523d f03f 94bd
000001d0: 4404 c7bd ac3e 14be d425 183b f5c3 2dbe
000001e0: b959 1cbd 3341 d33d c38f 163d 7c28 763c
000001f0: 9e31 25be 486e 2ebe 8121 15bd f18c 59bd
-0.1309461 -0.1576647 -0.11011509 -0.030370852 -0.06779721 0.04858486 -0.07142847 -0.14426507
0.045677245 -0.17343713 -0.029633079 -0.0865532 -0.14768168 -0.2830517 -0.084839314 -0.07941194
-0.06008923 -0.04429848 -0.016764576 -0.08514791 -0.035696264 0.005539522 -0.07784101 -0.094326414
-0.13693629 -0.08471053 -0.035143703 0.04450926 -0.021777859 -0.14236169 -0.022731544 -0.0018563239
-0.09476695 -0.08541458 -0.021290485 -0.07746938 -0.06592051 -0.014862906 -0.1647309 0.06319838
-0.08723087 0.02600881 -0.027958492 -0.061427057 -0.21932276 -0.062136877 -0.014899518 -0.19547844
-0.062181085 -0.031565465 -0.11256579 -0.24009162 -0.02177305 -0.072621614 -0.14799401 -0.17640412
0.019265374 -0.11566638 -0.0041664965 -0.09345585 -0.08507107 -0.13347597 -0.051292762 0.0058601303
-0.025176741 -0.14649533 0.024908913 -0.10507031 0.10047384 -0.14341319 -0.024856815 -0.04725601
-0.13746925 0.033909786 0.04959911 -0.11464146 0.12692308 -0.031595953 -0.077841826 0.061407708
-0.045802534 0.03564818 -0.15247484 -0.046078004 -0.0028002656 -0.06922939 -0.055462856 -0.20585324
-0.16957809 0.033496086 -0.1351246 -0.09836729 0.11365143 -0.11190711 -0.010855275 -0.0369013
-0.13470529 -0.16984643 -0.18504265 -0.05483006 -0.2542498 -0.13997792 -0.13026781 -0.17777057
0.05520406 0.018411105 -0.026717601 -0.104629286 -0.11360708 0.028107835 -0.09553668 0.051357813
0.018145364 -0.13153256 0.051361494 -0.072387576 -0.097176105 -0.14477032 0.0023215907 -0.16969283
-0.038171504 0.1031517 0.036758196 0.015024301 -0.16132209 -0.17034256 -0.036408905 -0.053112928

actor.4.weight f4 [128, 128]
00000000: 3430 debd 3c10 da3c e677 7f3a 2d0a 623c
00000010: 6b75 dbbd 92f0 383d bf90 c9bb bc0f 97bd
00000020: 0d62 15bd db3a 8fbd 63d4 e7bd b97a d7bd
00000030: 8df2 073e df2c 923d 54dd 843d 7c71 ba3d
00000040: c7ed f33c 98c9 f03c 8207 bd3c 4654 7cbc
00000050: 73d9 a93d ed3a 933d 486e 00be 17ff 273d
00000060: 11e7 76bd 2f44 82bb bab4 ec3c 821c 803d
00000070: 105b 023d 4c70 41bd 5163 3e3e 52a2 b63c
00000080: 7dc0 6fbd 2902 a9bc ba16 9a3c fa45 52bd
00000090: b201 be3c db45 ea3c 6575 f03d dec3 683d
000000a0: 4494 d03d bcbf 55be fb1d 25bd 1d06 2fbc
000000b0: 90e7 3b3d 3c87 33bd ddf8 b63d a614 3a3a
000000c0: da56 16bd 71b1 09bd f14c 11bd 713a 703d
000000d0: 6fd8 533b e3cd 8f3c bfd9 2b3d bad1 15bd
000000e0: 95fa 34bc 9e90 1cbc 56b0 7ebd 4a6d 773c
000000f0: 0347 83bd 7eda 123d f770 2a3d 16ac 823b
00000100: 49de 693d add9 b6bc 83b0 eb3d ce72 2b3d
00000110: 140f edbc 05dd eb3d 7383 663d b041 afbc
00000120: e157 8dbb daf0 ad3c 4469 593d 049d b4bc
00000130: 087c a83a 191c b7bd 38d4 4bbb c47c a53d
00000140: e90a 933d bcea a7bd c51c ef3c f409 923b
00000150: 0600 2d3e d875 6d3d 4a91 f7bd 841a 29be
00000160: 5f10 043d d91b 96bd ed16 623d 78b7 f2bd
00000170: 88a4 aebd 17ed fa3c c067 8dbc f375 afbd
00000180: 256c 8abd ea16 563d 5462 033e 1ac4 123a
00000190: ccec af3c 4f0c e2bd ed36 883c 975a bdbd
000001a0: e53f 173e 30a7 f03d e92b 21bd 18d4 ca3d
000001b0: c0c3 64be 91ec 883d 969b 02bd 8445 15bc
000001c0: 9e60 1bbd 8ae5 b83d 85cd 8f3d a319 49bd
000001d0: 7b9f d2bb 9181 38bd 5971 0abe d7fa 243d
000001e0: 80f1 bf3c 35d5 ffbc 6b99 8b3d b219 d53d
000001f0: f1e5 123d b3af 393d 989a c3bd b1a0 cebc
00000200: d638 64bd ec26 d93c 0beb c1bc bba8 a73d
00000210: f67a 053d 5f62 8e3d 141f 103e 6e28 55bd
00000220: c98b 913d 58dd 563d bca6 37bc bb63 bc3d
00000230: df9a 31be 4011 1dbd 7567 193b d9fe 84bd
00000240: 55d2 d8bd 13e5 bdbc 2dcb a0bb e0e2 65bd
00000250: 2a5a 2d3e ef3c ac3b 7c26 6c3d 68f9 ee3c
00000260: a9d2 c7bd 591d ca3d 7063 533d 2951 8d3d
00000270: 17f7 a13b edfb a4bd dfda a73d bc67 5cbd
00000280: c29b 5b3d 99ca 413d 3a3b 9abc 7020 613d
00000290: 5fdb 03bd e418 f1bd 5dcf 2e3d 1028 733d
000002a0: 4510 ab3c b64a e7bc 2838 0abd c6cd 43be
000002b0: 14bb 6639 7c1c 763b a1a0 7f3d 7fd6 cc3d
000002c0: bf51 3b3d 3984 ce3c 4648 48bd a24e 3e3d
000002d0: f412 c53d b33a fdbb 7092 f1bd 7a74 053d
000002e0: cd39 833d cc42 91bb f531 8d3d c3fe a63d
000002f0: 83ea e5bd b5cb a3bc 536a c4bc 10ac a03d
00000300: 2d7c 2abd 3f01 14bc 5fcc e73d b0d6 5d3d
00000310: 9e44 273d a489 023e ab1c a0bc 0eeb efbc
00000320: 25a6 18be 9ee2 82bd b6fc 98ba 968a 01bd
00000330: 624e fb3c 329e 8d3d 74aa 243c 6e3b a0bc
00000340: 77e4 5d3d c9be 3fbe bade 1f3c b81e 1a3d
00000350: a1e7 0abe c885 b43b 438d aa3d aa3b cabd
00000360: 0767 623d 62f4 96bd 4133 04bd 132f 92bc
00000370: e52d 33bd b564 c9bd 6662 423c 2a9d 15bd
00000380: 512c 8c3d 2464 523c a557 e23c cf6b b1bd
00000390: faef 49bc 0ab0 d93b ae79 b7bd a22c b23c
000003a0: 688e 6f3c aa73 b6bd 9a95 83bc 85f6 f7bd
000003b0: 0cfa e9bd 67a4 f03d 5347 2bbd 4d00 88bd
000003c0: fb82 ba3d 5b05 98bc 8bd3 e7bd 5be8 053e
000003d0: 7fcf 49bd dd6e 0c3d f8fe 4d3e af73 203e
000003e0: 638e e33d 46d3 37be 8e75 79be 1d22 c3bb
000003f0: a7b5 aabc c492 d93d 7227 babc 2aa8 57bd
-0.10849038 0.02661907 0.0009745344 0.013796371 -0.10715755 0.0451513 -0.0061512883 -0.07376048
-0.03647046 -0.06993648 -0.113198064 -0.10521454 0.1327612 0.07137465 0.064875275 0.09103677
0.029776467 0.029393002 0.023074869 -0.015400952 0.08293428 0.071889736 -0.12542069 0.041014757
-0.060278956 -0.0039754133 0.02889477 0.062554374 0.031825125 -0.047226235 0.18592574 0.022294197
-0.05853318 -0.020630913 0.018809665 -0.051336266 0.023194168 0.028597763 0.11741141 0.05682742
0.101845294 -0.20873922 -0.040311795 -0.01068261 0.045875132 -0.04383014 0.08934186 0.0007098414
-0.03670392 -0.033616487 -0.035473768 0.058649484 0.003232505 0.01755423 0.041955706 -0.036576964
-0.011046072 -0.009555964 -0.062179886 0.01510174 -0.06410029 0.0358529 0.041611638 0.0039877994
0.057096753 -0.022320593 0.11508276 0.041857533 -0.028937854 0.115167655 0.056277703 -0.021393627
-0.0043134545 0.021233011 0.053078905 -0.022047527 0.0012854347 -0.08940906 -0.0031101834 0.08080438
0.07179815 -0.08199069 0.029188523 0.004456753 0.1689454 0.057973713 -0.120882586 -0.16514021
0.032242175 -0.0732953 0.055197645 -0.118514 -0.085274756 0.030630631 -0.017261386 -0.08567419
-0.06758908 0.052267946 0.12830478 0.00055986794 0.021475218 -0.11037504 0.016627753 -0.09245794
0.14770468 0.117506385 -0.039348517 0.09903735 -0.22340298 0.066857465 -0.03188666 -0.009110812
-0.03793394 0.09028156 0.070216216 -0.049096715 -0.006427703 -0.04504544 -0.13519801 0.040278282
0.023430586 -0.031229595 0.068163715 0.104052916 0.03586382 0.045333575 -0.09550971 -0.025223108
-0.055718265 0.026507817 -0.023671648 0.0818648 0.032587968 0.069523565 0.14074355 -0.05204051
0.0710674 0.052457184 -0.011209186 0.091987096 -0.17344235 -0.03834653 0.0023407612 -0.06493921
-0.10586993 -0.02318052 -0.004907033 -0.056124568 0.16928926 0.0052562873 0.05765389 0.02917166
-0.09756977 0.09868879 0.051608503 0.06900246 0.0049427855 -0.080558635 0.08196043 -0.053809866
0.05361534 0.047312353 -0.01882707 0.054962575 -0.03219163 -0.11772326 0.042678226 0.05936438
0.020881781 -0.028233867 -0.03374496 -0.19121465 0.00022004201 0.00375536 0.062409047 0.100018494
0.045732256 0.025209533 -0.04889705 0.04646171 0.09622756 -0.0077279448 -0.11795509 0.032581784
0.06407509 -0.0044330116 0.06894294 0.08154061 -0.1122637 -0.019994596 -0.02397648 0.07845318
-0.04162233 -0.0090335 0.113182776 0.05415982 0.040836923 0.12747818 -0.01954492 -0.029286887
-0.14907129 -0.0639088 -0.0011671993 -0.031626306 0.030677024 0.06914939 0.010050405 -0.019559588
0.05417296 -0.18725123 0.009757692 0.037626952 -0.13564922 0.005509112 0.08327725 -0.09874661
0.055274036 -0.07370831 -0.032275442 -0.017844712 -0.04374494 -0.098336615 0.01186428 -0.036526836
0.0684439 0.012841258 0.027629683 -0.08663141 -0.012325281 0.0066433 -0.089587554 0.021749798
0.014621355 -0.0890878 -0.016062547 -0.12107567 -0.11424646 0.11750107 -0.041816067 -0.06640682
0.09107014 -0.018557241 -0.113196455 0.13076918 -0.04927015 0.034285415 0.20116794 0.1566913
0.111111425 -0.17951688 -0.2436125 -0.0059549944 -0.020838572 0.106236964 -0.022723887 -0.052650608

actor.4.bias f4 [128]
00000000: 4ab5 0dbe a9e8 fdbd e7d8 1dbd 9454 be3d
00000010: f067 16bd 99a7 2ebe 9690 01be 7dd1 bebd
00000020: 33be 863c 3eb4 0ebe c873 50bc d382 3fbb
00000030: f0bf 13be d4d8 15be d8ae 02bd b5eb 19bd
00000040: 6857 a6bd 1eb9 d3bd 934b 7dbd 7efe 00be
00000050: 7fed adbd d67f 8739 0225 3cbc 77c1 60bb
00000060: 331d 62bd bb6b 76bd 2c57 67bd f0d5 093c
00000070: f76a 88bd e69b 03bd 170e 8bbd b0ef 98bc
00000080: 4540 1bbe 8f0c 613c f843 e2bb cb5c 28be
00000090: 4f38 a8bd 722e 1ebd df58 c0bd d6ba afbd
000000a0: f95c 8dbd 8b05 9d3d ff83 c5bc 0383 e0bd
000000b0: b3ea 48bd 7fae 95bb 8d0e d33d b0e0 fcbc
000000c0: 392f b6bc 774c 54bd 17fa 093d e27f 67bd
000000d0: 4f0f d33b ea51 2abe 6820 1abe 87ad 25bd
000000e0: 7cf5 b5bd 3633 a0bd eb09 c5bb 449f ddbd
000000f0: 0d86 c0bd 8263 19bd cd20 bbbd b785 a9bd
00000100: 6412 c73b 0e92 423d e359 06be c5da 26bd
00000110: 1ea2 15be ce7b 1cbe bfc0 59bd 3bf5 c1bb
00000120: 417d 8abd ed46 e03c f098 d7bd 8a13 d5bd
00000130: 2216 acbd dfdf 193d 587b a0bd 6b44 bc3c
00000140: d2ca 0abe 0d93 14be 88e7 06be 8a09 e3bb
00000150: 3131 803c 43c3 02bc 696d c0bd 98e0 24be
00000160: ea6a 40bd 068f bebc efb6 13be 7b27 a13b
00000170: 4e12 b13d 048f a3bd 33da 38be 07dc d33b
00000180: 9507 10be 9cee f1bd 2e68 83bd d247 0ebe
00000190: 4cd6 e3bd 5cb1 c8bd 9894 2fbe 1b4c 5e3c
000001a0: 9960 46be f2ce 3bbd a2c6 77bc af66 82bc
000001b0: 7636 1b3c 41e4 82bd a884 1bbd 3bec 3fbd
000001c0: de14 97bd e5f1 e4bd 2fe2 c2bd 5999 85bd
000001d0: 8ca3 313d 8dfa 973c fa24 43be 008d 543d
000001e0: fb39 2abe 6a09 6bbe 1ad8 3cbb d2c6 2abe
000001f0: f564 e3bd 8375 c4bd cfa6 5abd 9824 dfbd
-0.13838688 -0.12397892 -0.038536932 0.09293476 -0.036720216 -0.17056121 -0.12652811 -0.093173005
0.016448116 -0.13935944 -0.012722917 -0.0029222264 -0.14428687 -0.14633495 -0.031905025 -0.037578303
-0.0812214 -0.10338043 -0.06183965 -0.12597081 -0.084925644 0.00025844452 -0.011483433 -0.0034295002
-0.055203628 -0.060161334 -0.056479618 0.008412823 -0.06661027 -0.0321311 -0.06789797 -0.01866898
-0.15161236 0.013735904 -0.006905075 -0.16441648 -0.08213865 -0.038618512 -0.09391951 -0.08580558
-0.06902499 0.07667073 -0.024110792 -0.109624885 -0.04905195 -0.0045679207 0.1030551 -0.030868858
-0.022239314 -0.051830735 0.03368577 -0.056518443 0.006441034 -0.1663281 -0.15051425 -0.04044869
-0.08884713 -0.07822268 -0.006013145 -0.10821393 -0.09400568 -0.037448414 -0.09137116 -0.08277457
0.0060751904 0.04750257 -0.13120227 -0.04073598 -0.14612624 -0.15281603 -0.053162333 -0.0059191263
-0.067621715 0.02737757 -0.105272174 -0.104041174 -0.08402659 0.037567016 -0.07836026 0.022981843
-0.13553932 -0.1450922 -0.1317426 -0.0069286274 0.015648456 -0.007981124 -0.09395868 -0.161013
-0.04697696 -0.023261558 -0.14425252 0.0049180365 0.086460695 -0.079862624 -0.18051986 0.0064654383
-0.14065392 -0.11813089 -0.06416355 -0.13894585 -0.11124858 -0.097994536 -0.17146528 0.01356795
-0.19372787 -0.045851655 -0.015123041 -0.015918104 0.009473434 -0.06391192 -0.037968308 -0.046856146
-0.07377027 -0.1117895 -0.09515797 -0.06523389 0.04336886 0.01855209 -0.19057074 0.05189228
-0.1662368 -0.2295281 -0.002881533 -0.16677406 -0.111032404 -0.09592726 -0.053381737 -0.108956516

actor.6.weight f4 [27, 128]
00000000: 9aa1 64bb 1505 0a3c dfc1 2ebc 5bc5 bbbc
00000010: e34b dd3b e65d 1ebd 0799 fc3c 8885 bd3b
00000020: eb2f 9b3c 297c 97b9 1caf d83b 9e01 8abc
00000030: c111 a2bc 8db4 bd3c e338 ed3c 6994 433c
00000040: c5c3 c43a bbc0 fa3b 3cb7 873a 3263 773c
00000050: 545b 70bd 4714 bbbb 3ab8 ebbb 70cb 7fbb
00000060: 8935 f43b 82bf d439 1882 da3a a2ed ad3c
00000070: 2e7e 04bb bba9 06bc 1cd6 5c3b 90e3 b43c
00000080: 5976 2b39 0a0a 723b 6996 2639 6d0a b73c
00000090: f384 80bd d4a0 c13c 6ae4 08bb 92bf 083d
000000a0: 89b9 a5bb 9033 b83c c5bd 8abc e4c0 ba3c
000000b0: 2fa5 c3bc 653d 803c a638 033b 3291 38bd
000000c0: f860 403c 8abd 033c 1de0 763b 80a6 93bb
000000d0: 4d2f 03bd 1861 8e3c f93d e3bc 080c 4d3b
000000e0: 02d4 a63c d6c7 aebc 6dd8 1f3b 3a75 c33a
000000f0: 691c fd3c 2c99 753b 9c35 bab9 7903 db3c
00000100: d837 9b3b 8f17 99bb e91d 16bb af03 afbb
00000110: f6fb 5bbc 0437 f5bb ed5d 86bc 7177 0439
00000120: 41f9 953c e03f 81bb ecfd a13b 8786 72bb
00000130: 80f3 46bc a9c3 8a3c a05b 70bb a60c 15bc
00000140: 8bd0 6b3c 8e48 b63b 9783 fabc 13de 81bc
00000150: 3cfe 033b b907 ed3c 2079 f2bb cc68 5e3c
00000160: 171f dd3c 42a8 c839 3455 30bc de1a e03b
00000170: 88fa 38bb eff0 ffbc dc00 60bd ae5d 37bc
00000180: d911 66bc 421c c13b 7da7 803b eb4c 7d3c
00000190: c141 ae3c 1669 d3bb 75fd 043d 12f9 87bc
000001a0: f7f3 1abc f6d9 34bd 4679 433c 6f09 92bc
000001b0: 452a 68bc e021 0a3c 2fc1 2bbd 8e74 8cbc
000001c0: 597c 213c 0139 a23c afc0 483c 6239 1bbc
000001d0: 6100 35bc 0b37 23bd f105 0a3d cf7d 423d
000001e0: 139f 26bc dbd5 143d 8381 013c 5271 c33a
000001f0: b2ba 1abc d448 ddbb c70b 87ba 1776 d2bc
00000200: f683 873b dc57 533d fafa 57bb 6012 a838
00000210: e55b 923b 0516 d9bc 7364 52bc 5f98 903c
00000220: a9c8 92bc 3b35 24bb 10b3 0c3c c2dc b53a
00000230: c1e8 a23c 5f83 ddbc 0a0c 66bc bc0f 5d3c
00000240: 1945 23bc c020 4e39 328f 1c3c b92a a2bb
00000250: 3f69 083d c35c 9b3b 0672 06bc b800 86bc
00000260: f444 b93b 018b a2bc aaf9 d5bc 8728 d53b
00000270: a924 4abc 62f3 f6bb 9f40 c2bc 071a 893c
00000280: 3d0d 2ebc 26e8 083d c11d b43c 0f32 dabc
00000290: 86da 3e3d ae31 0f3c 68d1 f8bb 6c2d 5ebd
000002a0: 8271 21bc 160b d1bb 7b53 53ba f725 8d3b
000002b0: 25d0 403c b90b 9c3c 6166 833c fa4e 31bc
000002c0: 2f34 353a 837f 0dbd 2174 633c 4ba6 0e3d
000002d0: 0d9f c6bb f1d0 0bbd edd0 c73c 32c6 9e3c
000002e0: b422 153d 993b 31bd 6487 153c e52f 263c
000002f0: 39f9 b8bc 41c9 9eb9 461f 7abb cee9 5c3d
00000300: dd37 3f3c 0ef4 fc3b 1ec4 5c3b 6c6a 52bc
00000310: a871 363d d464 a9bc 83ba 833c 841f 96ba
00000320: 473b 8d3c 4e54 343c cdfa a03c 6330 52bc
00000330: c2ba aa3c 3cac 01bb 2edd 563b 2d10 073c
00000340: cd2a c23a 67d2 01bc 34be 71bc 7387 433c
00000350: f898 2b3b 9598 f3bc 2c6b 983b 7692 b7bc
00000360: 3968 d4ba 0122 753c c48d 8abc 59ef 1dbc
00000370: 1185 e9bb 8448 8fbb 2e92 4e3c f11e be3a
00000380: 736e e63c 6799 e4bc 60dc 023c e091 c03c
00000390: 41e5 72bb 9c6e 313c cd5f 433c 9f9a 97bb
000003a0: 4bbb bc3b 6af0 79bb a1b9 6bbc c29e 963c
000003b0: 2fb5 4c3c a249 7c3b ddd6 fe3c 5994 143c
000003c0: 77d8 ea3a adac 0bbb 5caf 59bc 4898 80bc
000003d0: 8cff 5abb 5128 b73c f997 1c3c a3fd 34bd
000003e0: 75b3 a2bb 01ed a4bc 885a 2dbb c59c 073c
000003f0: 002c 88bb be5c e73c 149e c83c 8d6b 923b
-0.003488636 0.008424063 -0.01066634 -0.022921255 0.006753431 -0.038663767 0.030834688 0.0057837404
0.018943748 -0.0002889347 0.0066126715 -0.016846474 -0.019783856 0.023157382 0.02895779 0.011937239
0.0015011957 0.00765237 0.0010354291 0.015099334 -0.058680847 -0.0057092044 -0.0071935924 -0.003903117
0.007452671 0.00040578475 0.0016670851 0.021231476 -0.002021681 -0.008219178 0.0033696955 0.022081167
0.00016351919 0.0036932253 0.00015887026 0.022343839 -0.06275358 0.02363626 -0.0020888099 0.03338582
-0.005057518 0.022485524 -0.016936192 0.022797056 -0.023882477 0.015654275 0.0020022779 -0.045060344
0.011741869 0.008040795 0.0037670203 -0.0045059323 -0.03202753 0.017380282 -0.027739512 0.0031287689
0.020364765 -0.021335524 0.0024390474 0.0014912256 0.030897336 0.003747533 -0.00035516627 0.026735054
0.0047368817 -0.004671998 -0.0022906011 -0.0053410153 -0.013426771 -0.007483365 -0.01640221 0.00012632996
0.01830733 -0.003944382 0.0049436 -0.0037006454 -0.012143016 0.016939001 -0.0036675707 -0.009097254
0.014392982 0.0055628484 -0.030580325 -0.015852964 0.002014055 0.028934347 -0.007399693 0.01357479
0.026992364 0.00038272334 -0.0107625015 0.0068391403 -0.00282255 -0.031242816 -0.05468832 -0.011191769
-0.014042341 0.005893261 0.003926216 0.015460233 0.021271588 -0.006451736 0.032468278 -0.016598258
-0.00945758 -0.044153176 0.011930769 -0.017826764 -0.014170234 0.008430928 -0.04193228 -0.017145421
0.009856307 0.019802572 0.012252971 -0.00947413 -0.011047454 -0.039847415 0.033697072 0.04748326
-0.010169762 0.03633676 0.007904413 0.0014911091 -0.009443926 -0.0067530666 -0.0010303193 -0.025691075
0.004135604 0.05159746 -0.003295599 8.014287e-05 0.004466521 -0.026499758 -0.012841332 0.017650781
-0.017917948 -0.0025056142 0.008587614 0.0013874995 0.019886376 -0.027040182 -0.014040956 0.013492521
-0.009965205 0.00019657891 0.009555625 -0.0049489406 0.033303495 0.0047412827 -0.008205896 -0.016357765
0.005653972 -0.019841673 -0.026120026 0.0065050754 -0.012337842 -0.0075363377 -0.023712454 0.016736044
-0.010623273 0.03342452 0.021986844 -0.026635198 0.04659512 0.008739872 -0.0075933225 -0.054242536
-0.0098537225 -0.0063794954 -0.0008061451 0.0043075043 0.0117683755 0.019048559 0.016040029 -0.010822052
0.0006912378 -0.034545433 0.013882668 0.034826558 -0.006061441 -0.03413481 0.024391616 0.019381616
0.03641005 -0.043269727 0.009126518 0.010143255 -0.022579776 -0.00030286054 -0.0038165613 0.05393391
0.011671034 0.0077195233 0.003368623 -0.012842756 0.044541985 -0.020677961 0.016080147 -0.0011453484
0.01724018 0.011006428 0.019650841 -0.012828919 0.020841006 -0.0019786498 0.0032785642 0.008243603
0.0014813781 -0.007923699 -0.014754821 0.011934149 0.0026183706 -0.029735843 0.0046514478 -0.022408705
-0.0016205377 0.01496172 -0.016913302 -0.009639584 -0.0071264585 -0.004372658 0.012608094 0.0014505071
0.028128838 -0.02790518 0.007987112 0.023507059 -0.0037062916 0.010829594 0.011924696 -0.0046265866
0.0057596317 -0.0038137683 -0.014387519 0.018386248 0.012494369 0.0038496037 0.031108314 0.009068572
0.0017917295 -0.002131264 -0.013286438 -0.015697613 -0.0033416478 0.022358092 0.0095577175 -0.0441872
-0.0049652406 -0.020132544 -0.0026451666 0.008277123 -0.004155636 0.028242465 0.02448944 0.0044683875

actor.6.bias f4 [27]
00000000: 8167 92bc 9ae7 de3c d151 acbc e137 8fbd
00000010: a050 ec3c 9db1 debd fbf8 e63b 0f06 353d
00000020: 5cc4 5abd 8ecc d3bb 2a7e a93d 5c12 36be
00000030: d812 c2bd fe1f 06bd f153 083d d8de 6e3d
00000040: a3f1 6cbd 9aba d5bd b2d0 80bd 1fe3 b8bd
00000050: 0b79 2a3e deee 343d a67f 8bbd d6fe 36bc
00000060: 2983 fbbc 527a 823d 9e1d 123d
-0.01787162 0.027210046 -0.021035107 -0.0699308 0.028847039 -0.10873721 0.0070487238 0.04419523
-0.05340992 -0.006463594 0.08276017 -0.17780441 -0.094762504 -0.032745354 0.033283178 0.05831799
-0.05784763 -0.10435982 -0.062898055 -0.09027695 0.16647737 0.044173114 -0.068114564 -0.011169156
-0.03070219 0.06370987 0.035672776
