IsaacLab/logs/rsl_rl/h1v2_flat/2025-03-06_17-13-35_final/exported/policy.onnx (onnx, 195410 bytes, 8 tensors)

actor.0.weight f4 [128, 93]
00000000: 4b1f ce3e a1c0 41bf 397a 613e 6779 373e
00000010: 2283 973e b948 8cbd 839f 653f 1256 d2be
00000020: 9d69 073e 0549 3b3e 3d68 5bbd b876 e53d
00000030: a6a2 8f3e a3e4 1d3e 04f0 33bf 7e03 b53e
00000040: 1eda bcbe ffef 85bf 7554 473e ada2 873e
00000050: 975e 31bf 7798 ebbe 50b9 fa3e 09d1 27be
00000060: c3cb 5cbe aff6 e9be 0a16 3a3c c26d 2ebf
00000070: 3f42 8f3d 4032 183f e590 f5bd 110b 5fbd
00000080: 81ae acbe 1182 6f3f 5be7 96be 6eeb a13f
00000090: 4695 cdbc 04d0 5cbf 5688 d9be f2a7 513b
000000a0: 5b8c e93c 1660 23bd ad33 653d e666 213c
000000b0: a1c7 7d3b 6c94 5b3d 4f29 7bbd cb68 2f3d
000000c0: 1ff7 dfbb 8299 2dbd dd59 d1bc 5669 163c
000000d0: 2df5 92bc 8358 c73b a2bf 81bd 8e88 b23c
000000e0: 9d9d 13bd 1fef 83bd a4f3 843d d78b 073d
000000f0: e3de 81bd 9cbc 0f3d 13d4 2cbd c4c3 5f3d
00000100: ff5b f3bc 427b 1f3d 5db0 9fbd 1b93 b1bd
00000110: 4449 2bbe 84c7 3cbe e01d cdbc 4d4c 4cbe
00000120: 0b3f 87bd e9e0 6b3d 5df7 4f3d a4eb 47bd
00000130: b146 8fbd fcc4 ac3d 5818 27be 9fbf f93c
00000140: 1e9e 66bd dada 9a3d 9d76 16be 2b3b 233d
00000150: eec2 933d efcf 343d de98 183e 5c64 083e
00000160: c862 61bc 511d 063d 2bf7 afbd dac3 163d
00000170: 60f4 75bd 2ce2 01bf ca5a b33e 8a1b b8be
00000180: 6c57 113e 3529 e2bc 0626 1dbe 98c7 19bf
00000190: 040d a2be 13e8 0b3e bb98 f73d dc30 b93c
000001a0: efc5 be3e e148 363d f7b7 ea3c eaf4 acbe
000001b0: c21e 063e ab8a a4be c965 793d be48 173e
000001c0: 11e4 3e3d 5401 bbbe 8ce3 babe c431 26bf
000001d0: e20d 56be 55d6 14bf 0566 97be 1b27 f8be
000001e0: 1dd8 233e 21ba 783e f8a1 48be f8ef bfbe
000001f0: c07d c2be 4d6d 043b e97f 3ebe 61bb d8be
00000200: b962 90be 610c 90bd e146 793d 8321 c33e
00000210: b685 ddbb f988 babc c683 e1bd 78f8 c6bc
00000220: 7201 cb3d 82be ec3b c20e 3a3d 3c21 c4bc
00000230: a798 9f3c 0865 d1bc af11 c9bd 130d a83c
00000240: 70ff bebd fa2d 853c f8fe 923b 9be5 44bc
00000250: d9a0 263e a654 02bd e215 273d 5e52 d4bc
00000260: 9806 353c a901 d5bb 9bdb 0c3d e6bb b23c
00000270: 62ce 2b3d cc58 05bd bd67 4ebd 07e7 e2bd
00000280: e37e 41bd 6f58 45be f5c2 073e 0b60 be3d
00000290: 95fe 28bd e195 31bb 2761 3bbe feb2 433e
000002a0: 0ed3 70ba ffc2 a53c 8521 9cbc 0dff 9a3c
000002b0: 1fe5 54bd c548 acbc dece 733e e289 2dbe
000002c0: 9a59 193e 3b82 713d ba88 d83d ac52 66bc
000002d0: e0c4 7d3c 6f94 a4bd 321e 51bd 519f e2bd
000002e0: 1e39 1fbc 3f63 a93d f52b 0fbc 38ed 33be
000002f0: 506c c8bc 7ec8 2b3e 7159 123d 86b3 92bd
00000300: 5504 e2bd 9965 15be 1b21 703e 454a 933b
00000310: ecbc 8bbd f2f7 6b3d 0c57 883d ad61 2c3f
00000320: 6cfc f4be dbd6 983e c2f3 e6be 7e57 a63d
00000330: fd7f 0d3c b50d 003f e2b3 373f e149 11be
00000340: f89a adbe 7313 09be f24f 8b3d 9957 fe3e
00000350: 9b06 23be b640 97bc ad03 b93e 7efc 9c3e
00000360: 1e7f 663d 38b2 70bd afb4 53bf 5096 e83c
00000370: ab6c 18bd 7543 b0be 2cf2 df3e 3cb5 1b3e
00000380: cdba 993e 1710 08bd 94e1 62bd 7b1d b03d
00000390: f194 dcbd 1dc3 883b d615 1b3b 4c75 8dbc
000003a0: c2ac 97bd d9c7 df3c 3805 aabd 0275 103e
000003b0: ff6c 1fbd b851 c9bc c0b0 a1bd 6557 20bd
000003c0: ec45 3abd cc9d 15bd 12cd 67bd bbb6 6dbd
000003d0: 4f5c 14bc 9df9 dd3d b99f 9cbc 1436 813d
000003e0: cd39 fcb9 e90b 82bc 609c 003d fb14 76bd
000003f0: 6234 20be 5e8c 533e 5860 65be 3f9d 6abd
0.4025825 -0.75684553 0.2201928 0.17917405 0.29592234 -0.06849808 0.8969652 -0.4108129
0.13223882 0.18289573 -0.053566206 0.112042844 0.28053778 0.15419249 -0.7028811 0.35354227
-0.3688516 -1.0463866 0.19465812 0.264913 -0.6928496 -0.4601476 0.48969507 -0.16388334
-0.21562104 -0.45696017 0.011357794 -0.6813623 0.06995057 0.59451675 -0.11990527 -0.054453913
-0.33726886 0.9355784 -0.29473385 1.2649972 -0.025095593 -0.86254907 -0.4248683 0.0031990972
0.02850931 -0.039886557 0.055957485 0.009851193 0.0038723724 0.053608343 -0.06131869 0.042824548
-0.006834879 -0.042382725 -0.025555545 0.0091803875 -0.017939175 0.0060835495 -0.06335379 0.02179363
-0.036038984 -0.06442093 0.06491783 0.033092346 -0.063413404 0.03509198 -0.042194437 0.054630056
-0.029706953 0.038935907 -0.077973105 -0.08670636 -0.16727167 -0.18435484 -0.02503866 -0.19950981
-0.06603821 0.057587538 0.050773013 -0.04880871 -0.06995905 0.08436009 -0.1631788 0.03048688
-0.056303136 0.07561274 -0.14693685 0.03985135 0.07214914 0.044143613 0.14902064 0.13319534
-0.013756461 0.032742802 -0.085920654 0.036807872 -0.060047507 -0.50735736 0.35030204 -0.3595851
0.14193505 -0.02760754 -0.15346536 -0.6007018 -0.31650555 0.13662748 0.12089678 0.022606306
0.37260386 0.044503096 0.028652174 -0.33780605 0.1309767 -0.32137045 0.060888086 0.14773843
0.04660422 -0.3652445 -0.3650173 -0.64919686 -0.20903733 -0.58139545 -0.29570022 -0.48467335
0.1600041 0.24289753 -0.19593036 -0.3748777 -0.37986565 0.002020675 -0.18603481 -0.4233046
-0.2820032 -0.07033611 0.06085861 0.38111505 -0.0067603244 -0.022770392 -0.11011462 -0.024288401
0.09912385 0.0072248587 0.04542423 -0.023941629 0.01948197 -0.02556087 -0.09817826 0.020514047
-0.093260646 0.016257275 0.004485961 -0.012017633 0.16272296 -0.03181901 0.040792353 -0.025918182
0.011048935 -0.006500442 0.03438912 0.021818113 0.04194487 -0.032555386 -0.0503919 -0.11079221
-0.04724015 -0.19272016 0.13257964 0.092956625 -0.041258413 -0.0027097391 -0.1829878 0.19111249
-0.0009186723 0.020234583 -0.019058952 0.018920446 -0.05197632 -0.021030793 0.23809382 -0.1694713
0.14975587 0.058962088 0.105729535 -0.014057796 0.015488833 -0.08036124 -0.051054187 -0.110655434
-0.009718208 0.08270883 -0.0087385075 -0.1757096 -0.02446571 0.167757 0.03572983 -0.07163148
-0.110359825 -0.14589538 0.23450129 0.0044949376 -0.06823143 0.057609506 0.06657228 0.6733654
-0.47848833 0.29851422 -0.45107847 0.081221566 0.008636472 0.50020915 0.71758854 -0.14188339
-0.33907294 -0.13386326 0.06802358 0.49676207 -0.15920489 -0.018463474 0.36135617 0.30661386
0.056273572 -0.058763713 -0.82697576 0.028391987 -0.03721301 -0.34426466 0.4373945 0.15205854
0.3002533 -0.03321847 -0.05539091 0.08599373 -0.10770596 0.00417365 0.0023664138 -0.017267846
-0.07405998 0.027316974 -0.08301777 0.14107135 -0.038922306 -0.0245751 -0.078950405 -0.039145846
-0.04547684 -0.03652744 -0.056592055 -0.058035593 -0.009055211 0.108386256 -0.01911913 0.06309143
-0.0004810825 -0.01587482 0.03139913 -0.060078602 -0.15644982 0.20659015 -0.22400033 -0.057278868

actor.0.bias f4 [128]
00000000: eb51 dbbd bd97 d8bd d64d e5bd 6f63 c63c
00000010: 2ffd 1fbe 290f a53d dff5 90bd 36b9 8fbc
00000020: d27f 4ebe f6b1 91bd a1f8 ad3d 4297 973b
00000030: 4c96 61be 2619 0e3d 569f 10bd 9477 12bb
00000040: 1dfd d13d fc7f 563c bb8d 843d 674d 4c3e
00000050: 477a c0bc 4529 9bbc edfb 7d3c 934d c63a
00000060: bb6a 0fbe e1eb 803e a87b 843d e7f7 943d
00000070: 7d2d 623c 0870 80bd befc 57be d2bb 05be
00000080: a4d9 d03d 0c6b 1bbe c1bd 36bb 4414 ef3c
00000090: 5180 113e 8cbf 09be e990 25bd f8a2 ee3c
000000a0: acda f73c a948 8bbd 5ed7 9b3d 6312 90bd
000000b0: 3c83 fabd 2f01 ab3d 43c4 28bd d6f2 e23d
000000c0: 7377 41be ae89 f33c 1dc4 91bd b6b2 0e3c
000000d0: 412e 91bd be4d 42bd 4d01 253d ba31 23be
000000e0: c6b6 4abd b987 533c 0713 41be c7fd 11be
000000f0: c607 93bd 11ae 89bd ef71 4a3d fe28 01bb
00000100: c162 b7bd 922e 873c afb1 9abd c2a5 f1bd
00000110: 3049 383d 52ec 3dbd a4ee af3b e017 04be
00000120: b014 b1bd 73de 883d 75a6 f63d 9cb0 3dbe
00000130: 051d 96bd 1508 a9bd 4422 e5bd 9c00 01bd
00000140: 6ab0 e4bd 1a38 f3bc 6d06 a33d 3ac3 cd3d
00000150: 8d23 1dbe a60c f3bd 2466 a63c 0237 dc3d
00000160: c206 92be b852 1abd 7589 d63c 16cf cdbd
00000170: c616 14be 2fb5 1dbe b3d2 31bd 02b9 b53d
00000180: e92f 3fbd 12f3 0e3d 5b75 c6bd c8c1 13be
00000190: 26f7 15be fe8e 503d f2bd e2bd a28a 3e3e
000001a0: 816f 003e d511 31be ee61 cabc 0d97 52bc
000001b0: d2ce e83d 6022 fbbd eaa7 153e 83ce e9bd
000001c0: d741 1d3e a84b 1cbe 84e8 bbbb 38a2 c3bc
000001d0: 4deb f0bd 6b10 11be b24a 02bd 832c e6bd
000001e0: 0cf4 b93d c499 58bd 9702 733c 538e 38be
000001f0: ee3d b9bd f70a 653d d5a4 cbbd 083f 0cbe
-0.10708984 -0.10575817 -0.11196487 0.024217336 -0.15623926 0.08059532 -0.07078146 -0.01754437
-0.20165947 -0.071140215 0.08494688 0.0046261856 -0.2202999 0.034691952 -0.035308205 -0.0022349106
0.10253356 0.013092037 0.064723454 0.19951402 -0.023495806 -0.018940577 0.015501958 0.001512932
-0.14005558 0.2517996 0.06468898 0.07273846 0.013804791 -0.06271368 -0.21092507 -0.13059929
0.10197762 -0.15177554 -0.0027884098 0.029184468 0.14209105 -0.13451976 -0.0404214 0.029130444
0.030255638 -0.06800968 0.076094374 -0.07034757 -0.12232062 0.08349835 -0.041202795 0.110814735
-0.18893223 0.029728737 -0.07117484 0.0087096 -0.070889 -0.047437422 0.040284444 -0.15936938
-0.049490713 0.012910777 -0.18854915 -0.14256965 -0.07179217 -0.06722654 0.04942506 -0.001970827
-0.08954383 0.016501699 -0.07553422 -0.11799194 0.044991672 -0.04636795 0.0053690244 -0.12899733
-0.08646524 0.06683054 0.12043468 -0.18524402 -0.07329754 -0.08253495 -0.11188176 -0.03149472
-0.11166461 -0.029689837 0.0796021 0.10047002 -0.15345593 -0.11867647 0.020312376 0.107526794
-0.2852078 -0.037676543 0.026188591 -0.10049264 -0.14461812 -0.15401147 -0.04341383 0.08873178
-0.04667655 0.03489978 -0.096903525 -0.1442939 -0.14645061 0.050917618 -0.110713854 0.18607572
0.12542535 -0.17291959 -0.0247049 -0.012853396 0.11367573 -0.12262416 0.14614835 -0.11416342
0.15357147 -0.15263236 -0.005734505 -0.023881063 -0.1176363 -0.14166419 -0.031809516 -0.11238959
0.09079751 -0.052881017 0.01483216 -0.18023042 -0.09045015 0.05591866 -0.099435486 -0.1369592

actor.2.weight f4 [128, 128]
00000000: 15cd eb3b 6689 eb3d 5b10 543d aa37 ebba
00000010: e326 47bd 6ce0 7b3a 8589 97bd 3420 7ebd
00000020: 2bcb 383b 19fa 443d e218 9339 2b98 cfbd
00000030: dc1f e9bd 1092 ef3c 2acf d7bd 7fd2 b33c
00000040: d393 6ebd 1d4a dbbd babd 10be 36d8 f4bd
00000050: 4b88 2bbc ea0a 4bbd 8ad2 e6bd 7eca a8bd
00000060: dee8 17be dd66 1cbc fcc6 ba3d 010e 9cbc
00000070: e2d3 903c b745 4ebe 7814 44be 3d51 6cbe
00000080: 4060 e2bd 54d8 d03d 2a39 fb3d d802 24bd
00000090: a974 5cbd 1df2 2dbd 6f02 a73d fd3c 023d
000000a0: 9c61 67bd a07f 97bd f6e4 acbb 71ef e73d
000000b0: ba2b 23bd e9c3 11bd 58b1 183c 80ee 8ebc
000000c0: 43e4 dbbd d268 29bd c781 2c3e 1657 d43d
000000d0: c4a3 32bd ef1f cebd 6cf6 403d b974 cc3d
000000e0: fa1e ac3d ee1f 483d c6ad c4bd c4c7 ce3d
000000f0: dad1 023e 3b4f c0bd df61 57bd 42fc ec3c
00000100: f0b1 6fbd 48e5 87bd 8d95 1cbe c33e 11bc
00000110: 52c1 8b3d 4a35 f7bc 3ee9 f63c a85a c83d
00000120: c4f8 32be 60c1 c3bd 1d6d dbbd 139d cbbd
00000130: d6ec c8bd 3550 493d d8c5 2d3d ef3b e4bd
00000140: 4720 43be 1460 9dbd 7e6b 0f3d 569a 22be
00000150: 1406 21bd 8939 523d 1d0a 1abd d5fd 2abb
00000160: bcc1 563d 1444 8f3d 9754 8fbd aa74 cf3d
00000170: 72fa d9bd 0c20 9abd bdba 953d 803a 053e
00000180: 1346 94bd 5032 f2bd 1316 8dbd 97ca ffbc
00000190: e624 113d e260 833d 4171 963b fab0 6abd
000001a0: 38ab 6fbc 93d6 d93c 2ffb 2e3d dad3 a43c
000001b0: bc00 c3bd d97d 98bd dade ac3d 2eb3 cfbd
000001c0: 17d7 33be 8b71 df3d 449a ea3d a4d6 bfbd
000001d0: 0ab6 d1bc c1a1 913d c586 a43d e79b bdbd
000001e0: 0dcf fcbd fa72 41be 6498 a73d ed32 753e
000001f0: c347 0d3c 9940 5e3d dc84 2b3d b065 1cbe
00000200: f687 943d 217b 2fbe 9465 9dbc 90aa dabd
00000210: eab4 ebbd 2199 c0bb 110d 643d 3ae0 b43c
00000220: f386 883b 9be1 56be de31 f03c 243b 4bbd
00000230: 4c95 373d 0fc6 a53c 1fd6 823d 9377 30be
00000240: 4bd5 74bc 670d f0bc d5f4 873d f3a9 0bbe
00000250: fe52 3f3d af0e 783c 30bc b73d ff65 0ebe
00000260: ccd2 aabd b835 a83d 626f babd fbdd 13bd
00000270: 29f9 ddbc 6543 673d b2bd da3d 6f24 823d
00000280: 9690 2b3d 960d 9bbb 6cd6 dc3d f07b f73d
00000290: e263 46bc f6c3 fa3d 9eef f9bd 5cfa e8bd
000002a0: 47da d63d fb07 993d 5d41 d7bc 7857 75bc
000002b0: 6103 3b3d 52cc 2cbd a81e 613d 36af 0e3e
000002c0: 1b15 3fbe c784 8dbd ed0b 073e fe26 873c
000002d0: 5543 babd b817 ec3d be9d 58bc fe15 27bd
000002e0: 2350 8e3c 1a02 0d3e 3f1d 0abe ba5d d23d
000002f0: 9893 d93d ab94 51bd 9477 d9bd cdbd a33d
00000300: 2748 74bd a413 aabd 5208 e1bd e8d7 4d3e
00000310: 78f2 c0bd fba5 64bd fa35 6f3c c803 e7bd
00000320: dc5e 813c 5801 f8bd e59b 07be d912 85bc
00000330: fbf4 c7bd a76b 843d 7cec 343e 49c2 b53c
00000340: 35da f7bd 5410 733d 1e2b 3abe d7df b53d
00000350: de0c 143c f230 7a3d 663c 6c3e 89b1 6c3d
00000360: c72b 3c3e 4516 b53d e840 903c 23a3 503d
00000370: 1232 7bbd b8fc c8bc a4ed c53d 0991 30bd
00000380: 0e1b 803d 8ee1 1b3d c0c6 223a ed5f 85bd
00000390: 4761 c7bd c27d 223d b8ed 323d 4079 4bbd
000003a0: 06ad f8bc b55c ab3d 8545 0b3e 61a1 02be
000003b0: bdc0 fb3d 9fb5 c03d 26d0 4a3d 6e72 41bc
000003c0: 3357 0bbd 3f0a 853c f0ea d4bd 5427 81bd
000003d0: 2d4f 86bd 4bbb 163c 3849 943d c0db ae3d
000003e0: b921 16be 4d49 14bd f98d 1a3c 4900 05be
000003f0: 245a ea3d cf67 82bd 1c69 c7bd d3e4 07be
0.0071960785 0.11500816 0.05177341 -0.0017945666 -0.04862107 0.00096083316 -0.07399277 -0.06204243
0.002819727 0.048090074 0.00028056564 -0.101364456 -0.1138303 0.029244453 -0.1053756 0.021950958
-0.058246445 -0.10707495 -0.14134875 -0.119553015 -0.0104695065 -0.049570955 -0.11270626 -0.08241747
-0.14834926 -0.009546009 0.091199845 -0.019049646 0.017679159 -0.20143782 -0.19148433 -0.23077865
-0.110535145 0.10197511 0.122667626 -0.040041775 -0.053822193 -0.042467225 0.08154761 0.031796444
-0.056489572 -0.073973894 -0.0052763177 0.11324967 -0.039836623 -0.035587225 0.009319626 -0.01744771
-0.10736897 -0.04135973 0.16846381 0.10368173 -0.04361321 -0.100646846 0.047110006 0.099832006
0.08404346 0.048858576 -0.09603457 0.10096696 0.12775365 -0.09390112 -0.05258357 0.02892888
-0.058519304 -0.06635529 -0.15291424 -0.008865061 0.06823982 -0.030176777 0.030140515 0.09782916
-0.17477709 -0.09558368 -0.10714171 -0.09942069 -0.09810798 0.049148757 0.042425007 -0.11144244
-0.19055282 -0.07684341 0.035014622 -0.15879187 -0.039312437 0.0513244 -0.0376073 -0.0026091237
0.052430853 0.06995407 -0.06998556 0.10129674 -0.10643472 -0.07525644 0.07311008 0.13010597
-0.07239928 -0.118260026 -0.06888976 -0.031224532 0.03543558 0.06414963 0.0045911376 -0.057297684
-0.014628224 0.026591575 0.042720016 0.02012055 -0.095216244 -0.074458785 0.08440943 -0.10141598
-0.17562519 0.109103285 0.11455205 -0.09367111 -0.025599498 0.0711093 0.08033518 -0.09258252
-0.12344179 -0.18891516 0.08183363 0.23945208 0.008623066 0.054260824 0.04187475 -0.15273166
0.07252495 -0.17136814 -0.019213475 -0.106770635 -0.11509116 -0.0058776294 0.055676524 0.022079576
0.004166478 -0.20984499 0.029320654 -0.049616948 0.044820115 0.020236043 0.063884966 -0.17233114
-0.014943431 -0.029303266 0.06638495 -0.13639049 0.046710007 0.01514022 0.08971441 -0.13906096
-0.083409876 0.08213371 -0.09103276 -0.03610037 -0.027096348 0.056460757 0.10680713 0.063546054
0.041885935 -0.004731844 0.10783085 0.12084186 -0.012108775 0.12244408 -0.122039065 -0.11375877
0.10490852 0.07472225 -0.026276285 -0.014974467 0.04565752 -0.042187043 0.054960877 0.13934025
-0.18660395 -0.06910091 0.13188143 0.016498085 -0.09094874 0.115279615 -0.013221202 -0.040792458
0.017372197 0.13770333 -0.13487719 0.10271783 0.106238544 -0.05116717 -0.10618511 0.07995186
-0.059639122 -0.083045274 -0.10987915 0.20101893 -0.09421247 -0.055822354 0.014600271 -0.11280018
0.015792303 -0.12109631 -0.13243063 -0.016244339 -0.09763523 0.064658456 0.17668337 0.022187369
-0.121021666 0.059341744 -0.1818051 0.08880585 0.009036271 0.061081834 0.23069915 0.0577865
0.18376075 0.08842138 0.017609075 0.05093683 -0.061327048 -0.024534568 0.09664467 -0.043107066
0.0625516 0.038056903 0.00062094256 -0.06512437 -0.09735351 0.039670713 0.043683738 -0.04967618
-0.030355942 0.08367292 0.13600738 -0.12756874 0.12292621 0.094096415 0.049514912 -0.011807067
-0.034018707 0.016240237 -0.10396373 -0.06306329 -0.0655807 0.009199928 0.07240528 0.08538008
-0.14661302 -0.036202718 0.009433263 -0.1298839 0.11442974 -0.06367456 -0.09736845 -0.13270883

actor.2.bias f4 [128]
00000000: 3762 c3bd a36b 90bd eb20 e43a a2b4 11bd
00000010: ef54 05be 3623 1ebe 53ef d2bd 8e6e 46be
00000020: 2ec4 55bd 7683 0cbe d640 823c b97b 35be
00000030: 206f 63be 9df2 95bd 21cb 20be f2b3 ffbc
00000040: 61fe 95bd 80fd cc3d be8f e23d 14e8 1abe
00000050: f5cb e4bb 4a97 bb3c 8a68 4fbd 50cb 4ebe
00000060: 2438 31be 9783 cdbd 5528 e9bd a45f 56bb
00000070: b24c 103d bb35 39bc d445 843c 2e42 9ebc
00000080: 88a1 34ba a9b4 8fbd 30b8 33bd 958a 9ebc
00000090: 58a9 3cbd 5b70 3bbd 9022 0dbe af0e c43d
000000a0: 0c3c 24be 9a16 09be 3828 bd3b 0b21 a3bd
000000b0: 930d 8bbe fec2 fcbd c8b4 81bd 8e26 37bd
000000c0: 5622 be3c 3d4e 9abd 8a98 cbbd 5105 8cbd
000000d0: 2419 8d3d d731 20be e7ff cdbd 1269 0fbd
000000e0: 4b57 f83d 21c6 dabd 660e 6dbc 4b2c 0bbe
000000f0: 2941 23be 6581 0cbe 46c7 323c eaaa 33bd
00000100: c3ab 233d 9a41 cabc 7952 243d e7e0 7fbd
00000110: fd53 3d3e 1d30 35be 61ff 4a3c 3052 653d
00000120: 4738 69be 7a32 433c 3c64 023d 2aac abbd
00000130: 55b5 573d 9a02 04be ffa7 aabd f6f2 173d
00000140: 069e 47bd 5911 283d 5bc9 1ebe 0af9 133d
00000150: 5679 b3ba 1691 c5bc 1e54 703b 46ae a0bd
00000160: c36b 70be 3083 ce3b d3a9 00be 565c 30bd
00000170: bf8d ea3c c853 0dbd 6d29 803d a3e2 d6bd
00000180: beac 8bbe 549a 15be 7798 85be b870 acbd
00000190: 4ca0 3cbe 8f84 58bd 1e6a 71be 9681 4ebe
000001a0: 9d1a b2bd 98c6 4a3d 11c5 5cbd d9a4 e1bd
000001b0: e457 52bd 0016 c8b9 5aee 99bc 7df0 8f3c
000001c0: ac3e 93bd b325 dcbd a2bf f63d 73de e6bd
000001d0: 1c12 65be d1f2 41be 5696 d7bd f5ee f3bd
000001e0: 6ca8 0fbc 4ffa a03d ade5 d9bc 9051 a23d
000001f0: df6b 43be 0e41 14be 3630 a6bc 5765 01be
-0.09540217 -0.0705178 0.001740483 -0.035572655 -0.13020681 -0.1544312 -0.10299554 -0.19378111
-0.052189045 -0.13722023 0.015900057 -0.17722978 -0.2221036 -0.073216654 -0.15702488 -0.031213734
-0.073239096 0.10009289 0.11062573 -0.15127593 -0.0069823214 0.022899289 -0.050636806 -0.20194745
-0.17306572 -0.100348644 -0.11384646 -0.0032710815 0.035229392 -0.011304314 0.016146578 -0.019318666
-0.0006890525 -0.0701688 -0.043876827 -0.01935319 -0.046059936 -0.045761447 -0.13782716 0.09573113
-0.16038531 -0.13387528 0.0057726167 -0.07965287 -0.27158794 -0.12341879 -0.063333094 -0.044714503
0.023209732 -0.07534454 -0.09941204 -0.068369515 0.06889561 -0.15644012 -0.10058575 -0.035012312
0.12126025 -0.10682321 -0.014468765 -0.13591115 -0.15942825 -0.13721235 0.010911768 -0.04386417
0.039958727 -0.024689484 0.040117715 -0.062470343 0.1848907 -0.17694135 0.012389989 0.055986583
-0.22775374 0.01191389 0.031833872 -0.08382447 0.052663166 -0.12891617 -0.08332824 0.03709694
-0.048734687 0.04103217 -0.15506499 0.036126174 -0.0013692777 -0.024117034 0.0036671232 -0.0784574
-0.23478608 0.00630226 -0.12564783 -0.04305681 0.028632043 -0.03450373 0.06257901 -0.10492446
-0.2728023 -0.14609653 -0.26092884 -0.08419937 -0.18420523 -0.052860793 -0.23575637 -0.2016662
-0.08696482 0.0495058 -0.053898875 -0.1101777 -0.05135335 -0.00038163364 -0.018790413 0.017570728
-0.07189688 -0.10749378 0.1204827 -0.112728976 -0.2237019 -0.18940283 -0.10526721 -0.11910812
-0.008768182 0.078602426 -0.026598776 0.07925713 -0.19084118 -0.14477941 -0.02028666 -0.12636314

actor.4.weight f4 [128, 128]
00000000: d15f 5cbd 034e c7bc d70c f13d f4a4 1a3d
00000010: 11d4 d8bc 8a9f 2e3c 8dd1 0bbc ad9c ac3c
00000020: b020 043d dd97 89bd ce4b d93d 6bc2 86bb
00000030: 0a11 1e3d eae7 423e 969a cdbc 2ff2 1a3d
00000040: 9b1b bbbd 7a46 7cbb 5e4e a33d 9a3d e83d
00000050: 3c84 ebbc 183f e4bc b5b0 2cbe e3a1 163e
00000060: 1ea0 a3bd 70d5 92bc 0c16 01be 3a8f 81bd
00000070: 2f17 783c 5d6e b33d f0d2 483d 06bc b2bd
00000080: ef31 a7bc dfea 663d 20d0 0a3d 6173 08bd
00000090: 510e b23d 232a 183c fe6d 5a3e 3d14 6d3d
000000a0: fe38 843d b989 28be 723b 8d3d 3a4c 11bc
000000b0: 393f afbb bce9 abbd 1307 423d 5fe8 61bd
000000c0: 15ee 9ebd 63c3 1abd d237 a2bd 456e ff3d
000000d0: 35d2 483d 1f51 d53d a66a 233d 9528 4bbc
000000e0: 675b 8e3d 8e81 cfbd caa9 21bc 81ac dbbc
000000f0: 1d1a a93d 843d 75bd 3aa6 093b b6cb 2b3d
00000100: 5e4d ecbc 930c 10bd 5763 af3d 8087 7f3e
00000110: ea99 39bc 7c11 a03d e583 833d e6df ecbd
00000120: afae 60bc ceb0 0f3e c090 443d 6102 d8bd
00000130: 58cb 16bd 9d33 dcbd c8b3 8ebd ef88 0f3e
00000140: 4bc4 803d e7c6 97bd 412f e8bc 5917 883d
00000150: 5db0 063e d17f 48bd 791e 90ba c3b0 093c
00000160: afa2 f23c 88f3 6cbd 2c8b 273d c291 49bd
00000170: bc60 823d 4ef6 fdbc 7458 3cbc 23bd 173d
00000180: 7f30 e7bc 4803 3b3e 633a 903d 959e 97bd
00000190: 635b 463e a67b 9fbd c356 45bd 633c 43bd
000001a0: 7bcf 083d 1bb2 7d3d 7daa 0a3d cddf 6cbd
000001b0: e1e4 7b3c 0abf 853c a5c9 4ebd d844 983c
000001c0: df41 e0bd e0bc 1f3e a304 a03d ce1c d33a
000001d0: 5de6 bfbc 3547 fbbc 9650 f8bd d926 1e3d
000001e0: a562 353e 81e9 bfbd c698 b3bd 135b b8bc
000001f0: 8559 f3bc 21e3 183d 54f3 fcbb 42bd 34bc
00000200: 3da0 bdbd f8e0 983d 4151 99bc cacd b33d
00000210: 81b5 babd c101 6c3d b4bf 1dbd 8994 c53c
00000220: 23f4 86bc 626b 1c3d 587f 6fbd e116 ee3c
00000230: 7f50 62bd 8b92 4dbe 3471 be3c 519d ab3d
00000240: 8ff4 6abd b070 b9bc 0f9f 28bd 6a31 cfbd
00000250: e5ea 283e d383 f73d 09f8 8c3d 7aaa fa3d
00000260: 3843 aebc abaa bf3d af94 05be 61bc d03c
00000270: 84d1 30be 8da2 1abd 7e81 a3bb d9cc 573d
00000280: 03f7 ad3d 02f1 d0bd 5444 a1bd f7bd 38be
00000290: 479f e1bd d943 703c c17f 39bd 9ec7 27bd
000002a0: c7e3 8b3d 0931 4b3d 8ef8 843d 95c9 c8bd
000002b0: c73f e9bd ec85 97bd 1f9d b03c 7b42 013e
000002c0: 4e5d 5fbd dd13 03be 3425 eb3c b275 923c
000002d0: 2bf1 6abd bdab 2c3e 5a69 edbd fe7c 8cba
000002e0: 83d1 0cbc 42af 1a3d aa72 83bd b701 b3bd
000002f0: ab8f 63bd 0793 853c b340 2cbd c716 00be
00000300: 7853 d33c be3c b53b 33b9 1c3e f2ae a23d
00000310: 27bc 953d b031 bc3d 285a 8cbd cfcf a4bc
00000320: b224 ddbd d907 72bc f18d fabc 0bab a2bd
00000330: db0c 603d a7b2 073e 9e59 a2bd 47ca babd
00000340: 9128 f63b 0e14 9ebd 6018 383e 7d01 093d
00000350: 4411 f8bd aa33 84bd 07ab f33d 7ea2 bcbc
00000360: a378 0ebd aeae a2bd 6979 183d ab3b 3abe
00000370: 1016 0bbd 24d7 1cbe 8221 053e 1261 f2bc
00000380: 306d 813d 941c 013e 7537 c83d de1e c2bd
00000390: 0071 b63d fc6e e6bc 81b1 8c3d fb23 e1b9
000003a0: 09e2 e23c 9c13 fabd 0214 c1bb df3c 51bd
000003b0: 77c2 08bd 0038 553d cb17 5abe c714 2ebd
000003c0: eee7 623e 985e 2f3d 8864 10be 7630 053e
000003d0: 4e8d 84bd 6455 ed3d 788f a93d ef39 5f3e
000003e0: 3d7f 62bc 930b 27be 3c8a f9bd 00fa 2bbe
000003f0: 469c 643d 061b 7bbd 6fd0 4f3d 23d8 653d
-0.053802315 -0.024329191 0.11770027 0.037754968 -0.026468309 0.010658154 -0.0085338475 0.021070803
0.032257736 -0.06718419 0.10610162 -0.004112532 0.03859047 0.1903378 -0.025098126 0.03782862
-0.09136125 -0.0038494156 0.07973932 0.113398746 -0.028749578 -0.027862117 -0.16864283 0.14710192
-0.07989524 -0.01792404 -0.12606066 -0.063261464 0.015142246 0.087612845 0.04902929 -0.08727269
-0.020409552 0.056376334 0.03388989 -0.03331316 0.08694137 0.00928739 0.21331021 0.05788063
0.06456183 -0.16458787 0.06896104 -0.0088682715 -0.005348113 -0.08394191 0.047370028 -0.055153247
-0.07760254 -0.03778399 -0.07920803 0.12472204 0.049028594 0.10415863 0.03989663 -0.012399812
0.06951027 -0.101321325 -0.009867141 -0.026815655 0.08256934 -0.05987312 0.002100362 0.04194232
-0.028845485 -0.03516824 0.085638694 0.24954033 -0.0113282 0.07815835 0.06421641 -0.11566143
-0.013713523 0.1403229 0.047989607 -0.10547329 -0.036815017 -0.10752032 -0.06967884 0.1401708
0.0628744 -0.074109845 -0.028342845 0.06645078 0.13153215 -0.04895002 -0.001099541 0.00840396
0.02961859 -0.057849437 0.04090421 -0.04921127 0.06366107 -0.031001236 -0.011495698 0.03704561
-0.028221367 0.1826297 0.070423864 -0.07403294 0.19370799 -0.07787256 -0.048178446 -0.04766501
0.033400994 0.061937433 0.033853997 -0.05783062 0.015374393 0.016326446 -0.050485272 0.018587515
-0.10950064 0.15599394 0.078133844 0.0016106607 -0.023425275 -0.030673603 -0.121247455 0.038611267
0.17713411 -0.09370709 -0.087693736 -0.022504365 -0.029705772 0.037325982 -0.0077194367 -0.011031451
-0.09259079 0.074647844 -0.018715503 0.087794855 -0.091166504 0.05761886 -0.0385129 0.024118679
-0.016473835 0.038188346 -0.058471054 0.029063644 -0.05525255 -0.20075433 0.023247339 0.08379615
-0.057362135 -0.022636741 -0.041167315 -0.10116847 0.16495855 0.1208569 0.068832465 0.12239547
-0.021272287 0.09358724 -0.13045 0.025480451 -0.17267424 -0.037752677 -0.004989802 0.052685592
0.08494379 -0.102022186 -0.07874361 -0.18041216 -0.11016708 0.014664614 -0.04528785 -0.040961854
0.068305545 0.04960731 0.064927205 -0.09804074 -0.11389118 -0.073985904 0.021559296 0.12623017
-0.05453234 -0.12800546 0.028704263 0.017878387 -0.057358902 0.16862388 -0.1159236 -0.0010718403
-0.008594873 0.037764795 -0.06418355 -0.087405615 -0.055556934 0.01630546 -0.04205389 -0.12508689
0.025796637 0.0055309227 0.15305023 0.079435244 0.07311278 0.09189165 -0.068531334 -0.020118622
-0.10798015 -0.014772379 -0.030585261 -0.0794278 0.05469976 0.13251744 -0.07927249 -0.091206126
0.00751216 -0.07718669 0.17978048 0.033448685 -0.12112668 -0.06455167 0.11897855 -0.023026701
-0.034783017 -0.07943474 0.03722516 -0.18186824 -0.033956587 -0.15316445 0.13001063 -0.029587302
0.06319654 0.12608558 0.097762026 -0.09478544 0.08908272 -0.028129093 0.06869794 -0.00042942152
0.027695673 -0.122107714 -0.0058922777 -0.05108344 -0.03338858 0.05205536 -0.21298139 -0.042500284
0.22158787 0.04281482 -0.1410085 0.13006768 -0.06472264 0.115885526 0.082793176 0.21799444
-0.013824281 -0.16313009 -0.12184569 -0.16794586 0.055813096 -0.06130507 0.050735887 0.056114327

actor.4.bias f4 [128]
00000000: 54ef bbbd b0f8 09be e687 82bd cb62 cd3d
00000010: b7c8 a2bd 2a7a 1dbe b516 7cbd aa1e f1bd
00000020: 7ecf 29bc cd37 19be 7186 eabc c673 5a3c
00000030: 025d 16be fe7f 02be ebd5 fe3d 5d91 d63a
00000040: 4a20 c4bc 964c 83bc 27df 55bc 6afb 4ebe
00000050: 9d7c cabd fd17 06bd 5cef 433c 3270 533d
00000060: 7850 a2bd c457 c5bd 5c05 f6bd 7fef cdba
00000070: a19b 89bd e77c a6bd 6123 a8bd 9326 e3bc
00000080: 4bac 13be eb88 55bd 603c 8b3c 733e 14be
00000090: 1caa 4ebd 24ca b8bd b618 96be e7a2 cfbd
000000a0: d082 0fbe f12b fb3c c686 65bd 54f9 42bd
000000b0: e3e5 bdbc d7c2 d0bd c26a b03d 8dc1 e3bd
000000c0: dbf4 533d f35a 01bd 68b1 523d 845b 333c
000000d0: 0370 dfbc 642c 2abe 2420 18be 60b3 9ebd
000000e0: d376 f4bd 6a72 13be 064b 06bd 9404 36be
000000f0: 8188 eabc 59f7 c0bd 168d d9bd 25db c8bd
00000100: 4d51 91bd 0382 fa3b 2ca1 fdbd 9e9a c43c
00000110: c258 f2bd 7114 17be 3d46 95bd 1778 10bd
00000120: d703 6dbd 533c 953b 2f96 5fbd 1204 c9bd
00000130: b0d5 adbd 6a23 173c d871 00be 4953 d73b
00000140: 11a7 24be 489a 3cbe b8bc 26be 2dc1 2ebd
00000150: be89 1abd dc1c 0d3d 37e1 01bd fcbc c0bd
00000160: efc1 ffbd 761f ff3d 6bf2 f0bd e3dd 8b3c
00000170: 6d66 1c3d 6178 2c3c 46b4 16be 6ec4 d13b
00000180: cfc0 9bbd 9fd4 19be e184 17bd 0531 cebd
00000190: d092 eabd 04a5 28be 9254 54be f946 64bb
000001a0: 5815 30be 3105 eebb d173 11bd afe9 9a3c
000001b0: 14dc 163d 849e 9ebd 0698 82bd 9aa3 6abd
000001c0: 2290 fcbd 3ea4 b9bd 31ef c7bd 973a 63bd
000001d0: 4898 113d c61c 19bd 434e 3ebe 5e5a de3d
000001e0: f53b 18be 2f4d 7dbe 4d6c 86bd 7a81 45be
000001f0: a2c1 efbd 1fe7 cabc f7ae a23c cac5 80bd
-0.091765076 -0.13473773 -0.06373577 0.10028609 -0.079484396 -0.15378633 -0.061545093 -0.11773427
-0.010364411 -0.14962693 -0.02862856 0.013333267 -0.14683917 -0.12744138 0.12443145 0.0016370226
-0.023941178 -0.01602773 -0.013053692 -0.20213094 -0.09887049 -0.03273772 0.011958923 0.05162067
-0.079255044 -0.096358806 -0.12012741 -0.0015711634 -0.06719137 -0.08129292 -0.08209873 -0.027728355
-0.14421193 -0.05213253 0.016996562 -0.14476947 -0.050455198 -0.0902293 -0.29315728 -0.10138493
-0.14014745 0.030660601 -0.056036733 -0.04760106 -0.023180908 -0.10193413 0.086141124 -0.11120901
0.051747184 -0.031580877 0.05143872 0.010947112 -0.027275091 -0.16618496 -0.1485601 -0.07749057
-0.119367264 -0.14399114 -0.03278639 -0.17775184 -0.028629543 -0.09422178 -0.10622613 -0.098074235
-0.07095585 0.007644893 -0.12384257 0.023999508 -0.118333355 -0.14753892 -0.072887875 -0.035270777
-0.05786499 0.0045543103 -0.054586586 -0.098152295 -0.08488023 0.009224752 -0.12543428 0.0065712077
-0.16079356 -0.18418229 -0.16282928 -0.042664696 -0.037729017 0.03445135 -0.031708922 -0.09411046
-0.12488162 0.124571726 -0.117649876 0.017073577 0.03818362 0.010526747 -0.14717206 0.00640159
-0.07605135 -0.15022515 -0.036991958 -0.100679435 -0.114537835 -0.16469198 -0.20735386 -0.0034832342
-0.17195642 -0.0072638025 -0.03551084 0.018910257 0.036830977 -0.07745078 -0.063766524 -0.05728493
-0.12332179 -0.0906453 -0.09762419 -0.055475798 0.035545617 -0.037380956 -0.18584542 0.1085708
-0.14866622 -0.24736474 -0.065636255 -0.19287673 -0.117068544 -0.02476841 0.01985882 -0.06287725

actor.6.weight f4 [27, 128]
00000000: 4a28 fbba 6261 be3c 9690 193c 288f 3cbc
00000010: f200 d33c a7e2 cc3b 0ec8 af3b faa5 6b3a
00000020: dbd9 fb3a 2629 883c 9b41 b9bc 4eae a03b
00000030: 0327 7d3c 8cb9 393c e152 a8bb 6a2d 52bb
00000040: 2dd6 953c 192a a33b 744e 073c 4fdb 013d
00000050: 96dc d73b 6a4a 4639 d030 b2bc 313b 023b
00000060: 7e8e a23a 18ba 1e3d 521a 0ebd 8560 fabb
00000070: 239e 2abc b192 213b 4e0a c73b 5dcb eb3c
00000080: c1c6 493c 10fa 21bd ad73 e4bc c4e6 4b3b
00000090: 21d7 393b aaf5 a03c 3061 abbc 6c66 16bb
000000a0: ffe9 34bc a607 e73c c77a 5cbd ae67 7d3b
000000b0: dbe3 27bd 1e43 97bb 94c0 003c 1153 e13c
000000c0: c9de 27bc 14fb b4bb a381 f83a 02cd 5abc
000000d0: 215c b03c 3635 dabb 47bc 063c b259 4fbc
000000e0: 4686 0e3d dcf2 8fbc b3c2 0abd 78e0 43bc
000000f0: a518 fe39 653d 7abb e4c9 a3bc 9d41 a83b
00000100: a91f 473d e35a 6b3b 8388 d23a fbbc 32ba
00000110: 0f22 95bb c550 fdbb 1053 09bd e5fb a9bb
00000120: cbdf a4bb 61a4 0d3d 7e78 083c 57a8 19bc
00000130: 4fdd fdbb 4d95 9fbc f456 843c ed5f 82bc
00000140: 7109 953b 9a14 8c3d e858 1abc 8205 f2bc
00000150: a8ef 02ba 0a4c 893a baa3 a33c 2bec 4c3d
00000160: 0fcd c2bc 06e6 0abc 5980 4e3c 9896 67bc
00000170: 0c08 f8bc 722a 81bb 364f 88bc a962 a5bd
00000180: 930a 48bc 0ee5 443d 0242 7bbc 12fb 573d
00000190: b048 863b 1d8b e43b bb86 5d3d bc9e 8fbb
000001a0: 8d18 e7ba f7e9 53bd 242d 123c 8c07 fbbc
000001b0: 3c5d 8e3c c25c 6abb f9dc 0dbd 79f4 703b
000001c0: 89f8 6d3c 1cb4 57bd 059c c73c dd67 e539
000001d0: 7340 7abb f9f5 4c3c f0ae 89bb b3ef 4ebb
000001e0: c440 5abc a9ad d4bc 7622 3ebc 5fd7 a93c
000001f0: 2662 e1bc 7d16 d3bc 8b77 ba3b f83d a8bc
00000200: 53d8 5cbc 9547 7e3c 5a9a 34bb 74d6 e3bc
00000210: 0ab6 98bc 8488 96bc 3ca9 df3b f519 ee3b
00000220: c090 33ba ab82 293b ff94 08bd 274f 2a3d
00000230: 5b63 bc3c 2d1b a03c c675 9abb 7535 913b
00000240: 2105 3b38 eaab ccbc 8f1a 30bb 8788 54bc
00000250: 395b 8cba 1044 1f3c 1c99 cd3c 34f9 9bbc
00000260: 00e6 ecba 13b4 b8bc 5512 453b a128 0ebb
00000270: 784c 0b3c 3851 0bbc 6425 52bc fa7e 0bbc
00000280: c563 903c d8a5 8a3c 1c2c b9bc ea04 ec3b
00000290: 6139 c03b 8fbd d2bc 7480 353b 1ab3 a7b8
000002a0: cc58 0dbd 4c3c 193d 1d51 a23c 00b8 3c3b
000002b0: c35c f93c f188 963c 8991 be3c d099 9fbd
000002c0: 3a87 973c 55fe 9c3c 9d83 03bc 1f16 283c
000002d0: 4277 953c 9656 babb 8db1 e13b 77eb 1b3b
000002e0: 01b1 9bbc c635 17bd 329c 08bd 690d 6dbc
000002f0: 72f5 8cbc 510b 793b ced7 723c 54fb e53c
00000300: 94bb babd 903a 443c 246d 423b 7b5d 2c3d
00000310: 41bc 943c 9e14 cfb9 b71a 023d 8344 b5bc
00000320: 27b5 083d 0c2e b2bc 68b5 b63b 7b13 a83a
00000330: 38a1 273c 9bf9 69bb 7bec f53c def7 7bbc
00000340: 7a91 6ebc bfa9 09bd 270a 67bc 9aee 41bc
00000350: 7416 ad3a 1c2a 693b dae9 013c 8ac1 29bc
00000360: 61b7 9fbc ae8f e83a 17e2 dc3b 967e 4bbb
00000370: 0812 ef3c 1641 ea3b 7bda 03bc 4bf6 413c
00000380: ef71 67bb 955e 33bc 5eaa 25bc c1f5 003c
00000390: 20ab d139 f417 1d3c 1131 2f3c 6bd6 c0bc
000003a0: d629 d9bb 8260 0f3d 0305 723b 46ab 883c
000003b0: 9256 963c 8ea7 4c3c b71b b13b 192e 013c
000003c0: 8fac 233d 259d 723d 10c4 8cbc 83e3 2bbd
000003d0: 8466 27bd 8e71 903c 6cde 653b 6046 27bc
000003e0: f06b 5abc 2e8b 83bc 8a11 723c b4fe 0e3a
000003f0: 7d59 113c 480c d63b ef2e c43c afee 463c
-0.0019161787 0.023239795 0.009372851 -0.0115087405 0.025757287 0.006252605 0.0053644245 0.0008989271
0.0019214706 0.016621184 -0.022614291 0.0049035912 0.015451196 0.011335742 -0.005136833 -0.0032070526
0.018290604 0.0049793837 0.008258451 0.03170329 0.006587575 0.00018910473 -0.021751791 0.0019871707
0.0012402085 0.03875169 -0.03469307 -0.0076409006 -0.010413679 0.0024654085 0.0060742265 0.028783495
0.012315453 -0.03954512 -0.02788719 0.0031112889 0.0028356987 0.019648392 -0.020920366 -0.0022949232
-0.011042117 0.02820189 -0.053828027 0.0038666534 -0.040988784 -0.0046161553 0.007858414 0.02750543
-0.010245987 -0.005523095 0.0018959533 -0.013354542 0.021528305 -0.0066591753 0.0082236 -0.012655662
0.034796022 -0.017571859 -0.033877086 -0.011955373 0.00048465017 -0.0038183567 -0.01999373 0.005134775
0.048614178 0.0035912327 0.0016062412 -0.00068183214 -0.0045511792 -0.0077305757 -0.03352648 -0.005187499
-0.005031561 0.034580592 0.008329509 -0.009378514 -0.0077473293 -0.019480372 0.016154744 -0.015914882
0.0045482446 0.06839867 -0.009420611 -0.029543642 -0.0004994818 0.0010474932 0.019975532 0.050029915
-0.02377942 -0.008477693 0.012603843 -0.014135025 -0.030277275 -0.0039418275 -0.016639333 -0.080754586
-0.012209552 0.048070006 -0.015335562 0.052729674 0.0040980205 0.0069745914 0.054083567 -0.0043829363
-0.0017631218 -0.0517368 0.008921895 -0.030643247 0.017378442 -0.0035760854 -0.034634564 0.003676681
0.014524587 -0.052662 0.024366388 0.00043755668 -0.0038185387 0.012509816 -0.0042017624 -0.0031575977
-0.013321105 -0.025961714 -0.011604896 0.02073258 -0.027512621 -0.02576756 0.00569052 -0.020537362
-0.01347931 0.015519996 -0.002755782 -0.02781222 -0.01864149 -0.018375643 0.006825594 0.007266278
-0.00068498775 0.0025865238 -0.03334522 0.04157939 0.022996595 0.019544208 -0.0047137467 0.0044314214
4.458905e-05 -0.024984319 -0.00268713 -0.012972004 -0.0010708339 0.009720817 0.025097422 -0.019039728
-0.0018073916 -0.022546804 0.0030070741 -0.0021691697 0.008502118 -0.008503251 -0.012826297 -0.00851416
0.017625699 0.016924784 -0.02260404 0.0072027342 0.005866215 -0.025725154 0.0027694972 -7.996541e-05
-0.03450851 0.03741102 0.019814068 0.0028796196 0.03043974 0.018375846 0.023262756 -0.07793009
0.018497098 0.019164244 -0.0080269845 0.01025918 0.018245343 -0.0056865914 0.006887621 0.002379147
-0.0190053 -0.036916517 -0.033352084 -0.014468529 -0.017206881 0.003800113 0.01482196 0.028073944
-0.09117809 0.011976853 0.0029667104 0.042081337 0.018156173 -0.00039497478 0.03176376 -0.022127395
0.033375885 -0.021750472 0.0055758245 0.0012823188 0.010231309 -0.0035701755 0.03001999 -0.01537892
-0.0145610515 -0.033609148 -0.014101542 -0.011836672 0.0013205544 0.0035578078 0.00792929 -0.010361085
-0.019496622 0.0017743015 0.006740819 -0.0031050793 0.029183403 0.007148872 -0.008047695 0.011838506
-0.0035315712 -0.010947843 -0.0101114195 0.007871092 0.00039991084 0.00958823 0.010692851 -0.023539742
-0.0066273017 0.035004146 0.0036929257 0.016683232 0.018351827 0.01249112 0.005404915 0.007884526
0.039959487 0.059231896 -0.017183334 -0.04196502 -0.04086925 0.017632272 0.00350752 -0.01020965
-0.013331398 -0.016057577 0.014774689 0.0005454824 0.008871433 0.0065322258 0.023948161 0.012141868

actor.6.bias f4 [27]
00000000: 2d26 26bd ad8f 5bbc 0389 2ebd f3ff cebc
00000010: f4b5 893d 0c13 4dbd e33a c4bc ed8e 533d
00000020: eecd 82bd 834e c1bc 75b3 fd3c 3502 35be
00000030: 6ff2 e0bd 196b 30bd 81e7 73bc c8e5 083e
00000040: 28b9 65bd 13d7 f4bd 9d2c a9bd 4a98 1abe
00000050: 3874 963e ac25 25bc b2df bebc 0d63 be3b
00000060: 17a8 fd3c f763 7f3d b26d 783d
-0.04056375 -0.013400954 -0.042611133 -0.02526853 0.06724158 -0.050066993 -0.02395386 0.051649977
-0.06386934 -0.023597008 0.03096936 -0.17676623 -0.109837405 -0.043070886 -0.014886738 0.13368905
-0.056084782 -0.11955085 -0.082604624 -0.15097156 0.29385543 -0.010079782 -0.023300026 0.0058101476
0.03096394 0.062351193 0.06065149
