IsaacLab/logs/rsl_rl/h1v2_flat/2025-03-05_17-45-11/exported/policy.onnx (onnx, 195410 bytes, 8 tensors)

actor.0.weight f4 [128, 93]
00000000: 291b 023e 3831 92bf e16a ac3e b4cd 513e
00000010: 9826 df3e a34d debd d27a 933f fc58 e4be
00000020: e9b6 363e 6f7c cebd 3d68 5bbd dace afbe
00000030: a0fc aa3e facf 283e 1dd1 b1be 62fa de3e
00000040: e24c 1cbf 676a b6be c185 0ebf 1e9b 1b3f
00000050: c572 00bf 4f7d 18be 0273 633d 8755 8b3e
00000060: e445 693e d61e eabd 3fbe ad3d 22ad cdbe
00000070: f741 48be 3074 bebe 9231 0ebf 1963 b3be
00000080: 86bc ebbe 760e 953e f9a5 ea3d 61f2 5a3f
00000090: 400c 643e 6bd9 b43e 458c 1e3e a9ec a5bd
000000a0: 1982 063d 8db5 6cbd fcf1 893d 6166 243d
000000b0: c4c5 5ebd 6d2d 373d 9d50 40bd 7b06 443d
000000c0: 3440 82bd a7bc b5bc fc82 353d aebb 0b3c
000000d0: b6a1 77bc 92bb 88bb 7b0b 6bbd ff5b 5cbd
000000e0: fe2f 23bc 22db f1bb 9900 6f3c 213d 92bd
000000f0: 41ee 96bc e4da 763c 7084 093d 761f 3b3d
00000100: 779f ddbd b5a4 af3c 9b9f 35be f310 a0bd
00000110: 7c3e 803b c86b 53be 8529 823e 6157 07be
00000120: a6bd a3bd 34b8 8fbe 67b8 94bd ff04 08bd
00000130: 7361 98bd 6d8e c93e 1d86 5fbe 282a 853c
00000140: eda3 6fbc 291f 053e b416 183d 0ff8 05bb
00000150: 6952 903c 1056 ad3d 3db3 e43d 17c2 dd3c
00000160: bb4f 80bd bf09 e5bd 3806 9fbd 2da4 eb3d
00000170: c980 e9bc 05e6 debe 44ab bcbd 5f0b 6dbe
00000180: 6b87 5b3e 2349 f8bb ce14 89be 3845 49bf
00000190: e714 91bc a722 913e 53ab 4b3e dc30 b93c
000001a0: 97de ef3b 47cf fabd 1d91 b7be 4066 f9be
000001b0: 1abf a4bd db50 34bf 9fd3 fe3e 6a74 863e
000001c0: e00d 0c3f 565f 523e 1145 4dbd 5356 79bd
000001d0: 9427 5cbe 8727 1cbf ad19 abbd b46f 1d3e
000001e0: 246c 093f 0165 8c3e e27b e9be fc16 eebe
000001f0: 1b34 6fbf fe2d 64bf 09e3 9cbe 5498 b53b
00000200: d6bc 28bf 1d0a 863e c362 48be d354 e43e
00000210: 9c3a 113d 92c2 8dbd 3a45 59bd 3673 7cbd
00000220: 1605 5b3d b499 da3c eacf 4a3d 6789 26bc
00000230: 5d59 44bc 1c17 15bc b90f 84bc ddb2 1e3d
00000240: 6235 98bd 3790 59bd d960 77bd 82da 0a3d
00000250: 3f24 f03d 5f1d 2a3d dd6a 5dbd f105 aabc
00000260: ac9b fbbb 0257 61bb df16 2f3d 0241 933b
00000270: d045 453d 83c9 26bc 488f 8cbd dc2e 37be
00000280: b271 c3be 034c 50be d8f5 393d 6cc5 f3bd
00000290: 751b a23d a0c0 d7bd a94b eebc 10ba b8bc
000002a0: db5b 0d3e 17fa 7abd 678c e63d feab 773d
000002b0: a7c8 9b3d 8d71 103c aaa7 103d 2c0e 2dbe
000002c0: 91e9 0bbe 9201 b73d 0299 123e c1fd 2b3c
000002d0: a0cd 763d 3a59 14be 154e a2ba bc95 dabd
000002e0: b3be 6b3d 94d1 013e 7359 9c3e a5b7 15be
000002f0: 2589 943e b5ca 92be 9319 1d3e 5cc1 79bd
00000300: c3ed 9b3e 65e8 a73e 1a60 863d b01a d2bd
00000310: ecbc 8bbd 728b 68be 257f cdbe 0125 1c3e
00000320: 2130 28be abda 873e 02b5 2ebf ac2e 14bf
00000330: c9a9 83be a2a7 8bbf 068e c03f b901 803e
00000340: e786 2ebe 5a97 183d a904 bb3e 02fa 6a3e
00000350: 848a 093f 91ba 343e addb 013e cfdb 163f
00000360: bf85 2b3f 367b 0fbc 29cf 243e ba77 d13e
00000370: aa77 8dbe c285 a63c 2d16 06bf 8140 a43d
00000380: 00f1 0d3e 137c a8bb f182 4bbd c2bd ff3d
00000390: 604d afbd e75c b2bc f8de 66bc 0044 aebd
000003a0: 09f3 893c a4f0 1e3e ec01 40bd 1d65 e53d
000003b0: d49b 86bd ad6d e83d 591e cdbd 19e3 93bd
000003c0: 6dcc 803d 8d08 6dbc 4bb1 7d3c 91e4 6abd
000003d0: a250 dcbc 4850 cf3c f593 96bd 8b1e d439
000003e0: 0fae b4bd e099 5a3b e66e 2f3b 5762 4bbd
000003f0: 5874 50be a2cd 093e 200c 3bbd c24c 49be
0.12705673 -1.142127 0.33675292 0.20488626 0.43584132 -0.10854652 1.1521857 -0.4459914
0.17843212 -0.100823276 -0.053566206 -0.34337503 0.33395863 0.16485587 -0.34729853 0.43550402
-0.61054814 -0.35628054 -0.5567284 0.60783565 -0.50175124 -0.14891551 0.055529602 0.2721369
0.22780567 -0.11431663 0.08483552 -0.40171152 -0.19556414 -0.3719802 -0.5554439 -0.35036543
-0.4604227 0.29112595 0.11457438 0.8552609 0.22270298 0.35322127 0.15483196 -0.0810178
0.032838915 -0.057790328 0.06735608 0.0401367 -0.054387823 0.044721056 -0.04695188 0.047857743
-0.06359902 -0.022184683 0.04431437 0.008528633 -0.0151142385 -0.0041727507 -0.057383996 -0.05379867
-0.009960173 -0.007380859 0.014587545 -0.07140566 -0.018424155 0.015066836 0.033573568 0.0456843
-0.10821431 0.021440843 -0.17736666 -0.07815733 0.0039136987 -0.20646584 0.25422302 -0.13216926
-0.07995157 -0.28070223 -0.072617345 -0.03320789 -0.07440462 0.39366475 -0.21828504 0.016255453
-0.014626485 0.13000168 0.037131026 -0.0020442044 0.017617421 0.08463681 0.111669995 0.027070088
-0.062652074 -0.111834995 -0.07764858 0.115059234 -0.028503792 -0.43534866 -0.09212354 -0.23148869
0.21438377 -0.007577078 -0.26773685 -0.78621244 -0.017710162 0.2834675 0.19889574 0.022606306
0.007320236 -0.12246566 -0.358529 -0.48710823 -0.08044262 -0.70435876 0.4977083 0.26260692
0.5470867 0.2054418 -0.050114695 -0.06087334 -0.21499473 -0.60997814 -0.08354507 0.15374643
0.53680634 0.2742081 -0.45602328 -0.4650191 -0.9343888 -0.8913268 -0.30641964 0.0055418406
-0.6591314 0.2617959 -0.19568925 0.44595966 0.035456285 -0.06921877 -0.053044535 -0.06163331
0.053471647 0.02668462 0.04951469 -0.010164595 -0.0119841965 -0.009099748 -0.016120778 0.038744796
-0.07432057 -0.05311605 -0.060395095 0.03389979 0.117256634 0.041531917 -0.05405699 -0.020754786
-0.0076784696 -0.0034384136 0.04274642 0.0044938335 0.04816228 -0.01017988 -0.06863266 -0.17888969
-0.3817268 -0.20341496 0.04540047 -0.119028896 0.07915393 -0.10534787 -0.029088812 -0.022549659
0.13804571 -0.06127366 0.11257248 0.06046676 0.07606631 0.008816135 0.035316147 -0.16899937
-0.13663317 0.089358464 0.1431618 0.010497511 0.060254693 -0.14487162 -0.0012382889 -0.10673091
0.05755491 0.12677604 0.30536994 -0.14620836 0.29010883 -0.28670278 0.15341787 -0.060975417
0.30454835 0.3279449 0.06561299 -0.102589965 -0.06823143 -0.22709444 -0.40136066 0.15248491
-0.1642461 0.26534018 -0.68244946 -0.57883716 -0.25715473 -1.0910532 1.5043342 0.25001314
-0.17043649 0.037253715 0.36526993 0.22946933 0.53726983 0.17649294 0.12681456 0.5892915
0.67000955 -0.008757403 0.1609465 0.40911657 -0.2763036 0.020327453 -0.5237759 0.08020116
0.13861465 -0.005141744 -0.049685422 0.12487365 -0.0855968 -0.021772815 -0.014091246 -0.08509064
0.016839521 0.15521485 -0.046876833 0.112009265 -0.065726906 0.11349044 -0.10015554 -0.0722105
0.06288991 -0.014467371 0.0154841645 -0.057346884 -0.026893917 0.025306836 -0.07352439 0.00040458547
-0.088222615 0.0033355877 0.0026768981 -0.04965433 -0.20356882 0.13457349 -0.04566586 -0.19658187

actor.0.bias f4 [128]
00000000: dd9e 01be 6301 4bbe e5b9 633c 9657 0f3d
00000010: 4fae 37be a46f a93d 77a2 88bb 5991 aebd
00000020: fa9a 27be fd0e 3d3c b860 c33d 76cc 173d
00000030: a323 fdbd 6599 103e 1112 20be 5dc4 4f3d
00000040: 538e d93d c938 ae3d a3f8 3a3c ca4f 293d
00000050: c782 efbd 8326 98bd b2bb 283d 29e5 443e
00000060: 41e1 99bd f748 023e ebfc e7bc 5440 0abd
00000070: 1030 25bc 1cc9 dfbd 449d 403c 46b4 90bd
00000080: ffe8 c3bd f6e4 d8bd 5d41 bcbd d2a1 0b3d
00000090: aff3 953c 3362 07be eab8 27be e5c4 99bc
000000a0: f0cc 693c 5bac b9bd 97bd da3d a832 e7bd
000000b0: b414 2bbe 3d53 453d 63e5 dfbd 8c9c 873d
000000c0: db27 c5bd 1e58 4dbd aef6 1abe 35bc 66be
000000d0: 6a9a adbd 9260 24be ac1f 023d 04f0 82bd
000000e0: 33b5 dbbd ef6b c63d 3d42 cdbd 74d5 40bd
000000f0: 08f5 523d fa46 67bd 5838 973d a289 2cbe
00000100: 8f8a 32bc 6686 c23b 46bd e4bd 2f37 44be
00000110: 95ff efbc 3029 16bd af74 e13a 78f3 50be
00000120: 8ed1 0cbe 1b7c 893d 67a2 f93d c2bf 9cbe
00000130: 1d48 393b 3d0b 59be 6dcb bfbd 6348 e7bd
00000140: ca98 d8bc a4a2 57bd 657f f7bc 5766 6f3b
00000150: 6014 62bd def4 6a3d 5084 41bd ddf9 0c3e
00000160: ae79 a0bd b37b c83b 02dd ecbb be86 cabd
00000170: dc32 75bb 9e60 81bc cd3a d9bd 4891 fe3c
00000180: 3d0f debd 12cb c13c 6245 25bd dd37 943c
00000190: a0f1 21be 8bac c73d 2d79 59be 5880 cf3d
000001a0: c3f6 653d 907a 2cbe b743 dcbd 1c76 4dbd
000001b0: 99f7 433d fe95 94bd e35f d7bd 87d4 95bd
000001c0: 9c59 3a3d c17d b6bd ca7c 033e c6c2 b23d
000001d0: 1027 6abe 9491 c8bd 3416 f0bd 01d0 f1bd
000001e0: 924e 123d 5832 cbba 6ef2 db3d 68ba 22be
000001f0: c796 bdbd b032 2d3d 6146 8fbc a9db 0e3d
-0.12658258 -0.19824748 0.013899301 0.034995638 -0.17937587 0.08273247 -0.004169758 -0.085238166
-0.16367713 0.011539218 0.09539932 0.037060224 -0.12360313 0.14121015 -0.15631892 0.050724376
0.10622849 0.08506925 0.011411819 0.04133586 -0.11694866 -0.074292205 0.041194625 0.19228043
-0.07513667 0.12723146 -0.028318843 -0.033752754 -0.01008226 -0.109270304 0.011756245 -0.070656344
-0.09565925 -0.10590546 -0.091921546 0.03408987 0.018304674 -0.13221054 -0.16379133 -0.018770644
0.014270052 -0.09066077 0.10680693 -0.11288959 -0.16707116 0.048175085 -0.10932424 0.06621656
-0.096267425 -0.050132863 -0.15133163 -0.22532733 -0.08476718 -0.16052464 0.031768486 -0.063934356
-0.107279204 0.096885554 -0.100223996 -0.047078565 0.05150321 -0.056464173 0.073837936 -0.16849378
-0.010897293 0.0059364317 -0.111689135 -0.19161676 -0.029296676 -0.036660373 0.0017200912 -0.20405376
-0.13751814 0.06713124 0.12189179 -0.3061505 0.0028271743 -0.21195693 -0.09364972 -0.112931035
-0.026440043 -0.05264534 -0.030212114 0.0036529505 -0.055195212 0.05736243 -0.047245324 0.1376719
-0.078357086 0.0061182617 -0.0072284946 -0.09888981 -0.0037414348 -0.015793141 -0.106069185 0.031075135
-0.1084275 0.023656402 -0.04034937 0.018093044 -0.15814829 0.09749707 -0.21237631 0.101319015
0.056143533 -0.16843629 -0.10755103 -0.050161466 0.04784355 -0.07255171 -0.10516336 -0.07315927
0.045495614 -0.089107044 0.12840572 0.08728556 -0.22866464 -0.09793392 -0.11722985 -0.11807252
0.03571946 -0.0015502675 0.10739599 -0.15891421 -0.09257274 0.042284667 -0.017489614 0.034877453

actor.2.weight f4 [128, 128]
00000000: 3f5e d3bc 30a4 5cbc 957a 213e d05d ae3c
00000010: 39c4 583d c361 f7bc 4379 7dbd 8cce b63d
00000020: b93d e53c 3411 6b3d 43fa 923d e90f 9a3b
00000030: c075 e4bd a536 063e 46f3 df3d 1276 9a3c
00000040: 49bb 253d dea3 d63d 874c c63b 1f1a 24be
00000050: 9e01 8b3d 7fdd f53d cd79 b7bc eb0e 10be
00000060: cf46 7cbc d466 0ebc 8c0d 54bc 246b 83bb
00000070: c6a5 383d 91d4 6dbd 44ac 51be f4d9 42be
00000080: f734 b4bc d5d4 843d 8d7c ce3d c409 cb3d
00000090: 6528 123d f1bd 38be 3c41 773c 2450 adbc
000000a0: ee60 f4bd 8dd3 0dbe 98f0 c4bd f2ce 8f3d
000000b0: 5308 a3bd ce88 bc3b dfcd 32be bfa5 10be
000000c0: 58b4 9abd 08d3 12bd d120 d13d a029 a13d
000000d0: 366f 823d fcc5 88bd 9629 3abd 0fec 083e
000000e0: 5489 fa3d 121d c7bb 4cd2 363c a20c 9a3d
000000f0: b9d0 dd3c fbc9 b9bd f822 5c3d f954 a5ba
00000100: f5da bebb 0872 a03b 5ed3 b3bd ee0c a1bd
00000110: 2c95 42bc b0a4 0bbe ebb4 7a3c d6c9 093d
00000120: 43be 903c 368f ba3b 02c7 9bbd 01b5 c43d
00000130: 20ce 933d 01e0 08bd 1be0 303d ab1e 953d
00000140: 32a2 99bd d19a bdbd eb9e ab3b 3e6e 3c3c
00000150: 9d46 763b 1fdc 9cbd 7170 9b3d 5c4c 66bc
00000160: d0b1 03bd b706 1e3d f78e 00be a37a 9ebd
00000170: 6f85 57bd 0f47 a1be a6c9 93bd 438d 493d
00000180: eaaa f5bc 2299 aebd 543d 8bbd 7a2c dabd
00000190: 3614 163d fc1f 313c 08e7 06bd a5f6 70bd
000001a0: 894b 1a3c 9271 11be 2f06 9bbd 2f8e 903c
000001b0: 52eb b7bd f295 41bd f8db 023e 70f0 003d
000001c0: c412 e1bd d941 c83b f453 1c3d 06b5 393d
000001d0: 2a5b d3bd def7 b2bd e878 303e d6ad cfbd
000001e0: f6c0 febc e407 b33d d107 9a3d 6325 1cbc
000001f0: 5718 bf3b 23c6 543e e1fb ee3d 7a8a 15be
00000200: 6858 1a3e eb5b 933c a99a 893b f886 5abe
00000210: b6d7 123d 44f7 05be 2acd 123e 657e 02be
00000220: b0b1 c03d fd40 d1bd c458 08bd db7e 3dbe
00000230: bed7 763d b34b 4bbd 7c14 eb3d 4072 6ebc
00000240: 0b6f 6dbb 0be2 9d3c 9337 4fbd 57ae 8dbe
00000250: 4f48 e43d cf42 4a3e 8f75 67bd 9661 42be
00000260: 3f8f c83c 767f 8f3d cc8e 753d 258b 133e
00000270: 4e6f 783c 9a71 b33b 41bc c1bd bf7a 783d
00000280: 2010 353d 8ef4 7d3d ea84 463c 80c5 9dbc
00000290: eabd 673d 93dc 923d a54f 3abd 15c2 f8bd
000002a0: a368 2b3d 092d dd3d 036f 25be a0fe ae3c
000002b0: 7d99 0cbe 2b73 26bd 2dda bcbd 9af0 993d
000002c0: e940 15bd 7e8c 423d 57d1 8f3d f323 abbc
000002d0: 9eb1 233b 75ef a83c ac90 18bd 2a31 18bd
000002e0: 9c6d f83d a2bf 143e 0858 14bc f764 e7bb
000002f0: bfc5 0e3e d547 09be 68de 42be acd6 663e
00000300: 36ef 813e 75cb 653c 2181 0abe 7de8 1dbd
00000310: 98dc b93d ca70 24be 4601 c43d 26be 01be
00000320: 69c0 383d 1390 0dbe 33a3 8b3c 2871 473d
00000330: 90c6 a7bd c41d 053e 8dba 733d 8064 b6bd
00000340: a00a 4dbe a732 c73d 2fd6 a4be 6235 e23d
00000350: 7348 96bb 5140 423d d7e5 933d 0b0d 18bd
00000360: 9d06 2d3e 0bf2 553d c794 04be 97b1 d03c
00000370: d76d 01be 2457 57bd c05c 9a3d 931b ebbd
00000380: c642 b23d 5a53 e73d 5a8a 46be 861d d0bd
00000390: 6191 e63d c7b3 a3bd b8e9 d6bb 868b 4cbd
000003a0: d15f 2dbd f966 f33d 86fa c8bd 2e60 d2be
000003b0: 7b18 5fbc c55d bcbd 7c3c 593e 5d94 b73d
000003c0: 582e fe39 047b 4fbd a878 4d3d 7d4d 00bd
000003d0: bc31 993c a76f 783d 64e9 10be 16aa 7dbc
000003e0: 7d8e 49be d7ba bebd 4333 49be 6d58 343c
000003f0: fe4a 243e 9dcd edbd a344 cc3d f230 01be
-0.025801776 -0.01346688 0.15769418 0.021284968 0.052921508 -0.030197984 -0.061883222 0.089261144
0.027983533 0.057389453 0.0717664 0.0047016037 -0.111552715 0.13106783 0.109350726 0.018855128
0.040461812 0.10480474 0.0060516032 -0.1602559 0.06787418 0.12005138 -0.022396946 -0.14068191
-0.015397741 -0.008691508 -0.012942683 -0.004010575 0.04507997 -0.058064047 -0.2047587 -0.19028455
-0.021997912 0.06485907 0.1008235 0.09913972 0.035683054 -0.18041207 0.015091237 -0.021156378
-0.1193255 -0.13850231 -0.09616202 0.070218936 -0.07960572 0.005753613 -0.17461346 -0.14125727
-0.07553929 -0.035845786 0.10211337 0.078692675 0.06368868 -0.066783875 -0.045449816 0.13371299
0.122332245 -0.0060764635 0.011158537 0.07521941 0.027077066 -0.09071728 0.053744286 -0.0012613825
-0.0058244416 0.004896406 -0.087805495 -0.07863794 -0.011876386 -0.13637042 0.015301923 0.03363975
0.017668849 0.0056933416 -0.07606317 0.09604836 0.072170496 -0.03341675 0.043182474 0.0728124
-0.075016394 -0.092580445 0.0052374504 0.011500893 0.003757871 -0.07659172 0.07589806 -0.014056291
-0.032151997 0.038580623 -0.12554537 -0.07738235 -0.052617487 -0.31499526 -0.07216196 0.049206983
-0.029988725 -0.085253015 -0.06798807 -0.106530145 0.03664037 0.010810848 -0.032935172 -0.05882897
0.009417423 -0.1420348 -0.07569539 0.017645923 -0.08980431 -0.04726214 0.12779224 0.0314793
-0.109899074 0.0061113653 0.038166 0.045338653 -0.103201225 -0.08738683 0.17233622 -0.101405784
-0.03109787 0.087417394 0.07521022 -0.009530398 0.005831759 0.20778708 0.11669136 -0.14603606
0.15072787 0.017988166 0.004199345 -0.21340549 0.03585025 -0.13082606 0.14336076 -0.12743528
0.09408891 -0.10217474 -0.03328778 -0.18505423 0.06026434 -0.04963274 0.114785165 -0.0145536065
-0.0036229517 0.019272825 -0.05059011 -0.27672073 0.11146604 0.19752048 -0.056508597 -0.18982539
0.024482368 0.07006733 0.059950635 0.14408548 0.015163256 0.005476189 -0.09459735 0.060663935
0.04420483 0.062000804 0.01211665 -0.019259214 0.0565776 0.071709774 -0.04548611 -0.12146393
0.041847836 0.107996054 -0.16155629 0.021361649 -0.13730426 -0.040637176 -0.09221301 0.07516594
-0.036438856 0.047497265 0.0702235 -0.020891165 0.0024977694 0.020621995 -0.037247345 -0.03715626
0.12130281 0.14526227 -0.009054191 -0.0070615965 0.13942622 -0.13406308 -0.19030154 0.22542828
0.25377816 0.014025559 -0.13525821 -0.038551796 0.09075278 -0.1605865 0.095705554 -0.12670192
0.04510537 -0.13824491 0.017045593 0.0486919 -0.0819217 0.12999636 0.05950408 -0.089058876
-0.20023584 0.09726458 -0.3219466 0.11045338 -0.0045862733 0.04742462 0.07221573 -0.037121814
0.16897054 0.052232783 -0.12947379 0.025475306 -0.12639557 -0.05257334 0.07537222 -0.11479869
0.08704142 0.11295195 -0.19388714 -0.10161881 0.112581976 -0.07993274 -0.006558623 -0.049937747
-0.042327706 0.11884875 -0.098134086 -0.41089004 -0.013616676 -0.091975726 0.21214479 0.08963845
0.00048481184 -0.050654426 0.050163895 -0.0313239 0.018700473 0.060653355 -0.14151531 -0.015482446
-0.19683261 -0.093129806 -0.19648461 0.0110074105 0.16044232 -0.11611483 0.09974029 -0.12616327

actor.2.bias f4 [128]
00000000: bfbc 0bbe b5ae 5fbe 8a30 cebd 7a02 a13c
00000010: b369 4abd 9c46 f4bd b5e8 18be adf8 23be
00000020: 4d99 2c3d 10b3 c6bd 76af ae39 b966 12be
00000030: 4c74 61be 3deb 9cbb 9f8f eabd 2893 08be
00000040: bf5f 5a3d e297 aa3c aae5 cd3d ca96 5ebe
00000050: b995 ac3d 528d f7bb 8a4d 88bd f18a cdbd
00000060: 1f28 3ebe 4d6b c7bd f3f5 51bd baa5 cc3d
00000070: 5943 353d 3f55 75bd 5458 833d dda6 78bc
00000080: 6fd9 6a3d 6bda 013c 78bb 8a3a d6e3 8abd
00000090: debb bcbd e6ca 0abe dd67 4fbe 46e3 3e3d
000000a0: 5a49 8abd 3651 38bd 6b65 7cbd 9a07 02be
000000b0: 86b4 50be e150 c5bd ab77 ebbc f08b fcbd
000000c0: ca3c 55bd 58f7 36bd e782 6fbd ea8d 09be
000000d0: 837f 18be 75a4 33be 2e5b 3fbe 0acb 07be
000000e0: d18d b83d 43bf 43bd 9054 2a3d 6d5c f6bd
000000f0: 3daa 10be bc38 37be 2ce2 00be 4c57 f63c
00000100: 331a 2cbc 2291 66bd 41e3 67bc 551a 73bd
00000110: 87df 313d 8300 22be 82f7 98bc 6036 583b
00000120: d4b8 03be 17a4 343c 53ab da3c ec59 c2bd
00000130: b33b e63d dde3 88bd cf17 20be c5bb 883d
00000140: 3526 39bd 2726 233d 3c61 08be d408 34bd
00000150: 3a5e 283d e522 fdbc d6d0 45be 5a54 38be
00000160: 2f69 3ebe 3445 a0bc 79e3 1ebe 43e1 f0bd
00000170: c7df d43d 951f 54bd e81b 99bc ac52 bbbd
00000180: c52b 12be a3a1 12be 41cb 23be f03a cabc
00000190: 6379 abbd 6d5c 20bd 17cd 5dbe 2d5c 51be
000001a0: 371c 9a3d d2c3 6dbd 5d9f babd fc19 17be
000001b0: 7ae4 c4bd 2053 7e3d 6a76 e93c f7b7 9fb9
000001c0: dc6b 90bd 3129 17be d7c3 04bd 649d d5bd
000001d0: d481 60be 5c8c 2cbe 989a acbc ad0d 40be
000001e0: 180f a2bd 4cb7 cc3c f371 86bc e412 bb3c
000001f0: 6c27 3ebe 4e4b 15be 4fa9 843d bd40 e7bd
-0.1364622 -0.21843989 -0.10067852 0.019654501 -0.04941721 -0.1192753 -0.1493252 -0.16012831
0.042138387 -0.09702122 0.00033318595 -0.14296998 -0.2201702 -0.004788785 -0.11453175 -0.13337386
0.053313967 0.020824376 0.100535706 -0.21737209 0.08426995 -0.0075546885 -0.066554144 -0.100362666
-0.18569992 -0.09737263 -0.051259946 0.09992547 0.04425368 -0.05989575 0.06413332 -0.015176502
0.057336267 0.00792561 0.0010584434 -0.067817375 -0.0921552 -0.13553962 -0.20254464 0.046603464
-0.06752272 -0.044999324 -0.061620157 -0.12698212 -0.20381364 -0.09634567 -0.028743586 -0.123313785
-0.052059926 -0.04466948 -0.058474448 -0.13433042 -0.14892392 -0.17543204 -0.18687126 -0.13261047
0.09011424 -0.047789823 0.04158455 -0.120293476 -0.14127441 -0.17892736 -0.12586278 0.030070923
-0.010504293 -0.056290753 -0.014153303 -0.059351284 0.043426063 -0.15820508 -0.018672708 0.0032991394
-0.12863475 0.01102545 0.026693022 -0.094898075 0.112418555 -0.066840865 -0.15634082 0.06676439
-0.045202453 0.039831307 -0.13318342 -0.04395373 0.041105486 -0.030900428 -0.19317946 -0.18000928
-0.18594812 -0.019564249 -0.15516461 -0.11761715 0.10394245 -0.05178793 -0.018690065 -0.09146628
-0.14274509 -0.14319472 -0.15995504 -0.024686307 -0.08372762 -0.039150644 -0.21660267 -0.20445319
0.07524913 -0.058048077 -0.091124274 -0.14756006 -0.09613891 0.062090993 0.028498847 -0.00030463908
-0.070518225 -0.14761807 -0.03241333 -0.104304105 -0.21924525 -0.16850418 -0.02106981 -0.18755217
-0.07913035 0.024989747 -0.016411757 0.022836156 -0.18569726 -0.14579508 0.064776056 -0.11291645

actor.4.weight f4 [128, 128]
00000000: 1608 30be 3bec 8bbc cd38 c03d 632e b5bc
00000010: 32bf 96bd 8c7f cf3d e682 403d b151 563c
00000020: 6e56 113d 42a5 b63d 5128 bfbd 99bf 433c
00000030: e9fe 1f3e 20ca 9cbc b7e6 e63c 25fa b63d
00000040: 199b c7bd 8bd9 76bc 15ad 103e fc0a 093d
00000050: 3a69 1dbd 0527 69bd 8965 f2bc 6c9f 0d3d
00000060: 9c43 efbd ae00 81bc 35e2 193d 4477 9fbd
00000070: 07fa 49bd 1d27 403d 1b5d 483d d2c1 a33d
00000080: 6f79 183d 19b0 78bc bf48 943d d202 41bc
00000090: 89d3 c4bd fe68 3abc 4f26 42bd 23d3 84bd
000000a0: 0451 d3bd 4db7 27be 4cf7 703b b234 b5bd
000000b0: 3191 5ebd 0a01 90bd 96d7 6b3d 3302 a8bd
000000c0: 1dd2 073c ba0d eabd d658 60be 5997 dc3d
000000d0: ec76 093e 0ee6 043e 5662 01be f2f5 d43b
000000e0: dae4 f93c 1648 6fbe 7906 86bd 66cf 953c
000000f0: 7e8f 553d c78b 0f3b 3fa7 3cbe 631f 933d
00000100: 979b dabd 995c 47be 4168 ba3d e325 693d
00000110: c3cc c2bd c1c5 8a3d 4665 db3c 490e d0bd
00000120: b97c abbb a7ee 433d cbb8 1a3e 6cb2 d03d
00000130: 4abb 9abd dc44 7e3d 2b16 bbbd edee 0e3d
00000140: 790e e83d 4be9 49be 55e0 1dbe f1db 033d
00000150: 9e74 31bc d92d eb3d f29f 98bd 138d 02be
00000160: 4f42 27bb 665e cdbd 307f 703c 2b4e 2dbd
00000170: 6d9d 34be f7b6 0b3d fa2b bcbb e8c5 6e3c
00000180: 54b6 87bd 4fdb 40bc 68c3 f13d d596 82bd
00000190: e9d2 48bc 251b 1dbd 9b5a b1bd 741b c1bd
000001a0: 7cfc 123e ca0e 3ebd a641 90bd fc04 093c
000001b0: 61a8 113c 95b4 bd3d b4cc 29bd 6eff 203b
000001c0: 9cd0 143d b61c 6e3d 7eed 35bd fefb 37bd
000001d0: a6e1 0d3c bdb8 06be 5ecd aebd a8af a2bc
000001e0: 959b 933c 418d afbd bc46 25bd 1035 1c3d
000001f0: 2656 00bd 7889 ed3c e885 0bbd 3644 ccbd
00000200: 0033 f6bd 48b3 753d 24e0 563d ba2e 5ebd
00000210: f8a4 b33d ce3e e73b da05 4bbd 1541 31bd
00000220: 829d 7b3d 5637 133c 79d3 1abe 1704 3a3d
00000230: d994 65bd f3dc 8fbd 0c34 a13d c574 d1bd
00000240: ff70 d7bd 23c8 b93b c8a9 71bd 4be8 0fbe
00000250: 8f92 dc3d 1816 d33d 781d 893d d1a4 e33d
00000260: 855c 97b9 8e98 0fbd dd04 5fbd 30b9 8f3d
00000270: 8c28 e2bb 5e17 adbd bff8 ea3c d3f1 83bd
00000280: 2736 a43d 3dc1 b03b 54ae 6f3b 8310 bdbd
00000290: 3cd3 2dbd c971 a7bd e7f6 2a3d 461a eabb
000002a0: 3624 b33d d753 9fbc 62a7 8d3b a316 453a
000002b0: c322 5fbd 7af8 8a3d 7e43 f03d f2fe 983d
000002c0: fdad 243d 6ca6 26bd 1dc4 e93d 273d f43c
000002d0: 4814 053e 324d 373e d213 97bd 8708 b63c
000002e0: 5b18 8bbb aaa6 263d ad25 2dbe 49bd 2fbb
000002f0: 5b16 ddbd 8fbe a5bd dd8e a43c a6f6 2ebb
00000300: 9e65 663d 669c 913c 2c09 bd3b c938 f93d
00000310: 2e8b 733d 0a50 c63d 3016 e2bb 738e 2abd
00000320: aafc 92bc e1a2 8fbc 4e5b 88bd cccc 8fbb
00000330: 765e 1c3d c90a 3e3d a46b 80bd 335a 84bd
00000340: 0a17 75bc 9d3b febd 10fc c4bc 4967 18be
00000350: 01ea 99bd 76e4 703d 0009 063c e5ed e73c
00000360: 4974 a73c cd5c cfbd fbbd 08bd 4d75 1ebe
00000370: ccd6 903d 16b6 94bd 1c67 cd3d 7cbf 813c
00000380: f873 9a3d cbcf efbc 70f1 1a3e 13e1 6bbd
00000390: 2826 2e3c b5fe 79bb 8bea 1cbd 7c2a 59bc
000003a0: 1983 143e 1f8d 02be ee35 3f3d b880 15be
000003b0: 469d 10be 1d01 5dbd 1eeb 4fbe b30d 0ebd
000003c0: a86d 9dbb 69fe 17bd 8ce2 d23d eae7 233e
000003d0: bf46 03bd 798b 8abb 6416 fa3d ea2b bf3d
000003e0: b01a d53b cc5d d5bd ac7c 96bd 53e0 96bd
000003f0: 11a1 d5bd 1075 bb3d 6a71 00be 2955 863c
-0.17190585 -0.017080417 0.09385834 -0.022116845 -0.07360686 0.101317495 0.046999834 0.013081
0.035482816 0.08918239 -0.093338616 0.011947536 0.15624584 -0.01913935 0.028186185 0.0893443
-0.097463794 -0.015066515 0.14128526 0.03345774 -0.03843043 -0.056921978 -0.029589431 0.034575865
-0.11682817 -0.015747394 0.037569243 -0.0778642 -0.04931071 0.0469123 0.048916917 0.07995953
0.037225183 -0.015178704 0.07240438 -0.011780458 -0.0961066 -0.011377571 -0.047399815 -0.06485584
-0.10318187 -0.16378517 0.0036768494 -0.088479415 -0.054337684 -0.07031448 0.057578646 -0.082035445
0.008289841 -0.114283994 -0.21908888 0.10771055 0.13424271 0.12978384 -0.12635168 0.0064990455
0.030504633 -0.23367342 -0.06544203 0.018287372 0.052138798 0.0021903382 -0.18423174 0.07183721
-0.10674208 -0.19468917 0.09101916 0.056920897 -0.095117114 0.06776 0.02678169 -0.10158975
-0.005233374 0.04783502 0.15109555 0.10190281 -0.07555254 0.06207739 -0.091350876 0.034895826
0.113308854 -0.197179 -0.15417607 0.032192174 -0.010831026 0.11483354 -0.07452382 -0.12749128
-0.00255217 -0.10027771 0.014678761 -0.042310875 -0.17638178 0.034110036 -0.005742547 0.014573552
-0.06626573 -0.011771037 0.11804849 -0.06376425 -0.012257316 -0.038355965 -0.0865986 -0.094290644
0.14354128 -0.046400823 -0.070437714 0.008363005 0.008890242 0.09262959 -0.041454986 0.002456631
0.036331758 0.05813285 -0.044415943 -0.044918053 0.008659756 -0.1315641 -0.085352644 -0.01985915
0.018018523 -0.08571864 -0.04035066 0.03813654 -0.031332158 0.028996214 -0.03406325 -0.09973948
-0.12021446 0.05998543 0.05245985 -0.05424378 0.087717 0.0070570474 -0.049566127 -0.043274958
0.061429508 0.008985361 -0.15119733 0.045414057 -0.056050155 -0.070245646 0.07871255 -0.1022735
-0.10519599 0.00566961 -0.058999807 -0.14053456 0.10770141 0.103069484 0.06695074 0.111154206
-0.00028869897 -0.035057597 -0.054447997 0.070177436 -0.006901806 -0.084517226 0.028683065 -0.06442609
0.08018141 0.0053941295 0.0036572414 -0.09231665 -0.042437777 -0.08176 0.04173937 -0.0071442453
0.08747141 -0.019449158 0.004322932 0.0007518327 -0.05447651 0.067856744 0.11731623 0.07470502
0.04020499 -0.040686056 0.11414359 0.029814316 0.12996018 0.17900541 -0.07376827 0.022220863
-0.0042448468 0.040686287 -0.16908903 -0.0026815704 -0.107952796 -0.08092987 0.020087654 -0.0026697307
0.056249253 0.017774772 0.0057689156 0.12169034 0.059458904 0.09683235 -0.0068996176 -0.041639756
-0.017942745 -0.017533721 -0.0665804 -0.0043884274 0.038176022 0.046397004 -0.06270531 -0.06462517
-0.014959106 -0.12413714 -0.024045974 -0.1488315 -0.07515336 0.058811627 0.008180857 0.02831168
0.020441191 -0.10125122 -0.033384304 -0.15474434 0.07072219 -0.07261293 0.10029432 0.015838377
0.075416505 -0.029273888 0.15131164 -0.057587694 0.010629214 -0.0038146202 -0.038309615 -0.013254758
0.14503135 -0.12749146 0.04668229 -0.14599884 -0.14122495 -0.05395614 -0.20304534 -0.034681033
-0.004804332 -0.03710786 0.10297117 0.16006437 -0.03204989 -0.004228052 0.12211302 0.09334548
0.0065034255 -0.10418281 -0.07347998 -0.07367005 -0.104311116 0.09153187 -0.12543264 0.01639803

actor.4.bias f4 [128]
00000000: 99d8 9ebd a5d6 ecbd 89b2 dbbd 75b3 d23d
00000010: ce7f 74bd 43dd 71bd c563 31bd db13 a3bd
00000020: 50f8 ba3d 26bc 47be 520f afbd 6cb3 033d
00000030: dcbb 4cbe 0ea0 bcbd d300 f53d 5236 bb3c
00000040: 81fc bdbd db7a 80bc 5233 523b 4931 d1bd
00000050: 8fc1 0abe fee3 9d3c c8c2 a93c 744b 4abc
00000060: 31bc e6bd 70a2 d1bd a0f9 babd d732 62bd
00000070: d9a9 f6bd 5647 a93b 419a 12be 9af9 a43d
00000080: 0604 47be aa23 8cbd cff0 95bd d04a 24be
00000090: 23d6 5cbd 6a42 a2bd f2d9 3dbe 593a e4bd
000000a0: 9771 1cbe 7bbb e03c 70a0 8d3c 11b0 b3bd
000000b0: 3188 92bc 1651 7ebd 60de a8bb 6732 30bd
000000c0: 5b42 733c db70 1ebe 1429 a63d 03bc 0cbd
000000d0: 9b57 ff3b 3f83 27be 971e 0abe 6512 a9bd
000000e0: 524f 48bd ba2c d2bd 0a4a 4bbd b0cc fdbd
000000f0: f282 24bd d1cf 33be 3f6b 1bbe 6d2b 01be
00000100: 362d 883b faa6 86bc da1a 2bbe c8ad 9dbc
00000110: 3ffa 0bbe b004 55be 2f72 92bd cdb6 2abd
00000120: 655a 20bc 0134 393c 69b1 efbd 4cfc 6fbd
00000130: 0c50 bebd b533 7c3d 4b04 85bd ebb2 48bd
00000140: c85a ffbd 8ae9 01be c75f 2ebe 7a62 713c
00000150: 9da1 1b3d 6fc4 eb3b 606d 9dbc 181d afbd
00000160: 838e d6bd 31c4 f5bc e572 79bd 140a 12bd
00000170: c68a 2f3d 89c2 20bd 54fd 0abe 37c9 6d3c
00000180: a798 dcbd 57c9 15be 56f7 6ebd 9b8b 27be
00000190: 38af febd 9fbd 37be 753b 03be 64c2 53bd
000001a0: 6b93 2dbe 3732 b2bc 5204 693d d765 3c3d
000001b0: 6fa4 883d 5204 89bd 2438 13bd f5fb dcbd
000001c0: ea0f 50bd 1e09 c2bd 53e7 05be 3741 76bd
000001d0: ce82 953d aec5 193d ad6a 70be d295 703d
000001e0: 0ff6 f8bd 7add 5ebe bf0d f7bc a5ed 36be
000001f0: 6fad 19be 0e6b 36bd bc25 253d 2fce a5bd
-0.077561565 -0.11564378 -0.10727412 0.10288135 -0.059692197 -0.059048902 -0.04330804 -0.079627715
0.09129393 -0.19505367 -0.08547844 0.032153532 -0.19993538 -0.092102155 0.11963048 0.02285305
-0.09276677 -0.015683582 0.0032074046 -0.102144785 -0.13550399 0.019273754 0.020722762 -0.012347091
-0.112663634 -0.102360606 -0.091296434 -0.055224266 -0.120441146 0.0051659746 -0.14316656 0.0805542
-0.19435129 -0.0684274 -0.07321321 -0.16044164 -0.053915154 -0.07922824 -0.18540171 -0.111439414
-0.15277706 0.027433148 0.017288417 -0.087738164 -0.017887207 -0.06208905 -0.0051534623 -0.043016817
0.014847363 -0.15472738 0.08113304 -0.03435899 0.007792426 -0.1635866 -0.13488232 -0.082554616
-0.04890377 -0.10262437 -0.049631156 -0.12392557 -0.04016394 -0.17559744 -0.1517763 -0.12614222
0.00415578 -0.016437043 -0.16709462 -0.019247904 -0.1366968 -0.2080257 -0.07150685 -0.04167824
-0.009787177 0.011303903 -0.1170376 -0.05859022 -0.092926115 0.06157275 -0.064949594 -0.048998754
-0.12468487 -0.12686744 -0.17028724 0.014732951 0.037995923 0.0071950476 -0.019217193 -0.08550471
-0.10476401 -0.030000778 -0.060900588 -0.035654142 0.042856954 -0.039248023 -0.135732 0.014513305
-0.107713036 -0.14627586 -0.058341347 -0.16361849 -0.12435764 -0.17943428 -0.1281565 -0.051699057
-0.16950767 -0.02175246 0.056888886 0.04599556 0.06671988 -0.06690277 -0.03594221 -0.107902445
-0.050796427 -0.09474395 -0.13076524 -0.060120787 0.0730034 0.037542038 -0.23478194 0.05873663
-0.12156307 -0.21764174 -0.030157922 -0.17864092 -0.15007566 -0.04453569 0.04031919 -0.08095967

actor.6.weight f4 [27, 128]
00000000: 5c23 b03b b5b6 1abd 4553 06bd 3224 01bd
00000010: 3234 f0bb c9d2 b73c 2624 6cbc 43f8 2c3d
00000020: 2f52 a43b 24a9 793b 1515 993c cf01 df3b
00000030: db23 033c 9b28 003c ff32 103d 5c84 40bc
00000040: e404 5d3d 0cf2 71bc c80c 013d de74 a93b
00000050: 4847 413c 1fc3 473c e84b c4bc a40f fb3c
00000060: 32c3 e93a fe39 373c 903e 093b 313a 613c
00000070: 0559 08bc 5e99 93bb fd26 183d b96e 133c
00000080: 3f11 4c3d 4421 d63c 52df 92bc 3e89 823c
00000090: 81aa c3bb d2a5 433c 04f6 f03b 32d2 0e3d
000000a0: 5657 8bbc 5987 9a3d 24e6 81bc 51fd 6d3c
000000b0: 335e c4bb 19b7 efbc 1590 82bb a073 e4bc
000000c0: 929d 28bd 4f7e f73c 747a 023c 9a49 14bc
000000d0: bf63 f03c d7c5 c83b 710b 37bc b405 f1bb
000000e0: 4aa5 a83c b17d 163d 6edd af3c 07de 45bd
000000f0: fedd 343d ea51 01bd 5713 6cbd 79e0 24bd
00000100: eac0 61bc bac2 283c 6d7a 29bc c62e 023d
00000110: 319a 133c 0b04 3e3d f092 d13c 08fd 883c
00000120: 30cd b13b 530f 0abd 0108 f73c 0157 a5bc
00000130: 5b77 913c a775 08bd c080 443b 5a91 7ebc
00000140: 06a4 a13c 6fd0 973d 34e1 f3bc eec2 94bb
00000150: ddea 0fbb 7389 16bc d797 143c 4b5f aa3c
00000160: 4707 25bd 788a 2fbd 1f2f 2bbc db03 5cbd
00000170: 3ef3 603b 7131 1abd 404f 8fbc babf 9bbc
00000180: 36c7 fabb 58bb 813c 2a81 283c 1c70 993c
00000190: b754 913b 8425 853a 5cc4 db3c 64d3 063b
000001a0: b427 9cbb cc32 7bbc d905 883c f223 e1bc
000001b0: b717 22bb 0075 fe3b e702 e1bc f943 423d
000001c0: a7e5 453c 99bb 0cbc 1ac6 3fbc 71ee 873b
000001d0: f649 11bd 06ba 3c3a 98c2 523c 9bef 47bb
000001e0: 0b61 1abd fad4 aebc f81f 223c 6aa9 99bd
000001f0: 13c6 5abd 2bd9 1ebc d14f 4039 ccf6 563c
00000200: 7209 8e3b 207a 823d 00f6 683d 473e 9abc
00000210: 52bd 813c b953 423c d6ca a93c b801 d83b
00000220: 8444 31bc 51a3 42bc 3a64 eebb fadc e13c
00000230: e159 dcbb 37fb 1cbb 33b5 d13b bdbc 96bb
00000240: b916 22bd ad34 a3bb 2452 fa3b d0bb 97bc
00000250: a7f2 e03b 6a93 023d cb51 6cbc 7920 4d3c
00000260: ded9 c43c 5098 0cbd 94df 01bd ca57 46bb
00000270: c7f0 acbc 7cbe b43b f5f3 1dbd 6b86 28bc
00000280: eef3 58bc 37a4 533c 8572 3d3d 71f2 c43b
00000290: 296f 3fbb 9d4f 84bc 9a5b 4b3c c89c 93bc
000002a0: bc4c 1dbc 07d0 203c a8ac dabc 2e54 a33c
000002b0: f25c d43b 549c c13c 3150 eb3b e7d6 4b39
000002c0: 50b0 683c 9b7d 0ebd 95ae 09bc 901e 583d
000002d0: 1a8a ecbb a86d d3bc 3ece 30bb 22b9 04bc
000002e0: 9ea2 0d3c 2b13 44bd 0686 623c bd9b f039
000002f0: 975f 08bd e54b c63b 5d77 373d 7b94 ae3c
00000300: b4f4 353c 59bc 95bc cfc5 8a3c 5f90 8ebc
00000310: 860c 953a 9413 473c ea00 40bc b38b e03b
00000320: c242 9bbc bb80 febb decd c5ba ba86 193d
00000330: 8ef6 38bc ef2a ecbb 6f19 043d 6a24 f13b
00000340: ce3d 183c 5253 97bd bf63 a13c 51ac 42ba
00000350: 39bd 2cbc 2918 14bc 27cd d8bb 709a 0fbd
00000360: 9b72 593c 703a b43c d993 1dbc ecd6 72bc
00000370: 9c9f ea3c d391 523c b964 e6bc dd0c 923b
00000380: d788 e1bc a4a2 30bd 6ff8 103d 3398 973d
00000390: eacc 3bbd acfa b83b 22a5 4ebb 8394 ee3b
000003a0: 097c 2a3c 67a8 90bb c4dc 0dbd 6f17 c339
000003b0: 7a10 003d a199 843c 9581 c0bc c2a2 ab3b
000003c0: e9c4 683c b69e 393c a208 42bc b94a a3bc
000003d0: 5c00 f63c 199f f53c db6a 53bb 7e88 37bc
000003e0: bdad 1cbc b5c6 17b9 b039 c43b 910b 4a3d
000003f0: 37b7 313d 3230 a33c ee8f eb3c 9f06 743c
0.005375309 -0.0377719 -0.032794256 -0.03152866 -0.007330441 0.022439377 -0.014412915 0.04222895
0.00501468 0.00380952 0.01868681 0.0068056355 0.008004154 0.007822181 0.035204884 -0.011750307
0.053959742 -0.014767181 0.03150633 0.0051714024 0.01179678 0.012192517 -0.023961976 0.030647106
0.0017834662 0.01118326 0.0020941831 0.013746784 -0.008322005 -0.004504367 0.037146557 0.008998566
0.049821135 0.02613891 -0.017928753 0.015934583 -0.0059712534 0.01194139 0.007353546 0.034868427
-0.017009418 0.07545347 -0.01585681 0.014525727 -0.0059926747 -0.029262112 -0.003984461 -0.027887166
-0.041165896 0.030211596 0.007963765 -0.009050751 0.029344438 0.0061271 -0.011172161 -0.007355416
0.020586628 0.036740962 0.02146789 -0.048307445 0.04415702 -0.03157226 -0.05763563 -0.040253136
-0.013778904 0.010300333 -0.01034413 0.031782888 0.00900893 0.046390574 0.02558276 0.016722217
0.0054260716 -0.03370602 0.030155184 -0.020183088 0.017757108 -0.033315327 0.0029983968 -0.015537584
0.019731533 0.074128024 -0.029770471 -0.004539839 -0.0021960058 -0.009188044 0.009069405 0.020797392
-0.040290143 -0.042856663 -0.010448246 -0.053714614 0.003432467 -0.037644807 -0.017493844 -0.01901232
-0.0076531423 0.015836403 0.010284701 0.018730216 0.0044351476 0.0010158275 0.02682703 0.0020572776
-0.004765475 -0.015331935 0.01660435 -0.02748296 -0.0024733373 0.0077654123 -0.027467204 0.047428105
0.012078679 -0.008589649 -0.011704946 0.0041482975 -0.035470925 0.00071993505 0.012863778 -0.0030507806
-0.037690204 -0.02134179 0.009895317 -0.07503016 -0.053411555 -0.009695332 0.00018340281 0.013120364
0.004334622 0.0637095 0.05687523 -0.018828524 0.015837345 0.011860781 0.020726603 0.0065920018
-0.010819558 -0.011879758 -0.0072751315 0.02757119 -0.0067245816 -0.0023953447 0.0063997745 -0.004600136
-0.03957245 -0.0049806447 0.0076391865 -0.018522173 0.006864864 0.031878866 -0.014423798 0.012519949
0.024029668 -0.034324944 -0.03170736 -0.0030264729 -0.021110905 0.0055158716 -0.038562734 -0.010285954
-0.013241751 0.01291757 0.046251792 0.0060103466 -0.0029210544 -0.016151244 0.012411976 -0.018019095
-0.009600814 0.009815223 -0.026693657 0.019937601 0.0064808065 0.023634113 0.0071811904 0.00019439646
0.014202192 -0.034787755 -0.00840344 0.05276352 -0.0072186114 -0.025809124 -0.0026978399 -0.00810078
0.008644728 -0.047869842 0.013825899 0.000458924 -0.033294287 0.006051528 0.044791568 0.021311035
0.011105705 -0.018278288 0.016940026 -0.017402826 0.001137153 0.012150664 -0.011718968 0.006852591
-0.018952731 -0.0077668107 -0.001509126 0.037482 -0.011289252 -0.0072072665 0.032250818 0.007359077
0.009292079 -0.07388939 0.019700883 -0.000742619 -0.010543161 -0.009038963 -0.006616253 -0.035059392
0.013271953 0.022000521 -0.009617769 -0.014821749 0.02864056 0.01285215 -0.0281242 0.0044571
-0.02753107 -0.043123856 0.035393175 0.074020766 -0.04584972 0.005645117 -0.0031531532 0.0072808876
0.010405549 -0.0044146064 -0.034634367 0.00037210758 0.031265713 0.016186537 -0.02349929 0.005237908
0.014207103 0.011329344 -0.011842879 -0.019933091 0.030029468 0.02998309 -0.0032259736 -0.011201976
-0.009562907 -0.00014474506 0.005988322 0.049327437 0.043387618 0.019920442 0.028755154 0.014894157

actor.6.bias f4 [27]
00000000: 7e39 0ebd a181 36bd e77e a7bc 4dd9 b4bd
00000010: 3bad 1b3d 0b82 91bd d9f5 2c3d a7ae e93c
00000020: b5ee 14bd 83e6 90bd 2b88 bb3d 6190 54be
00000030: b151 edbd 4ccf f0bd 1fbb 5c3d c3fa a73c
00000040: bc8a bdbe 23ec e9bd d10c 9abd a6e4 debd
00000050: b55c 093e 8947 153b 8036 0dbd 077c 763d
00000060: 9790 febb 8236 3a3d 2729 f13c
-0.034722798 -0.044557218 -0.020446254 -0.08830509 0.038007002 -0.07104882 0.042226646 0.028525664
-0.03636046 -0.070752166 0.09156831 -0.20758201 -0.11587847 -0.11758289 0.05388939 0.020505315
-0.37019908 -0.11421993 -0.07521976 -0.10883455 0.13414271 0.0022778234 -0.034475803 0.060176875
-0.0077687013 0.04546214 0.029438568
