IsaacLab/logs/rsl_rl/h1v2_flat/2025-03-05_15-57-12/exported/policy.onnx (onnx, 195410 bytes, 8 tensors)

actor.0.weight f4 [128, 93]
00000000: f247 f8be 508b 0abe 903d a53d 87e4 0f3e
00000010: fb0f 2f3f 8724 ae3c f710 e5be a720 82be
00000020: 3bcc bb3c 02ca 4fbd 3d68 5bbd 387f 103d
00000030: 0a0e 643e 5b91 c03e f105 023f 3b54 1dbf
00000040: 6bad 9a3c 9730 d93e c87b eb3e 50a3 47be
00000050: f680 413e f377 d0be d4d5 2ebd e952 1f3c
00000060: cd5b 41bd 003d 0a3f 7fba af3e 78c5 f4bd
00000070: 5c04 b63b b018 1fbf 2368 1c3f 4d8c 42bf
00000080: 1040 23bf 57d0 a53e 0fc1 a3be e57c 28bf
00000090: 6b43 acbe 432f 35be 6626 193e bc9a e63d
000000a0: 5f04 033e aaec 3dbd 2c7e 2bbc b289 313d
000000b0: c089 483c a778 9d3d 29b1 73bc c857 2e3d
000000c0: 38bf 80bd 6eb4 a8bd 55f7 29bd 6944 1fbe
000000d0: b175 f7bb 22b6 e13b 812b 333d d8b1 3f3c
000000e0: aeb0 5f3d 1281 50bc d013 9c3d dc4b b6bc
000000f0: 4ed7 bcbd d8e8 8b3d fc6d debc cf3c 8bb9
00000100: 9047 6fbd 57fe 603c 0566 943e a04d 16bd
00000110: d4b2 66bc 96dc 05be 91ac 42bb d6a4 00be
00000120: ac13 35bd f06a ac3d c5ed 3a3e 26d6 0cbd
00000130: 2a1b 83bd e3e0 3bbd fa1b 9cbd d5d1 1d3e
00000140: c32d 97bc f3ac afbd abd8 45be 4ca9 3c3e
00000150: 668b 183d 3b66 a5b9 884a 023e d5e7 08be
00000160: cc7f bdbd f6d1 b2bd 88a3 f8bc ff28 6a3d
00000170: 309a 443c f9cd 7e3e 23e3 643f 74fd abbe
00000180: 93b6 e93d 9c46 513e 0316 1dbe 71c8 5a3f
00000190: 9651 ae3d c5ab 4c3e 2959 503e dc30 b93c
000001a0: f1bc 16be 03cf bd3e 6dbb 263e 4568 41bf
000001b0: 475a 7e3e 8381 1e3d 030d 7abd 99d1 a53d
000001c0: 0f53 d73e 3c41 d5bd 26db 04bf bc48 133e
000001d0: d462 bc3b dcda fdbe cddf fb3d 446a 0d3f
000001e0: 371b 14bf effd 53be 317b 5c3e 21da 22bf
000001f0: 5b11 a4be 5c00 ce3d bd18 0fbf 8066 07bf
00000200: b1f7 f5bd c497 8f3e 41e2 50bf a18d dc3e
00000210: 23c8 f43c 4971 bd3c d7bb 7ebd 5125 1b3d
00000220: b842 a53d 2768 ef3d 40e8 d13c 4dba 3e3d
00000230: 55fb c9bc 547f 073d de9a 7bbd ef18 513e
00000240: ec3e 07be 08b8 07bb 61b4 e33a 442c 0dbd
00000250: 0de5 ee3d c60e 363c e9d5 4abd 5d82 85bb
00000260: 4240 d3bb 2117 a83d 3c33 cd3d 0786 113c
00000270: 74f2 bb3c df84 b73c e1af 7dbd 14e9 34be
00000280: 1499 9cbd efca 0dbe 0e2f 473c 359b 2f3d
00000290: f170 f2bc baa4 8abc cde1 e23d f106 1f3e
000002a0: ff55 6e3d 7df9 c3bc b346 eebd 4b51 033e
000002b0: bf2c 1f3e 2ffa ecbb a0f9 4f3e a471 bbbd
000002c0: 0885 62bd 8e47 46bc 6366 953d 1f2f dcbd
000002d0: 3764 963d 6f53 66bd 0368 953a 958a b9bc
000002e0: fb64 8f3c 9aaf ff3d ff02 8d3e 73eb b3be
000002f0: 6fe1 a2bc 7835 c03d af3b 2a3e 89ba 39be
00000300: de56 aa3e b89b 03bf a67a 2e3e 6087 6fbe
00000310: ecbc 8bbd 9e02 4abe 0987 66be d263 613f
00000320: b86b 29bd 757a 98bd 7ec0 85be 1b9f 48bd
00000330: 9404 4fbe 8ca0 42bf b38d f93e c612 f5be
00000340: fbb3 473f 38a8 babe 0733 d73d fd39 863e
00000350: 5f2f f1bc 2e6e 0abf 88e0 d1be f447 7b3f
00000360: b893 1c3e 6364 d83e 5397 25bf 78bb 083d
00000370: ee6e ff3e 0214 143d 079f 1e3e 5af6 ee3d
00000380: 3d7d 7d3e 21c3 b13c 4f65 02bd 9b42 bbbd
00000390: 8548 3ebc 5b69 5c3d c081 01be 7d31 bf3c
000003a0: 8677 ebbd bc73 b23d 8480 e1bd 6ed5 17bc
000003b0: 87d4 bdbc c7ad 43bd df5f 61bd 9873 49bb
000003c0: 0a67 083e d90d 393c 56c9 c6bc 744d ef3d
000003d0: 4105 833c adf3 b33d 7a55 273d 2f77 00bd
000003e0: 00c7 803d 94d1 05bd ee04 06bd 73c0 9cbc
000003f0: 43f6 22bd a7fb fa3d 9a1f d0bd c7ee b53b
-0.4849239 -0.13529706 0.08068383 0.1405202 0.6838376 0.021257652 -0.44739506 -0.25415537
0.022924533 -0.05072976 -0.053566206 0.035277575 0.2227098 0.37610897 0.50790316 -0.6145665
0.01888152 0.42419884 0.45992875 -0.19495893 0.18896851 -0.40716514 -0.04268439 0.009724357
-0.04720669 0.5399933 0.34321973 -0.11951727 0.005554719 -0.62147045 0.610964 -0.7599533
-0.63769627 0.32385513 -0.3198323 -0.65815574 -0.33645186 -0.1769381 0.14956054 0.11259982
0.12794636 -0.04636828 -0.010467093 0.043344207 0.012239873 0.07689028 -0.014873781 0.042564183
-0.06286472 -0.08237539 -0.04149564 -0.1555344 -0.0075518717 0.006888167 0.04374266 0.011700116
0.054611854 -0.012726085 0.076209664 -0.02225297 -0.092207536 0.06831521 -0.027152054 -0.00026557452
-0.058417857 0.013732514 0.28984085 -0.036695123 -0.014080722 -0.13072428 -0.0029704908 -0.1256288
-0.044208214 0.08418834 0.18254764 -0.034383915 -0.064016655 -0.045868766 -0.076225236 0.15412076
-0.018454438 -0.08577909 -0.19320934 0.18423957 0.037242316 -0.0003154742 0.12723744 -0.13369687
-0.09252891 -0.08731453 -0.030351415 0.057168003 0.011999652 0.2488326 0.89409083 -0.33591807
0.114117764 0.20437092 -0.15340428 0.854621 0.08511655 0.199874 0.20346512 0.022606306
-0.14720513 0.37072 0.16282435 -0.7554973 0.24839126 0.03869773 -0.061047565 0.08096618
0.42055556 -0.10412833 -0.51896894 0.14383215 0.005749086 -0.4958104 0.12298546 0.55240273
-0.57854027 -0.20702337 0.21531369 -0.6361409 -0.3204449 0.10058662 -0.5589712 -0.5289078
-0.12010134 0.28045475 -0.81595236 0.43076804 0.029880589 0.023125308 -0.062190857 0.037877385
0.08069366 0.11689787 0.02562344 0.04656439 -0.024655977 0.033080414 -0.06142699 0.20419668
-0.13207597 -0.0020709056 0.0017372483 -0.034466043 0.11664782 0.011111921 -0.049520407 -0.0040743784
-0.006446869 0.082075365 0.10019538 0.008882052 0.02294276 0.022402225 -0.06193531 -0.17667037
-0.07646385 -0.13846944 0.012157215 0.042872626 -0.02959487 -0.01692425 0.11078224 0.15529992
0.05818748 -0.023922676 -0.116345786 0.1282398 0.15544413 -0.0072319726 0.20310068 -0.091525346
-0.05530265 -0.012102021 0.07294919 -0.10751175 0.07343333 -0.056231912 0.0011398796 -0.022649089
0.017504206 0.12484665 0.27541348 -0.3514057 -0.019882886 0.09385198 0.1662433 -0.18137564
0.332694 -0.5140948 0.17038974 -0.23391485 -0.06823143 -0.19727561 -0.2251245 0.8804294
-0.041362494 -0.07445232 -0.26123422 -0.04897986 -0.2021659 -0.76026225 0.4874092 -0.47865885
0.78009003 -0.36456466 0.105077796 0.26216117 -0.029441534 -0.5407437 -0.40991616 0.98156667
0.15290725 0.4226409 -0.6468403 0.03338191 0.4988932 0.036151893 0.15490352 0.116680816
0.24754806 0.02169949 -0.031834897 -0.09143563 -0.01161397 0.053811412 -0.12647152 0.023339028
-0.11497407 0.08713481 -0.110108405 -0.009267194 -0.02317263 -0.04777315 -0.05502307 -0.0030739065
0.13320556 0.011294805 -0.024265926 0.11684695 0.015993716 0.08786712 0.040853 -0.031363662
0.06287956 -0.032670572 -0.032719545 -0.019134736 -0.039785635 0.1225503 -0.101622775 0.005552146

actor.0.bias f4 [128]
00000000: 1e08 9cbc b4e6 26be 73a1 28be 2996 b73c
00000010: 46db 99be f9cd e23c 1840 5cbc 563b 35be
00000020: 98de 41be a050 953d 9cc8 8c3d c693 653c
00000030: cf5a 35be 2acb d13d 0cda d8bd 1847 a53d
00000040: 953e ec3d da55 393e 7b9c 233e 8e9b fc3d
00000050: 2597 df3d c880 3ebd 7417 023d 0c13 7e3b
00000060: d7df 4bbd 95d4 123e 1138 73bd a634 803d
00000070: e5b6 f93c 1a71 06be 9cbf 98bd ea45 a8bd
00000080: 71c0 fb3d 0a70 72be 7458 a23d 432b a03b
00000090: 29ea 773c f6b9 7fbe 48c6 0ebe 0192 1a3d
000000a0: c697 37bd 7d34 10be 06a2 1a3e 23ba 9cbd
000000b0: abfe 58be ed73 73bd 401b 48be 8f87 ac3d
000000c0: 8de1 4dbe f0d8 21be 8646 94be d6aa 593c
000000d0: fcf8 b7bd 6505 77be 980c 7d3c 3587 75be
000000e0: 7523 ccbd b247 1b3e 9acf 8dbd 798b d6bb
000000f0: f2a8 d8bd 08cb c2bd 91d9 dabc a433 fbbc
00000100: 33e2 21be 56f6 623d 55ab ab3d 78c8 b5bd
00000110: 937a be3a efc1 ed3c 732a 22be 14e1 913b
00000120: 4751 e5bd d39f 2b3c 1af4 2d3d 4cb3 27be
00000130: 5ce5 b23d b1ec 07be 20bc efbd 3611 7bbc
00000140: e2e0 28be 66c8 35bd 92f1 99bc 9799 b93d
00000150: b6f7 e4bc 40d8 cbbd 1dd6 86bd 5fef 9a3e
00000160: 443f 8fbe 8612 e03d a18b 68bd 9485 4abe
00000170: 6748 25bd 0f91 82bd 0b54 a4bd ef96 d23d
00000180: 809d fdbd 2afb 73bd 5654 85bd 1e49 58bd
00000190: b06f 82be 813b 423e 0e06 a6bd 13da d43d
000001a0: f7b5 9f3e cb8a 21be cfcd 31bd e1e5 90bd
000001b0: 20ba 8b3e 9126 5cbe e58e 263d 80ab 41be
000001c0: 17c8 1cbb d341 19bd eb6e e1bd 1263 49bd
000001d0: 1e4b 8cbe 3f59 b53d 41c6 c53c 132c efbd
000001e0: 37f1 47bd 3f8f 903c 7732 14be 4ad7 1fbe
000001f0: 9e7b 2cbe f984 afba c7e8 20bd c3d5 ecbd
-0.01904684 -0.16298944 -0.16467838 0.02241047 -0.30050105 0.027686106 -0.0134430155 -0.17698416
-0.18932569 0.072907686 0.06874201 0.014012283 -0.17710422 0.102438286 -0.10588464 0.08070201
0.11535374 0.18099156 0.15977661 0.12334357 0.109175004 -0.046509534 0.031760648 0.0038768677
-0.049774017 0.14338906 -0.05937964 0.06260042 0.030482719 -0.13129082 -0.074584216 -0.0821646
0.12292565 -0.23675552 0.07927027 0.0048879697 0.015131512 -0.24973282 -0.13942826 0.037736896
-0.044822477 -0.14082523 0.1510087 -0.0765269 -0.21190898 -0.059436727 -0.19541645 0.08424293
-0.20105572 -0.15805411 -0.28960055 0.013285359 -0.08983037 -0.24123152 0.015444897 -0.23977359
-0.099677004 0.15164068 -0.069243625 -0.006547388 -0.10579099 -0.095113814 -0.026715072 -0.030664273
-0.15808944 0.055410706 0.08382288 -0.08876127 0.001453238 0.029023139 -0.15836506 0.00445188
-0.11197143 0.010475117 0.04246912 -0.1637699 0.08735153 -0.13273884 -0.11705804 -0.015323928
-0.16492036 -0.044380568 -0.018791948 0.09062498 -0.027950149 -0.09953356 -0.065838076 0.3026075
-0.27977955 0.10941033 -0.056773786 -0.19777519 -0.04035225 -0.06375324 -0.080238424 0.102826945
-0.12383556 -0.0595657 -0.065102264 -0.052804105 -0.25475836 0.18968011 -0.081066236 0.10393157
0.31193516 -0.15775602 -0.043409165 -0.07075096 0.2729044 -0.21499087 0.04066362 -0.18913078
-0.0023922974 -0.03741629 -0.11007484 -0.049166746 -0.2740106 0.08854913 0.024142386 -0.11678328
-0.048814025 0.01764643 -0.14472376 -0.1560947 -0.16844031 -0.0013391069 -0.039284494 -0.11564209

actor.2.weight f4 [128, 128]
00000000: b7d2 f2bc 0339 783d 0033 0abe 595e 07be
00000010: 0f57 eabd f217 1539 6e51 233c 6ab5 e43a
00000020: b2ed aeb9 25e3 dd3d 8a06 d1bc 2e45 96bd
00000030: ab38 b8bd bbcd ae3d 1306 403d 2c14 4bbd
00000040: 8e12 a2bb 1bc9 75bd a214 0abd 13a7 d9bd
00000050: 710d e63d a859 b93b 4241 b8bd d78d 44be
00000060: e364 74be 0f14 03be 82c3 bbbd b581 fabc
00000070: 42d3 cc3d a938 8abd 72c1 7fbd 6d07 8f3d
00000080: dd24 0abb f6b2 85bc 6204 853d 9723 593c
00000090: fcbc 073e 7cca ce3b 65fe 813c f65d 9e3d
000000a0: 1f97 f9bd e771 b3bd 3e84 ca3c 4cd5 c33b
000000b0: 0b60 f3bb 5aa1 a43d 8281 2cbe ba4e cebc
000000c0: be68 423e f8c7 9bbd a38d 9c3d 72c2 f8bb
000000d0: 6dee 203e 5262 15bd c6ef c5bc ac14 493d
000000e0: 9663 b03d 7fda 3f3d 83e2 56be c282 083d
000000f0: 5a8a 2ebe 0624 313d 1395 103e f5d4 8bbd
00000100: a82d 62bd 6480 823d a935 98bb 3a76 e5bd
00000110: 56d6 633d 8cd2 1cbe 3946 b7bd 283b 813d
00000120: e405 16be 9c6c b13c 4e48 46be f0a0 b33d
00000130: e99e 103c f66a a6bd 2301 92bb 291c 66bc
00000140: 0d9d b4bd 26e4 0abe 0962 343d c602 e93b
00000150: d81a 243d 4e3f 423e e5c6 6ebc 4feb 793d
00000160: 7dfb a83c 84e8 b43c cc54 aa3d 9400 4abb
00000170: 21c6 89bb b64b 563d c924 e73d f407 453d
00000180: e422 633b f24b 07be 1bd2 73be b3b3 68be
00000190: 4d6f 4fbd 9f8e ec3d 0f25 233d 3d8d 403d
000001a0: 24f1 893d 46d4 15bd eab0 2bbd 1551 ecbc
000001b0: 287c f3bc 0404 0cbd cdf5 013e e3af c73d
000001c0: 964b e03c 59d9 b63d 24a7 473c c62e cdbd
000001d0: 08f8 e2bd 297a 80bc 34b6 a13c eac9 4ebe
000001e0: 4765 50bd 91ce d93d 7867 79bd 9de1 423e
000001f0: 9105 ddbd 9141 573e 3650 11be 6766 9bbe
00000200: 3980 843d 253f bcbd 57e3 2b3d 5fe3 d7bd
00000210: d31e e3bd e078 8c3d 4ba7 8d3d 1aa6 c0bc
00000220: eb9c 2b3d 9838 d1bc c89f abbd 5a49 753d
00000230: 9383 0f3e 45d7 69bd 2b48 8b3d a76c 2bbe
00000240: 1d57 c1bc aee6 8e3d c90e e7bd 47ee 2ebe
00000250: fa1a d5bd 14a3 dc3b a64b d43c 5bac afbd
00000260: a293 15be 4d46 553d 5f81 36bd 9fca 163e
00000270: cd2a 903c d540 8dbd 1356 903d 3fb1 ce3d
00000280: 4d81 223e d22e b0bd d8e1 59bc fe42 ce3d
00000290: f80d 83bc bf38 0b3e 5658 ddbd 0df9 6f3e
000002a0: 8fd2 2dbc e8b2 003d c2a5 5f3d adc1 aabd
000002b0: c23b 46bd 9296 513d 6d0c 3dbe 847e 333e
000002c0: 742f 03be c19f cf3d d381 343e 9b67 c0bd
000002d0: c624 9e3d 01ae 92bd 7279 0cbc 612f 08be
000002e0: 75d9 823d 2bda fc3b a556 8ebd 874c aabd
000002f0: 402d 6abd 4481 ea3b 0dc1 033e 1342 3c3e
00000300: 8fd6 1c3e 0e85 833d fda1 d43d dc73 bebc
00000310: 527e 283d b7f3 9b3c 0521 26be 9426 1cbe
00000320: 9da8 8d3b 90d6 9cbd a75b a4bc 7e94 d5bd
00000330: 99fa 87bd 0966 9bbc 883c 8f3d 3e71 083e
00000340: cce8 0abd c8a5 06bd 0ff9 b9bd 3a5b 4c3d
00000350: d64f 97bd 2c23 a3bd 5de4 c9bc a068 e83c
00000360: 3d8b 8c3c 7670 2a3c e88a c6bd 1fe3 fa3d
00000370: 86b6 95bd a0ef 02bd 347c 7bbb bcee 1d3d
00000380: b524 163d 8bb6 a9bc 9c0f d4bc 8216 babe
00000390: b72b c83d 55a0 b4bd cacf f43d efee 23be
000003a0: 19d0 6e3e be4b 013e 74e2 d43d 2237 44be
000003b0: b4a9 ccbd ee1f 0dbd 213d 923d 0302 82bc
000003c0: dc3e 783c 8da9 7e3d 6bea bcbd e219 f7bd
000003d0: 043d 31be 9187 623e 186d bebd 6b3c bdbc
000003e0: e334 f6bd 8164 043e 752e 4d3d 30b9 313d
000003f0: 5853 acbc 36f6 093d 2588 42bd febf 49be
-0.029641492 0.060601246 -0.13496017 -0.13219585 -0.11442386 0.00014218668 0.009968145 0.0017449085
-0.00033364963 0.1083434 -0.025515813 -0.07337414 -0.089951836 0.08535334 0.046880793 -0.049579784
-0.0049460595 -0.060006242 -0.033711083 -0.1062757 0.112330325 0.00565644 -0.08996822 -0.19194733
-0.2386661 -0.1280062 -0.091681495 -0.030579427 0.10001232 -0.06749088 -0.062440343 0.06983838
-0.00210791 -0.016320687 0.064949766 0.013253114 0.13255686 0.006310759 0.015868375 0.077327654
-0.12187027 -0.087619595 0.024721261 0.0059763547 -0.0074272207 0.08038588 -0.16846278 -0.025184024
0.18985268 -0.076065004 0.076442026 -0.007591539 0.15715952 -0.03647072 -0.024162184 0.04909198
0.086127445 0.046839233 -0.20984845 0.033327825 -0.17044964 0.043247245 0.14119367 -0.06827728
-0.055219322 0.06372145 -0.0046450687 -0.112041906 0.05562433 -0.15314692 -0.08948941 0.06310111
-0.14650685 0.021658234 -0.1936352 0.08770931 0.00882695 -0.0812587 -0.004455702 -0.0140448
-0.088190176 -0.13563594 0.044038806 0.0071109263 0.040064663 0.18969461 -0.014573787 0.061015423
0.020627731 0.022083528 0.08316955 -0.0030823098 -0.004204527 0.052318297 0.11286313 0.048103288
0.0034658248 -0.13212565 -0.23810618 -0.227248 -0.050643254 0.1155064 0.039830264 0.047009695
0.06735447 -0.036579393 -0.041916765 -0.028847257 -0.029722288 -0.034183517 0.12691422 0.097503446
0.027379792 0.089281745 0.0121858455 -0.10018687 -0.110824645 -0.01568325 0.019740202 -0.20194212
-0.050877836 0.106351025 -0.06088969 0.19031377 -0.10792077 0.21021105 -0.14190754 -0.30351564
0.06469769 -0.09191731 0.041964855 -0.105414145 -0.11089864 0.068589926 0.06916674 -0.023516703
0.041897696 -0.025539681 -0.08380085 0.059884407 0.14015035 -0.057090063 0.06800874 -0.16740666
-0.02360111 0.069775924 -0.11282117 -0.17083083 -0.10405536 0.0067333076 0.025914978 -0.08577796
-0.14607099 0.052068997 -0.04455697 0.14725731 0.017598534 -0.06897131 0.07047667 0.10092401
0.15869637 -0.0860268 -0.013298474 0.100713715 -0.015997872 0.13595866 -0.10807864 0.23434849
-0.010609283 0.03142062 0.05460144 -0.08337722 -0.048396833 0.051168986 -0.18461771 0.1752873
-0.1281107 0.101378925 0.17627649 -0.09394761 0.07721858 -0.07162095 -0.008573877 -0.13299324
0.06389133 0.0077164373 -0.0695012 -0.08315378 -0.05717206 0.007156523 0.12866612 0.1838458
0.15316223 0.064218625 0.10382459 -0.023248605 0.041136093 0.01903711 -0.16223533 -0.15249091
0.004323079 -0.07658112 -0.020063234 -0.10428713 -0.066395946 -0.018969553 0.06993967 0.13324448
-0.03391342 -0.032872945 -0.09080707 0.049891688 -0.07388274 -0.07965693 -0.024645025 0.028370202
0.017156238 0.010402789 -0.09694463 0.12250351 -0.07310204 -0.031966805 -0.0038373591 0.038557753
0.0366561 -0.020716926 -0.02588635 -0.36345297 0.09773963 -0.088196434 0.11953695 -0.16009115
0.2332157 0.1262655 0.10394755 -0.19161656 -0.09993306 -0.03445428 0.07140566 -0.0158701
0.015151706 0.062173415 -0.09224399 -0.12065484 -0.17308432 0.22122027 -0.09298152 -0.023100099
-0.12021806 0.12928964 0.050093133 0.0433895 -0.021035835 0.03368207 -0.04749312 -0.19702145

actor.2.bias f4 [128]
00000000: e971 81bd 3ddf cabc f415 56bd 36df f4bd
00000010: 547b 16bd 6874 bcbd fe65 ffbd 4588 b1be
00000020: b027 b9bc cfd7 86be 3841 88bd 5234 2abe
00000030: d50d cfbd e99c 213c 7be9 01bd dc69 a3bd
00000040: a724 4abe c13e 333c fa0a 2ebc 00de ecbd
00000050: 3422 523d 7ebb 413d 6ad4 69bd 6cf8 64be
00000060: 3c36 08be de50 013d 81ee cd3c 0a0a 363d
00000070: 9421 c13a ac69 94bc aad7 babb 089c 9e3d
00000080: 7324 c73d 5d56 b0bc 5734 573d a84d b53c
00000090: ab1e f5bd 51e4 bdbd ff67 e9bd 20c3 e2bc
000000a0: 88cc 0fbe 08ba 48bb 0cda 7e3c f207 37bc
000000b0: a595 47be 25ad bf3b e869 22bd 8041 c4bd
000000c0: fc41 11be 31c9 b6bd 9c40 c9bd 8fd4 1ebe
000000d0: 34f2 0cbe c446 9abe c46f 3fbd b988 d03c
000000e0: 37f9 ee3b ab2c af3b dbb7 573d 1b43 cbbd
000000f0: ae9f febd c580 87be 6888 50bd d1c7 403a
00000100: de51 cd3c 5689 aabd 785c 483d 81d8 26bd
00000110: 7782 583d f174 4fbe 8fe5 7dbc cacd 023d
00000120: 47e8 24be 3617 503d 2c87 4e3c 4d5d 94bd
00000130: da9a ba3d db81 8fbe 2c1f 3dbe 4fa3 3b3c
00000140: a5f8 91bd f7f5 d5bd cd88 25bd 3a04 32bd
00000150: 6767 8dbc d91b 46bd b5c1 28be e7ce e7bd
00000160: b3b6 1abe a831 2bbe 3304 60be 2012 01be
00000170: 9c37 64bc 4e91 52bd deae a33d bd00 aebd
00000180: 957d 83be a4c6 7ebe 14b9 8ebe 8e81 35bd
00000190: f4a4 22be c3be 13be 4bf9 16be 5c41 49be
000001a0: d838 3bbc df6c 9bba 73ed 5dbd 8d43 0bbe
000001b0: f403 36be 5a0c 933d 76d0 84bd 055a d23b
000001c0: ce80 88bc 5481 d9bd 6490 ff3b 0664 1abd
000001d0: c75c 8fbd 7fe1 13be 2ee0 97bd a7c9 f9bd
000001e0: 9f8a 36bd b99d db3d 95ff 663d b596 bbbd
000001f0: 5be1 26be 2932 70be 0a83 eebd 419f 92bd
-0.06320555 -0.024764651 -0.05226703 -0.119566366 -0.03673871 -0.0920189 -0.12470625 -0.34674278
-0.022601932 -0.26336524 -0.066530645 -0.16621521 -0.1011006 0.00986407 -0.031716805 -0.079791754
-0.19740544 0.010940255 -0.010622734 -0.11565781 0.05130215 0.047297947 -0.05708734 -0.2236039
-0.13301939 0.03157126 0.025138142 0.044443168 0.0014734739 -0.018116795 -0.0057019787 0.07744604
0.09723749 -0.021525556 0.05254015 0.022131756 -0.1196874 -0.092720635 -0.11396789 -0.027680933
-0.14042866 -0.0030628461 0.015554916 -0.011171328 -0.19490679 0.005849498 -0.03965178 -0.09582806
-0.14185327 -0.08925093 -0.098267764 -0.15510772 -0.13764268 -0.30132115 -0.046737447 0.02545582
0.0072928923 0.005345901 0.052665573 -0.09924909 -0.124328 -0.2646543 -0.050911337 0.0007353994
0.025063451 -0.08326976 0.04891631 -0.040733818 0.052858796 -0.20259453 -0.015496626 0.031934537
-0.16104232 0.050803386 0.01260547 -0.07244358 0.09111567 -0.2802876 -0.18468922 0.01145251
-0.07127503 -0.10447305 -0.040413667 -0.043461062 -0.01726122 -0.0483664 -0.16480143 -0.1131876
-0.15108757 -0.16718161 -0.21876602 -0.1260457 -0.013929274 -0.051408105 0.07992338 -0.084962346
-0.2568175 -0.24880463 -0.27875578 -0.044313006 -0.15883237 -0.14428239 -0.14743535 -0.19653839
-0.011427127 -0.0011858008 -0.054181527 -0.13599987 -0.17774945 0.0718009 -0.06485073 0.0064194226
-0.016662981 -0.106203705 0.007799195 -0.037693046 -0.07000118 -0.14441489 -0.07415806 -0.12196665
-0.044565793 0.107234426 0.056396086 -0.091596045 -0.16296904 -0.23456635 -0.116460875 -0.071592815

actor.4.weight f4 [128, 128]
00000000: daa1 d9bc 0a4b 20be 1ae0 e2bb 227c 12bd
00000010: d215 eabd 8491 b23a 971c d93c 95dc f2bc
00000020: 6f15 dcbb 81f1 babd c4ec 7ebb eba1 f4bd
00000030: ca89 973d b993 8bbd 57b8 293a 6d8f 8c3d
00000040: 1c92 cabb 91b8 d83d e30a 4f3e 177c d73c
00000050: f216 a63d 556d 1c3d 046f 7bbc d792 1abd
00000060: 6549 eb3c 2bb1 0ebe dfd6 b43d 488a 16be
00000070: b066 b4bb 1452 94bd e0ae a43d 0001 5abc
00000080: 37b2 44bd 81fa 1b3e e671 dabc e8b5 dd3c
00000090: 8b76 e5bd 795d 01bd 322c d8bc ef67 8a3d
000000a0: 3808 d73d 539a 56be b9c2 083e 8f93 5bbd
000000b0: 9d80 efbd b5d2 69bd 6f4f 1fbd d0b1 e6bd
000000c0: 68cd e73b 62df c6bd ac0e 763d 7095 2a3e
000000d0: 00fb 6f3d eccb c13c 3ee2 f1bc 67ac 043d
000000e0: b94b 463c 7b4c c6bd fa29 35be e47e f3bc
000000f0: 86f1 2a3d 63a0 e43c c215 9ebc 04c3 0d3d
00000100: 326c f23c 3a23 a13c 69be 463e 95db 703d
00000110: 8a1d 83bd 7e9c 483e b6dd 563d 39fa 223d
00000120: 61b7 9ebc a02b 783d 26a2 a03d 2d21 cfbd
00000130: 0db7 b93b efa3 123d 94c0 c6bb 0dca 68bc
00000140: 0c9c b43d e91f 2abd 34f3 b03c 4514 1cbe
00000150: 8b0d 0e3e 28ed 173d 31e6 813b d5bc 04be
00000160: 4bb1 52bb 7363 51bd bfb5 a03d 2e14 80be
00000170: 4db2 663d b316 073d 1680 fe3b 92b0 0fbe
00000180: f303 a2bd 9783 d63d 356c 003e 8da2 5bbd
00000190: 3a89 2a3c af1c afbd 50fe 45bc 59ef e5bd
000001a0: 7a35 fa3c c094 78be 9e95 0c3d 4a11 093c
000001b0: 823a efbd 285a f13d 5228 cdbd e878 93bc
000001c0: 6aa0 debd 8fb3 d2bc 744b 88bc 3f4a 923d
000001d0: cbe8 4dbe 3194 68bd 707a c0bd ad03 b63d
000001e0: 03e8 d73d 02b8 d8bd 058b c73c 5fce ab3b
000001f0: 4e1a a5bc 2671 a3bd f1e0 03bc 5033 5fbd
00000200: 77b4 99bb dd54 3ebc 9725 bf3b c06b d8bd
00000210: 9248 ccbc 4ffd 113e f952 913d 4a11 a4bd
00000220: 514e aa3d aac1 aa3d 6844 06bd 2696 fdbc
00000230: 8301 d73c e851 4d3d 07a6 583d 1107 eb3d
00000240: 68bb b0bd 4914 123d 1e8b a0bc 7792 72bd
00000250: 616f 253e 164b 9e3d c744 983d bdcd df3d
00000260: b549 a2bd e1fc 053b d562 573d 021d 593d
00000270: 7f22 23be 842b e7b9 8242 b73d 2edc 463d
00000280: 012d cc3d c381 68bd 2f22 4dbc a218 2cbd
00000290: 1446 9dbd 6976 85bd 415a 17be a978 df3d
000002a0: 52fd 20be f7d6 8fbb acc4 ce3c 43b3 8a3d
000002b0: fcf7 a8bd 8ee7 5bbd 127a 003d 9175 423d
000002c0: dd84 033e 4b48 c53d b0fd 82bd 69c6 023e
000002d0: 5e67 013e a95d 713e e8b8 45bd e170 383d
000002e0: 3299 3bbb 935c 25bd fc61 a3bd 5460 0dbd
000002f0: 78e5 b3bc 72ad cfbd e1bf 7dbd f899 81bd
00000300: 9137 963d 1606 debc 6aea b63d 22d2 dfbc
00000310: 6cc3 b0bb 9bb6 93bc 1931 02be f35e ef3c
00000320: 99a0 1bbd 2550 01be 6436 c8bd 5755 d7bd
00000330: 0c4e e23a d523 4fbc 6c01 cdbb 8a1c cbbd
00000340: 7480 643d 7178 01be 76a0 053e 8dfd 55bc
00000350: dfb8 bebd 02c7 ccbd 8f26 90bd 74c8 f9bc
00000360: 1ba4 c6bc 85ae efbd b86c 1c3c 4f8b 44bd
00000370: 394f aa3d c736 2abc 3137 bf3d c294 83bc
00000380: 621c 49ba f48e ff3d c068 4b3d 2e1a c1ba
00000390: c8da d0bd 2bda d53d 8581 9cbd dd11 92ba
000003a0: 6dfc ea3d 6168 4fbe 6a03 2b3b 0100 913b
000003b0: 0841 f9bd e34f 9b3d 053f 71bd 3f95 b7bd
000003c0: 88cb 123e 129c cf3d d325 1cbe 06f4 db3d
000003d0: 9d2a eb3c e745 16be 04fb 10bd bb4a 0dbd
000003e0: 6541 703d a9b7 bdbd ae5a 02be 59e6 82bd
000003f0: dcf6 833d 49ee 09be 5e00 413d 19fa 573d
-0.026566435 -0.15653625 -0.0069236876 -0.035762914 -0.11429943 0.0013623689 0.02650289 -0.029646197
-0.0067164223 -0.091280945 -0.0038898448 -0.11944946 0.07399328 -0.06815285 0.0006474307 0.06863294
-0.0061819684 0.10582078 0.20218997 0.026304288 0.08109845 0.038190205 -0.015346292 -0.037737694
0.02872152 -0.13934772 0.08830046 -0.14701188 -0.0055054054 -0.07242218 0.08041167 -0.0133059025
-0.04802152 0.15232278 -0.02666564 0.027064279 -0.11204251 -0.031583283 -0.026388261 0.06758105
0.104996145 -0.20957308 0.13355531 -0.05360752 -0.11694453 -0.05708571 -0.038894113 -0.11264384
0.007074047 -0.09710576 0.060072586 0.16658568 0.05858898 0.023656808 -0.029526826 0.03239098
0.012103015 -0.09682556 -0.17691794 -0.029723592 0.04173424 0.02790851 -0.019297484 0.03460981
0.029592607 0.019670118 0.19408573 0.05880316 -0.064021185 0.19590947 0.052457534 0.039789412
-0.019374551 0.06058848 0.07843427 -0.1011375 0.0056675733 0.03580087 -0.0060654376 -0.014208329
0.08818826 -0.04153434 0.021600343 -0.15242107 0.13872354 0.037091404 0.0039642085 -0.12962659
-0.0032149132 -0.051120233 0.07847165 -0.25015396 0.056322385 0.032980632 0.007766734 -0.140322
-0.079109095 0.104743175 0.12541278 -0.053621817 0.010408694 -0.08550393 -0.012084559 -0.112272926
0.030543078 -0.24275494 0.034322374 0.008365938 -0.11681081 0.11784774 -0.10017456 -0.018001989
-0.1087044 -0.025720386 -0.016637541 0.071430676 -0.20108335 -0.05678195 -0.09398353 0.0888742
0.105422996 -0.10581972 0.024358282 0.005243107 -0.020154145 -0.07980566 -0.008049236 -0.054492295
-0.0046907025 -0.011616913 0.0058333385 -0.10567427 -0.024936948 0.14256786 0.07095904 -0.0801111
0.08315719 0.0833772 -0.03278008 -0.030955385 0.026245838 0.05012694 0.05289271 0.11475957
-0.08629495 0.035663877 -0.019597586 -0.05922171 0.16155769 0.07729165 0.07434993 0.10927913
-0.07924215 0.0020444917 0.052584488 0.05300618 -0.15931128 -0.00044092175 0.08948232 0.048549823
0.09969521 -0.056764375 -0.012520357 -0.04201568 -0.07679382 -0.065167256 -0.14780523 0.10911686
-0.15721634 -0.0043896395 0.025240265 0.06772473 -0.08250424 -0.053687625 0.031366415 0.0474754
0.12843652 0.096329294 -0.06396043 0.12771 0.12637088 0.23570885 -0.048272043 0.045029525
-0.0028625247 -0.04037149 -0.079776734 -0.034515694 -0.021960005 -0.10140504 -0.061950568 -0.06328195
0.07334817 -0.027102511 0.0893143 -0.027321879 -0.00539439 -0.018031409 -0.12714042 0.02922008
-0.037994955 -0.12628229 -0.09775999 -0.10514324 0.0017265691 -0.01264282 -0.006256273 -0.09917553
0.055786565 -0.12643601 0.13049492 -0.0130609395 -0.09312605 -0.09998895 -0.070386045 -0.030491091
-0.024248173 -0.11703209 0.009547405 -0.047984418 0.08315892 -0.0103890365 0.09336699 -0.016062144
-0.0007671771 0.12478438 0.049660444 -0.0014732534 -0.10197979 0.10442003 -0.076418914 -0.001114424
0.11473928 -0.20254661 0.0026094564 0.0044250493 -0.12170607 0.075835966 -0.05889799 -0.08964013
0.14335454 0.1013719 -0.15248804 0.10739903 0.028706843 -0.14675103 -0.035395637 -0.034495097
0.058656115 -0.09263546 -0.12729904 -0.063915916 0.06443569 -0.13469805 0.04711949 0.052728746

actor.4.bias f4 [128]
00000000: 5dcb e2bd 8c2a 11be 5469 4ebd 5a36 0a3d
00000010: 28fd c1bd 4993 0cbe bc7d 81bd 6f9c d0bd
00000020: 9321 4d3d 4de8 16be 7261 4abd 2958 e03c
00000030: f0d6 22be db12 8dbd d1c2 f43c 40d5 18bc
00000040: 31af 15bc 00a2 0cbe 46d1 6dbd 17cb 1bbe
00000050: 5214 85bd a134 da3c cf96 1dbc b200 11be
00000060: 99c2 66bd c111 10be 9c67 95bd e418 7d3c
00000070: 0449 98bd 6a05 a53b 0c00 cbbd 433d f13c
00000080: 74ff 0cbe 11f1 143d 8415 81bc c4d6 33be
00000090: f616 e4bd 8f31 04bd d3b5 b0bd e399 55bd
000000a0: d2c7 9dbd a97d eb3c 3dbf 69bc 536f 8fbd
000000b0: 1b25 fdbc 711a 68bd 8901 953d b2d4 d9bd
000000c0: 1b86 02bd 472b 18be 083a da3d 266a ffbd
000000d0: 601e d4bc df45 1fbe 620c 62be 7085 4dbd
000000e0: 146d e3bd 935f cbbd 9fb9 f8bd bc68 63be
000000f0: 9588 16bd e786 32be e5af bbbd d327 02be
00000100: 3733 72bd 372c e4bc 1088 3dbe 7c12 7abc
00000110: c840 0cbe 7a21 02be 977b adbc c952 debc
00000120: 0ace 86bd 1d24 56bd 30d2 3bbe 9b56 debd
00000130: 5e3e 18be d0d3 62bb 5344 21be 85ea 1abc
00000140: 7d2b 2fbe 0f14 ecbd dab3 6abe 1aa3 92bc
00000150: d9bd 3fbd 883f 063d cf8f adbd 92f5 22be
00000160: 7430 12be 038f c1bc 92f2 08bd 2efb 9abd
00000170: 0b1b 0f3d ca79 edbc f4c3 1ebe 6403 52bc
00000180: d4b2 85be 2a82 b5bd 5141 6d3d 30a7 1cbe
00000190: a712 34be 265d afbd 6087 16be 6dbe babb
000001a0: 514a 24be d2f7 57bd 9019 d23c 92b4 3b3b
000001b0: 88b6 0fbc 045a a03c 716d 633b 69f5 10be
000001c0: 75d4 76bd ed3e 0abe 6f74 e8bd 43d4 1bbe
000001d0: c85d 8cbd 7d2a 24bb 78f2 27be 4197 d43b
000001e0: f6fc 08be 2258 7dbd 8d9a dfbd c959 70be
000001f0: 2672 f3bd 336b 08be c785 1fbe 8041 01be
-0.11073945 -0.14176387 -0.050393417 0.03374324 -0.09472114 -0.1372806 -0.0632281 -0.10186087
0.050080847 -0.14737053 -0.049409337 0.027385788 -0.15902305 -0.06888362 0.029878052 -0.0093281865
-0.009136007 -0.13733673 -0.058060907 -0.15214191 -0.064980164 0.026636424 -0.009618475 -0.14160421
-0.056337927 -0.14069273 -0.072951525 0.015447829 -0.074358016 0.005036046 -0.09912118 0.029448157
-0.13769323 0.03636271 -0.01575733 -0.17562395 -0.11137192 -0.032273825 -0.0862843 -0.05214871
-0.07704128 0.028746443 -0.014266786 -0.07003655 -0.030901482 -0.05666584 0.072756834 -0.106362715
-0.031866174 -0.14860259 0.106556 -0.12471418 -0.02589339 -0.15553997 -0.22075036 -0.050176084
-0.111047894 -0.09930339 -0.121447794 -0.22207922 -0.03675135 -0.17434274 -0.091644086 -0.12710504
-0.059130874 -0.027853115 -0.18508935 -0.015263196 -0.13696587 -0.12708083 -0.021177096 -0.027139084
-0.065822676 -0.052280534 -0.18341899 -0.108563624 -0.14867541 -0.0034611113 -0.1574872 -0.009455328
-0.17106433 -0.115272634 -0.2292017 -0.017900039 -0.046811912 0.032775432 -0.08474695 -0.1591399
-0.14276296 -0.023627764 -0.033434458 -0.0756744 0.0349379 -0.028988738 -0.15504438 -0.012818191
-0.26112998 -0.088627174 0.05792362 -0.15298152 -0.1758524 -0.085626885 -0.14700079 -0.00569897
-0.16043974 -0.052726574 0.025646955 0.0028641564 -0.008771546 0.019574173 0.0034702683 -0.14156117
-0.06026121 -0.13500567 -0.11350333 -0.1521769 -0.06853825 -0.002504974 -0.16401088 0.0064877574
-0.13377747 -0.061851628 -0.1091815 -0.2347175 -0.118870065 -0.13322143 -0.15578376 -0.12622643

actor.6.weight f4 [27, 128]
00000000: 37f9 06bc cb0f 833d cba9 e13b 67e3 453c
00000010: 4408 d5bc 2c56 16bd 2854 cf3b f270 9a3c
00000020: 5225 153d 9707 e9bc 0d47 053c d4a9 163c
00000030: 42d8 8cbc 5ee8 3abc 78fb f8bc 39c1 8dbc
00000040: 15df fc3c afc1 dbbb d2d0 0ebc e0d6 d1bc
00000050: aba0 f13c 42f1 c2bb 81ae 92bc ce0b 353c
00000060: 1afa 5a3c fae4 f0bc 2903 8fbc 5e48 0fbb
00000070: 45fe 85bc 5fa1 1b3c 8deb 303d bcdf 5d3d
00000080: 2b58 96bc 2df4 76bc db0e 323c b3f9 c73c
00000090: 99da 47bb 0f26 843c 396f 943c 3aab bc3b
000000a0: ded1 9abc b243 033d c7a1 abbc 07b2 683c
000000b0: 1b4a a23c 97c2 53bd 4f5a 053d 267c b23c
000000c0: 50e8 70bb 7b28 b33c 7f37 95bc 5831 20bd
000000d0: 1f41 9abc 2ebb 0a3d 4120 2cbd c645 60bc
000000e0: 5d2d dcbc 76fa c4bc 4f67 863c 8a6d 3f3d
000000f0: f8e4 6abc faa1 13bc cdc6 b6bb c492 94bb
00000100: c93d 493d cf61 e53c 309d a6bc 03d5 96bc
00000110: 3a8a 84bb 2f82 2dbc 5b23 113c 4d3b c0bc
00000120: b0b4 12bd b908 d03c 2544 37bc b949 02bc
00000130: 3ed2 2abd 25fc fcbb 0f7f 84bc 444a 86bc
00000140: a5dd 3fbd c600 c63c e661 41bd ef58 8dbc
00000150: bec4 363d 4db5 903b c902 3d3d f07d 913a
00000160: d91c 01bd 0be4 4c3b f69f f2bc d67d 603c
00000170: 2cb4 c43c a31b 35bc 918c 5ebd 1424 503b
00000180: ba3e 82bc 0130 a53c b5e8 cebc b1f1 81bc
00000190: c805 773d f34a 38bc d825 4e3c 8a7f 52bc
000001a0: 1330 51bd 6cee 0abc f7fe 2cbb 7beb 98bc
000001b0: fe39 30bc eb63 d53c 7b17 9dbc 0f2f f83c
000001c0: e80d c2bc a485 a6bb 78d0 163d b0cb f83b
000001d0: 9ae4 16bc dee9 59bb 178e 90bb 558c e6bc
000001e0: 6cc2 bbbc e835 51bc bf5e d8bb 845e f5bc
000001f0: 17a2 14bd 0846 20bd 3b4e 813c e6dd 983c
00000200: 2a80 72bc e903 aa3c b4e3 17bc da05 f7bc
00000210: 7dbb 2b3d 51d2 b8bc f711 ccbc e1a4 babb
00000220: dc39 cfbc 5643 6a3c 8f87 183d a068 c63c
00000230: 32d1 c23d 5a70 0b3b 678b 61bc 1d51 f8bc
00000240: d168 ae3a 5624 0e3d fef5 7b3c 7d6a 723a
00000250: f5c5 273d fede 37bd 89b3 0b3d 7d8e 99bd
00000260: 4b7c 2e3b 5f4a 603b 3059 4fbc 15e1 00bc
00000270: 877e bc3c 1695 20bd 14b7 0abc 5e53 613c
00000280: 5a88 fabc 5813 913c 28bd fb3c 29f1 943d
00000290: e877 fabb 6af4 c0ba a089 8abb 5522 9e3c
000002a0: 23b8 f4bc 85dc e23b ed66 1c3d f441 6ebd
000002b0: 7c76 1dbb 5c39 c33c d719 2abd faf6 f2bc
000002c0: 8d69 43bd 6a39 ccbc 3c25 ddbb 5763 083d
000002d0: fc69 54bc cd17 40bc 6dee 40bd b89f b1bc
000002e0: ed0d 8e3d df81 1cbd 8d69 29ba 6867 54bd
000002f0: bb41 beb8 2bcb 07bc 9603 a8bb 2129 e43d
00000300: 34b0 91b8 b7ff b7bc a693 823c 9fc8 8e3d
00000310: 0893 cebb 61c2 8c3c f929 3abd f105 103d
00000320: 4bab b13c 4a57 a8bb 316c 58bc 3fc6 5d3d
00000330: 496f 6f3d e276 20bc 94b1 113c bda1 4ebc
00000340: 6d22 da3b bdde 4d3c b084 9b3d fb5d ae3c
00000350: f679 dd3c 2414 d63c 9c33 b0bc 5d70 e23c
00000360: 5c69 88bc cd5d c83c 7e38 683d 95ed d6bc
00000370: 0cdc 6abc dd99 24bc a84f 9bbd 3551 5e3c
00000380: 8087 4dba bc7b 34bd 692f c43b 98cd c33b
00000390: 61af 093d 43f4 5f3c ed46 c13c 3511 7bbd
000003a0: 0de2 b23c 406a c4bb 1a00 4dbd e348 7dbc
000003b0: 5c06 083c ea5a 70bc 7e3d 4d3c 4040 913c
000003c0: 2cf5 8bbc 6b7f 9cba b76e 49bd 1807 33bc
000003d0: b556 d4bd 40ca febb 4f31 b83b f309 48ba
000003e0: 976a a13b d1d0 b13c 53d3 103d 2291 32bd
000003f0: 2c2b da3b 5ce1 313d 48de b93c ba1d 213d
-0.008238128 0.06399497 0.006886696 0.012078143 -0.026004918 -0.036703274 0.006327171 0.018852685
0.036412545 -0.028446002 0.008134616 0.009195764 -0.017192964 -0.01140794 -0.030393347 -0.01730405
0.030868093 -0.0067064385 -0.008716779 -0.025615156 0.029495558 -0.0059491703 -0.017905476 0.011050178
0.013365293 -0.02940606 -0.017457562 -0.0021863203 -0.016356597 0.009498923 0.04319339 0.054168448
-0.018352589 -0.0150728645 0.0108678 0.024411058 -0.0030495285 0.016131429 0.018119441 0.0057577165
-0.0188989 0.03204698 -0.020951165 0.014202601 0.019810727 -0.051699247 0.032556828 0.021787714
-0.0036759563 0.021869889 -0.01821494 -0.039109558 -0.01882988 0.033869915 -0.042022947 -0.01368851
-0.0268771 -0.02404521 0.016406683 0.046735324 -0.014336817 -0.009010786 -0.005577898 -0.0045340974
0.04913119 0.02800074 -0.020338625 -0.018412119 -0.004044798 -0.01059012 0.008858527 -0.023465777
-0.03581685 0.025394784 -0.0111856805 -0.007952147 -0.04170441 -0.0077204877 -0.016173868 -0.016392834
-0.046842236 0.02417029 -0.047212504 -0.01725432 0.04462122 0.004416144 0.046145234 0.0011100154
-0.031521652 0.0031263854 -0.029617291 0.013701877 0.024011694 -0.011053952 -0.054333273 0.0031759785
-0.015899051 0.020164492 -0.025257448 -0.015862318 0.060308248 -0.011248338 0.012582265 -0.0128477905
-0.051071238 -0.008479696 -0.0026397088 -0.018666973 -0.010756014 0.026048621 -0.019176235 0.030295877
-0.023688272 -0.005081849 0.036819905 0.007592641 -0.009209776 -0.0033250968 -0.0044114697 -0.028143087
-0.022919856 -0.0127692 -0.0066030915 -0.029952295 -0.036287393 -0.039129287 0.015784374 0.018660497
-0.0148010645 0.020753818 -0.009270597 -0.030154157 0.04192685 -0.022561224 -0.02491091 -0.0056959246
-0.025296144 0.014298281 0.037238654 0.024219811 0.09512557 0.0021276684 -0.013766146 -0.030312115
0.0013306384 0.03470262 0.015378473 0.00092474354 0.04096027 -0.044890396 0.034106765 -0.074978806
0.0026624377 0.0034224016 -0.012655541 -0.007866164 0.023009552 -0.03920468 -0.008466501 0.013752786
-0.030582596 0.01770942 0.030729845 0.0727256 -0.0076436885 -0.0014721279 -0.004227832 0.01930348
-0.02987296 0.0069232606 0.038184095 -0.058168367 -0.002402692 0.023831062 -0.04152855 -0.029658783
-0.047708083 -0.02492972 -0.0067488234 0.033297863 -0.012964722 -0.011724425 -0.04710238 -0.021682605
0.0693625 -0.038209792 -0.00064625667 -0.05185643 -9.072149e-05 -0.008288185 -0.0051273806 0.11140657
-6.946959e-05 -0.022460802 0.015939545 0.06971859 -0.0063041486 0.01718253 -0.045450184 0.035161916
0.021688124 -0.005137359 -0.013209389 0.05414414 0.05845574 -0.009793969 0.008892436 -0.012611804
0.006656936 0.012565312 0.075936675 0.021285048 0.027035695 0.02613265 -0.021508984 0.02764147
-0.016651802 0.02445879 0.0566945 -0.026236335 -0.01433469 -0.0100464495 -0.075835526 0.013569166
-0.00078403205 -0.044063315 0.005987097 0.0059754364 0.03361452 0.013669076 0.02359339 -0.061295707
0.021836305 -0.0059941113 -0.050048925 -0.015459272 0.008302297 -0.014670113 0.012526868 0.017730832
-0.01708468 -0.0011939829 -0.04917785 -0.010926984 -0.103681006 -0.007775575 0.0056211124 -0.0007630877
0.0049260366 0.021706017 0.035357784 -0.04359544 0.0066579785 0.04342781 0.022689 0.03933499

actor.6.bias f4 [27]
00000000: b50f e4bc 8896 aabc 4217 4fbc be14 9bbd
00000010: c7aa a33c 8e90 82bd 623a 07bd e6c1 803d
00000020: 67cd 7bbd 85ae eebb b44f 103e 1916 aebd
00000030: b2bb ca3b 3261 34bc 36f6 d53c 0a7a ff3d
00000040: a4d0 3d3d 373d adbd 948c c7bd 9499 913d
00000050: ac6c 4d3e 5668 233d 5b19 7fbd fab4 31bd
00000060: 27ed a4bc 2d84 093d 7d78 ec3c
-0.027839521 -0.020823732 -0.012639822 -0.07572316 0.019978894 -0.06375228 -0.033014663 0.06286983
-0.061475184 -0.007283988 0.14092904 -0.085003085 0.006186926 -0.011009501 0.02611838 0.12474449
0.046341553 -0.084589414 -0.0974361 0.07109371 0.20060986 0.039894424 -0.06228004 -0.043385483
-0.020132614 0.03357332 0.028866047
